student_models/baseline_res_students/student_3.pth (torch, 346486 bytes, 34 tensors)

conv_initial.0.weight f4 [16, 3, 3, 3]
-0.23111713 -0.15972818 -0.0111646475 -0.00066149153 -0.094755635 0.20004384 0.19421299 0.05779533
0.1163496 0.058303516 0.15293731 -0.067239344 0.21764542 0.17365728 -0.035872083 -0.09121953
0.06154259 0.20857191 0.032753576 0.011348742 0.22795105 -0.23004664 -0.20157622 -0.015391172
-0.31166565 -0.13660067 -0.22909927 0.18977936 0.19740148 -0.08176226 0.32877398 0.308513
-0.08553351 0.25116158 0.12780905 0.19858432 0.12646547 0.01636977 -0.16728106 0.09275545
0.026272725 0.031673063 -0.19906548 -0.07195707 -0.10030644 0.06450847 -0.16363747 -0.23627949
0.16776046 -0.098719485 -0.08354806 0.15645812 0.1481516 -0.16754907 -0.081451766 -0.18229015
0.05324826 -0.03393431 0.035688657 -0.1759422 -0.15465617 0.034003463 -0.08384065 -0.050446343
0.04770439 -0.13062349 -0.03917462 0.054956183 -0.023026515 -0.1985851 0.022883901 -0.03614149
-0.10205169 -0.22427814 -0.0093899425 0.44891688 0.33654997 0.11670925 0.24865891 0.16956179
0.19590032 0.09808636 -0.052140675 -0.043838367 -0.23898733 -0.20528182 -0.10093956 0.1681815
0.25125062 0.087904856 -0.08619082 -0.10245061 0.044629097 -0.06611885 -0.12888247 -0.09468445
0.15045738 0.13826342 0.20257816 -0.19930477 0.043862857 -0.18506834 -0.05380647 0.010847485
-0.08830426 0.24430075 0.059478156 0.1583233 0.0028627275 0.07473293 -0.039717942 0.05004203
0.08480491 -0.2236558 0.049248442 -0.115530916 -0.049551804 0.04523402 0.30626646 -0.07888055
0.24234653 -0.16754931 -0.13812906 -0.16852725 -0.027693436 -0.0048093856 0.17198992 0.26455116
0.047988188 0.21056052 -0.070922606 -0.3027302 -0.032247845 -0.26389802 -0.046998736 0.1538393
-0.32881245 0.07712534 -0.06346884 -0.34385848 -0.022397228 0.22663443 -0.13220236 -0.02174424
0.2121999 -0.11975683 -0.11159619 0.10059826 -0.014031325 0.13477215 0.08525783 0.09635024
-0.013850013 -0.004120929 0.02532702 0.17092109 0.03752086 -0.1367993 0.17674148 -0.057008944
-0.19844247 0.15601844 0.04469374 -0.12117136 0.07244939 -0.32433015 0.067720585 0.12990993
-0.064702466 0.25807473 -0.05222269 0.023866372 -0.19829528 0.11443017 -0.32003722 0.22070625
0.09830524 0.0057862373 0.20774572 -0.11508692 -0.18319458 0.04323042 -0.018165197 -0.17943011
0.1457013 0.034246158 0.019494362 0.25726795 -0.06477085 0.16465437 0.13322829 0.23177771
-0.032240264 -0.13572201 0.0724733 -0.18401939 -0.33396143 -0.054960366 0.18410882 0.19472545
0.35286433 -0.053701676 0.09804256 0.13061647 -0.0096929595 0.0140316775 -0.14658128 -0.032212865
0.18841904 0.13825998 -0.20675786 0.016047178 -0.13426836 -0.11677731 -0.13998234 0.063172154
-0.16482025 -0.18190598 0.3116105 0.1803283 -0.058031283 -0.1370808 -0.020586964 0.21285014
-0.19295695 0.06079933 -0.13633184 0.23557779 -0.07308317 0.10881953 -0.20144339 -0.03614636
0.08568211 0.07732571 -0.073775485 -0.21152276 0.13482201 0.20979345 0.10172341 -0.13889681
-0.041378044 0.106378965 -0.16972262 -0.14197925 0.29314467 -0.15845986 -0.09061374 0.22495708
-0.21437679 -0.15826932 0.16055503 0.056779496 -0.009435982 0.0688219 -0.023250995 -0.08476916
00000000: f8a9 6cbe c98f 23be edeb 36bc f267 2dba
00000010: 3e0f c2bd 4bd8 4c3e c5df 463e ccba 6c3d
00000020: b348 ee3d abcf 6e3d 999b 1c3e c8b4 89bd
00000030: 71de 5e3e 37d3 313e 9bee 12bd 4ed1 babd
00000040: 1514 7c3d e093 553e 9d28 063d 13f0 393c
00000050: 006c 693e 5991 6bbe ff69 4ebe 412b 7cbc
00000060: a492 9fbe 0ce1 0bbe 0099 6abe 8555 423e
00000070: 9d23 4a3e f972 a7bd 1055 a83e 6af5 9d3e
00000080: 312c afbd 4098 803e 60e0 023e b059 4b3e
00000090: 2a80 013e e519 863c ba4b 2bbe 92f6 bd3d
000000a0: e639 d73c 9dbb 013d d2d7 4bbe 3a5e 93bd
000000b0: 766d cdbd 041d 843d 9590 27be 40f3 71be
000000c0: 66c9 2b3e 712d cabd 3f1b abbd 8f36 203e
000000d0: 0eb5 173e fc91 2bbe 2fd0 a6bd 45aa 3abe
000000e0: d91a 5a3d b4fe 0abd 452e 123d 312a 34be
000000f0: 305e 1ebe 3747 0b3d a6b4 abbd d3a0 4ebd
00000100: ae65 433d 2ac2 05be 9175 20bd bc19 613d
00000110: 1aa2 bcbc e459 4bbe 0577 bb3c 1909 14bd
00000120: 7a00 d1bd 2ba9 65be 46d8 19bc 6fd8 e53e
00000130: 4750 ac3e 4205 ef3d 71a0 7e3e 9ba1 2d3e
00000140: 189a 483e 80e1 c83d 7691 55bd dc8f 33bd
00000150: 18b9 74be 6635 52be 66b9 cebd c537 2c3e
00000160: eca3 803e 7607 b43d d084 b0bd a0d1 d1bd
00000170: 00cd 363d 5269 87bd c4f9 03be ece9 c1bd
00000180: 8011 1a3e ed94 0d3e a670 4f3e 8d16 4cbe
00000190: 8aa9 333d 8e82 3dbe 2c64 5cbd a6b9 313c
000001a0: ddd8 b4bd fa29 7a3e 5e9f 733d 811f 223e
000001b0: 999c 3b3b 940d 993d 48af 22bd dff8 4c3d
000001c0: 32ae ad3d 0706 65be bcb8 493d 799b ecbd
000001d0: d5f6 4abd 4f47 393d f5ce 9c3e 208c a1bd
000001e0: b029 783e 0c92 2bbe b471 0dbe 6892 2cbe
000001f0: 58dd e2bc 0d98 9dbb 201e 303e 4073 873e
00000200: 438f 443d 2d9d 573e df3f 91bd 74ff 9abe
00000210: 5116 04bd a41d 87be bf81 40bd 0d88 1d3e
00000220: 1b5a a8be e4f3 9d3d f4fb 81bd 380e b0be
00000230: 647a b7bc db12 683e 0e60 07be fa20 b2bc
00000240: ee4a 593e 1243 f5bd 8b8c e4bd 7606 ce3d
00000250: a4e3 65bc b601 0a3e a89b ae3d 4653 c53d
00000260: 2aeb 62bc dc08 87bb 9c7a cf3c f005 2f3e
00000270: 79af 193d 1e15 0cbe b8fb 343e 3682 69bd
00000280: 8134 4bbe 4cc3 1f3e c810 373d b128 f8bd
00000290: 5960 943d 9a0e a6be 17b1 8a3d 1c07 053e
000002a0: ba82 84bd 5f22 843e 76e7 55bd 6983 c33c
000002b0: eb0d 4bbe 5d5a ea3d ebdb a3be d200 623e
000002c0: 4254 c93d 7a9a bd3b 4bbb 543e b1b2 ebbd
000002d0: 5c97 3bbe 6212 313d 2ecf 94bc 87bc 37be
000002e0: b932 153e b345 0c3d a4b2 9f3c a0b8 833e
000002f0: 94a6 84bd 289b 283e ff6c 083e 2357 6d3e
00000300: 5e0e 04bd b6fa 0abe e26c 943d 946f 3cbe
00000310: fefc aabe 1f1e 61bd 0687 3c3e 1c66 473e
00000320: a2aa b43e 4af6 5bbd 8aca c83d 53c0 053e
00000330: 38cf 1ebc 1fe5 653c 6719 16be a3f1 03bd
00000340: ecf0 403e 0694 0d3e 55b8 53be 5f75 833c
00000350: a57d 09be f128 efbd 8857 0fbe 6760 813d
00000360: a4c6 28be 9045 3abe 698b 9f3e fba7 383e
00000370: 36b2 6dbd e95e 0cbe fea5 a8bc 63f5 593e
00000380: 8296 45be b808 793d 939a 0bbe 4e3b 713e
00000390: a1ac 95bd c6dc de3d 2d47 4ebe 350e 14bd
000003a0: 1a7a af3d f15c 9e3d 9a17 97bd 6c99 58be
000003b0: c80e 0a3e 18d4 563e 5d54 d03d f73a 0ebe
000003c0: 067c 29bd 37dd d93d c4cb 2dbe 0263 11be
000003d0: 0f17 963e 4d43 22be b293 b9bd 265b 663e
000003e0: 9785 5bbe 5a11 22be 8a68 243e 9e91 683d
000003f0: 6199 1abc 7ff2 8c3d df78 bebc 749b adbd

conv_initial.1.weight f4 [16]
0.90639114 0.80728924 0.81375754 1.1181608 1.0165356 0.91709393 1.0762727 0.82638234
1.0302466 1.137924 0.9872654 0.9290469 1.1495206 1.0386387 0.8386112 1.069215
00000000: 4009 683f 82aa 4e3f 6a52 503f e51f 8f3f
00000010: d71d 823f abc6 6a3f 4ec3 893f cb8d 533f
00000020: 1fdf 833f 7ea7 913f 6dbd 7c3f 05d6 6d3f
00000030: 7e23 933f 1df2 843f 39af 563f 0adc 883f

conv_initial.1.bias f4 [16]
0.26799724 0.011398999 -0.0985182 -0.12872271 0.030536322 0.21006651 0.11840504 -0.058900323
-0.15526083 -0.037570033 0.07340516 -0.3635473 -0.0058917245 0.12130852 -0.0973176 0.0747889
00000000: ef36 893e dec2 3a3c e9c3 c9bd e3cf 03be
00000010: 4f27 fa3c ad1b 573e 577e f23d 7741 71bd
00000020: b2fc 1ebe 09e3 19bd 7255 963d df22 babe
00000030: 5e0f c1bb 9a70 f83d 734e c7bd ec2a 993d

conv_initial.1.running_mean f4 [16]
0.06801228 0.002758142 -0.107730694 -0.0054363585 0.009464639 -0.022766963 -0.010632025 -0.0010339222
0.004778524 0.005746841 0.006854764 0.03570384 0.00084517855 -0.005302759 0.00401887 -0.00030800776
00000000: 064a 8b3d f2c1 343b e9a1 dcbd 7b23 b2bb
00000010: 9311 1b3c c881 babc f231 2ebc ac84 87ba
00000020: 2a95 9c3b ff4f bc3b ee9d e03b 313e 123d
00000030: f98e 5d3a c4c2 adbb bab0 833b 1a7c a1b9

conv_initial.1.running_var f4 [16]
0.051784303 0.28225434 0.13774276 0.08892093 0.09866571 0.031510267 0.05717263 0.17574143
0.013536534 0.031682294 0.07762036 0.35012993 0.11111137 0.024795927 0.030503513 0.077356994
00000000: c71b 543d a483 903e 700c 0d3e 2d1c b63d
00000010: 3f11 ca3d e910 013d d92d 6a3d 90f5 333e
00000020: 57c8 5d3c 4bc5 013d 6cf7 9e3d 3b44 b33e
00000030: 5c8e e33d d420 cb3c 81e2 f93c 586d 9e3d

layer1.0.conv.weight f4 [32, 16, 3, 3]
-0.2551449 0.06686559 0.18383211 -0.31761461 0.13290706 0.26050386 -0.3094353 -0.012300796
0.123956874 -0.08395179 0.04411272 -0.021721637 0.015806504 0.08689041 0.074048 -0.054737903
0.089062035 0.08718802 0.30964026 -0.007687135 -0.22087957 0.17808378 -0.005964383 -0.12353334
0.25769475 0.0015775166 -0.3028862 0.063834846 -0.07155333 -0.05820806 0.07596633 -0.14511423
-0.18145439 0.005991474 0.00926213 0.06574113 0.06538462 0.06164733 -0.08664709 0.16552262
-0.09963642 -0.07288588 0.14553796 -0.05856824 -0.1437761 -0.026405064 -0.2587417 -0.15444005
0.094872914 -0.08773045 -0.2516354 0.031819783 -0.0748612 -0.1337053 0.12897693 -0.04939905
-0.028817216 0.0017543058 0.08138541 -0.1329025 -0.06787756 -0.12470498 -0.2585171 -0.044949707
-0.050016005 -0.027025789 -0.03277223 0.054401085 0.09785253 -0.046803758 -0.18659306 -0.028417494
-0.025271682 0.050465714 -0.10244473 0.07898713 0.12602793 -0.006757454 0.0664896 0.18249749
0.16133262 0.012427407 -0.08224916 -0.03704231 -0.00057533133 0.09908045 -0.009253335 -0.013809479
-0.040488873 -0.06840772 0.045589577 0.01009941 0.04769623 -0.11409013 0.048633855 0.07325627
0.06722802 -0.016697733 0.11544394 0.16113967 -0.008078785 0.015325166 0.03516425 -0.021788662
-0.121582694 0.12881696 0.25475782 -0.060417097 0.10013515 -0.05670114 0.044452958 0.29473174
-0.011268981 0.085130684 0.07464373 0.039219726 0.02031791 -0.08430143 -0.0414345 0.11266126
-0.22952314 -0.080318965 0.08968777 -0.09168987 0.032290526 0.084626906 -0.055258326 0.053327218
0.023047743 -0.17117165 0.050422102 0.013838364 -0.10036005 -0.1995005 -0.080793835 0.010232138
-0.050626326 -0.071652494 -0.11809996 0.10414562 -0.04773981 -0.070714965 -0.0320736 -0.061220992
-0.034123458 -0.09884012 0.01752411 -0.025970874 -0.063998714 0.06422075 0.09580001 -0.030751301
0.069637574 -0.022706069 -0.13081816 -0.008955852 0.018482342 0.040781636 0.0404019 -0.0764416
-0.1373067 -0.030764176 -0.053743914 -0.011487919 -0.038259745 -0.11842917 0.067814134 -0.000415265
-0.013437589 0.04080541 0.037219916 -0.1459004 -0.04977837 -0.15568629 -0.113248676 -0.03656789
-0.07481513 -0.10828666 -0.05835308 -0.031387467 0.23503365 0.17802642 0.09390643 0.31235346
0.07167442 0.20286736 0.22957 0.31297666 0.26315835 0.04148134 -0.014999982 -0.10473418
0.00068424083 0.06937882 -0.02024992 0.032662455 -0.08195529 -0.09200152 0.13578874 0.10117302
0.18577383 0.1960738 0.14733122 0.35968858 0.20262524 0.27858165 0.18470836 -0.025843775
-0.1472917 -0.20343044 -0.17885128 -0.046639483 -0.10713931 -0.02923657 0.033721194 -0.17749882
0.00451295 0.05748794 -0.050559964 0.09129807 0.08164321 -0.049565706 0.10304411 0.04951705
-0.110212326 -0.041500457 0.027528094 -0.068757586 0.12809476 0.05106819 0.00060679147 -0.12721427
-0.17208529 0.015762558 -0.16705291 -0.26569533 -0.19013125 -0.11547997 -0.16934273 -0.3099382
-0.22688569 -0.16720334 -0.17210159 -0.088080525 -0.12753129 -0.20986933 0.05891777 0.09135607
0.0010592641 0.10614013 -0.003545075 0.048783198 -0.114181645 -0.16598323 -0.028054109 -0.06480415
00000000: 5aa2 82be d4f0 883d 7c3e 3c3e 629e a2be
00000010: ca18 083e c360 853e 4e6e 9ebe 4789 49bc
00000020: 1add fd3d ebee abbd 8aaf 343d 93f1 b1bc
00000030: a47c 813c 99f3 b13d 7aa6 973d da34 60bd
00000040: 2866 b63d a28f b23d 2b89 9e3e 5de4 fbbb
00000050: 412e 62be 985b 363e df70 c3bb 0cff fcbd
00000060: 91f0 833e acc4 ce3a e613 9bbe d8bb 823d
00000070: 8d8a 92bd 936b 6ebd 3c94 9b3d d398 14be
00000080: 2ecf 39be 2054 c43b 30c0 173c 49a3 863d
00000090: 5fe8 853d e981 7c3d 0874 b1bd c37e 293e
000000a0: 2e0e ccbd 3145 95bd e707 153e 40e5 6fbd
000000b0: 0b3a 13be 6f4f d8bc cb79 84be 8825 1ebe
000000c0: bb4c c23d 06ac b3bd 5bd6 80be 7655 023d
000000d0: d450 99bd 0bea 08be 8712 043e a956 4abd
000000e0: 1512 ecbc bcf0 e53a 65ad a63d 9817 08be
000000f0: 6403 8bbd 5365 ffbd 5a5c 84be 2f1d 38bd
00000100: 95dd 4cbd 3065 ddbc 2d3c 06bd acd3 5e3d
00000110: e866 c83d 4cb5 3fbd 4012 3fbe cecb e8bc
00000120: 8f06 cfbc 23b5 4e3d 8bce d1bd 01c4 a13d
00000130: 770d 013e a26d ddbb b32b 883d 9fe0 3a3e
00000140: 6134 253e 539c 4b3c 3f72 a8bd adb9 17bd
00000150: d5d1 16ba b1ea ca3d 4d9b 17bc 2741 62bc
00000160: a9d7 25bd 5919 8cbd 23bc 3a3d ff77 253c
00000170: 1f5d 433d 16a8 e9bd 4b34 473d 6207 963d
00000180: d8ae 893d afc9 88bc df6d ec3d cc01 253e
00000190: e15c 04bc 6816 7b3c 6308 103d 237e b2bc
000001a0: 5900 f9bd 98e8 033e 9e6f 823e eb77 77bd
000001b0: a813 cd3d 743f 68bd 4e14 363d 14e7 963e
000001c0: 88a1 38bc ff58 ae3d d0de 983d dda4 203d
000001d0: bf71 a63c 3aa6 acbd 39b7 29bd f2ba e63d
000001e0: 1d08 6bbe 457e a4bd 39ae b73d e6c7 bbbd
000001f0: 1243 043d df50 ad3d 8e56 62bd a46d 5a3d
00000200: 9fce bc3c 9f47 2fbe 6887 4e3d 4eba 623c
00000210: 9289 cdbd dc49 4cbe 3d77 a5bd b3a4 273c
00000220: 8d5d 4fbd 8bbe 92bd 64de f1bd 4c4a d53d
00000230: d28a 43bd 02d3 90bd 9b5f 03bd ddc2 7abd
00000240: 0ac5 0bbd b06c cabd b98e 8f3c dfc0 d4bc
00000250: c211 83bd 2b86 833d cc32 c43d 27ea fbbc
00000260: 259e 8e3d 1402 babc 32f5 05be 91bb 12bc
00000270: 4868 973c a50a 273d 767c 253d 6a8d 9cbd
00000280: 219a 0cbe 2705 fcbc 9422 5cbd d337 3cbc
00000290: 40b6 1cbd fe8a f2bd 23e2 8a3d edb7 d9b9
000002a0: 5529 5cbc 9323 273d e973 183d ea66 15be
000002b0: 67e4 4bbd 3a6c 1fbe ecee e7bd 36c8 15bd
000002c0: ad38 99bd 65c5 ddbd a403 6fbd 2590 00bd
000002d0: a9ac 703e 8f4c 363e 0452 c03d cbec 9f3e
000002e0: 0aca 923d 76bc 4f3e 6614 6b3e 7a3e a03e
000002f0: b1bc 863e 56e8 293d 7cc2 75bc e07e d6bd
00000300: a05e 333a 7c16 8e3d 29e3 a5bc 11c9 053d
00000310: 2dd8 a7bd 4b6b bcbd 340c 0b3e cd33 cf3d
00000320: 7f3b 3e3e 92c7 483e ffdd 163e 1a29 b83e
00000330: fe7c 4f3e 41a2 8e3e 3024 3d3e 53b6 d3bc
00000340: a3d3 16be 1250 50be ca24 37be 0b09 3fbd
00000350: db6b dbbd 8881 efbc 3c1f 0a3d 40c2 35be
00000360: 5ee1 933b 7978 6b3d f717 4fbd 7cfa ba3d
00000370: 8e34 a73d 6905 4bbd ca08 d33d 64d2 4a3d
00000380: 00b7 e1bd 62fc 29bd 9982 e13c c7d0 8cbd
00000390: 462b 033e e12c 513d 1611 1f3a 7544 02be
000003a0: 2037 30be 7b20 813c eb0f 2bbe 3809 88be
000003b0: c4b1 42be c380 ecbd 2e68 2dbe 38b0 9ebe
000003c0: b954 68be 5a37 2bbe 663b 30be 9063 b4bd
000003d0: 9097 02be fce7 56be c253 713d e418 bb3d
000003e0: 01d7 8a3a ff5f d93d 7d54 68bb e4d0 473d
000003f0: 11d8 e9bd 82f7 29be bbd1 e5bc 0ab8 84bd

layer1.0.bn.weight f4 [32]
1.3123058 1.2639568 1.1020609 1.0326296 1.0298792 1.0770566 1.3432605 1.1886207
1.1317487 1.2589768 1.166816 1.1311023 1.3418818 1.2459888 1.2588295 1.1780745
1.1724241 1.1336106 1.2724519 1.5877984 1.1658919 1.3681781 1.2029754 1.0684804
1.4324706 1.1666849 1.1842097 1.5494664 1.1931472 1.1411467 1.3658366 1.2130725
00000000: a3f9 a73f 56c9 a13f 5510 8d3f 352d 843f
00000010: 15d3 833f fedc 893f f6ef ab3f b924 983f
00000020: 24dd 903f 2726 a13f 3a5a 953f f6c7 903f
00000030: c8c2 ab3f 907c 9f3f 5321 a13f 25cb 963f
00000040: fe11 963f 271a 913f b4df a23f fa3c cb3f
00000050: f23b 953f 7620 af3f 19fb 993f f7c3 883f
00000060: 325b b73f ee55 953f 2f94 973f ea54 c63f
00000070: 0cb9 983f 1811 923f bcd3 ae3f f645 9b3f

layer1.0.bn.bias f4 [32]
-0.1367207 0.20618515 0.13900562 0.0019296624 -0.19225259 -0.14708704 0.03533263 -0.0061732987
0.100376666 0.1274315 -0.10968066 -0.04244443 0.16138427 -0.007715243 0.20967333 -0.18139477
-0.081180036 0.08218653 -0.13479482 0.03778194 -0.06285211 -0.109687656 -0.08295091 -0.0724988
-0.14931197 -0.030923672 -0.089518234 -0.028625002 0.031595 -0.0184762 0.043983318 0.05559015
00000000: 8300 0cbe 3322 533e 7d57 0e3e baec fc3a
00000010: dddd 44be fc9d 16be f3b8 103d 6249 cabb
00000020: 4892 cd3d 677d 023e 41a0 e0bd 36da 2dbd
00000030: eb41 253e 26d0 fcbb 9bb4 563e 8dbf 39be
00000040: b841 a6bd 6951 a83d a707 0abe 3cc1 1a3d
00000050: 9bb8 80bd eca3 e0bd 2be2 a9bd 407a 94bd
00000060: 3de5 18be a453 fdbc 5655 b7bd fb7e eabc
00000070: c269 013d 665b 97bc da27 343d 7fb2 633d

layer1.0.bn.running_mean f4 [32]
-0.79010576 0.06420965 -0.14916411 -0.13765709 0.9215732 0.42751864 -2.3020966 -0.043957125
-0.64803797 0.25100824 -0.042472385 -0.4471652 -1.1524584 -0.9548942 0.008981218 -1.1796173
0.017975593 -0.52828956 -0.42116863 -1.7537844 -0.82591 -0.9743191 -1.1235203 0.35416678
-1.3396834 0.11931704 -0.120444 -0.7134537 -1.2371663 0.23609221 -2.2129521 -0.94729227
00000000: 5f44 4abf 5980 833d 7abe 18be fbf5 0cbe
00000010: 39ec 6b3f b9e3 da3e 8d55 13c0 630c 34bd
00000020: d1e5 25bf 2784 803e 86f7 2dbd d6f2 e4be
00000030: c283 93bf f273 74bf f525 133c b3fd 96bf
00000040: 8d41 933c fc3d 07bf 6aa3 d7be 027c e0bf
00000050: d66e 53bf fa6c 79bf 83cf 8fbf 5955 b53e
00000060: bf7a abbf 7e5c f43d 58ab f6bd e7a4 36bf
00000070: 775b 9ebf 28c2 713e 02a1 0dc0 bf81 72bf

layer1.0.bn.running_var f4 [32]
1.6190655 0.95583385 2.164757 1.3970757 2.304625 1.8752694 4.6540117 1.5682462
1.421913 1.8315053 1.1760979 1.7627714 2.3538053 2.7043087 2.573796 2.1365843
1.4301599 1.2082505 1.5478988 3.5737479 2.6950197 2.2804055 2.8452957 2.193676
2.176991 1.8549368 2.6791942 2.978692 1.8809986 1.4681625 3.9060156 2.587094
00000000: 8a3d cf3f 87b1 743f 618b 0a40 60d3 b23f
00000010: fa7e 1340 d408 f03f aaed 9440 4bbc c83f
00000020: 3f01 b63f c46e ea3f 608a 963f 7ea2 e13f
00000030: bfa4 1640 6513 2d40 13b9 2440 ccbd 0840
00000040: 7b0f b73f f4a7 9a3f 8c21 c63f 49b8 6440
00000050: 347b 2c40 2af2 1140 5319 3640 3065 0c40
00000060: d253 0b40 926e ed3f eb77 2b40 e4a2 3e40
00000070: 90c4 f03f c0ec bb3f 29fc 7940 f392 2540

layer1.0.downsample.0.weight f4 [32, 16, 1, 1]
-0.18601242 0.13526441 -0.08673073 -0.019125747 0.13954985 -0.00080693996 -0.12939304 -0.3178705
0.060024057 0.019313037 -0.10880298 0.3738457 0.16459666 0.26041216 0.008057272 -0.22424495
0.14807685 -0.18209614 -0.28468165 -0.17083651 0.34953693 -0.05797082 0.2455671 -0.22457802
0.14130552 -0.035271686 -0.13249147 -0.12721927 -0.0117893135 -0.19216108 0.09670842 -0.05998643
-0.16879807 -0.18652454 -0.31510183 -0.12784569 -0.25096357 -0.158254 -0.07848551 -0.12826033
0.1848047 0.23243172 -0.13237533 -0.23781793 0.10071586 0.13876306 -0.11109322 0.104418546
-0.04509565 -0.016586497 -0.06081663 -0.062387265 0.17061594 0.18234433 0.05194807 0.031145971
-0.09239202 -0.15064937 0.2805162 -0.24178235 0.2798673 0.254864 -0.093806624 0.33300918
0.17642556 -0.22578801 -0.06685897 -0.26881167 0.20560153 0.036314633 -0.0062928693 0.24692921
0.12299789 -0.15398492 -0.11864865 -0.2305508 -0.113453515 -0.26707402 -0.18870063 -0.19108033
-0.17539524 0.060679466 -0.16637067 -0.3041363 0.116100565 0.0074214577 -0.17947942 0.043626364
0.20549893 0.32183838 0.3166874 0.033517186 -0.089948125 0.016431032 0.33786806 0.0018965951
-0.11586854 0.22731894 0.010625035 -0.042636964 -0.1605707 -0.12157336 0.17320374 -0.098916814
-0.14700833 -0.1763459 -0.4815079 -0.16306674 -0.10057613 -0.023636961 -0.25535393 -0.04834149
-0.07809402 0.17614801 -0.10260138 0.2993358 -0.120284624 -0.08843227 0.0045473455 0.22347903
-0.073425025 -0.430827 -0.18265119 -0.07960119 -0.2789083 -0.06933127 0.1955455 -0.026460253
-0.080125 -0.5089153 0.15633908 0.076381095 0.06793108 -0.07815714 -0.28155488 -0.21742605
0.22582486 -0.0456643 0.26336947 0.012162743 -0.07646438 -0.11035889 -0.20080873 0.09138602
-0.028713575 -0.24842851 -0.25071436 -0.07972635 -0.13372456 -0.03974832 0.009530604 -0.09965267
-0.33072603 -0.06502536 -0.15437394 0.11435125 0.021348659 -0.04033975 -0.13906795 0.1993639
0.22754952 -0.023533797 -0.12819806 0.17428687 -0.1961116 -0.17376229 -0.37677684 0.012709418
0.2670763 0.0016958624 -0.0967806 -0.16757086 0.075060286 0.23988847 0.18399708 -0.15725692
-0.055504248 0.07438401 0.27094108 -0.110376425 0.1782546 -0.19217573 -0.010849596 -0.032212533
-0.154698 -0.19605063 -0.19101144 -0.28597215 0.32197073 -0.16825321 0.13561198 0.05425081
-0.04421845 -0.14075825 0.15205462 -0.058103364 -0.42153308 -0.07584634 0.05981953 -0.039171513
0.14252809 0.22206566 -0.012353712 -0.09900779 0.28635007 -0.5977636 -0.15340428 -0.16546036
-0.10210097 -0.14917974 0.13606276 0.10951166 -0.37347475 -0.18876612 -0.2575373 0.13864161
-0.20372576 -0.20224647 0.21264942 -0.1708049 0.17788541 -0.0002441793 -0.05527478 -0.25942287
-0.008791999 -0.07356447 -0.038273387 -0.6341593 -0.12562706 0.16936824 -0.23263381 -0.17919491
-0.076200545 0.09708392 -0.2577736 -0.01595737 -0.08022157 0.04710727 0.014537174 -0.04435634
0.081481226 -0.13607553 0.10121315 -0.10910501 0.06686909 -0.104876615 0.16981754 -0.13554832
-0.14844526 -0.16306415 0.17475867 0.26250434 -0.2793793 -0.07069017 -0.22258776 0.37755826
00000000: 0a7a 3ebe c182 0a3e e29f b1bd 99ad 9cbc
00000010: 28e6 0e3e d388 53ba 9c7f 04be ecbf a2be
00000020: c9db 753d 6036 9e3c 19d4 debd b468 bf3e
00000030: 078c 283e be54 853e a602 043c 78a0 65be
00000040: 75a1 173e 6977 3abe cbc1 91be c4ef 2ebe
00000050: 81f6 b23e d072 6dbd f175 7b3e c8f7 65be
00000060: 65b2 103e 0b79 10bd d8ab 07be c545 02be
00000070: f727 41bc e0c5 44be 100f c63d 55b4 75bd
00000080: 67d9 2cbe 4a00 3fbe 0755 a1be fbe9 02be
00000090: 4c7e 80be 560d 22be 03bd a0bd ad56 03be
000000a0: 713d 3d3e 9502 6e3e 668d 07be 8b86 73be
000000b0: 1e44 ce3d e717 0e3e d884 e3bd 64d9 d53d
000000c0: 37b6 38bd 68e0 87bc dc1a 79bd ca89 7fbd
000000d0: f2b5 2e3e 79b8 3a3e 80c7 543d d625 ff3c
000000e0: 0738 bdbd d443 1abe d29f 8f3e cb95 77be
000000f0: c44a 8f3e 897d 823e b01d c0bd 2e80 aa3e
00000100: e7a8 343e f934 67be 5bed 88bd afa1 89be
00000110: 3589 523e a7be 143d 6a34 cebb 03db 7c3e
00000120: 51e6 fb3d 39ae 1dbe 10fe f2bd 8215 6cbe
00000130: 515a e8bd edbd 88be bd3a 41be 90aa 43be
00000140: cf9a 33be 088b 783d 135d 2abe c1b7 9bbe
00000150: 22c6 ed3d b32f f33b 74c9 37be 8fb1 323d
00000160: 506e 523e 00c8 a43e da24 a23e 5149 093d
00000170: b936 b8bd 5f9a 863c 0bfd ac3e 2c97 f83a
00000180: 7c4c edbd 4cc6 683e a014 2e3c 19a4 2ebd
00000190: a56c 24be 74fb f8bd 525c 313e e694 cabd
000001a0: 5a89 16be 0594 34be 3488 f6be f8fa 26be
000001b0: dcfa cdbd 4da2 c1bc c0bd 82be ba01 46bd
000001c0: c2ef 9fbd 2560 343e ac20 d2bd 8b42 993e
000001d0: c957 f6bd fa1b b5bd e601 953b b0d7 643e
000001e0: dc5f 96bd 5b95 dcbe ea08 3bbe f305 a3bd
000001f0: 12cd 8ebe 8efd 8dbd 143d 483e 2cc3 d8bc
00000200: 9318 a4bd 4648 02bf 5a17 203e b16d 9c3d
00000210: 731f 8b3d da10 a0bd f627 90be efa4 5ebe
00000220: a23e 673e 7d0a 3bbd 5dd8 863e 3e46 473c
00000230: 5b99 9cbd d703 e2bd cea0 4dbe 9828 bb3d
00000240: bb38 ebbc 0b64 7ebe a25d 80be 9247 a3bd
00000250: 17ef 08be 22cf 22bd 4026 1c3c b316 ccbd
00000260: ec54 a9be 042c 85bd 3414 1ebe fd30 ea3d
00000270: 62e3 ae3c 4b3b 25bd d467 0ebe 0d26 4c3e
00000280: be02 693e f3c9 c0bc 5a46 03be 4278 323e
00000290: 7bd1 48be beee 31be e5e8 c0be 2a3b 503c
000002a0: 3abe 883e b347 de3a e834 c6bd b297 2bbe
000002b0: 35b9 993d 53a5 753e bb69 3c3e f507 21be
000002c0: 6c58 63bd a556 983d cab8 8a3e 090d e2bd
000002d0: 6088 363e b7c9 44be 81c2 31bc 4af1 03bd
000002e0: 2769 1ebe 7fc1 48be 8198 43be f16a 92be
000002f0: 59d9 a43e 924a 2cbe dedd 0a3e 1936 5e3d
00000300: 681e 35bd ee22 10be 35b4 1b3e cbfd 6dbd
00000310: 2fd3 d7be 5355 9bbd 5305 753d 4f72 20bd
00000320: e2f2 113e 2e65 633e 3967 4abc 99c4 cabd
00000330: 7a9c 923e 0907 19bf 0316 1dbe 716e 29be
00000340: 501a d1bd 93c2 18be 0954 0b3e a647 e03d
00000350: 1538 bfbe e84b 41be eedb 83be 11f8 0d3e
00000360: 7c9d 50be b319 4fbe c5c0 593e 7be7 2ebe
00000370: 9827 363e 3105 80b9 cf67 62bd 13d3 84be
00000380: 510c 10bc f8a8 96bd 8ec4 1cbd 4458 22bf
00000390: 61a4 00be de6e 2d3e 8f37 6ebe df7e 37be
000003a0: 080f 9cbd efd3 c63d e7fa 83be 08b9 82bc
000003b0: 354b a4bd 8ef3 403d 542d 6e3c feae 35bd
000003c0: a1df a63d 6257 0bbe d748 cf3d 7372 dfbd
000003d0: a9f2 883d 8dc9 d6bd a6e4 2d3e 2ecd 0abe
000003e0: 0902 18be 4afa 26be f0f3 323e f866 863e
000003f0: ce0a 8fbe 02c6 90bd 0cee 63be 514f c13e

layer1.0.downsample.1.weight f4 [32]
0.82323474 0.64880335 0.7139177 0.5796784 0.88912976 0.7493553 0.8550043 0.8769846
0.7485451 0.7149768 0.7822281 0.7309156 0.5717269 1.1040454 0.82295465 0.87263376
0.814738 0.61896235 0.90867805 0.7817191 0.6986213 0.7321193 0.8850993 0.6349597
0.65884054 0.7737673 0.7259821 0.7706053 0.7313204 0.7724961 0.9220023 0.83185214
00000000: 83bf 523f fa17 263f 4fc3 363f ce65 143f
00000010: 029e 633f c0d5 3f3f 90e1 5a3f 1082 603f
00000020: a7a0 3f3f b808 373f 1a40 483f 491d 3b3f
00000030: b25c 123f 5c51 8d3f 28ad 523f ed64 5f3f
00000040: ab92 503f 5174 1e3f 209f 683f be1e 483f
00000050: d8d8 323f 2c6c 3b3f de95 623f b88c 223f
00000060: c6a9 283f 9d15 463f f7d9 393f 6446 453f
00000070: d037 3b3f 4ec2 453f 5808 6c3f 43f4 543f

layer1.0.downsample.1.bias f4 [32]
-0.2384348 -0.08948625 -0.0564554 -0.06302189 -0.22288956 -0.24777712 -0.20876452 -0.15878065
-0.16525067 -0.05863006 -0.27479213 -0.14542359 0.02999069 -0.12218984 0.048257593 -0.3166435
-0.06739371 -0.14808619 -0.13886353 -0.3131422 -0.23046912 -0.059564713 0.01733259 -0.22591054
-0.28574723 -0.052938912 0.05172133 -0.085506044 -0.2182884 -0.17727323 -0.21868959 -0.118876286
00000000: 4128 74be 9144 b7bd c73d 67bd 9f11 81bd
00000010: 293d 64be 49b9 7dbe 5ec6 55be 6597 22be
00000020: 7937 29be 1326 70bd 8eb1 8cbe ece9 14be
00000030: 09af f53c ab3e fabd c1a9 453d 191f a2be
00000040: b705 8abd e8a3 17be 3e32 0ebe 2d54 a0be
00000050: 1900 6cbe 21fa 73bd 13fd 8d3c 1855 67be
00000060: 764d 92be 79d6 58bd bfd9 533d cb1d afbd
00000070: ff86 5fbe 1d87 35be 2af0 5fbe 6975 f3bd

layer1.0.downsample.1.running_mean f4 [32]
-0.0071704513 -0.10896504 -0.50204337 0.75245994 -0.5557849 0.33849025 -0.96659195 -0.5901335
-0.39011887 -0.71627945 -0.14057846 -0.2890497 -0.58750945 -0.843362 -0.8447631 -0.061822835
-0.08981702 1.1682427 0.12733291 0.15022998 -0.28689164 0.89681745 -0.73022765 -0.11393919
-0.033927824 -0.56333053 0.73152244 0.3853326 -0.5291258 -0.49852017 -0.7694349 -1.1144027
00000000: 1bf6 eabb 1029 dfbd ea85 00bf 37a1 403f
00000010: eb47 0ebf 984e ad3e 9272 77bf fd12 17bf
00000020: a9bd c7be 175e 37bf cdf3 0fbe 53fe 93be
00000030: 0567 16bf 92e6 57bf 6542 58bf f139 7dbd
00000040: fcf1 b7bd fa88 953f 8f63 023e e3d5 193e
00000050: 76e3 92be d495 653f 33f0 3abf f358 e9bd
00000060: e7f7 0abd 6e36 10bf 0e45 3b3f 514a c53e
00000070: ca74 07bf 093e ffbe b0f9 44bf bfa4 8ebf

layer1.0.downsample.1.running_var f4 [32]
0.49270293 0.16465609 0.19632038 0.40910146 0.3084038 0.61236733 0.6511862 0.44886628
0.18873909 0.3036465 0.34854448 0.22916296 0.7398365 0.37335315 0.53320086 0.4409518
0.2746625 0.6339394 0.15753253 0.33216462 0.45864788 0.42272785 0.4960573 0.49851078
0.3818293 0.39802074 0.52254385 0.36986727 0.44400957 0.5245915 0.5034298 0.6528238
00000000: 8f43 fc3e 9b9b 283e 3608 493e bf75 d13e
00000010: 1ae7 9d3e 1bc4 1c3f 24b4 263f cdd1 e53e
00000020: d244 413e 8e77 9b3e 6c74 b23e b2a9 6a3e
00000030: ed65 3d3f 2528 bf3e da7f 083f 6fc4 e13e
00000040: 90a0 8c3e da49 223f 3550 213e 7b11 aa3e
00000050: e5d3 ea3e c96f d83e 39fb fd3e ce3c ff3e
00000060: 217f c33e 60c9 cb3e 6fc5 053f 3e5f bd3e
00000070: 3955 e33e a14b 063f c6e0 003f 761f 273f

layer2.0.conv.weight f4 [64, 32, 3, 3]
0.076465905 0.039797217 0.11541995 0.09765972 0.063369796 0.23153102 -0.06368535 0.11884277
0.09027369 -0.1402251 -0.015273536 0.015994554 0.005362035 -0.02989105 -0.083471656 0.06384839
-0.00918073 -0.020777656 0.10418941 0.029313268 0.06210477 0.028457785 -0.011481609 -0.0026996203
0.0067017204 -0.054617763 0.04973756 -0.072360404 -0.05399116 -0.023272928 -0.036967903 -0.1506305
-0.035346102 0.045486294 -0.020043615 -0.11574744 -0.022793282 -0.1239322 0.120016724 -0.14608382
-0.20034298 -0.2547546 0.0022018373 -0.096669376 -0.05414537 0.032863904 0.16949557 0.012371533
-0.034840856 -0.029337162 0.026516732 -0.16510963 -0.1912833 0.031831592 -0.14065412 -0.108648516
0.020635145 0.034268934 0.041237857 0.14792867 -0.08114659 -0.059530567 0.070741795 -0.031207314
0.007864836 -0.047221713 -0.15584953 -0.011189364 -0.14942129 -0.1235765 -0.20361422 -0.0038201169
0.030003859 -0.024882935 -0.07375681 -0.01605617 -0.020251036 0.15454036 0.21656206 -0.02907625
0.016112797 -0.030258216 0.019564664 -0.14794673 0.14697328 -0.052360203 -0.022917662 0.012255428
-0.010066674 -0.053671695 -0.05154843 0.10941687 0.07057842 -0.0073824027 -0.07572774 0.013229902
-0.065435976 -0.09803129 0.006608745 0.09065069 0.06467757 0.18190491 0.11948932 0.033213943
0.20908196 -0.016713964 0.1965266 0.09069698 -0.13392884 -0.4018919 -0.17157927 -0.21394734
-0.088668875 -0.22089987 0.051098254 -0.015792701 0.058771417 -0.013504075 -0.06832609 -0.0812484
0.021822343 -0.120896116 -0.11180723 -0.021368956 -0.09775014 0.002707143 -0.045373842 -0.17558219
-0.24703807 0.13646063 0.071946055 0.074027106 0.079770125 0.085258596 0.00039449878 -0.008088771
0.19934404 0.20647538 0.14381161 0.0011681285 0.3078374 0.05169659 0.06353457 0.03469049
0.13764046 0.061393272 0.028838947 -0.128384 -0.05743966 -0.1088736 -0.11002128 -0.12928124
-0.2660704 0.122735865 -0.04117122 0.027477896 -0.11200868 0.12926856 -0.005981335 -0.101205595
0.027380278 0.081816666 -0.08073304 -0.2672712 -0.094623625 -0.3491076 -0.198272 -0.48801512
-0.03955007 -0.19205947 -0.37737307 -0.058894463 -0.07876298 -0.039713856 -0.06375072 -0.07305873
-0.33577666 0.04272731 -0.16676566 -0.2742635 -0.076986276 0.0015498297 -0.0036740203 0.00083346193
0.07737397 0.21727882 0.044974424 0.04212635 0.023661027 0.06092479 -0.057477023 0.0368293
0.16191457 -0.04638416 -0.02329855 0.07508148 0.17713085 0.047801662 0.13889088 -0.10783196
0.046281107 -0.06272827 -0.2074961 -0.06875802 0.048058406 -0.16255412 -0.2043192 -0.02756561
-0.014996241 -0.091228336 -0.07163117 -0.08442245 0.038084544 -0.005339451 0.011981723 0.18522961
0.11533858 0.2070601 0.18851846 0.065330096 -0.08315782 -0.0022842465 0.02408644 -0.049207713
-0.009458837 0.05413787 -0.15227912 0.035425596 -0.043958407 0.012876348 -0.0178629 -0.054851323
-0.16080382 -0.1587494 -0.013492008 0.140509 0.037047558 0.06590658 0.010781008 0.08884076
-0.1199778 -0.05236543 -0.054395035 0.07678034 0.21666323 0.060747273 0.02851357 -0.025471788
-0.18440649 -0.0071608275 0.054074734 0.06653156 -0.013820807 -0.021916896 0.22857273 0.0137959495
00000000: 289a 9c3d 6802 233d 4b61 ec3d d201 c83d
00000010: 06c8 813d 7816 6d3e 776d 82bd d763 f33d
00000020: 6ae1 b83d 2b97 0fbe da3d 7abc 0307 833c
00000030: 02b4 af3b 13de f4bc 30f3 aabd f2c2 823d
00000040: c66a 16bc e735 aabc 4261 d53d 6122 f03c
00000050: 9261 7e3d 4d20 e93c 5c1d 3cbc 1dec 30bb
00000060: 1b9a db3b e0b6 5fbd 9db9 4b3d b131 94bd
00000070: d625 5dbd dea6 bebc a86b 17bd e23e 1abe
00000080: 13c7 10bd d64f 3a3d 8232 a4bc fe0c edbd
00000090: fab8 babc 2ad0 fdbd 54cb f53d ff96 15be
000000a0: b626 4dbe 326f 82be b34c 103b 98fa c5bd
000000b0: 89c7 5dbd 4d9c 063d 3f90 2d3e f8b1 4a3c
000000c0: 49b5 0ebd 7d54 f0bc 9e39 d93c 8012 29be
000000d0: c5df 43be d861 023d a207 10be 1d83 debd
000000e0: 090b a93c 955d 0c3d 07e9 283d 9d7a 173e
000000f0: 2f30 a6bd 53d6 73bd 13e1 903d 7ba6 ffbc
00000100: 83db 003c 8e6b 41bd 0597 1fbe 9853 37bc
00000110: e501 19be ad15 fdbd 3f80 50be ed5a 7abb
00000120: a7ca f53c 4cd7 cbbc cf0d 97bd 3b88 83bc
00000130: 80e5 a5bc d43f 1e3e 72c2 5d3e 5131 eebc
00000140: fcfe 833c 14e0 f7bc 1346 a03c 597f 17be
00000150: 2a80 163e a777 56bd d2bd bbbc feca 483c
00000160: b1ee 24bc dad6 5bbd 7224 53bd f415 e03d
00000170: 6b8b 903d 15e8 f1bb 2517 9bbd 3bc2 583c
00000180: 4c03 86bd a1c4 c8bd 2c8e d83b 12a7 b93d
00000190: ac75 843d 4845 3a3e d1b6 f43d 580b 083d
000001a0: 9519 563e b9eb 88bc 453e 493e 57bf b93d
000001b0: a424 09be c6c4 cdbe 7ab2 2fbe 0315 5bbe
000001c0: 0798 b5bd 9333 62be 674c 513d b25f 81bc
000001d0: 4cba 703d 3240 5dbc 8dee 8bbd 9065 a6bd
000001e0: c5c4 b23c 6298 f7bd 30fb e4bd f30d afbc
000001f0: 3a31 c8bd 536a 313b ecd9 39bd d1cb 33be
00000200: 8cf7 7cbe 56bc 0b3e 7458 933d 869b 973d
00000210: 855e a33d 0f9c ae3d bbd4 ce39 c486 04bc
00000220: d820 4c3e 486e 533e 5a43 133e e31b 993a
00000230: dd9c 9d3e cebf 533d 6a1e 823d 9e17 0e3d
00000240: 9ff1 0c3e 8377 7b3d a83f ec3c 1877 03be
00000250: d945 6bbd 1ff9 debd d652 e1bd 4d62 04be
00000260: 613a 88be f15c fb3d 27a3 28bd 5319 e13c
00000270: cf64 e5bd fa5e 043e 13ff c3bb e144 cfbd
00000280: 9b4c e03c 7f8f a73d 5d57 a5bd c5d7 88be
00000290: 08ca c1bd 3bbe b2be d107 4bbe 1edd f9be
000002a0: 41ff 21bd 3dab 44be 0b37 c1be 523b 71bd
000002b0: 7c4e a1bd ffaa 22bd bd8f 82bd d19f 95bd
000002c0: ebea abbe d502 2f3d 9ec4 2abe 446c 8cbe
000002d0: fbaa 9dbd a823 cb3a d5c7 70bb af7c 5a3a
000002e0: 3e76 9e3d 577e 5e3e 1a37 383d ae8c 2c3d
000002f0: c5d4 c13c 468c 793d 076d 6bbd 52da 163d
00000300: efcc 253e 51fd 3dbd 9adc bebc 52c4 993d
00000310: ca61 353e adcb 433d 6939 0e3e 01d7 dcbd
00000320: 4291 3d3d ae77 80bd dc79 54be 01d1 8cbd
00000330: e4d8 443d 9674 26be 0d39 51be 46d1 e1bc
00000340: cbb2 75bc ecd5 babd 5db3 92bd ade5 acbd
00000350: 8afe 1b3d 90f6 aebb fd4e 443c d5ac 3d3e
00000360: a236 ec3d 9007 543e fc0a 413e c9cb 853d
00000370: a64e aabd 4cb3 15bb ed50 c53c 078e 49bd
00000380: 3df9 1abc acbf 5d3d 0fef 1bbe 6e1a 113d
00000390: bb0d 34bd 51f7 523c 3755 92bc c8ab 60bd
000003a0: c2a9 24be 348f 22be 950d 5dbc 97e1 0f3e
000003b0: 2ebf 173d 07fa 863d d3a2 303c 25f2 b53d
000003c0: ecb6 f5bd 227d 56bd 54cd 5ebd 033f 9d3d
000003d0: f7dc 5d3e 22d2 783d 4a95 e93c 36aa d0bc
000003e0: 0ed5 3cbe 60a5 eabb 787d 5d3d b341 883d
000003f0: ab70 62bc 108b b3bc f80e 6a3e 6808 623c

layer2.0.bn.weight f4 [64]
1.0883294 1.2087157 1.1869378 1.1567289 1.219241 1.1249918 1.1449188 1.1411719
1.0523522 1.0728536 1.0808266 1.2216004 1.2365113 1.2277461 1.0695183 1.1812911
1.118618 1.2709175 1.0930265 1.069371 1.1999528 1.0876812 1.1262065 1.1507504
1.0777346 1.0720388 1.070811 1.1574414 1.1696763 1.1286135 1.2102262 1.2869793
1.1508262 1.2874551 1.1081129 1.0532541 1.2004663 1.2521276 1.1198865 1.1516683
1.04422 1.0912366 1.094351 1.0726696 1.0280788 1.1536008 1.2359047 1.0968726
1.1180633 1.1660458 1.1496563 1.194133 1.1070675 1.1567264 1.1009536 1.1531643
1.1968333 1.1686611 1.1146517 1.1763045 1.1846461 1.1705592 1.2745938 1.250985
00000000: 614e 8b3f 32b7 9a3f 94ed 973f b10f 943f
00000010: 1710 9c3f bbff 8f3f b38c 923f ec11 923f
00000020: 7ab3 863f 4453 893f 8758 8a3f 675d 9c3f
00000030: 0146 9e3f c926 9d3f fae5 883f 8c34 973f
00000040: e02e 8f3f 6dad a23f 4be8 8b3f 26e1 883f
00000050: 0e98 993f 2339 8b3f 8927 903f ca4b 933f
00000060: 35f3 893f 9138 893f 5610 893f 0a27 943f
00000070: f4b7 953f 6876 903f b1e8 9a3f bdbb a43f
00000080: 464e 933f 54cb a43f a5d6 8d3f 08d1 863f
00000090: e1a8 993f b845 a03f 7158 8f3f de69 933f
000000a0: 00a9 853f a4ad 8b3f b213 8c3f 3d4d 893f
000000b0: 1698 833f 31a9 933f 2032 9e3f 5266 8c3f
000000c0: b31c 8f3f fd40 953f f027 933f 5ad9 983f
000000d0: 63b4 8d3f 9c0f 943f 0cec 8c3f e39a 933f
000000e0: d531 993f b096 953f e8ac 8e3f 2591 963f
000000f0: 7ca2 973f e2d4 953f e425 a33f 4720 a03f

layer2.0.bn.bias f4 [64]
-0.13043605 -0.20798321 -0.13542803 -0.23578681 -0.14650095 -0.2779377 -0.22369315 -0.2787539
-0.27077767 -0.17612106 -0.16186579 -0.29645866 -0.19902195 -0.3232966 -0.1647976 -0.26329273
-0.11186118 -0.16082306 -0.17786513 -0.23924787 -0.28090978 -0.1529587 -0.25702623 -0.2523417
-0.23246075 -0.35520047 -0.17343938 -0.1031888 -0.28073576 -0.30611828 -0.20159292 -0.21517158
-0.16427355 -0.0675905 -0.13274947 -0.17442907 -0.17285168 -0.17147417 -0.093999684 -0.25437358
-0.21324605 -0.20534532 -0.24295779 -0.28155804 -0.16602966 -0.05068467 -0.21392763 -0.12786044
-0.2212045 -0.30679017 -0.13026655 -0.13566504 -0.23790881 -0.1367796 -0.1930372 -0.15311222
-0.047431953 -0.17593697 -0.13466714 -0.2764864 -0.05948726 -0.20717296 -0.1432394 -0.11793622
00000000: 0791 05be 8df9 54be a5ad 0abe 1972 71be
00000010: 5804 16be da4d 8ebe d10f 65be d5b8 8ebe
00000020: 5fa3 8abe 1459 34be 25c0 25be 6ec9 97be
00000030: 69cc 4bbe 2287 a5be b4c0 28be 4ece 86be
00000040: 7917 e5bd cdae 24be 4722 36be 65fd 74be
00000050: 68d3 8fbe 35a1 1cbe f198 83be ee32 81be
00000060: 310a 6ebe d6dc b5be 189a 31be a654 d3bd
00000070: 99bc 8fbe 89bb 9cbe 606e 4ebe f055 5cbe
00000080: 5337 28be e36c 8abd 7aef 07be 899d 32be
00000090: 0800 31be ed96 2fbe e882 c0bd 413d 82be
000000a0: 2c5d 5abe 0b46 52be edc9 78be 6028 90be
000000b0: ae03 2abe bb9a 4fbd d80f 5bbe d9ed 02be
000000c0: 6f83 62be 9a13 9dbe 9864 05be c7eb 0abe
000000d0: 5e9e 73be f40f 0cbe 8bab 45be 73c9 1cbe
000000e0: 0248 42bd d228 34be 2fe6 09be a08f 8dbe
000000f0: eaa8 73bd 2625 54be 59ad 12be 8b88 f1bd

layer2.0.bn.running_mean f4 [64]
-3.225879 -2.3418407 -0.51185 -3.7883909 -0.6666705 -0.5542674 -0.49623194 -2.201741
-1.797899 -4.566999 -0.48312393 -1.7807534 -1.1411735 -2.7251263 -1.1681571 -0.95094806
1.0399104 0.48752227 -1.0005993 -1.0356506 0.234634 -2.1955025 -1.2949013 -2.4493754
-5.333498 -2.0223122 -0.3806715 -1.340927 -0.42023227 -1.8439595 -0.22440988 0.95890456
-1.5626816 -1.7801284 -0.67538035 -2.7607949 -5.5645885 -0.4803293 -1.917138 -2.6066165
-2.761597 -1.8871013 0.22669135 -2.9066405 -1.1120008 -1.6923418 -4.5105376 -0.2512317
1.4438448 0.7055643 -2.403215 -1.3373007 0.010795415 -5.41951 -3.0355918 1.0797977
-1.7880827 -1.6089193 -1.467695 -1.1907766 -1.8043407 -1.2497401 -1.4879334 -0.5264184
00000000: cd74 4ec0 b8e0 15c0 9a08 03bf ff74 72c0
00000010: ebaa 2abf 78e4 0dbf 1d12 febe 53e9 0cc0
00000020: 8e21 e6bf db24 92c0 055c f7be baef e3bf
00000030: f911 92bf 7868 2ec0 2c86 95bf 5571 73bf
00000040: c91b 853f 859c f93e a313 80bf 3390 84bf
00000050: e543 703e 1d83 0cc0 53bf a5bf 91c2 1cc0
00000060: 04ac aac0 906d 01c0 60e7 c2be 7fa3 abbf
00000070: af28 d7be dd06 ecbf b4cb 65be c57a 753f
00000080: f305 c8bf 3fdb e3bf bae5 2cbf ddb0 30c0
00000090: 1c11 b2c0 b9ed f5be c764 f5bf ced2 26c0
000000a0: 01be 30c0 898c f1bf c721 683e 6606 3ac0
000000b0: 0b56 8ebf a89e d8bf 5356 90c0 71a1 80be
000000c0: e8cf b83f dd9f 343f 46ce 19c0 ab2c abbf
000000d0: 41df 303c a06c adc0 2347 42c0 d036 8a3f
000000e0: e5df e4bf 11f1 cdbf 6edd bbbf 5e6b 98bf
000000f0: a3f4 e6bf 7cf7 9fbf 9a74 bebf 5bc3 06bf

layer2.0.bn.running_var f4 [64]
4.806506 3.5427072 3.8838637 3.6161284 3.4493084 2.850692 4.3319206 3.077166
3.0531971 3.8298624 3.5107265 2.672435 3.3384793 4.210424 2.8596406 5.5716157
4.736124 5.862157 5.933894 2.728385 3.679002 5.5052285 3.448665 2.735703
4.5382533 4.917462 4.7515764 3.3647306 3.774867 2.7144048 3.6710553 3.7014322
4.4769874 4.5828314 4.343363 3.1804676 5.567242 3.5798655 3.6802552 4.0076976
4.095675 3.446618 4.311908 3.7881517 3.8025186 4.941146 3.8559883 3.2319577
4.0362005 4.1216884 4.2902174 3.3591988 3.018602 4.664081 4.04014 4.0639863
3.0716183 4.8231535 4.381762 4.2343435 3.7022913 5.6519995 3.9161923 5.6765947
00000000: e6ce 9940 b7bb 6240 3991 7840 a66e 6740
00000010: 78c1 5c40 bd71 3640 189f 8a40 4af0 4440
00000020: 9567 4340 771c 7540 beaf 6040 2d09 2b40
00000030: a5a9 5540 cbbb 8640 5a04 3740 ad4a b240
00000040: 548e 9740 ca96 bb40 76e2 bd40 dc9d 2e40
00000050: c574 6b40 d52a b040 edb6 5c40 c215 2f40
00000060: 5f39 9140 d95b 9d40 ea0c 9840 bf57 5740
00000070: 6c97 7140 cfb8 2d40 92f2 6a40 44e4 6c40
00000080: 7b43 8f40 8ea6 9240 d4fc 8a40 c88c 4b40
00000090: d926 b240 841c 6540 4d89 6b40 0f3f 8040
000000a0: c50f 8340 6495 5c40 26fb 8940 1471 7240
000000b0: 775c 7340 de1d 9e40 83c8 7640 65d8 4e40
000000c0: 8e28 8140 dfe4 8340 7649 8940 1dfd 5640
000000d0: c630 4140 2740 9540 d448 8140 2d0c 8240
000000e0: 6595 4440 4657 9a40 6537 8c40 be7f 8740
000000f0: 57f2 6c40 2edd b440 e5a2 7a40 aaa6 b540

layer2.0.downsample.0.weight f4 [64, 32, 1, 1]
0.024677422 -0.01452299 -0.05461104 -0.0026696692 -0.03141445 -0.10620418 0.21919462 0.040503882
-0.1855173 -0.061104342 0.037257805 0.17320831 -0.21485986 0.23377985 -0.033093624 0.14747371
-0.28469285 -0.172013 -0.18567719 -0.15708625 0.06923381 -0.10431319 0.003118592 -0.086867414
0.080232315 -0.018091101 0.10351631 0.1796847 -0.15782109 -0.06869196 -0.12959552 0.2422033
0.044984024 0.048616312 -0.02181214 0.06935576 -0.17571366 0.3243829 -0.19762303 -0.29621863
0.11222807 0.000120026925 0.0506709 0.09399583 -0.0041759904 0.103938244 0.08772046 -0.03672525
0.10700191 0.013918968 0.16438076 -0.3143007 -0.0343999 0.055378757 0.087393306 -0.060675737
0.22345802 0.2906803 -0.008852027 0.17592555 0.28191105 0.02629012 0.14587942 -0.19416548
-0.23919635 -0.12104865 0.23754396 -0.12085321 -0.059197176 -0.02492047 0.14822671 0.2582846
-0.06664748 0.17062318 -0.16841154 0.1768006 0.08911417 0.06200458 0.118121564 0.22935428
0.17653288 -0.02624415 -0.061836272 -0.062430155 0.18395415 -0.091152646 0.07371995 0.16252765
-0.014062968 -0.03544043 -0.18137492 -0.3707977 -0.0060825646 -0.21970174 0.16598043 -0.12457166
-0.21243396 -0.2048453 0.020409973 -0.515361 -0.23283258 0.007257278 -0.076738685 0.10801455
0.23463877 -0.10471775 -0.21246313 -0.29767144 0.13873915 0.05989593 -0.27193916 -0.09477255
0.0004406224 -0.047486987 0.13267145 0.079298556 0.16126369 -0.10670126 -0.112911105 0.047459785
-0.025101364 -0.031291734 0.012797201 -0.11065682 0.01457422 -0.27563536 0.029404014 -0.0142824715
0.16147275 -0.03845594 0.102775946 0.08597639 -0.09942374 0.064438984 0.030209435 -0.20133086
-0.2675186 0.17057914 -0.20427483 0.09083448 -0.034723233 0.057524808 0.17621775 -0.025910743
0.0051364605 -0.029929668 -0.07610244 -0.08246396 0.24360785 0.021990882 -0.35739782 0.10405544
-0.13668442 -0.09701583 0.010302954 0.1802706 -0.0816941 0.07248711 -0.31970307 -0.05342378
-0.18326941 0.04749951 0.12721995 -0.06084996 -0.10570668 0.04445923 -0.41432387 0.19438723
-0.09848107 0.2167878 -0.003115718 -0.11669971 -0.28042766 0.015435355 -0.15900993 0.022366935
0.15856802 -0.13164258 -0.14063278 0.0019166762 -0.14447671 0.049710263 -0.14943941 0.17709698
0.20726718 0.07368972 0.05941567 -0.22009487 -0.09849879 0.13058269 -0.3463332 0.103260495
-0.16600542 -0.11726497 -0.19880874 0.11762966 -0.08451624 -0.032474723 0.0027633153 0.030480206
0.13887845 0.2196143 0.19933331 -0.30892313 -0.15023498 0.21400607 0.07807657 -0.038945574
0.048932448 -0.17497323 0.0031247337 -0.3092646 -0.16985413 -0.21928848 0.16317426 -0.2063775
0.10937312 -0.01491305 -0.28901497 0.07921137 -0.036516253 0.17810963 -0.13145255 -0.010122157
0.21751219 0.06774586 0.08975378 -0.10423739 0.13596861 -0.30239096 -0.20383503 -0.0014643058
-0.28264365 -0.0633112 0.11562723 -0.016573537 -0.27537736 -0.101351835 -0.13908057 0.035988703
-0.23720679 -0.22394055 0.034425918 -0.2946821 0.1098612 -0.061242137 -0.20741218 0.059786893
-0.10518992 -0.05893447 -0.14036031 -0.11399501 0.057183806 -0.02394775 -0.07021193 0.11263055
00000000: 4e28 ca3c d6f1 6dbc d3af 5fbd 9ef5 2ebb
00000010: 70ac 00bd 9481 d9bd 8e74 603e 66e7 253d
00000020: 3ff8 3dbe 8c48 7abd a49b 183d 855d 313e
00000030: 3904 5cbe fc63 6f3e 2e8d 07bd 5903 173e
00000040: 43c3 91be 2d24 30be 2922 3ebe 38db 20be
00000050: 75ca 8d3d 27a2 d5bd 4b61 4c3b 8be7 b1bd
00000060: d750 a43d ca33 94bc 5c00 d43d 44ff 373e
00000070: da9b 21be 5fae 8cbd b0b4 04be 2404 783e
00000080: 2b41 383d e621 473d 5faf b2bc 650a 8e3d
00000090: 48ee 33be 8415 a63e b15d 4abe f8a9 97be
000000a0: d5d7 e53d f7b6 fb38 4a8c 4f3d e380 c03d
000000b0: bfd6 88bb 93dd d43d c9a6 b33d 376d 16bd
000000c0: d123 db3d 620c 643c 6e53 283e 05ec a0be
000000d0: e9e6 0cbd d6d4 623d 43fb b23d 1f87 78bd
000000e0: 2ed2 643e 0cd4 943e 1808 11bc d425 343e
000000f0: a556 903e 615e d73c 6a61 153e 51d3 46be
00000100: e3ef 74be 5be8 f7bd b93e 733e e381 f7bd
00000110: bd78 72bd 0326 ccbc bec8 173e e13d 843e
00000120: 797e 88bd d8b7 2e3e 1374 2cbe 370b 353e
00000130: 7d81 b63d 84f8 7d3d b8e9 f13d d9db 6a3e
00000140: 09c5 343e f9fd d6bc 0848 7dbd c3b6 7fbd
00000150: 7a5e 3c3e 3dae babd 7cfa 963d a66d 263e
00000160: 5d68 66bc fc29 11bd 59ba 39be 32d9 bdbe
00000170: 4050 c7bb 7ef9 60be c6f6 293e 6d1f ffbd
00000180: 4a88 59be f7c2 51be d132 a73c b3ee 03bf
00000190: aa6b 6ebe 76ce ed3b 2c29 9dbd bb36 dd3d
000001a0: 2545 703e 4276 d6bd ef8f 59be 6468 98be
000001b0: a311 0e3e 6f55 753d 9c3b 8bbe 1c18 c2bd
000001c0: 5603 e739 b781 42bd 06db 073e 4867 a23d
000001d0: 4f22 253e 3186 dabd f03d e7bd 3165 423d
000001e0: 60a1 cdbc c32b 00bd 5aab 513c 0ba0 e2bd
000001f0: b6c8 6e3c 1420 8dbe b0e0 f03c 0701 6abc
00000200: 1d59 253e fa83 1dbd 327c d23d 6414 b03d
00000210: ac9e cbbd 96f8 833d c779 f73c ad29 4ebe
00000220: 33f8 88be 4cac 2e3e 6c2d 51be 6e07 ba3d
00000230: f339 0ebd 229f 6b3d 6d72 343e c442 d4bc
00000240: c14f a83b 102f f5bc 99db 9bbd dde2 a8bd
00000250: 5674 793e 3926 b43c d9fc b6be 051b d53d
00000260: 00f7 0bbe 3cb0 c6bd b9cd 283c db98 383e
00000270: 3c4f a7bd 1f74 943d 1fb0 a3be e5d2 5abd
00000280: faaa 3bbe d98e 423d f245 023e cf3d 79bd
00000290: be7c d8bd e21a 363d 4222 d4be 720d 473e
000002a0: 71b0 c9bd 9ffd 5d3e 1331 4cbb 4200 efbd
000002b0: 3794 8fbe 92e4 7c3c 80d3 22be dd3a b73c
000002c0: a85f 223e 50cd 06be 0a02 10be fb38 fb3a
000002d0: b4f1 13be fd9c 4b3d a506 19be e958 353e
000002e0: d93d 543e a3ea 963d d85d 733d 8d60 61be
000002f0: bcb9 c9bd 78b7 053e 9652 b1be 3d7a d33d
00000300: 53fd 29be 9e28 f0bd 8594 4bbe d2e7 f03d
00000310: da16 adbd 3704 05bd bd18 353b a0b1 f93c
00000320: 2736 0e3e 92e2 603e 081e 4c3e 2c2b 9ebe
00000330: 33d7 19be 6824 5b3e 9ce6 9f3d 6585 1fbd
00000340: 646d 483d 2f2c 33be 55c8 4c3b ee57 9ebe
00000350: 3eee 2dbe 298d 60be 2717 273e a054 53be
00000360: 04ff df3d de55 74bc c5f9 93be 9239 a23d
00000370: 1192 15bd 5f62 363e 7f9b 06be 67d7 25bc
00000380: 84bb 5e3e 57be 8a3d d4d0 b73d 6a7a d5bd
00000390: 5b3b 0b3e fdd2 9abe 21ba 50be f3ed bfba
000003a0: abb6 90be 4da9 81bd f8cd ec3d 3ac5 87bc
000003b0: 43fe 8cbe 8d91 cfbd 236b 0ebe e468 133d
000003c0: 56e6 72be ac50 65be 3102 0d3d 92e0 96be
000003d0: e9fe e03d 09d9 7abd dc63 54be 1ae3 743d
000003e0: d06d d7bd 4565 71bd 9dba 0fbe 3776 e9bd
000003f0: 9139 6a3d 122e c4bc 46cb 8fbd d9aa e63d

layer2.0.downsample.1.weight f4 [64]
0.6171471 0.6684381 0.61457044 0.6821219 0.586355 0.6819244 0.6161127 0.70642126
0.7910875 0.67898667 0.5686486 0.5759362 0.5474286 0.7040291 0.64531976 0.6167313
0.58217764 0.6170374 0.5662709 0.7997235 0.6185473 0.67372626 0.5438468 0.6430165
0.79321486 0.74430114 0.6283095 0.6807405 0.69983596 0.5796681 0.6684747 0.5805014
0.5170423 0.57275736 0.67702574 0.6428233 0.70018387 0.5565385 0.5849705 0.70854354
0.74185926 0.66631895 0.7121685 0.6199151 0.8161408 0.70390177 0.5819979 0.648988
0.70439076 0.7570075 0.6007398 0.64255685 0.64761156 0.64577 0.7046238 0.59480816
0.67365515 0.7305769 0.6477149 0.6775453 0.64319515 0.6226591 0.6927159 0.71023154
00000000: 5afd 1d3f c21e 2b3f 7d54 1d3f 8a9f 2e3f
00000010: 5c1b 163f 9992 2e3f 90b9 1d3f 06d8 343f
00000020: b684 4a3f 12d2 2d3f f492 113f 8e70 133f
00000030: 4824 0c3f 403b 343f ad33 253f 1ae2 1d3f
00000040: 9809 153f 2af6 1d3f 21f7 103f aeba 4c3f
00000050: 1e59 1e3f 5379 2c3f 8b39 0b3f bb9c 243f
00000060: 2110 4b3f 858a 3e3f e4d8 203f 0245 2e3f
00000070: 7328 333f 2165 143f 2821 2b3f bd9b 143f
00000080: e25c 043f 3aa0 123f 8f51 2d3f 1190 243f
00000090: 403f 333f 4f79 0e3f a0c0 153f 1c63 353f
000000a0: 7dea 3d3f e193 2a3f ad50 363f c2b2 1e3f
000000b0: 9aee 503f e832 343f d0fd 143f 1424 263f
000000c0: f452 343f 3ecb 413f 15ca 193f 9b7e 243f
000000d0: dfc9 253f 2f51 253f 3a62 343f 5945 183f
000000e0: aa74 2c3f 1607 3b3f a5d0 253f 9c73 2d3f
000000f0: 70a8 243f 9666 1f3f d455 313f bcd1 353f

layer2.0.downsample.1.bias f4 [64]
-0.3365352 -0.19693115 -0.2402888 -0.3342102 -0.31329548 -0.20764485 -0.27700195 -0.3230558
-0.3317592 -0.23607688 -0.3324515 -0.304537 -0.37213838 -0.23493817 -0.29772985 -0.28910965
-0.23045118 -0.21446516 -0.31718528 -0.2033035 -0.30255735 -0.2687223 -0.25285587 -0.34099266
-0.2239614 -0.2888277 -0.23293479 -0.26004493 -0.3454176 -0.4305411 -0.2612916 -0.23732975
-0.2818306 -0.2646939 -0.21609794 -0.23932356 -0.20256004 -0.19770342 -0.13867143 -0.31523398
-0.21087861 -0.2894853 -0.22424921 -0.3263851 -0.27858984 -0.07655437 -0.259193 -0.25739503
-0.2696288 -0.33526844 -0.23241183 -0.27014336 -0.22682142 -0.25139937 -0.23277491 -0.25617018
-0.20003958 -0.15534797 -0.30561122 -0.28933164 -0.19720753 -0.22075564 -0.1935107 -0.24892
00000000: 574e acbe 52a8 49be 440e 76be 991d abbe
00000010: 4468 a0be daa0 54be 33d3 8dbe 9267 a5be
00000020: 58dc a9be 23be 71be 1537 aabe 46ec 9bbe
00000030: ec88 bebe a293 70be 0c70 98be 2e06 94be
00000040: 65fb 6bbe c19c 5bbe 1c66 a2be cb2e 50be
00000050: cce8 9abe f895 89be 5376 81be 9796 aebe
00000060: 2356 65be 39e1 93be 7586 6ebe 9c24 85be
00000070: 93da b0be e26f dcbe 03c8 85be 9206 73be
00000080: 1a4c 90be f585 87be c748 5dbe 3c11 75be
00000090: e66b 4fbe c472 4abe e2ff 0dbe 5966 a1be
000000a0: 90f0 57be 6b37 94be 96a1 65be f31b a7be
000000b0: 54a3 8ebe 8ac8 9cbd f2b4 84be 48c9 83be
000000c0: c90c 8abe 4ea8 abbe 5efd 6dbe 3b50 8abe
000000d0: e043 68be 6bb7 80be 8c5c 6ebe bd28 83be
000000e0: 2dd7 4cbe 8a13 1fbe 1379 9cbe 4723 94be
000000f0: c5f0 49be c40d 62be ab27 46be e2e4 7ebe

layer2.0.downsample.1.running_mean f4 [64]
-0.36674815 0.7241482 0.052693084 -1.0204842 -0.35786402 -1.0301006 -0.68497825 -1.3831211
-1.444287 -1.0313891 0.4317916 -0.47410622 -0.34780937 -0.44296634 -0.24478617 -0.5819539
0.16363473 0.1350092 -0.3416651 -1.5174385 -0.35567147 -0.9321871 0.25869825 -2.117634
-1.2299402 -0.99949634 -0.51380134 -1.3439552 -0.91893035 -0.89920056 -0.69627166 -0.6681045
0.1454605 -0.20097479 -1.1015021 0.5115597 -0.3160858 0.06664282 -0.46135923 -1.3159535
-0.7050388 -0.6121163 -1.1395284 -1.4287962 0.6535414 -1.166311 -0.7506795 0.024252472
-0.05750625 -0.41844824 -1.32055 -0.1743923 -0.8038586 -0.8259333 -0.063192554 -0.2564499
-0.8028529 -0.0772218 -0.27795365 -0.23005661 -0.58974785 0.3030322 0.03673617 -0.3649753
00000000: 6ac6 bbbe c761 393f b4d4 573d 3a9f 82bf
00000010: f439 b7be 56da 83bf bc5a 2fbf 1d0a b1bf
00000020: 65de b8bf 8f04 84bf ca13 dd3e 0dbe f2be
00000030: 1214 b2be 7ccc e2be 3aa9 7abe eefa 14bf
00000040: dd8f 273e da3f 0a3e baee aebe 6d3b c2bf
00000050: 921a b6be d0a3 6ebf 1974 843e 5187 07c0
00000060: ae6e 9dbf fede 7fbf 7c88 03bf b906 acbf
00000070: 053f 6bbf 0232 66bf dc3e 32bf e608 2bbf
00000080: 99f3 143e 56cc 4dbe 05fe 8cbf 94f5 023f
00000090: ffd5 a1be 087c 883d 4737 ecbe 2a71 a8bf
000000a0: 6c7d 34bf a7b3 1cbf 11dc 91bf cbe2 b6bf
000000b0: 7d4e 273f ae49 95bf 882c 40bf 1fad c63c
000000c0: ac8b 6bbd d93e d6be c807 a9bf e593 32be
000000d0: adc9 4dbf 5d70 53bf 196b 81bd 674d 83be
000000e0: c587 4dbf 7726 9ebd f14f 8ebe f693 6bbe
000000f0: b7f9 16bf 0927 9b3e ab78 163d 0bde babe
