student_models/baseline_res_students/student_5.pth (torch, 346486 bytes, 34 tensors)

conv_initial.0.weight f4 [16, 3, 3, 3]
0	0xbd80ec72	-0.06295098
1	0xbd11eb14	-0.03562458
2	0xbe08ed27	-0.13371716
3	0x3dda0600	0.10645676
4	0x3d90efca	0.07076986
5	0x3dd06e6f	0.101773135
6	0xbb07fc13	-0.0020749613
7	0xbe04e4da	-0.12977925
8	0x3dda41b6	0.106570646
9	0x3d0e6fb9	0.034774516
10	0x3e80a173	0.25123176
11	0xbe7f1c3f	-0.24913119
12	0xbde058d4	-0.109544426
13	0x3d5ae1c9	0.05343798
14	0x3e62bbc7	0.22141944
15	0x3e39c23a	0.18140498
16	0xbe51bb22	-0.20481542
17	0x3ca8dea9	0.020613985
18	0xbe2aaf25	-0.16668375
19	0xbd64c51a	-0.055852033
20	0xbe53b05b	-0.20672743
21	0xbc7c2cfa	-0.015391583
22	0xbcbe256e	-0.023211207
23	0x3e6ff243	0.2343226
24	0x3e5715d2	0.21004418
25	0xbe1c9ac8	-0.1529342
26	0x3d8079af	0.06273209
27	0x3d56056d	0.05225127
28	0x3d19d73b	0.037558775
29	0xbdc2daac	-0.095143646
30	0x3e2b378a	0.16720405
31	0xbdf14307	-0.117803626
32	0x3c77dc58	0.015128218
33	0x3e1e845f	0.15480183
34	0x3da805ec	0.082042545
35	0xbe32a169	-0.17444386
36	0x3cb2af6f	0.021812169
37	0xbdeb6814	-0.11494461
38	0xbd2aa96e	-0.041665487
39	0x3e516991	0.20450427
40	0xbe7b7f01	-0.24560167
41	0xbe409463	-0.18806605
42	0x3e0e019c	0.13867801
43	0x3ddc3b8d	0.10753546
44	0xbe323e67	-0.17406617
45	0x3d97133f	0.07376718
46	0xbd249c20	-0.040187955
47	0xbdcc917f	-0.09988689
48	0x3e3f6db9	0.186942
49	0xbb995dd8	-0.0046803765
50	0xbd90515e	-0.070467696
51	0x3e80bd8c	0.25144613
52	0x3daf9e51	0.08575118
53	0xbe8f9c79	-0.28049067
54	0x3e527ada	0.20554677
55	0x3e24279e	0.16030738
56	0xbda6cec2	-0.08144905
57	0x3c844843	0.016147738
58	0xbd97dbfe	-0.07415007
59	0x3e45707c	0.1928119
60	0xbc27612b	-0.010216038
61	0xbe50bc86	-0.20384416
62	0xbe6f7a45	-0.23386486
63	0x3d959ace	0.07304917
64	0x3c99e341	0.01878512
65	0xbe5f33e7	-0.21797143
66	0xbdf58c91	-0.119897015
67	0x3e151f7f	0.14562796
68	0x3e5156ab	0.20443217
69	0xbc8fc891	-0.017551692
70	0x3df63108	0.12021071
71	0xbdb8b346	-0.09018569
72	0xbe9616ff	-0.2931442
73	0xbe9a548e	-0.30142635
74	0xbe3aa77f	-0.18227957
75	0x3e4e4000	0.20141602
76	0x3e6fdef6	0.23424897
77	0x3dfb6f20	0.12277055
78	0x3e35a66f	0.1773927
79	0x3d20fe28	0.039304882
80	0xbd8134d8	-0.06308907
81	0xbe638ddd	-0.22222085
82	0x3e736032	0.23767164
83	0xbd8075d9	-0.06272478
84	0x3db6b5d6	0.08921401
85	0x3e73c296	0.23804697
86	0xbe73a2b2	-0.23792532
87	0x3cb0f5a4	0.021601506
88	0x3e06ac55	0.13151677
89	0xbe90385e	-0.28168005
90	0xbe0f0561	-0.13966896
91	0x3e54b870	0.20773482
92	0xbd7888d7	-0.060677376
93	0x3c20c334	0.009812165
94	0x3e94e3d1	0.2908006
95	0xbd97ee41	-0.0741849
96	0x3db7ca5d	0.089741446
97	0xbda8d01b	-0.08242818
98	0xbe1ff671	-0.15621354
99	0xbd60eebd	-0.05491518
100	0x3e6328b2	0.22183493
101	0xbddff192	-0.10934748
102	0xb680fc57	-3.8440735e-06
103	0xbc5e16c4	-0.013555232
104	0xbdb49640	-0.088177204
105	0xbdbb0880	-0.091324806
106	0xbbe95858	-0.007121127
107	0x3db3e197	0.08783262
108	0x3cf59eb5	0.029982904
109	0x3d5b7069	0.053574
110	0xbc83cfe3	-0.016090339
111	0xbe1057ad	-0.14095946
112	0xbe4798ba	-0.19491854
113	0x3e2714c6	0.16316518
114	0xbdc2e72d	-0.095167495
115	0x3da506b4	0.08057919
116	0x3e1f736f	0.15571378
117	0xbd8bdd63	-0.068293355
118	0x3ccec5c5	0.025240788
119	0xbdcd7561	-0.10032154
120	0xbe58f453	-0.21186952
121	0xbd94f7e0	-0.07273841
122	0x3e5a8c0d	0.21342488
123	0xbe008257	-0.1254972
124	0x3d3eb351	0.04655773
125	0x3e51ab45	0.2047549
126	0xbea735fe	-0.3265838
127	0xbe2029e9	-0.15640987
128	0x3e92e6d0	0.2869172
129	0xbd95fb03	-0.07323267
130	0x3df8cd24	0.121485025
131	0x3e9a9561	0.30192092
132	0xbe49826f	-0.19678663
133	0xbcabe9df	-0.020985542
134	0x3dc5e6e7	0.09663182
135	0xbe63982f	-0.22226022
136	0x3d3a44cf	0.045475777
137	0x3e8dedd8	0.27720523
138	0xbd757f60	-0.059935927
139	0x3da80d9b	0.0820572
140	0xbdfe8998	-0.12428588
141	0x3e62f91d	0.22165342
142	0x3d6c4fdc	0.057693347
143	0xbe388793	-0.18020467
144	0xbe1d8e0d	-0.1538622
145	0xbda65237	-0.0812115
146	0x3dbc8274	0.092045695
147	0x3d14bcf5	0.036313016
148	0x3cf91cff	0.030409334
149	0xbbf7283c	-0.007542638
150	0x3e1492c7	0.14509116
151	0xbd575395	-0.052569944
152	0xbe905d60	-0.2819624
153	0xbd79802a	-0.060913242
154	0xbe284516	-0.16432604
155	0x3e997ee7	0.2997963
156	0xbcfeb4c2	-0.031092051
157	0x3e8cf906	0.2753374
158	0xbe4b63e1	-0.1986232
159	0x3d425833	0.047447395
160	0xbe0e6943	-0.13907342
161	0x3d930c4b	0.07180079
162	0xbe8eeef3	-0.2791668
163	0xbe969c54	-0.29416144
164	0xbd749045	-0.0597079
165	0x3e354d0c	0.17705172
166	0x3d518c4e	0.051159196
167	0xbd6b6cc0	-0.05747676
168	0x3e0d6840	0.138093
169	0x3e199b38	0.15000618
170	0x3e4375a9	0.19087853
171	0x37dfdf9c	2.6687798e-05
172	0xb9c8247b	-0.00038174153
173	0x3cc0d14e	0.023537304
174	0x3de0e5e9	0.10981352
175	0x3e196762	0.14980844
176	0xbde5e51f	-0.11225342
177	0xbe1fb669	-0.15596928
178	0xbc7a3cf5	-0.015273322
179	0xbe2c6027	-0.16833554
180	0xbdc24557	-0.09485882
181	0xbe26cd06	-0.16289148
182	0xbce2e34a	-0.02769627
183	0x3e715861	0.2356887
184	0x3dd4c5d1	0.10389293
185	0x3e70b229	0.23505463
186	0xbdfd2b95	-0.12361828
187	0xbcfff8a5	-0.031246493
188	0xbd44b09e	-0.048019998
189	0xbeb5a9db	-0.35481152
190	0x3ca9b459	0.02071588
191	0x3e030f1d	0.12798734
192	0xbc5a81d3	-0.013336617
193	0x3e14f95c	0.14548248
194	0x3e91da7a	0.28486997
195	0xbe3cbaba	-0.18430606
196	0x3e7c8223	0.24659018
197	0x3e1b7176	0.1518
198	0x3e367d70	0.17821288
199	0x3ce8a3ed	0.028398478
200	0xbe65a4ba	-0.2242612
201	0x3d90fb38	0.07079166
202	0xbc9104ad	-0.017702425
203	0xbd8ad8b0	-0.06779611
204	0x3d8d8fa7	0.06912165
205	0xbe21aac9	-0.15787806
206	0xbe65d33f	-0.22443865
207	0x3e4e1e76	0.20128807
208	0xbc1c82c5	-0.009552662
209	0x3ac7e92e	0.0015251988
210	0x3c696022	0.014244111
211	0xbe32c255	-0.17456944
212	0xbe644900	-0.22293472
213	0x3e5b3524	0.2140699
214	0xbde5f24b	-0.11227854
215	0x3d07aee7	0.033125784
216	0x3caacc7a	0.020849455
217	0xbe211daf	-0.1573398
218	0x3cf125b0	0.029436916
219	0xbe7adf0d	-0.2449915
220	0xbe808ce4	-0.2510749
221	0xbd76d510	-0.060261786
222	0xbda121ba	-0.07867761
223	0xbe8bcd91	-0.27305272
224	0xbe525b99	-0.20542754
225	0xbce964ef	-0.028490512
226	0xbd085dd4	-0.033292606
227	0xbbfe0ce1	-0.007753
228	0x3dac82eb	0.08423408
229	0x3df5cbc1	0.120017536
230	0xbe3638b1	-0.17795064
231	0xbca67bfa	-0.020322789
232	0x3e4938c3	0.19650559
233	0x3da4387f	0.08018588
234	0x3e939b46	0.28829402
235	0x3d421795	0.04738577
236	0x3dfd537f	0.12369441
237	0x3e6bcdca	0.23027721
238	0x3e894365	0.2680923
239	0x3e2aabe4	0.16667134
240	0x3d9facb9	0.07796616
241	0x3d4c27a2	0.049842484
242	0x3e2132d8	0.15742052
243	0xbd9fbadc	-0.077993125
244	0x3d0757d2	0.033042736
245	0x3c6d2323	0.014473709
246	0x3e3dc043	0.18530373
247	0x3e5bc2c4	0.21461016
248	0x3ea008d1	0.31256726
249	0x3e5dcfdf	0.21661328
250	0x3ed0bec0	0.4077053
251	0xbd8b4167	-0.06799584
252	0x3c8ce190	0.0171974
253	0xbe0061af	-0.12537263
254	0xbd90e250	-0.07074416
255	0xbdaed209	-0.08536155

conv_initial.1.weight f4 [16]
0	0x3f36b603	0.7137148
1	0x3f955d4e	1.1669099
2	0x3f6aa766	0.9166168
3	0x3f990301	1.1954042
4	0x3f92e55a	1.1476243
5	0x3f8ea78a	1.1144879
6	0x3f80129a	1.0005677
7	0x3f638922	0.88881123
8	0x3f4e42f2	0.805709
9	0x3f4700a3	0.77735347
10	0x3f685041	0.9074746
11	0x3f52709e	0.8220309
12	0x3f8663f0	1.0499249
13	0x3f90a972	1.1301711
14	0x3f84815c	1.0351977
15	0x3f7c804d	0.9863327

conv_initial.1.bias f4 [16]
0	0x3e4b45bc	0.1985082
1	0xbd23d058	-0.039993614
2	0x3e81d6e8	0.25359273
3	0x3cff0c87	0.031133903
4	0xbc837570	-0.01604721
5	0xbbfc7b23	-0.0077051087
6	0x3df7f756	0.121077225
7	0xbe2e793f	-0.17038439
8	0x3e83e6c7	0.25762007
9	0xbded32f6	-0.11581986
10	0xbdf4f2b7	-0.11960357
11	0xbc982b8c	-0.018575452
12	0xbda1060c	-0.078624815
13	0xbe2ab488	-0.1667043
14	0xbdfffd17	-0.12499445
15	0x3e8a17af	0.26971194

conv_initial.1.running_mean f4 [16]
0	0x3b88c2ce	0.004173613
1	0xbb59e3a8	-0.0033247266
2	0x3b28f814	0.0025782632
3	0x3ba96ec1	0.0051706736
4	0xbb303a3f	-0.0026890186
5	0xbb541508	-0.0032361168
6	0xbba8f6c5	-0.0051563703
7	0x3c1f3cf4	0.009719122
8	0xbdfcd9ee	-0.12346254
9	0xbd8498c9	-0.06474454
10	0x3bb41c18	0.005496513
11	0xbbc4fadf	-0.0060113515
12	0x3c84e899	0.016224192
13	0xbbd54e37	-0.006509568
14	0x3bbea33c	0.005817799
15	0x3c50b80d	0.012739194

conv_initial.1.running_var f4 [16]
0	0x3cca05ae	0.024660911
1	0x3de00aac	0.109395355
2	0x3cde6827	0.027149273
3	0x3d1403b5	0.036136348
4	0x3df8dce1	0.12151504
5	0x3cc41f49	0.0239407
6	0x3d055293	0.032549452
7	0x3c920bc5	0.017827878
8	0x3e58a3ac	0.21156186
9	0x3ef6401e	0.48095793
10	0x3d853464	0.06504133
11	0x3e2e4999	0.17020263
12	0x3c82b7ce	0.015956786
13	0x3d1df63e	0.038564913
14	0x3d55e813	0.052223276
15	0x3da8cf15	0.08242623

layer1.0.conv.weight f4 [32, 16, 3, 3]
0	0xbd9df3b2	-0.07712497
1	0xbc32a551	-0.010903672
2	0x3da5a571	0.08088196
3	0xbdc35cd2	-0.095391884
4	0x3cc10d08	0.023565784
5	0x3b2f5048	0.0026750732
6	0x3d728a7a	0.059214093
7	0x3dc6a574	0.096995264
8	0xbce9941f	-0.028513012
9	0xbec68638	-0.38774276
10	0x3cb8b0d9	0.022545265
11	0x3de10e16	0.10989015
12	0xbf0417b4	-0.5159867
13	0xbdb88cb3	-0.09011211
14	0x3e68895c	0.22708648
15	0x3cf2d3f4	0.029642083
16	0xbdec5daf	-0.11541306
17	0x3cb52d56	0.022116344
18	0xbcc889ee	-0.024479833
19	0xbe27beb5	-0.16381343
20	0xbcd73094	-0.026268281
21	0xbe3cf004	-0.18450934
22	0xbc14392c	-0.009046834
23	0x3d244f92	0.040114947
24	0xbddd40a9	-0.108033486
25	0xbd2bffc3	-0.04199196
26	0x3cc54772	0.02408192
27	0xbbf2574b	-0.00739566
28	0x3d136a75	0.035990197
29	0x3e3bd551	0.18343093
30	0xbe92a26d	-0.28639546
31	0x3c357795	0.011075874
32	0x3df55926	0.11979894
33	0xbe0d8b35	-0.13822635
34	0xbb8c85f8	-0.0042884313
35	0x3adefbdb	0.0017012315
36	0xbe3b0ea4	-0.18267304
37	0xbe0cac78	-0.13737667
38	0xbe3c8b89	-0.18412603
39	0xbed27003	-0.41101083
40	0xbe8b93cc	-0.27261198
41	0xbc422c21	-0.011851341
42	0xbed376f5	-0.41301695
43	0xbe2ef7f0	-0.17086768
44	0x39cf6dce	0.00039563928
45	0xbe62253a	-0.22084513
46	0x3d89383c	0.06700179
47	0x3e271f30	0.16320491
48	0xbdf4f053	-0.11959901
49	0x3d34f6d9	0.044180725
50	0x3e538ef7	0.20660006
51	0xbe29b4b3	-0.16572838
52	0x3d339a62	0.043848403
53	0x3e396949	0.1810657
54	0x3bf6cdc1	0.007531852
55	0x3dcbe645	0.0995603
56	0x3dabf07f	0.0839548
57	0xbd8388f7	-0.06422608
58	0x3e21ac01	0.1578827
59	0x3e28e310	0.16492867
60	0xbdae4093	-0.0850841
61	0xbdb710cd	-0.08938751
62	0x3d08864f	0.03333121
63	0xbe63b781	-0.2223797
64	0x394da763	0.0001961268
65	0xbbf99646	-0.007616791
66	0xbcb0ece0	-0.021597326
67	0xbc9cea3f	-0.019154666
68	0x3c801c88	0.015638605
69	0x3c64fb8b	0.013975988
70	0x3dd14133	0.10217514
71	0xbca34d7b	-0.019934407
72	0xbd5ce521	-0.05392945
73	0xbda928fa	-0.08259769
74	0x3b903ead	0.004402003
75	0xbe46c9bd	-0.19412895
76	0xbce620f6	-0.028091889
77	0xbd3c267a	-0.04593513
78	0xbe6f39ee	-0.23361942
79	0xbe057c14	-0.13035613
80	0xbd87f51b	-0.06638547
81	0xbdd7843f	-0.10523271
82	0x3cf3a246	0.029740464
83	0x3d820ca3	0.063500665
84	0xbe0746d7	-0.13210617
85	0xbba2b2de	-0.0049651703
86	0xbc526887	-0.012842304
87	0x3c818a45	0.015813002
88	0x3c932f09	0.017966764
89	0x3c5cffaf	0.013488694
90	0x3d5fbec1	0.054625276
91	0x3d1bf109	0.038071666
92	0x3da86a7e	0.08223437
93	0x3d20e5ef	0.03928178
94	0xbd0d2689	-0.034460578
95	0x3b351062	0.0027628173
96	0x3e41e8cb	0.1893646
97	0x3cfbfe92	0.030761037
98	0x3d098966	0.0335783
99	0x3c160da8	0.009158529
100	0xbde54991	-0.11195672
101	0xbe0caa4e	-0.13736841
102	0x3dafc1f7	0.08581918
103	0xbd673e61	-0.056455974
104	0x3d7aec44	0.061260477
105	0x3d8a7e41	0.06762362
106	0x3d7c1959	0.06154761
107	0x3da0e45d	0.07856057
108	0xbe13b5bb	-0.14424793
109	0x3d925fce	0.071471795
110	0x3e5babf8	0.2145232
111	0xbe17e0e8	-0.14831889
112	0xbe0b1742	-0.13583091
113	0x3e466641	0.19374944
114	0xbdfec186	-0.124392554
115	0xbd69b20e	-0.05705457
116	0x3dc34a6e	0.09535681
117	0xbd9d1b75	-0.07671253
118	0xbda05ab8	-0.07829803
119	0x3df4d472	0.11954583
120	0xbe4570c4	-0.19281298
121	0x3d7cf52e	0.06175726
122	0x3b47bdab	0.003047804
123	0xbd63d049	-0.055618558
124	0xbd2bd3c1	-0.04194999
125	0xbcb5cead	-0.022193277
126	0x3d9aa090	0.07550156
127	0xbbd5630c	-0.0065120514
128	0xbc965b9e	-0.018354233
129	0x3d85b16c	0.06527981
130	0x3d5f6814	0.054542616
131	0xbd02a6b1	-0.03189725
132	0x3c40f2d9	0.011776649
133	0xbd278780	-0.040900707
134	0x3cf4b709	0.029872434
135	0xbd446c65	-0.047954936
136	0xbdc72fe7	-0.097259335
137	0xbd5d0b3c	-0.053965792
138	0xbe252f21	-0.1613126
139	0xbd20bf92	-0.039245196
140	0x3d31e721	0.043433312
141	0xbdcc2cb7	-0.09969466
142	0x3d5a000b	0.053222697
143	0x3dafce34	0.08584252
144	0xbdae5fc4	-0.085143596
145	0x3c477178	0.012173049
146	0xbddb7673	-0.10715952
147	0x3dcdf162	0.10055806
148	0x3e1564ba	0.14589205
149	0xbd01c8ab	-0.031685513
150	0xbd578941	-0.05262113
151	0x3ca30b47	0.019902838
152	0xbdcf23ed	-0.10114274
153	0x3b8e23a2	0.004337744
154	0xbb15422f	-0.0022775044
155	0xbc39b1f0	-0.0113339275
156	0xbca5971e	-0.02021366
157	0xbbf0dc47	-0.007350478
158	0x3d950077	0.07275479
159	0xbe0aad34	-0.13542634
160	0x3e035a28	0.1282736
161	0x3df79b7a	0.12090202
162	0xbdc64c79	-0.09682555
163	0xbe11d887	-0.14242755
164	0xbd741bfa	-0.059596993
165	0xbdda6cfd	-0.10665319
166	0xbe030222	-0.12793782
167	0xbd6d3ba1	-0.057918195
168	0xbc9f7f5e	-0.019469913
169	0xbe245f51	-0.16051985
170	0x3d2ff4d4	0.042958096
171	0xbd91a3d4	-0.07111326
172	0xbe09828e	-0.13428709
173	0xbe0d631f	-0.13807343
174	0xbe135e5e	-0.14391467
175	0xbd4a52a8	-0.049395233
176	0x3d92a655	0.071606316
177	0xbdb03b23	-0.086050294
178	0x3ca193a0	0.019723713
179	0x3e55f1fc	0.20893091
180	0x3d666111	0.056244913
181	0x3e465075	0.1936663
182	0x3e52a142	0.20569327
183	0x3dff77b2	0.12474002
184	0x3dfb3a13	0.12266936
185	0x3d6c1f35	0.05764695
186	0x3d8daa20	0.069172144
187	0x3dd19e76	0.10235302
188	0x3ddbb201	0.10727311
189	0xbe560318	-0.20899618
190	0xbe3f5f94	-0.18688804
191	0xbe041472	-0.12898424
192	0xbd0c17b9	-0.03420231
193	0x3d6dd0ec	0.05806057
194	0xbdcdaf35	-0.10043184
195	0xbe76b023	-0.24090628
196	0xbe541988	-0.20712864
197	0xbdaaa308	-0.08331877
198	0x3e378b09	0.17924131
199	0xbc9aa129	-0.018875675
200	0xbe301b3b	-0.17197888
201	0x3d1074ec	0.035267755
202	0x3e2b01c9	0.166999
203	0xbd81766a	-0.06321414
204	0x3c9fd605	0.019511232
205	0xbe7aa3f8	-0.24476612
206	0xbe5c0b8f	-0.21488784
207	0x3e1911f7	0.1494826
208	0x3d23cb43	0.039988767
209	0xbe0a3b77	-0.13499247
210	0x3dca6a87	0.098836
211	0xbdd80061	-0.10546947
212	0xbdd2295c	-0.10261795
213	0xbc1abe9e	-0.009444861
214	0x3cb9db17	0.022687478
215	0x3ba62637	0.0050704735
216	0xbd2e11ce	-0.04249745
217	0xbd59bc76	-0.053158246
218	0x3d99ac70	0.07503593
219	0x3cbfe036	0.023422342
220	0x3dcc9539	0.099893995
221	0x3d955906	0.072923705
222	0xbd525889	-0.051353965
223	0x3ce8c963	0.028416341
224	0x3de8bd5c	0.113642424
225	0xbc5ee318	-0.013603948
226	0xbcdd4b1e	-0.027013358
227	0xbd932cc0	-0.0718627
228	0xbd2e390a	-0.042534865
229	0xbd5f25ff	-0.054479595
230	0xbceec9d9	-0.029148983
231	0x3dd676af	0.10471856
232	0xbcb1c055	-0.021698156
233	0xbd8a8d0c	-0.06765184
234	0x3e100c6e	0.14067242
235	0xbd83c1ff	-0.06433486
236	0xbe8cde46	-0.2751333
237	0x3c4e1570	0.012578353
238	0xbe029e29	-0.12755646
239	0xbe95f9f7	-0.2929227
240	0xbcd4acfb	-0.02596139
241	0xbe825235	-0.25453344
242	0xbeab3abb	-0.33443245
243	0x3d7157b0	0.058921516
244	0x3d147d9a	0.036252595
245	0x3b4f5472	0.0031636027
246	0xbe20f761	-0.15719368
247	0xbde78528	-0.113046944
248	0x3c76ed70	0.015071258
249	0xbe338dc0	-0.17534542
250	0xbe149a32	-0.14511946
251	0xb8f439b1	-0.000116455725
252	0xbd12c5e8	-0.03583327
253	0xbd691c1a	-0.056911565
254	0xbdcd1c20	-0.1001513
255	0xbdde0025	-0.10839871

layer1.0.bn.weight f4 [32]
0	0x3fbb25c7	1.4620904
1	0x3fa34469	1.2755252
2	0x3f9a5555	1.2057291
3	0x3f86d888	1.053483
4	0x3faf4fa0	1.3696175
5	0x3f90c67f	1.1310576
6	0x3f8bc0d0	1.0918217
7	0x3f6ca7c3	0.92443484
8	0x3fb03efc	1.3769221
9	0x3fa730be	1.306175
10	0x3fab3e8d	1.3378464
11	0x3fa586dd	1.2931782
12	0x3f90319b	1.1265138
13	0x3f954d1c	1.1664157
14	0x3f8cda84	1.1004186
15	0x3f9a252a	1.2042592
16	0x3f9fed83	1.2494358
17	0x3f9c29b9	1.2200233
18	0x3f904387	1.1270608
19	0x3f89e26d	1.0772225
20	0x3fa6281c	1.298099
21	0x3f9cbf53	1.2245888
22	0x3f93d2d4	1.1548715
23	0x3fe920ad	1.8213097
24	0x3faa3995	1.3298823
25	0x3f8114ab	1.0084432
26	0x3fb64adf	1.4241599
27	0x3f7f13b3	0.99639434
28	0x3fbdf20e	1.4839494
29	0x3fa24ce4	1.2679715
30	0x3f93b949	1.154092
31	0x3f70d349	0.94072396

layer1.0.bn.bias f4 [32]
0	0xbc9c949f	-0.019113837
1	0x3d61c403	0.055118572
2	0xbe793799	-0.24337615
3	0x3e426d58	0.18987024
4	0xbdba9e0b	-0.091121756
5	0xbe395048	-0.18097031
6	0xbe87a5ea	-0.2649377
7	0x3da0602e	0.07830845
8	0xbdb285a1	-0.08716894
9	0xbd8f43e6	-0.069953725
10	0xbd505d07	-0.050869968
11	0x3d84fdfd	0.06493757
12	0x3e144c6e	0.1448228
13	0xbe36eb74	-0.17863256
14	0x3d3a7fd2	0.045532055
15	0x3d7be135	0.06149407
16	0xbb85f735	-0.0040883073
17	0xbdb11321	-0.08646227
18	0xbe3b4cf5	-0.18291076
19	0x3dad760c	0.08469781
20	0xbe240f98	-0.16021574
21	0x3d47fff1	0.04882807
22	0x3d1ce3bb	0.03830312
23	0x3e3a268d	0.18178768
24	0x3d93777b	0.072005235
25	0xbdee5ce1	-0.11638809
26	0xbdaa1b72	-0.08306016
27	0x3cad0289	0.021119373
28	0x3e11ef03	0.14251332
29	0xbcbbac83	-0.022909408
30	0x3ddc0554	0.10743204
31	0x3d4dd905	0.050255794

layer1.0.bn.running_mean f4 [32]
0	0xbfdc2a6e	-1.7200449
1	0xc02d36a1	-2.7064593
2	0xbc36f672	-0.011167156
3	0x3ed230ca	0.41052848
4	0xbfd1818d	-1.6367661
5	0xbf6b8b54	-0.9200947
6	0xbf7f494f	-0.99721235
7	0x3f983cf2	1.1893599
8	0xbf8ddd9f	-1.1083258
9	0xbed13b10	-0.40865374
10	0xbfc8ccca	-1.5687497
11	0xbe649cab	-0.22325389
12	0xbed9c341	-0.4253178
13	0xbf1482ab	-0.58011883
14	0xbf0f5d7b	-0.56002015
15	0xbf37627c	-0.7163465
16	0xbeee296c	-0.46515977
17	0x3f070b26	0.52751386
18	0xbf4b67ce	-0.7945527
19	0x3f9bdeaa	1.2177327
20	0xbef61897	-0.48065636
21	0xbf99fb23	-1.2029766
22	0x3fd59ed6	1.6689098
23	0xbf9bd5af	-1.2174586
24	0xc0032e66	-2.049707
25	0x3ea2a9d7	0.31770203
26	0x3e39dd2b	0.18150775
27	0x3e788a65	0.24271543
28	0xc0106a42	-2.2564855
29	0xbe93cc59	-0.28866842
30	0x3ed46485	0.4148294
31	0x3f8b5854	1.0886331

layer1.0.bn.running_var f4 [32]
0	0x408ef196	4.4669905
1	0x4086c7b6	4.211879
2	0x400c6430	2.193615
3	0x40264fdf	2.598625
4	0x4081f9da	4.0617495
5	0x3fd7e199	1.6865722
6	0x4041efa7	3.0302522
7	0x403c594c	2.9429502
8	0x4069c8bb	3.6528766
9	0x403dfaa9	2.968424
10	0x401d63b9	2.4592116
11	0x40796053	3.8965042
12	0x400720a3	2.111367
13	0x40028b24	2.0397425
14	0x3fadf5b1	1.3590604
15	0x3fc66f39	1.5502692
16	0x3f983bfa	1.1893303
17	0x400621e9	2.0958197
18	0x403071c1	2.756943
19	0x401c0db1	2.4383357
20	0x3ff59f95	1.9189326
21	0x3fe14811	1.7600118
22	0x401cb450	2.4485054
23	0x4064e5d0	3.5765266
24	0x40761574	3.8450594
25	0x40058658	2.0863247
26	0x400e00c8	2.2187977
27	0x3ff9becb	1.951135
28	0x40a3ae06	5.114993
29	0x3ff8fd5d	1.945232
30	0x3fbeed7a	1.4916222
31	0x400c8283	2.1954658

layer1.0.downsample.0.weight f4 [32, 16, 1, 1]
0	0x3c8bc7ab	0.017062983
1	0x3d6d270a	0.05789856
2	0xbe9f539c	-0.31118476
3	0xbc5d8318	-0.013520025
4	0xbeeafe4e	-0.45897144
5	0xbcc8a426	-0.024492335
6	0xbd7dda0a	-0.061975516
7	0xbd7ad372	-0.061236806
8	0x3e7a88ac	0.24466199
9	0x3e6fd793	0.23422079
10	0x3dfcb8f5	0.12339965
11	0xbe4cd3e4	-0.20002705
12	0x3e1c049c	0.15236133
13	0xbe25f69f	-0.1620736
14	0xbdc530f3	-0.09628477
15	0xbea6ed09	-0.32602718
16	0xbd9c49dd	-0.07631276
17	0xbd97ff83	-0.07421782
18	0x399d97a6	0.0003005836
19	0x3df03d7f	0.117304794
20	0x3e463c46	0.1935893
21	0xbe11b36a	-0.14228597
22	0xbdcecf16	-0.10098092
23	0xbe4e8a28	-0.2016989
24	0xbe3c59c6	-0.18393621
25	0xbb29db9e	-0.0025918256
26	0xbea14351	-0.3149667
27	0x3e25f0c9	0.16205133
28	0x3c6b9eff	0.014381169
29	0xbe56581d	-0.2093205
30	0xbf1388cc	-0.5763061
31	0xbe16f69b	-0.1474251
32	0xbe0e8ab6	-0.13920102
33	0x3e6b4c49	0.22978319
34	0x3dd57fb2	0.104247466
35	0xbd4a4c45	-0.049389143
36	0xbec9c8b7	-0.39410946
37	0xbe8ada87	-0.27119848
38	0xbe7f34db	-0.24922507
39	0x3e700bdc	0.23442024
40	0x3e39db3e	0.1815004
41	0x3c15fa8b	0.009153972
42	0xbe422d7a	-0.1896266
43	0xbe403554	-0.18770343
44	0xbd115e9a	-0.03549061
45	0xbebb2938	-0.36554885
46	0x3e8798cf	0.2648377
47	0xbe922102	-0.28540808
48	0xbe3ee9f6	-0.18643937
49	0xbe163d9f	-0.14671944
50	0x3e28faf9	0.16501988
51	0xbed083df	-0.4072561
52	0xbe68f94b	-0.22751348
53	0xbd355760	-0.04427278
54	0x3ba1fa2c	0.004943153
55	0xbe6ded6d	-0.23235102
56	0xbd17ee12	-0.037092276
57	0x3d01ab7d	0.031657685
58	0xbcc8a6be	-0.024493571
59	0x3e5b0784	0.21389586
60	0xbe467264	-0.19379574
61	0xbf06b24d	-0.52615815
62	0x3dbfc516	0.09363763
63	0xbbf7f252	-0.0075667286
64	0xbd9fa115	-0.07794396
65	0x3ea869d3	0.32893237
66	0xbde13fd4	-0.109985024
67	0x3d5323e2	0.051547892
68	0xbe8a2245	-0.2697927
69	0xbc37ca04	-0.011217598
70	0x3df8af56	0.12142818
71	0x3e4c8ba1	0.19975139
72	0x3c4d40f7	0.012527696
73	0xbe40242e	-0.18763801
74	0xbd4a3ab6	-0.049372397
75	0xbe05089e	-0.12991568
76	0x3e8dc932	0.27692562
77	0xbd4f8873	-0.050667237
78	0x3db8c173	0.090212725
79	0xbe9b7a91	-0.30366948
80	0xbd947a94	-0.072499424
81	0xbc8c835f	-0.017152486
82	0xbe99a9a7	-0.30012247
83	0x3ca445be	0.020052787
84	0xbbb89290	-0.005632706
85	0x3e0fd146	0.14044675
86	0x3e9eec6d	0.31039754
87	0x3d5bc44c	0.053654
88	0x3e266b76	0.1625193
89	0x3e5bace9	0.21452679
90	0x3e2dc0d9	0.16968097
91	0xbe8e037e	-0.2773704
92	0xbe8f4b2a	-0.27987033
93	0x3d99837b	0.07495781
94	0xbcf631a2	-0.030052964
95	0xbe8143a9	-0.25246933
96	0xbe670181	-0.22559167
97	0x3d45040b	0.04809956
98	0xbecef35a	-0.40420038
99	0x3db5da9a	0.088795856
100	0x3a4591e7	0.0007536695
101	0x3caffcca	0.021482844
102	0xbecfae37	-0.40562603
103	0x3cb500ed	0.022095168
104	0x3d7d3987	0.06182244
105	0x3e0c8e21	0.13726093
106	0x3da56d5f	0.080775015
107	0x3cd66043	0.026168948
108	0x3dc096e8	0.09403783
109	0xbec52008	-0.38501
110	0x3c2c25ee	0.01050709
111	0xbe6bd341	-0.23029806
112	0xbd9781bb	-0.07397791
113	0x3da8cc42	0.08242084
114	0xbce22d80	-0.027609587
115	0xbd032af0	-0.03202337
116	0x3d7a75b0	0.06114739
117	0x3d0e7fbc	0.034789786
118	0xbc9e4e43	-0.019324427
119	0xbe2d3711	-0.16915537
120	0xbf14da17	-0.5814528
121	0xbe239ac6	-0.1597701
122	0x3d3ffba4	0.046870843
123	0xbd84e830	-0.06489599
124	0xbd66c749	-0.056342397
125	0xbe41869d	-0.18899007
126	0x3dc10b8b	0.0942603
127	0xbe3625d5	-0.1778787
128	0xbe1a0b00	-0.15043259
129	0x3e644fe7	0.22296105
130	0x3da12edb	0.07870265
131	0xbe793905	-0.24338157
132	0x3d85a776	0.06526081
133	0xbe6d1b31	-0.23154904
134	0xbe0b979c	-0.13632053
135	0x3d980e67	0.07424622
136	0x3d29b567	0.041432764
137	0x3ebbdfec	0.36694276
138	0x3c45a14f	0.012062385
139	0x3e57243a	0.21009913
140	0xbe7c60ec	-0.24646348
141	0x3dc3cdb6	0.095607206
142	0xbe091f6e	-0.13390896
143	0xbe849e63	-0.2590209
144	0xbeaaf257	-0.33388016
145	0xbdb80136	-0.08984606
146	0xbf07b801	-0.5301514
147	0xbde7d617	-0.11320131
148	0xbddad2f7	-0.106847696
149	0x3d3931ad	0.04521339
150	0xbdced3ed	-0.100990154
151	0x3d5a2cb3	0.053265285
152	0x3c85d38b	0.016336223
153	0x3e23be25	0.15990503
154	0xbea833d9	-0.32852057
155	0xbe132081	-0.14367868
156	0x3d8d4e84	0.06899741
157	0x3ddb4e6b	0.107083164
158	0xbe3a8b10	-0.1821711
159	0x3e016fba	0.12640277
160	0xbd9f1d14	-0.07769218
161	0xbec150df	-0.37757012
162	0xbd991e98	-0.074765384
163	0xbed09431	-0.4073806
164	0x3e7ab9eb	0.24484985
165	0xbdc7f8f8	-0.09764284
166	0x3e5bbae9	0.2145802
167	0x3e1b1369	0.15144123
168	0x3d436be8	0.04771033
169	0x3cd3c053	0.025848543
170	0x3e60cc0c	0.21952838
171	0xbe459908	-0.19296658
172	0x3d362415	0.044468004
173	0xbe299872	-0.1656206
174	0xbe9e8af9	-0.30965403
175	0x3d89d34d	0.067297556
176	0x3ca4355f	0.02004498
177	0xbe63dbcb	-0.22251813
178	0xbe8bf08f	-0.2733197
179	0xbda45175	-0.08023349
180	0x3d0157a2	0.031577714
181	0x3bba23ec	0.0056805518
182	0xbe43ebed	-0.19132967
183	0x3e19abfe	0.15007016
184	0xbed804b6	-0.42191094
185	0x3e948a9e	0.29012007
186	0xbe0209e5	-0.12699087
187	0xbda1f3fd	-0.07907865
188	0x3caa4e5e	0.020789322
189	0xbddd370f	-0.10801517
190	0xbe957744	-0.29192555
191	0x3e04797a	0.12936965
192	0xbe6d6cd4	-0.23186046
193	0x3e54343b	0.2072305
194	0xbd8376bf	-0.064191334
195	0x3e644b5d	0.22294374
196	0x3e6eeacc	0.23331755
197	0x3da41680	0.08012104
198	0xbe10e803	-0.14151005
199	0x3c80c2d2	0.015717898
200	0xbebace01	-0.36485294
201	0xbe9ab991	-0.302197
202	0xbdad3b9f	-0.084586374
203	0xbdd9da28	-0.10637313
204	0xbc1f375a	-0.009717787
205	0x3e993f1c	0.2993096
206	0xbed7ca4b	-0.42146525
207	0xbc9ddf9a	-0.01927166
208	0x3ce6dd4a	0.02818169
209	0x3e367075	0.17816336
210	0x3bb2c48e	0.00545556
211	0x3d726506	0.059178375
212	0x3bf11c1e	0.007358088
213	0xbe19bbb1	-0.15013005
214	0xbe8f43d7	-0.27981445
215	0xbdd94b5b	-0.10610076
216	0x3db01a19	0.08598728
217	0xbdb7480b	-0.08949288
218	0xbe9661ba	-0.29371434
219	0xbe47db3b	-0.19517224
220	0xbe2cfd5d	-0.16893525
221	0xbe1dc06e	-0.15405437
222	0xbeca0b08	-0.3946154
223	0xbde405d5	-0.11133925
224	0xbdcd9072	-0.100373164
225	0x3d41a435	0.04727574
226	0x3e4050b3	0.18780784
227	0xbda52647	-0.080639414
228	0x3dd5a138	0.10431141
229	0xbdaa29e7	-0.083087735
230	0x3e0eb6e4	0.13936955
231	0x3c696f29	0.014247694
232	0x3d48179d	0.048850644
233	0x3e1aadfd	0.15105434
234	0x3e812497	0.25223228
235	0xbeba79a4	-0.3642093
236	0xbdd78735	-0.105238356
237	0x3d470a2c	0.048593685
238	0x3eb6e384	0.35720456
239	0x3e399148	0.18121827
240	0x3e1ed745	0.15511806
241	0xbd90e5a3	-0.0707505
242	0xbe1e1189	-0.15436377
243	0xbe53097f	-0.20609091
244	0xbe2cee6c	-0.16887826
245	0x3e568cf7	0.20952211
246	0xbe9074ed	-0.28214207
247	0x3dd58ba4	0.10427025
248	0xbe343c69	-0.1760117
249	0xbc22c923	-0.00993565
250	0xbd850bc5	-0.064963855
251	0x3e014c02	0.12626651
252	0x3df34484	0.11878303
253	0x3e277379	0.16352643
254	0x3df62e36	0.12020533
255	0x3ec2822d	0.3798994

layer1.0.downsample.1.weight f4 [32]
0	0x3f466c20	0.77508736
1	0x3f4ba4f8	0.795486
2	0x3f5ca581	0.8619004
3	0x3f5bd07d	0.85865
4	0x3f181a84	0.5941546
5	0x3f6766f1	0.9039145
6	0x3f73e868	0.952765
7	0x3f61924a	0.88113844
8	0x3f48f254	0.78494763
9	0x3f3a5294	0.72782254
10	0x3f538f9b	0.82641
11	0x3f23fff7	0.64062446
12	0x3f599ccb	0.8500487
13	0x3f559644	0.8343241
14	0x3f41388d	0.75476915
15	0x3f12be61	0.57321745
16	0x3f357461	0.70880705
17	0x3f223080	0.63355255
18	0x3f50b1ac	0.81521106
19	0x3f2e9bb0	0.6820631
20	0x3f3e833a	0.74418986
21	0x3f5c767c	0.8611829
22	0x3f3fea0e	0.74966514
23	0x3f390410	0.72271824
24	0x3f7ced89	0.9879995
25	0x3f31542b	0.69269055
26	0x3f381924	0.7191336
27	0x3f32a6cb	0.69785756
28	0x3f491f18	0.7856307
29	0x3f218a48	0.63101625
30	0x3f318983	0.6935045
31	0x3f5bc8e4	0.8585341

layer1.0.downsample.1.bias f4 [32]
0	0xbe547bab	-0.207503
1	0xbd98833c	-0.07446906
2	0xbe914070	-0.28369474
3	0xbd0e31bf	-0.03471541
4	0xbec3decf	-0.38255927
5	0xbe41ba00	-0.1891861
6	0xbdccafe4	-0.09994486
7	0x3df6e682	0.120556846
8	0xbe9b50ea	-0.3033517
9	0xbd31095b	-0.043221813
10	0xbe9edee2	-0.3102942
11	0xbe0557e8	-0.13021815
12	0x3df1c115	0.118044056
13	0xbe06c71d	-0.13161893
14	0x3ddbebd3	0.10738339
15	0xbe4f67d6	-0.20254454
16	0xbe4066af	-0.1878917
17	0xbe1945e9	-0.14968075
18	0xbe08d43b	-0.1336221
19	0xbe7ddd4b	-0.24791448
20	0xbe553359	-0.20820369
21	0xbe10a50a	-0.14125457
22	0xbd23c626	-0.03998389
23	0x3d8c51dd	0.06851552
24	0xbe2e711f	-0.1703534
25	0xbdd4bc87	-0.10387521
26	0xbd87e39f	-0.06635212
27	0xbdf0a21d	-0.11749671
28	0xbe8cceb8	-0.27501464
29	0x3cc5cd12	0.024145637
30	0xbe2384d5	-0.1596864
31	0xbe3dccc8	-0.18535149

layer1.0.downsample.1.running_mean f4 [32]
0	0xbf44be8f	-0.7685327
1	0xbf5c44b7	-0.8604235
2	0xbf6ceaed	-0.9254597
3	0xbf855fdd	-1.041988
4	0xbdc2a4e8	-0.095041096
5	0xbe5b8914	-0.2143901
6	0xbf718f9f	-0.94359773
7	0xbf31d592	-0.6946651
8	0xbee01a6e	-0.43770164
9	0xbf71af1f	-0.9440784
10	0xbefe3f7a	-0.49657804
11	0xbf4e0d45	-0.80489
12	0xbe4eb197	-0.20184933
13	0xbf6690f8	-0.90064955
14	0x3ef83d2c	0.4848417
15	0x3e25cbf6	0.16191086
16	0xbcd92727	-0.026507927
17	0x3de5dd9b	0.112239085
18	0x3f36b6aa	0.71372473
19	0xbeb44e45	-0.35215965
20	0x3ece891f	0.4033899
21	0xbf824f0a	-1.0180371
22	0xbf382e03	-0.7194521
23	0x3f68bb79	0.9091106
24	0xbf071d1a	-0.5277878
25	0x3ea5de88	0.3239634
26	0xbfb42cb7	-1.4076146
27	0x3f7723f8	0.9653926
28	0xbed16f36	-0.4090516
29	0x3e1d1bfd	0.15342708
30	0xbedafad1	-0.42769483
31	0xbedb2891	-0.42804387

layer1.0.downsample.1.running_var f4 [32]
0	0x3f221eaf	0.6332807
1	0x3ee9962f	0.45622393
2	0x3f8b0ec2	1.0863879
3	0x3f91f9f1	1.1404401
4	0x3f26ea49	0.6520124
5	0x3e9517c8	0.29119706
6	0x3f372075	0.715339
7	0x3e65dad9	0.22446765
8	0x3ea6f938	0.32612014
9	0x3f4771f8	0.7790828
10	0x3f70013f	0.937519
11	0x3efa3f7c	0.4887656
12	0x3f25a092	0.64698136
13	0x3edcc719	0.4312065
14	0x3ea407a4	0.3203708
15	0x3ecbbfc0	0.3979473
16	0x3e9e60ac	0.3093313
17	0x3ea0dc39	0.31418017
18	0x3f09846d	0.5371769
19	0x3e6383ad	0.22218199
20	0x3eb1cae4	0.34725106
21	0x3f7856bc	0.97007346
22	0x3ebbe1b1	0.36695626
23	0x3ea595d7	0.3234088
24	0x3ec95158	0.39319873
25	0x3ea62d6b	0.32456526
26	0x3f5265df	0.8218669
27	0x3f19f482	0.60138714
28	0x3ed52f3f	0.41637608
29	0x3ee2c8fb	0.4429396
30	0x3ea81ac3	0.32832918
31	0x3e867010	0.26257372

layer2.0.conv.weight f4 [64, 32, 3, 3]
0	0x3d429d9c	0.04751359
1	0xbd867c0a	-0.06566627
2	0x3e176ebc	0.14788336
3	0x3b2d9c4a	0.002649086
4	0xbb9bd067	-0.004755068
5	0xbdae3dc2	-0.08507873
6	0xbe1c560b	-0.15267198
7	0xbe6a32f1	-0.22870995
8	0xbe0b35a7	-0.13594685
9	0x3dd7bab0	0.10533655
10	0xbe3c228b	-0.18372552
11	0xbdccdcd9	-0.10003061
12	0xbb5e36c1	-0.0033907148
13	0xbd6391ac	-0.055558845
14	0x3da83409	0.0821305
15	0x3db3d0c3	0.087800525
16	0xbd0b6cf1	-0.03403944
17	0x3d627afb	0.055293065
18	0x3e190994	0.1494506
19	0x3c42e19a	0.011894608
20	0x3c47ea1b	0.012201811
21	0xbdc85846	-0.09782462
22	0xbd7cd475	-0.061726052
23	0x3de4a9db	0.1116521
24	0xbd2f93e0	-0.042865634
25	0xbdbdd4e5	-0.09269122
26	0xbd4a05b4	-0.049321845
27	0x3c6f5122	0.014606746
28	0x3ca996ee	0.020701852
29	0xbd32d4b1	-0.04365987
30	0x3dd3f497	0.10349386
31	0xbd818a53	-0.063252114
32	0x3decf66b	0.11570438
33	0xbde38100	-0.11108589
34	0x3d58f6dd	0.052969802
35	0x3c83c57b	0.016085377
36	0x3e2e9d8f	0.17052291
37	0x3dfdf9bb	0.12401148
38	0xbdee0254	-0.11621538
39	0x3e0597d1	0.13046195
40	0x3e871076	0.26379746
41	0xbd931ae0	-0.071828604
42	0x3e007f3f	0.1254854
43	0xbd552c93	-0.052044462
44	0x3d476805	0.048683185
45	0x3da66594	0.08124843
46	0x3de22f73	0.110442065
47	0xbd54917f	-0.05189657
48	0xbd6fff74	-0.05859323
49	0xbd938c88	-0.072045386
50	0x3d32149c	0.043476686
51	0x3b657d18	0.0035017189
52	0xbe2a496f	-0.16629575
53	0x3c8f601c	0.017501883
54	0xbdb21566	-0.08695488
55	0xbd01dd33	-0.031705093
56	0x3ca9b532	0.020716283
57	0x3d8f6d27	0.07003241
58	0xbe195f88	-0.14977849
59	0x3c6ced0b	0.014460812
60	0xbd7724c7	-0.060337808
61	0xbe7e5b06	-0.2483941
62	0xbc74bd3a	-0.014937693
63	0x3e7c6856	0.24649176
64	0x3c9f46b3	0.019442892
65	0xbb9da1d5	-0.0048105516
66	0x3d99b08f	0.07504379
67	0xbcd523c0	-0.026018023
68	0x3e328fd8	0.17437685
69	0xbc9540a8	-0.018219307
70	0xbd95fe8d	-0.07323942
71	0x3d8fe743	0.070265315
72	0xbe1d758c	-0.15376872
73	0xbcffa5a9	-0.031206923
74	0xbe022473	-0.12709217
75	0x3e3e46f6	0.18581757
76	0xbdba090b	-0.09083756
77	0xbce4b1cf	-0.027916817
78	0x3e38b2d3	0.18036966
79	0x3d9c1308	0.076208174
80	0xbc030a42	-0.007998051
81	0xbdeb9317	-0.115026645
82	0x3d2f303e	0.042770617
83	0x3d108bca	0.035289563
84	0x3d1c2ea6	0.038130425
85	0x3e2956bc	0.16536993
86	0xbbf1f83e	-0.007384329
87	0xbe1a7a06	-0.15085611
88	0xbcefd8a1	-0.029278101
89	0xbdcbb2d6	-0.099462196
90	0x3e5ae1ae	0.21375152
91	0xbd70fa47	-0.058832433
92	0xbe0b4299	-0.13599624
93	0x3d160225	0.03662314
94	0x3e08e61a	0.13369027
95	0x3e023e23	0.12719016
96	0xbc808f79	-0.015693413
97	0xbcfec198	-0.031098172
98	0x3e4493ad	0.19196959
99	0x3e0220b2	0.12707785
100	0x3e7c0f04	0.24615103
101	0x3df346eb	0.11878761
102	0x3d74dc39	0.059780333
103	0x3c9e1cb1	0.01930079
104	0xbca62959	-0.020283388
105	0xbcac519d	-0.02103501
106	0x3d9c1d4f	0.07622778
107	0xbdf80cb1	-0.12111796
108	0x3dac5cbf	0.084161274
109	0xbe7227a6	-0.23647937
110	0x3e1d8e22	0.1538625
111	0xbe09c3c4	-0.13453585
112	0xbd5052fa	-0.050860383
113	0xbe518a8f	-0.20463012
114	0x3b16bccd	0.0023000718
115	0xbd9c2f2e	-0.07626186
116	0xbc8b22ed	-0.016984427
117	0x3e31dbe4	0.17369038
118	0x3d2235f5	0.03960224
119	0xbe485f8a	-0.19567695
120	0x3e2d8ac5	0.16947468
121	0x3e1b41bb	0.15161793
122	0x3dc2d549	0.09513337
123	0x3d09d210	0.033647597
124	0xbd2d5e6d	-0.04232638
125	0xbdef559b	-0.1168625
126	0x3d18e0ff	0.037323948
127	0x3e35f5c1	0.17769529
128	0xbc4fa93e	-0.012674628
129	0x3d06ea25	0.03293814
130	0x3d4ce691	0.050024573
131	0x3e58e563	0.21181254
132	0xbda67bb2	-0.08129062
133	0xbda7922d	-0.08182178
134	0x3d72ccf8	0.059277505
135	0x3df3650a	0.11884506
136	0xbcd78121	-0.02630669
137	0x3d82ded4	0.06390157
138	0xbdcff7f7	-0.101547174
139	0xbc6aecbf	-0.014338671
140	0x3e0d0ecf	0.1377518
141	0xbe777eae	-0.24169418
142	0xbd1fa4bf	-0.038975473
143	0xbd3ea503	-0.046544086
144	0xbdcf1640	-0.10111666
145	0xbe89b53f	-0.26896092
146	0xbd2c5d5d	-0.042081226
147	0xbda0895d	-0.078387
148	0xbe2d890a	-0.16946808
149	0xbdbb9451	-0.091591485
150	0xbda163d3	-0.07880368
151	0xbd93268e	-0.07185088
152	0x3dd24b84	0.1026831
153	0x3e800435	0.2500321
154	0x3dc35422	0.095375314
155	0x3ca1b50e	0.019739654
156	0x3dd077ad	0.10179076
157	0xbdb7936e	-0.08963667
158	0xbc37f9b5	-0.011228968
159	0xbe12f05b	-0.14349501
160	0xbe439b3b	-0.19102184
161	0xbd5306bb	-0.05152009
162	0x3c691abc	0.014227565
163	0x3d2ad1d7	0.041704025
164	0x3df2d803	0.11857607
165	0x3d8d5a6b	0.069020115
166	0x3e14960f	0.14510368
167	0xbd73b5d7	-0.059499588
168	0x3cddb4b1	0.0270637
169	0xb99ccfad	-0.0002990937
170	0xbd8c9869	-0.068650074
171	0x3e27a90f	0.16373084
172	0x3e15146e	0.14558575
173	0x3c73f8cc	0.014890861
174	0xbdddd3bb	-0.108314
175	0xbd8f678f	-0.07002174
176	0x3e6a4279	0.2287692
177	0xbe0a73df	-0.13520764
178	0xbddb4f74	-0.10708514
179	0x3e3f52fc	0.18684
180	0x3c558453	0.013032037
181	0x3de5fa1d	0.11229346
182	0xbd2668da	-0.040627338
183	0xbe4e656f	-0.20155881
184	0xbbee53e6	-0.007273185
185	0x3de477f2	0.1115569
186	0xbdca8573	-0.09888735
187	0xbe19e96c	-0.1503045
188	0xbd29acc7	-0.04142454
189	0xbd2a84ed	-0.041630674
190	0xbe022d64	-0.12712628
191	0xbc83d0ad	-0.016090715
192	0x3e321b28	0.17393172
193	0xbd19270a	-0.037390746
194	0x3ce8c4b1	0.028414102
195	0x3c5c0d12	0.013430851
196	0xbe693e02	-0.2277756
197	0x3c848d14	0.016180553
198	0xbdd08d38	-0.10183185
199	0xbe95d146	-0.29261225
200	0xbdc46620	-0.09589791
201	0xbcf9ae57	-0.03047864
202	0xbb26bc1b	-0.002544171
203	0xbd077987	-0.033074882
204	0x3c08b9db	0.008345093
205	0xbc6cc6d9	-0.014451706
206	0xbe07f545	-0.13277157
207	0xbdf43a39	-0.119251676
208	0xbe3dcd21	-0.18535282
209	0x3d2048dc	0.039131984
210	0xbde43b7e	-0.1114416
211	0xbd2b6f0b	-0.041853946
212	0xbda9144f	-0.08255827
213	0xbe1e1bcf	-0.15440296
214	0xbe8e35ae	-0.2777533
215	0xbd64b6d4	-0.05583842
216	0x3e0fc7ec	0.14041108
217	0x3eaa0609	0.3320773
218	0x3e0557a5	0.13021715
219	0x3e451281	0.1924534
220	0x3dc74ec9	0.09731824
221	0x3df93196	0.12167661
222	0x3d7f46be	0.062323324
223	0x3e0bfb7b	0.13670151
224	0xbcdfc7ad	-0.027316893
225	0x3db2f943	0.08738949
226	0xbc6425de	-0.013925044
227	0x3d6f3443	0.05839945
228	0x3daa8b4e	0.083273515
229	0x3d17ca8e	0.037058406
230	0x3d30da88	0.043177158
231	0xbe122e1a	-0.14275399
232	0xbe02f379	-0.1278819
233	0x3d83da30	0.064381
234	0x3e971753	0.29509982
235	0x3ccb454e	0.02481332
236	0x3db090e7	0.08621388
237	0x3e1d36fd	0.15353008
238	0xbd106613	-0.035253596
239	0xbad42c1f	-0.0016187466
240	0xbc8e05c5	-0.017336736
241	0xbd32f669	-0.043692026
242	0xbde2214b	-0.110415064
243	0x3c34b2bf	0.0110289445
244	0x3d98b299	0.0745594
245	0x3dce952b	0.10087045
246	0xbd3429dc	-0.043985233
247	0x3d64caeb	0.05585758
248	0xbd9da468	-0.07697374
249	0x3db06040	0.08612108
250	0xbe415cc2	-0.1888304
251	0xbdf8971e	-0.12138198
252	0xbd8c8739	-0.06861729
253	0x3cf46153	0.029831564
254	0xbde48288	-0.11157709
255	0x3d88dff1	0.066833384

layer2.0.bn.weight f4 [64]
0	0x3f895bfd	1.0731198
1	0x3f864680	1.0490265
2	0x3f9c1580	1.2194061
3	0x3f9c0d52	1.2191565
4	0x3f89a695	1.0753962
5	0x3f887988	1.0662088
6	0x3f897912	1.0740073
7	0x3f93f352	1.155863
8	0x3fa0994e	1.2546785
9	0x3f9ade05	1.2099005
10	0x3f92d7d7	1.1472119
11	0x3f975931	1.1824094
12	0x3f903c07	1.1268319
13	0x3fa956fe	1.3229673
14	0x3f960675	1.172072
15	0x3f948c10	1.1605244
16	0x3f994949	1.197549
17	0x3f8c7e3a	1.0976021
18	0x3f8cc68c	1.0998092
19	0x3f91fbe6	1.1404998
20	0x3f939cbc	1.1532207
21	0x3f8892a0	1.0669746
22	0x3f840a9d	1.0315739
23	0x3f8b1433	1.0865539
24	0x3f9e1319	1.2349578
25	0x3f86bc4c	1.0526214
26	0x3f8d3d48	1.1034327
27	0x3f9278cc	1.1443114
28	0x3f92bf4a	1.1464627
29	0x3f939b2c	1.153173
30	0x3f9cab43	1.2239765
31	0x3fa2b3a9	1.2711078
32	0x3f915e28	1.1356859
33	0x3fa2b2a9	1.2710773
34	0x3f91a818	1.1379423
35	0x3fa0ad67	1.2552918
36	0x3f959853	1.1687111
37	0x3f99492a	1.1975453
38	0x3f949499	1.1607848
39	0x3fa6314a	1.2983792
40	0x3f91033e	1.1329114
41	0x3fa3741c	1.2769809
42	0x3f925e35	1.1435
43	0x3f8333eb	1.0250219
44	0x3f9d8c5d	1.230846
45	0x3f8f4f7a	1.1196129
46	0x3f936bdd	1.1517292
47	0x3f979618	1.184268
48	0x3f8e6b28	1.1126451
49	0x3f8e0f0d	1.1098343
50	0x3f992adb	1.1966203
51	0x3f96f7bd	1.1794354
52	0x3f9bb3a6	1.2164199
53	0x3f8b8205	1.0899054
54	0x3fa11bb1	1.2586576
55	0x3f8c0e8c	1.0941939
56	0x3f8342d4	1.0254769
57	0x3fa39729	1.2780505
58	0x3f87c1f9	1.0606071
59	0x3f89b889	1.0759441
60	0x3f914381	1.1348726
61	0x3f95e599	1.1710693
62	0x3fb269aa	1.3938496
63	0x3f964d5f	1.1742362

layer2.0.bn.bias f4 [64]
0	0xbe8d56d7	-0.27605316
1	0xbe2c6445	-0.16835125
2	0xbe187ef5	-0.1489218
3	0xbea10e8f	-0.3145642
4	0xbe4885ee	-0.1958234
5	0xbe8c4ea8	-0.2740376
6	0xbe8db404	-0.27676404
7	0xbe8a4331	-0.27004388
8	0xbdc055f3	-0.093913935
9	0xbe5976a8	-0.2123667
10	0xbd8d797d	-0.06907938
11	0xbeaae74e	-0.33379596
12	0xbe614e2c	-0.22002476
13	0xbe3d94de	-0.1851382
14	0xbdf3a99c	-0.11897585
15	0xbe4ad588	-0.19808018
16	0xbe5b1bd7	-0.21397339
17	0xbe854e4e	-0.26036304
18	0xbe931e2c	-0.28733957
19	0xbe6c3243	-0.23066048
20	0xbe09ffbe	-0.13476464
21	0xbe0671b2	-0.13129309
22	0xbec20da6	-0.37901038
23	0xbdec1d7d	-0.11529062
24	0xbe38bfbe	-0.18041894
25	0xbe17929c	-0.14802021
26	0xbe46a567	-0.19399033
27	0xbe94928f	-0.29018065
28	0xbe3cccd6	-0.18437514
29	0xbe4a5011	-0.19757105
30	0xbdedfcac	-0.11620459
31	0xbe20596c	-0.15659112
32	0xbe0a11d0	-0.13483357
33	0xbe59daf0	-0.21274924
34	0xbe888b71	-0.26668885
35	0xbe05dbf9	-0.13072194
36	0xbe171bae	-0.14756653
37	0xbe6be82e	-0.23037788
38	0xbe318069	-0.17334141
39	0xbe89d0b0	-0.26917028
40	0xbe8dc83c	-0.2769183
41	0xbda9cc8f	-0.082909696
42	0xbe1fcaa7	-0.1560465
43	0xbe272a8e	-0.16324827
44	0xbe0784c2	-0.13234237
45	0xbda765f2	-0.081737414
46	0xbdea3f90	-0.11437905
47	0xbdfc766f	-0.12327277
48	0xbdf55594	-0.11979213
49	0xbdd75439	-0.10514111
50	0xbe505bd1	-0.20347525
51	0xbe464872	-0.19363573
52	0xbe1d03d8	-0.15333498
53	0xbe387845	-0.18014629
54	0xbdb52eed	-0.08846841
55	0xbe54df58	-0.20788324
56	0xbe6a8abd	-0.22904487
57	0xbe48783b	-0.19577114
58	0xbe3ebb18	-0.18626058
59	0xbe23dba0	-0.16001749
60	0xbe117533	-0.14204864
61	0xbe2afb17	-0.16697346
62	0xbe420200	-0.18946075
63	0xbdb4d4ac	-0.088296264

layer2.0.bn.running_mean f4 [64]
0	0xbfde159d	-1.7350346
1	0xbfd26f99	-1.6440307
2	0xc00e8571	-2.2268946
3	0xbf805b7c	-1.0027919
4	0xbf914574	-1.134932
5	0xc005c3f2	-2.0900846
6	0xc02e1a60	-2.7203598
7	0xbf815b65	-1.0106016
8	0x3dadfd85	0.08495621
9	0xc0382916	-2.8775077
10	0xc04b6fd8	-3.1787014
11	0xc0149aa9	-2.3219397
12	0xc013b86b	-2.308131
13	0xbed8081a	-0.4219368
14	0xc064877d	-3.5707695
15	0xc0331df9	-2.7987044
16	0xbe21520e	-0.15753958
17	0xbfa0de44	-1.256783
18	0xbe139899	-0.1441368
19	0xbe26f565	-0.16304548
20	0xc03ced28	-2.9519749
21	0x3fbe1fe3	1.4853481
22	0x3f5af6e2	0.85532963
23	0xbfc20b5f	-1.515972
24	0xbfe996a5	-1.8249098
25	0xbeceef70	-0.4041705
26	0xc028ff53	-2.6405838
27	0xbe241b85	-0.16026123
28	0xbfc85f2d	-1.5654045
29	0xbf991cd7	-1.1961926
30	0xbfd63dc4	-1.6737599
31	0xc0233328	-2.5499973
32	0xbffc38b8	-1.9704809
33	0xbf912d06	-1.1341865
34	0xbf9f1365	-1.2427794
35	0xbfa49077	-1.2856587
36	0x3ebc454b	0.36771616
37	0x3fbaa5ef	1.4581889
38	0xc05fb7ab	-3.4955852
39	0xbe87172f	-0.26384875
40	0xbde9a4b2	-0.11408366
41	0xc0874422	-4.227067
42	0xc0880fbe	-4.2519217
43	0xc02dfc06	-2.7185073
44	0xc044b7cb	-3.0737178
45	0xc04841d7	-3.1290185
46	0xbfe2b620	-1.771183
47	0xc0287bfc	-2.6325674
48	0xbf9f8b98	-1.2464476
49	0xbed3fec0	-0.41405296
50	0xbf0fe288	-0.56205034
51	0xbfad0ca9	-1.3519489
52	0xbfc0151e	-1.5006444
53	0x3f4b4a81	0.7941056
54	0xbf84b740	-1.0368423
55	0xc043a5a1	-3.0569842
56	0xbf517a09	-0.81826836
57	0xbe85ea97	-0.2615554
58	0x3f86ff8c	1.0546737
59	0xc0a1ab52	-5.052163
60	0xc0b6602c	-5.6992397
61	0xc0299dcf	-2.6502569
62	0xc02f28c1	-2.7368624
63	0xc06fc20a	-3.7462182

layer2.0.bn.running_var f4 [64]
0	0x4096d9cd	4.714087
1	0x404b2540	3.1741486
2	0x40513646	3.2689376
3	0x40328d29	2.7898657
4	0x4031488f	2.7700536
5	0x404eeec7	3.2333238
6	0x4084b01b	4.1464972
7	0x402a79d5	2.663686
8	0x407e9fa4	3.9784937
9	0x40946448	4.6372414
10	0x4091fef5	4.5623727
11	0x407d1526	3.9544158
12	0x404f2fe1	3.2372973
13	0x409ffe7b	4.9998145
14	0x4085f101	4.1856694
15	0x40365c1b	2.8493717
16	0x406b061c	3.672248
17	0x404545d7	3.0823877
18	0x40373519	2.8626158
19	0x4086df3c	4.2147503
20	0x40699708	3.6498432
21	0x409e275e	4.9423056
22	0x40671727	3.610788
23	0x406d8d60	3.7117538
24	0x40625979	3.536711
25	0x406e7778	3.7260418
26	0x40522343	3.2834022
27	0x4042a559	3.041342
28	0x4024f5bb	2.5774982
29	0x40540245	3.3126385
30	0x404af6d7	3.171316
31	0x40a0902a	5.017598
32	0x404fa764	3.2445917
33	0x403d4951	2.9575999
34	0x40426e83	3.037995
35	0x40622fc4	3.5341654
36	0x40355655	2.8333943
37	0x407f7109	3.991274
38	0x407549d9	3.8326323
39	0x40763752	3.8471265
40	0x40298feb	2.649409
41	0x40796227	3.8966157
42	0x406ff0cd	3.7490723
43	0x40565ba9	3.3493445
44	0x40325b91	2.7868388
45	0x406c3906	3.6909804
46	0x405524c8	3.33037
47	0x40998bd7	4.7983203
48	0x4046ce3c	3.1063375
49	0x4084c9e5	4.1496453
50	0x403379f7	2.8043191
51	0x406c8dbd	3.696151
52	0x404609ca	3.0943475
53	0x4089514b	4.2911735
54	0x405f9655	3.4935505
55	0x408ac5ad	4.3366303
56	0x4047fc0f	3.1247594
57	0x4055c73f	3.340286
58	0x40229b32	2.5407224
59	0x40291f10	2.642521
60	0x40b27741	5.5770574
61	0x406e4050	3.7226753
62	0x408f4473	4.4771056
63	0x4061effc	3.5302725

layer2.0.downsample.0.weight f4 [64, 32, 1, 1]
0	0x3c90adde	0.017661031
1	0xbe00b0b2	-0.12567404
2	0xbe317b8c	-0.17332286
3	0x3e5b984c	0.21444815
4	0x3dbc04e8	0.09180623
5	0x3e433321	0.19062473
6	0x3d9891f7	0.074497156
7	0x3bdbffd7	0.006713848
8	0x3dc2b770	0.09507644
9	0x3e50921f	0.20368241
10	0xbb4c4e36	-0.0031174547
11	0xbe6116bb	-0.21981327
12	0xbd3b6b3c	-0.045756564
13	0xbd93e50b	-0.07221421
14	0x3d1f985c	0.03896366
15	0xbeac150b	-0.33609805
16	0xbe2b5b89	-0.16734137
17	0x3e026f8e	0.12737867
18	0x3d09dec6	0.03365972
19	0x3dd9d0d5	0.10635535
20	0xbe0a8633	-0.13527755
21	0x3d26861c	0.04065524
22	0xbe91d401	-0.2848206
23	0x3bfa89f1	0.0076458384
24	0x3e95d834	0.29266512
25	0x3e0eabcc	0.13932723
26	0x3d4375c1	0.04771972
27	0xbde523d1	-0.11188472
28	0x3decdd1b	0.1156561
29	0xbdda9585	-0.1067305
30	0xbe93f573	-0.288982
31	0xbe22e408	-0.159073
32	0xbdc83359	-0.09775419
33	0xbdcb1820	-0.09916711
34	0xbe41305f	-0.18866108
35	0x3e7dfb11	0.24802805
36	0xbcc599b6	-0.024121147
37	0xbd7ed51f	-0.062214967
38	0xbc8bab20	-0.017049372
39	0xbcddc62c	-0.027072035
40	0xbe0dfa87	-0.138651
41	0xbe67244b	-0.22572438
42	0x3dca406b	0.09875568
43	0xbe22baf2	-0.15891626
44	0xbdee63f3	-0.116401576
45	0xbd70acee	-0.05875867
46	0x3e393329	0.18085922
47	0xbd4566ce	-0.048193745
48	0xbc886e42	-0.016654138
49	0xbd0ef95e	-0.034905784
50	0x3d963d06	0.07335858
51	0x3e528acc	0.2056076
52	0x3e1b4afd	0.15165325
53	0xbeb07e24	-0.34471238
54	0x3da84ef5	0.08218185
55	0xbdaca623	-0.084301256
56	0x3ce01065	0.027351568
57	0xbddd6b7b	-0.10811516
58	0x3e618994	0.22025138
59	0xbdbf2cff	-0.09334754
60	0xbecc0d93	-0.39854106
61	0xbe22c735	-0.15896304
62	0xbdbbb0ec	-0.091646045
63	0x3cd89347	0.026437415
64	0xbd632563	-0.055455577
65	0x3e13f6c3	0.14449601
66	0xbd85db7c	-0.06536004
67	0x3c5f233e	0.013619242
68	0xbec6a118	-0.3879478
69	0x3dcb02d5	0.099126495
70	0xbd3faacd	-0.046793748
71	0xbdeeb794	-0.116561085
72	0x3df8ede6	0.121547505
73	0x3e59e722	0.21279576
74	0x3e323303	0.17402272
75	0x3e3d17c9	0.18466105
76	0xbd9397a0	-0.072066545
77	0xbd1c0a2b	-0.038095634
78	0x3dd8cb5e	0.10585664
79	0xbd46c8a4	-0.04853119
80	0xbd1d1c4a	-0.038357057
81	0xbbebcb95	-0.0071958997
82	0xbd80ba29	-0.06285507
83	0xbe1e08b9	-0.15433015
84	0xbe315271	-0.17316605
85	0x3dede642	0.11616184
86	0xbe3dbc91	-0.18528964
87	0x3e791699	0.24325027
88	0xbd7ed3b1	-0.062213603
89	0xbe012f52	-0.12615708
90	0x3df02f59	0.11727781
91	0x3e35233a	0.17689219
92	0x3e226890	0.158602
93	0x3e7f3a0f	0.24924491
94	0xbdbeb6d7	-0.09312218
95	0x3de34b7c	0.11098382
96	0xbdfe8cb1	-0.124291785
97	0xbeda6b53	-0.42660007
98	0xbe296ba3	-0.16544966
99	0xbd1269e2	-0.03574551
100	0x3d521eb2	0.051298805
101	0xbbc235ec	-0.005926838
102	0xbea38e0c	-0.3194431
103	0xbd0f0155	-0.03491338
104	0xbe655410	-0.22395349
105	0xbdb2a020	-0.08721948
106	0xbe6c576c	-0.23080224
107	0xbe779ef0	-0.24181724
108	0xbe0e7217	-0.1391071
109	0xbe312159	-0.17297877
110	0x3dfbee04	0.12301257
111	0x3cd2d3fd	0.02573585
112	0x3e24121e	0.16022536
113	0x3e26e579	0.16298474
114	0x3da037fd	0.07823179
115	0x3d2d6e0f	0.04234129
116	0xbca8d6c1	-0.020610215
117	0x3d0a6982	0.033792026
118	0x3e19b53c	0.15010542
119	0xbe0100e4	-0.12597996
120	0xbddfaa73	-0.109211825
121	0x3e993913	0.29926357
122	0xbbd605fe	-0.006531476
123	0xbd54cf12	-0.05195529
124	0xbe898cae	-0.26865143
125	0xbd80fd6c	-0.062983364
126	0xbe1df118	-0.15424001
127	0x3c237453	0.009976464
128	0xbe30d96a	-0.17270437
129	0x3e98ab00	0.29817963
130	0xbcd6d761	-0.026225748
131	0xbe1fc2d4	-0.15601665
132	0x3d95f228	0.07321578
133	0xbd57fa0f	-0.05272871
134	0xbd7a5378	-0.06111476
135	0xbdfa738b	-0.12229069
136	0xbc1184bb	-0.008881743
137	0x3d14cca0	0.036327958
138	0xbe27d74f	-0.16390727
139	0x3d87ac0e	0.06624614
140	0x3e6f4a1e	0.23368117
141	0x3ddeba9b	0.10875436
142	0xbe70cafd	-0.23514934
143	0x3d468d99	0.04847488
144	0x3c301141	0.010746301
145	0xbde6593c	-0.11247489
146	0xbdf30887	-0.11866861
147	0xbd1a04ad	-0.037602115
148	0xbe1e7ffb	-0.15478508
149	0x3cca3d80	0.024687529
150	0x3de91439	0.1138081
151	0xbe0f67cd	-0.1400444
152	0xbf0b1c6d	-0.5434025
153	0xbda6c3c7	-0.0814281
154	0xbd75caf3	-0.060008
155	0x3dc3c392	0.095587865
156	0x3d5f3b68	0.054500014
157	0xbd449587	-0.047994163
158	0x3e2464b9	0.16054048
159	0xbe631097	-0.22174297
160	0xbe7b508d	-0.24542446
161	0xbeb945a3	-0.3618594
162	0x3d3759c4	0.04476334
163	0xbe11bee1	-0.14232971
164	0x3d30ec86	0.043194316
165	0xbe2e5a41	-0.17026617
166	0xbc5227cf	-0.012826874
167	0x3e9f6233	0.31129608
168	0x3b9d950e	0.0048090285
169	0xbd6fd85a	-0.05855594
170	0xbd3851a8	-0.04499975
171	0x3e093315	0.13398392
172	0x3e460940	0.19339466
173	0xbd6f12f3	-0.05836768
174	0xbd555635	-0.052084167
175	0xbe175143	-0.14777093
176	0xbdf43676	-0.1192445
177	0xbdc2cf98	-0.095122516
178	0x3d30fd85	0.043210525
179	0xbb615faf	-0.0034389307
180	0x3d1700e2	0.036866076
181	0xbdade709	-0.08491332
182	0x3d5758e6	0.052575015
183	0xbe77baa9	-0.24192299
184	0xbd7745c6	-0.060369276
185	0x3c0d82e9	0.008637168
186	0xbdf76329	-0.1207946
187	0x3cd3969e	0.025828656
188	0xbe1c065b	-0.152368
189	0x3dcf36d6	0.10117881
190	0xbd15d070	-0.036575735
191	0xbe636b81	-0.22208978
192	0x3bdc953b	0.006731657
193	0xbe538787	-0.20657168
194	0xbe29863b	-0.16555111
195	0x3d5f8813	0.05457313
196	0x3d0dc77f	0.034614082
197	0xbe5ba940	-0.21451283
198	0xbd286fc5	-0.041122217
199	0x3e2ba175	0.1676081
200	0xbdc6f280	-0.09714222
201	0xbcbb8028	-0.022888258
202	0x3e018d7c	0.12651628
203	0xbd3b53f9	-0.04573438
204	0xbeabdf65	-0.33568874
205	0xbe6f8c5d	-0.23393388
206	0xbe8047fb	-0.25054917
207	0xbe396732	-0.18105772
208	0x3b9eb279	0.004843053
209	0x3e2e12a1	0.16999294
210	0xbc08ec08	-0.0083570555
211	0xbcc7551c	-0.024332576
212	0x3c6ae944	0.014337841
213	0xbd40276e	-0.046912603
214	0xbd1d6630	-0.03842753
215	0xbe801d57	-0.25022385
216	0x3d70860d	0.05872159
217	0xbe5f3e77	-0.21801172
218	0x3dc771ca	0.097385004
219	0x3e26169f	0.16219567
220	0xbe129c63	-0.1431747
221	0xbdfd5329	-0.12369377
222	0xbe296cba	-0.16545382
223	0xbdcf94b9	-0.101357885
224	0xbc458148	-0.012054749
225	0xbd0d73f9	-0.03453443
226	0x3d260454	0.04053147
227	0xbe4cbc33	-0.19993667
228	0x3cf78f4c	0.030219696
229	0xbf00d3a5	-0.50322944
230	0xbe402e63	-0.18767695
231	0x3d5e67d5	0.05429824
232	0xbe3d1cf1	-0.18468072
233	0xbcbb1e7c	-0.022841685
234	0xbe4e3dd5	-0.20140775
235	0x3e0377d7	0.12838684
236	0xbdb6f58e	-0.089335546
237	0xbd15b794	-0.036552027
238	0x3c804557	0.015658064
239	0x3da7bde4	0.08190516
240	0x3ce611d8	0.02808468
241	0xbc845291	-0.016152652
242	0xbebc6056	-0.36792248
243	0xbe163408	-0.14668286
244	0x3cb00d5a	0.021490742
245	0x3da86465	0.08222274
246	0x3e3c36b4	0.18380243
247	0xbea07f1f	-0.31346986
248	0xbdc36d99	-0.095423885
249	0x3e186923	0.14883856
250	0x3dcdd6d7	0.10050743
251	0x3db44c90	0.08803666
252	0xbd373a7e	-0.044733517
253	0x3e3f8f0e	0.18706915
254	0x3b61f848	0.0034480263
255	0xbd9663f2	-0.07343282

layer2.0.downsample.1.weight f4 [64]
0	0x3f2c3160	0.6726284
1	0x3f4b5093	0.7941982
2	0x3f2c702c	0.6735866
3	0x3f32eb52	0.6989032
4	0x3f56b0c2	0.8386346
5	0x3f48e47b	0.78473634
6	0x3f4e100f	0.80493253
7	0x3f40d9ea	0.7533251
8	0x3f1a101c	0.6018083
9	0x3f08d7f8	0.5345454
10	0x3f21b047	0.631596
11	0x3f267ae2	0.65031254
12	0x3f232677	0.6373057
13	0x3f1b61b9	0.6069599
14	0x3f2b0f58	0.6682029
15	0x3f338d92	0.70137894
16	0x3f40d848	0.7533002
17	0x3f43560d	0.7630318
18	0x3f3851ad	0.7199963
19	0x3f0ccd25	0.55000526
20	0x3f3d1dad	0.73873407
21	0x3f326ae2	0.6969434
22	0x3f3f266c	0.74668
23	0x3f0ec2e0	0.55766106
24	0x3f202e11	0.6257029
25	0x3f1e50f6	0.61842287
26	0x3f3dc45e	0.7412776
27	0x3f46696b	0.77504605
28	0x3f1e1b9b	0.6176087
29	0x3f366d0c	0.7126014
30	0x3f21dd34	0.63228154
31	0x3f146de8	0.57980204
32	0x3f1ac8c5	0.604626
33	0x3f1a882f	0.6036405
34	0x3f1cec65	0.6129821
35	0x3f07b44c	0.53009486
36	0x3f25b16e	0.6472386
37	0x3f412531	0.75447375
38	0x3f29540c	0.6614387
39	0x3f3003b0	0.68755627
40	0x3f217483	0.6306841
41	0x3f2dc341	0.6787606
42	0x3f3e8011	0.74414164
43	0x3f45c4c1	0.7725335
44	0x3ef9c915	0.48786226
45	0x3f305002	0.6887208
46	0x3f155bfb	0.58343476
47	0x3f331b22	0.69963276
48	0x3f2e2fc7	0.6804165
49	0x3f276dde	0.6540202
50	0x3f2c5f37	0.67332786
51	0x3f08ffaa	0.5351511
52	0x3f06fd69	0.52730423
53	0x3f37ea2e	0.71841705
54	0x3f34da41	0.7064553
55	0x3f3fc7bb	0.7491414
56	0x3f3587b9	0.7091022
57	0x3f29d632	0.6634246
58	0x3f3382d7	0.7012152
59	0x3f3308c7	0.6993527
60	0x3f2d0e51	0.6759997
61	0x3f2c47d0	0.6729708
62	0x3f1fda69	0.6244264
63	0x3f42a7b5	0.7603715
