student_models/baseline_res_students/student_0.pth (torch, 346486 bytes, 34 tensors)

conv_initial.0.weight f4 [16, 3, 3, 3]
000000 08 8d 8f 3d bc 29 69 be dd 37 a8 3d 1f ce b8 3d
       0.070093215 -0.22769827 0.0821378 0.090236895
000010 8b b1 b7 3d 8e fb 41 be 72 e2 a5 ba 14 4b 43 3e
       0.089694105 -0.18943617 -0.0012655987 0.19071609
000020 70 74 f9 bd f1 7b a3 3d 7c 15 db bd 76 22 51 3c
       -0.12180412 0.07982624 -0.10697457 0.012764564
000030 01 5c fc 3d f9 d5 4f 3d c6 8f 74 be 6c fc 1d bd
       0.12322236 0.05074117 -0.2388297 -0.038570806
000040 25 69 5f 3e cf 3a dd bb 83 75 23 3e 83 ea 86 be
       0.21817453 -0.0067513953 0.15962796 -0.26350793
000050 dc b7 c6 bc f2 15 7a 3e 5a 37 f5 bc 0c a9 43 be
       -0.024257593 0.24422434 -0.02993362 -0.19107455
000060 34 ec 9b 3c cb 89 14 3d ca ea dc bd 2b 5e 82 be
       0.019033529 0.036264222 -0.1078697 -0.2546247
000070 3c af 93 bd 89 ef 27 be fc 3b 4f 3e 53 27 8e 3d
       -0.07211158 -0.16399969 0.20237726 0.06941094
000080 40 64 81 bd 76 7f ae bd 7d f0 66 be 72 03 ef bc
       -0.06317949 -0.08520405 -0.22552676 -0.029176448
000090 b0 0f d0 3d b5 ca ea 3d 9c a3 37 3d 3e 6d 13 3d
       0.10159242 0.114644445 0.044833764 0.035992853
0000a0 b3 86 39 3e 5b 48 a4 3e e0 11 09 be 48 3a 64 3e
       0.1811779 0.32086453 -0.13385725 0.22287858
0000b0 7c c8 fc 3d f8 a1 be 3d e2 bd d5 bd f7 dc ec bd
       0.12342927 0.09308237 -0.10436608 -0.11565583
0000c0 10 a3 30 3e 7f fa 9a bc c8 51 84 3d ec 88 2d bd
       0.17249703 -0.018918274 0.06460911 -0.042366907
0000d0 ee b7 7b be 2b ab 97 be b9 16 e5 3d 52 c2 3c 3e
       -0.24581882 -0.29622778 0.11185975 0.18433502
0000e0 63 7c f9 bc be a5 1b 3e 38 39 9e 3d ab cd 89 3d
       -0.03045482 0.15199944 0.07725757 0.06728681
0000f0 16 14 9b 3d fb 26 f6 3d 92 cc 5b be 03 e7 af 3d
       0.075721905 0.12019154 -0.21464756 0.08588984
000100 cd 5a 56 3e 76 43 7d 3e 90 36 46 3e 40 b4 9d bd
       0.20933075 0.24732766 0.19356751 -0.077003956
000110 1d a5 62 3d df 57 19 bd e6 91 aa 3d 64 a6 bd bd
       0.055333246 -0.037437316 0.08328609 -0.09260252
000120 ad ce 27 bc 4e c9 35 be 7b cb a0 bd 25 67 39 be
       -0.010242146 -0.17752573 -0.07851311 -0.18105753
000130 1d 6f b7 bd c4 a7 2d be d0 89 62 be ac 12 a4 be
       -0.0895674 -0.16958529 -0.22122884 -0.32045496
000140 90 52 85 3d c6 20 4b be e3 e2 42 be 3c db a8 3d
       0.06509888 -0.19836721 -0.19031863 0.08244941
000150 b9 80 3e 3e 68 ed f2 3d d6 d6 91 3d 60 db 3f be
       0.18603791 0.11861688 0.07121055 -0.18736029
000160 78 1a 45 3e 6b ca f7 bd a6 83 1e be c6 96 14 3e
       0.19248378 -0.12099155 -0.15479907 0.1451064
000170 a9 2f 2e 3e 3f e6 ed 3d 03 36 1a 3d b4 a2 09 bd
       0.17010368 0.116161816 0.037649166 -0.03360243
000180 20 21 79 be 2e ce 4d be 81 bf f0 3d d5 bc 2d bd
       -0.24329042 -0.20098183 0.117552765 -0.042416412
000190 27 37 0b 3d 85 72 b5 3d bb 8a 61 3e 94 c5 1f 3e
       0.033988144 0.088597335 0.22025578 0.15602714
0001a0 3b 4f 44 be b8 17 70 3c 6a ab 3f be 86 17 38 be
       -0.19170849 0.0146540925 -0.18717733 -0.17977723
0001b0 a5 a2 42 3c af e0 7e 3e 44 79 e0 bd bb b1 4c be
       0.011879598 0.24890397 -0.109606296 -0.19989674
0001c0 02 43 85 3d eb 84 c3 bd 0e a2 81 3d 4c a0 9e 3d
       0.06506921 -0.095468365 0.063297376 0.07745418
0001d0 a0 ea 26 bd 90 1f 3e be ed 08 b6 3d fc e8 82 bd
       -0.0407511 -0.18566728 0.08888421 -0.063920945
0001e0 e4 a7 54 bd cc a8 03 3e 5f 06 cc bd 74 90 b2 bd
       -0.051917925 0.1285736 -0.09962153 -0.087189585
0001f0 30 8a a1 3e 97 35 ce bd 83 8d 12 bc eb 12 66 3e
       0.3155074 -0.10068815 -0.008944872 0.22468154
000200 66 79 4c bd cf b8 04 be c6 2b 44 3e 03 78 45 be
       -0.049920462 -0.12961124 0.19157323 -0.19284062
000210 f0 ec 2c be 5a cf 33 3e 02 fe 0c bd 85 4f 53 bd
       -0.1688726 0.17559567 -0.03442193 -0.051589508
000220 8a d2 05 3e d0 43 a7 3d cd 5a 19 3e ee 53 b8 bd
       0.13068596 0.08167231 0.14976044 -0.09000383
000230 b2 e7 b8 bd 16 76 95 be 3b 00 34 bc a5 71 e9 3c
       -0.090285674 -0.29191655 -0.010986383 0.028496573
000240 1d 54 9a 3c 8f 15 4f 3d 97 c3 0e be 4f 99 10 3d
       0.018838936 0.05055767 -0.13941799 0.035302456
000250 a9 f6 3b 3d 61 81 2c be 26 07 09 3d d4 f5 b8 bd
       0.04588953 -0.16846229 0.033454083 -0.09031263
000260 db 7d 4c 3e eb 4a 6b 3e 8e 9b 93 3c d2 a8 80 be
       0.19969885 0.22977798 0.01801851 -0.251288
000270 84 82 a5 3e b9 17 d5 bd e2 2d 2e be 02 46 92 3e
       0.32326138 -0.10404915 -0.1700969 0.28569037
000280 4c e3 10 be 7e d1 38 bd 6d 70 05 3d f4 c6 bb 3d
       -0.14149207 -0.045121662 0.03257792 0.09168807
000290 69 6f 3c 3d 9a af 48 3a 2e c1 df 3d 2a 87 c4 bd
       0.046004687 0.0007655561 0.10925518 -0.09596093
0002a0 cc 89 0d be a3 c3 32 be 68 95 05 3e 06 e2 b7 3b
       -0.13822097 -0.17457442 0.13045275 0.005611661
0002b0 b2 90 85 be 62 9b 95 bd 88 79 91 3d cd cb 83 3e
       -0.26086956 -0.073050275 0.07103258 0.25741425
0002c0 43 cd 9c 3c f0 10 0f be 7e 67 88 3d b8 50 c1 bb
       0.019140845 -0.13971305 0.066603646 -0.005899515
0002d0 61 69 51 bd 0c 6d 8c be f6 f4 46 be ad 24 64 3e
       -0.051125888 -0.27426946 -0.19429383 0.22279616
0002e0 90 e6 63 3e 6a 14 b1 bd e5 b1 16 3d 6d 68 18 3e
       0.22255921 -0.08646472 0.036790747 0.14883585
0002f0 17 38 31 3c 01 92 94 3d 47 9a 2c 3e cd 06 81 bd
       0.0108165955 0.072544105 0.16855727 -0.06300125
000300 b6 b7 b4 3d af 69 ca 3d c8 a8 80 3e 82 9b 86 bd
       0.088241026 0.09883439 0.2512877 -0.065726295
000310 30 f3 58 3e 63 34 1d bd 80 43 be bd 6f 5a 56 be
       0.21186519 -0.038380038 -0.09290218 -0.20932935
000320 74 76 9c bc f3 2c b2 bd 81 a4 26 be fb d4 13 be
       -0.019099452 -0.0869998 -0.16273691 -0.14436714
000330 05 e1 47 be 50 a1 68 be ea 15 72 3e 7e bf 09 3e
       -0.19519432 -0.22717786 0.23641172 0.13451955
000340 e8 6f 42 bd 8e db e8 3d 24 b4 ba 3d 7b 5d 80 be
       -0.047470003 0.11370002 0.0911639 -0.2507132
000350 f4 66 22 bd ff a8 40 3c e9 09 a9 3d 51 a6 11 bd
       -0.039648965 0.011759042 0.08253843 -0.035559002
000360 06 ea 0d 3e fa 22 b4 bd d6 b9 85 3c 1b ec 3b bd
       0.13858804 -0.08795734 0.016323965 -0.045879465
000370 53 38 0f be c1 42 23 be dd 87 f4 bd f1 53 e0 bd
       -0.1398633 -0.15943433 -0.11939976 -0.109535106
000380 eb b1 09 be 2f 70 13 be f9 7c 9c 3d 44 6b 5b bd
       -0.13446777 -0.14398263 0.07641024 -0.053569093
000390 b2 91 11 bd ea 1d a1 bd ef 74 84 bc 55 68 08 3d
       -0.035539337 -0.07867034 -0.01616904 0.033302624
0003a0 0f 21 d0 3c 79 bd 49 be aa d2 d0 3c bc 6c fb 3e
       0.025406389 -0.19701184 0.025491077 0.49106395
0003b0 9b 63 30 3e 0a 5b 5e 3e 62 b2 63 3e 4b ec aa 3e
       0.17225496 0.21714416 0.22236016 0.33383402
0003c0 00 38 2a 3e 03 3f 9c bd f3 1c 00 3e 69 b7 11 3e
       0.16622925 -0.07629206 0.12511043 0.14230122
0003d0 83 97 e1 3c d9 8c 74 be 4d 2f e4 3d 78 c7 eb bc
       0.027538067 -0.23881854 0.111418344 -0.028781638
0003e0 62 f7 f9 bd c4 e1 7a bd 27 ba 05 be 36 03 91 3e
       -0.12205388 -0.061250463 -0.13059293 0.28322762
0003f0 87 e5 ad bc 70 23 38 3e c5 8a ab bd 67 12 f8 bc
       -0.021227611 0.17982268 -0.083760776 -0.030282212

conv_initial.1.weight f4 [16]
000000 09 3c 99 3f cc d2 5a 3f 4f 2e 68 3f 9b 96 51 3f
       1.1971446 0.854779 0.9069566 0.8187043
000010 8d dc 7a 3f 17 e7 67 3f db d0 8e 3f f9 8c 86 3f
       0.97992784 0.9058699 1.1157488 1.0511771
000020 0d b4 55 3f d0 d4 82 3f c4 ef 83 3f db e2 86 3f
       0.8347786 1.0221195 1.0307546 1.0537981
000030 3e d1 83 3f f0 4f 50 3f 56 22 8b 3f 1c b1 87 3f
       1.0298231 0.81371975 1.0869853 1.0600924

conv_initial.1.bias f4 [16]
000000 85 cd 7e bc 3c 98 42 3d 07 58 16 3e da 08 87 3e
       -0.015551929 0.047508463 0.14682017 0.2637394
000010 3a 05 18 be e4 49 c6 bd c0 2b 3d bd f2 01 5f 3d
       -0.14845744 -0.09682062 -0.0461843 0.054445215
000020 05 22 b0 bd 47 f9 dd bd 86 79 03 be 16 74 9f 3c
       -0.08600239 -0.108385615 -0.12839326 0.019464534
000030 ae 1d 8d bd 1f 96 02 bd cb a8 d6 3d 2f 34 91 bd
       -0.068904266 -0.031881448 0.104814135 -0.07090031

conv_initial.1.running_mean f4 [16]
000000 cd c0 67 3c 17 99 e2 3c 75 50 c6 3d 04 98 56 3c
       0.014145088 0.02766089 0.09683315 0.013097767
000010 5a 3f 93 38 a5 b3 38 bc fc 92 8b bb ab a7 8f 3c
       7.0213064e-05 -0.011273299 -0.0042594653 0.017536005
000020 b9 94 20 be d5 eb 1b bb 2d 70 42 bb 14 b4 bc bb
       -0.15681733 -0.002379169 -0.0029668913 -0.0057587717
000030 1f 11 32 3c e9 8a 22 bc 8a 47 38 bc bc c7 e9 3c
       0.01086834 -0.009920814 -0.011247525 0.028537624

conv_initial.1.running_var f4 [16]
000000 65 24 6d 3d de 1a 04 3d ae 7d de 3d 49 c5 db 3c
       0.057896037 0.032252185 0.10863815 0.026827471
000010 f7 07 f0 3c cb 27 31 3d 04 68 d6 3c a6 fc f6 3c
       0.029300673 0.04325084 0.026172645 0.030149769
000020 33 1e 80 3e b3 17 cf 3c e7 ee 82 3d c3 63 05 3d
       0.2502304 0.025279855 0.06393223 0.032565843
000030 43 f3 f5 3d bb c0 89 3d d2 da 43 3d 38 55 e5 3d
       0.12009289 0.067262135 0.047816105 0.11197895

layer1.0.conv.weight f4 [32, 16, 3, 3]
000000 8a 0c 4b be 92 cb a1 be 19 d5 cc be f0 9a cb be
       -0.19829002 -0.31600624 -0.4000633 -0.39766645
000010 9e 96 25 bc 31 37 c7 be 42 49 b7 be f8 fc 22 be
       -0.010106711 -0.38909295 -0.3579808 -0.15916812
000020 8c c9 5d be ad 39 af 3d e5 77 bc 3b d0 e8 02 bd
       -0.21658915 0.08555923 0.005751597 -0.03196031
000030 d8 87 2d 3e d7 80 a3 3d 39 42 60 bd 77 5d 8c 3d
       0.16946352 0.079835586 -0.054750655 0.068537645
000040 d1 46 1f be 2d 7c d1 bd e8 86 a4 3d b9 38 9b 3d
       -0.15554358 -0.10228763 0.08033544 0.07579178
000050 e3 e1 63 3d 79 a4 01 3e 1a 13 15 3d 90 e6 aa 3d
       0.055635344 0.12660398 0.03639517 0.083447576
000060 e8 4c 81 3d b7 b8 b4 bd 22 20 00 3e 01 d2 2a 3e
       0.06313497 -0.08824294 0.12512258 0.16681673
000070 13 ef e1 3d 5e b8 0e be 34 51 1f 3d 39 e5 b9 bc
       0.11031928 -0.13937518 0.0388958 -0.02269231
000080 24 ae 13 be da 88 d3 bd 73 73 de 3c 3a 46 7b bd
       -0.14421898 -0.10328837 0.02715466 -0.06134627
000090 61 42 ee bd 1f 87 db bd 59 84 93 bd da aa 30 bd
       -0.116337545 -0.10719132 -0.07202978 -0.043131687
0000a0 d5 54 d8 3c c7 19 e0 bd 34 b9 97 be af 99 32 bc
       0.026407639 -0.10942417 -0.29633486 -0.010900899
0000b0 f3 94 05 3e e3 82 15 3d b3 1f b6 3b a1 9b d6 bd
       0.13045101 0.036501776 0.005557978 -0.104789026
0000c0 3d 5a 10 be 14 c7 be 3d 45 1f a6 bd f4 80 a9 3d
       -0.14096923 0.09315315 -0.08111433 0.08276549
0000d0 60 54 c5 bd 4a 43 13 3e ea f5 2d 3d 9d f8 02 be
       -0.09635234 0.14381137 0.04247085 -0.12790151
0000e0 6b dd 26 be 58 56 f3 bb f9 79 86 3d 78 7c d4 bd
       -0.16295402 -0.0074260645 0.06566233 -0.10375303
0000f0 fc c7 f5 3d 58 82 5c 3c 26 f1 0c be 70 a7 4e bc
       0.120010346 0.013458811 -0.13763866 -0.012613162
000100 3a fd 06 3d bb f6 1b 3e b1 b5 02 bd 4a 18 81 3d
       0.03295634 0.15230839 -0.031911556 0.06303461
000110 1c 8a f8 3d 16 e8 8a bc 99 29 51 3d 11 ac 65 3d
       0.12135717 -0.01695637 0.05106506 0.0560723
000120 58 95 df 3c c2 eb b9 bc 6c ad 21 3d 17 82 f2 3c
       0.027292892 -0.022695426 0.03947203 0.029603047
000130 1e 6e ff 3d fa 1e d0 bc 65 4f 80 bd f6 a9 70 3d
       0.12472175 -0.025405396 -0.06265143 0.058755837
000140 20 86 01 3e f5 fb 3b bd 66 86 43 3c 8f 3d 5e bd
       0.12648821 -0.04589458 0.011933899 -0.054257926
000150 83 26 eb bc 96 00 f6 bd 1b 52 cc bd f5 b2 2a bd
       -0.028704887 -0.120118305 -0.09976598 -0.041674573
000160 b3 15 44 bd a0 86 bb bc 25 ac 18 3e 58 56 9f 3d
       -0.047872256 -0.022891343 0.14909418 0.07780141
000170 9f a1 25 be 09 62 92 3d be fe 66 ba 15 1b 1e be
       -0.16174935 0.07147605 -0.0008811763 -0.15440018
000180 d2 7b c4 3d 85 a2 0c be 53 77 18 be 26 60 49 bd
       0.09593929 -0.13733871 -0.14889269 -0.04916396
000190 20 aa 98 bd 1a e6 82 bc 53 b0 0e be 8c 8f e4 3d
       -0.07454324 -0.015978862 -0.1393445 0.11160192
0001a0 a6 38 cc 3d 48 0d e3 bd 3b 0b a6 bd fc aa 80 3d
       0.09971742 -0.110865176 -0.08107611 0.06282613
0001b0 61 d8 21 3d fb a9 a6 3d f7 af 41 bd 16 06 0b bd
       0.039512996 0.0813789 -0.047286954 -0.03394135
0001c0 66 05 08 3e 8c 10 18 3b 32 67 7f be cb f5 aa bd
       0.1328331 0.0023203222 -0.2494171 -0.083476625
0001d0 84 94 93 bc 1a fd 95 bd d0 46 dc bd f7 4f 4e 3d
       -0.018015154 -0.07323666 -0.10755694 0.05036923
0001e0 ce bd 15 bd 8f b9 e5 38 55 5d 02 3d 7b f1 05 bc
       -0.036557965 0.00010954134 0.03182729 -0.008175249
0001f0 09 62 00 3d 5e 9f 4d 3d e4 eb fd 3d 25 e3 18 3d
       0.031343494 0.050200813 0.12398508 0.037325997
000200 de e5 00 3e 5d 39 51 3d ef 68 a7 bc 1f ac 4f 3c
       0.12587687 0.051080097 -0.020435778 0.012675314
000210 66 9c 75 b9 de 01 d6 3c fa 24 29 3e 5f 8d a8 3e
       -0.00023423284 0.026123937 0.16518012 0.32920358
000220 80 3e 9f 3e 51 53 28 3d a1 a3 4e 3e 45 36 3c 3e
       0.3110237 0.04109508 0.20179607 0.18380077
000230 cf 21 a3 bb 8f 38 70 3e 46 3e f6 3d 64 31 9c 3d
       -0.0049783955 0.23459075 0.120235965 0.07626608
000240 a6 d6 e5 bd 36 58 99 3d 9f 6d 08 3e b5 8a 32 be
       -0.112225816 0.07487528 0.13323067 -0.17435725
000250 56 53 62 3c ba 78 f9 3d ce 33 e4 be d9 92 fc bd
       0.013813814 0.1218123 -0.44570774 -0.123326965
000260 4f 52 64 bd ad c9 83 bd 59 8e 93 3d dc 8b 4a 3d
       -0.055742558 -0.06434951 0.07204885 0.049449787
000270 0c 43 f3 bd db 45 c4 3b 4c bf a8 bd 2e a7 f0 bc
       -0.118780226 0.0059897727 -0.08239612 -0.029376592
000280 61 8c 55 bc f1 f3 e4 bd a9 0f 81 bd 3e 52 b0 3d
       -0.013033957 -0.11179341 -0.06301815 0.086094365
000290 a9 b0 2f 3c 16 88 72 bd 2d d9 c0 3d e7 f6 56 3c
       0.010723271 -0.059211813 0.09416423 0.01312039
0002a0 c1 d9 fb 3c a0 c2 a8 3d 19 d3 98 3d 92 a5 27 be
       0.030743482 0.08240247 0.07462139 -0.16371754
0002b0 05 37 9c 3d c0 b6 91 3d 40 2d 90 3c e5 7b 31 bd
       0.07627682 0.07114935 0.017599702 -0.043331046
0002c0 7a 01 11 bd 73 1c 70 bd f8 a8 83 bd 34 a8 2e bd
       -0.0354018 -0.05862088 -0.064287126 -0.04264088
0002d0 ed 94 e2 3c bf dd 52 bd 83 b7 32 3d ca 93 a9 be
       0.027658904 -0.051481005 0.04363204 -0.33120567
0002e0 19 d1 d8 bc 20 10 36 be ac bd 76 be 76 55 6c be
       -0.026466893 -0.17779589 -0.24095792 -0.23079476
0002f0 7c de 81 bd 35 64 d4 3d 3b 93 77 3e 1b 7f 61 bd
       -0.06341264 0.103706755 0.24177258 -0.055052858
000300 25 91 ca 3c 89 6b 86 3e d5 51 87 bd 21 c4 f8 be
       0.024727413 0.26253918 -0.06607405 -0.48587134
000310 84 66 84 be 5d 0d 98 be 6e 55 4b be b1 e2 18 bb
       -0.25859463 -0.29697695 -0.19856808 -0.0023328478
000320 39 9d d0 3c 35 99 8d bd 8f f0 0e 3e b1 21 84 bd
       0.025465595 -0.069139875 0.13958953 -0.064517386
000330 fb 52 2b bd 2b ee 6e be 9c 81 b7 bd 77 d7 aa 3d
       -0.041827183 -0.23333041 -0.08960268 0.08341878
000340 20 c6 4e bd 1d 14 2f bb 35 04 69 3d 60 a2 8c 3d
       -0.050481915 -0.002671487 0.056888778 0.06866908
000350 29 93 d8 bb 40 55 f5 3d f6 b9 54 bd b4 c0 54 bb
       -0.0066093397 0.11979151 -0.05193516 -0.0032463493
000360 82 f7 77 bd 79 b6 b5 3d c3 1c 03 3d c7 df cd bd
       -0.060538776 0.088726945 0.03200985 -0.10052448
000370 94 36 06 bd 20 58 a6 bd c8 a7 ae 3b 59 c8 94 3c
       -0.032766894 -0.08122277 0.0053300597 0.01816194
000380 02 f2 f0 bd 50 c4 2c 3e 1c 26 fc bb 22 a1 2c 3e
       -0.11764909 0.16871762 -0.0076949727 0.16858342
000390 d5 a6 30 3d e3 fb 7b bd 5d 48 1e 3d bb 5e 61 be
       0.043127853 -0.061519515 0.03864323 -0.22008793
0003a0 b8 54 e7 be 70 7a 17 be e3 8d 8a bd a6 b9 45 3c
       -0.45181823 -0.147928 -0.06765344 0.012068188
0003b0 78 14 c4 3d 72 f8 11 3d 93 b9 d2 3d 59 f3 5d bd
       0.095742166 0.035637327 0.10289302 -0.054187153
0003c0 b2 23 c7 3c d8 9a 3c 3e 0b 66 84 3d 08 19 eb 3d
       0.024309013 0.18418443 0.06464776 0.11479384
0003d0 bc 3c 85 3d fa 15 cc 3d 89 cb 5f be 8a fe 1f be
       0.06505725 0.09965129 -0.21854986 -0.15624443
0003e0 67 5b 6e be 76 e6 87 be 88 c9 4b be 08 42 d3 bd
       -0.23277055 -0.26543015 -0.19901097 -0.10315329
0003f0 45 51 90 bc c3 ae 5a 3d fe eb 4a 3d 8a d8 34 3d
       -0.017616877 0.053389322 0.049541466 0.04415182

layer1.0.bn.weight f4 [32]
000000 91 19 bc 3f 39 ff aa 3f b1 5b a8 3f e9 67 a2 3f
       1.4695302 1.3359138 1.3152982 1.2687961
000010 39 1f 8f 3f 05 f7 b2 3f f7 8d 9d 3f 46 5b 84 3f
       1.1181403 1.3981634 1.2308949 1.0340354
000020 0c b1 9b 3f d6 ae a8 3f 1c 67 8f 3f 84 81 94 3f
       1.2163405 1.3178356 1.1203341 1.1602025
000030 6e 3d a3 3f 33 7b b7 3f f8 b1 91 3f 7e 52 a1 3f
       1.2753122 1.4334472 1.1382437 1.26033
000040 fd 81 85 3f e4 fc a0 3f 65 69 a4 3f a8 c7 b7 3f
       1.0430294 1.2577176 1.2844664 1.4357805
000050 7a 06 9c 3f cc ab 90 3f 2c 26 b2 3f c0 af 95 3f
       1.2189476 1.1302428 1.3917899 1.169426
000060 21 b4 a4 3f a1 d9 97 3f 15 14 a5 3f c1 21 a6 3f
       1.2867471 1.186329 1.2896754 1.2979051
000070 03 a1 8f 3f 6c 9f 8d 3f c6 29 a9 3f 42 96 85 3f
       1.1221012 1.1064277 1.3215873 1.043648

layer1.0.bn.bias f4 [32]
000000 bf 3a 98 3c ec 0d 3f bc 13 01 0f be 0b 2b 46 bd
       0.0185827 -0.011661034 -0.13965254 -0.048380893
000010 40 ec b2 3c d8 9f 2b be 60 be 49 be f8 50 82 be
       0.021841168 -0.16760194 -0.19701529 -0.254524
000020 54 62 2c be 06 bb 47 3d b9 03 3e be 4e 8b 23 3e
       -0.16834384 0.048762344 -0.18556108 0.1597111
000030 27 a5 26 be 70 7d 32 3e e4 df eb bb b9 5e 94 3e
       -0.16273938 0.17430663 -0.0071983207 0.28978518
000040 6c 2a b7 bd d3 6f 34 3e 32 01 2f bd 89 47 75 bd
       -0.08943638 0.17620783 -0.04272575 -0.059882674
000050 f8 57 a6 3c ca eb e0 3d 69 f8 b3 3d b2 aa 11 be
       0.020305619 0.10982473 0.08787615 -0.14225271
000060 be 6f 42 3e 6c 47 26 be 75 db ac be a7 9c 96 3d
       0.18987939 -0.16238183 -0.33761182 0.07354098
000070 aa 28 b9 3d 68 26 64 3e 93 6e 1c 3e f4 a2 9f 3d
       0.09040959 0.22280276 0.15276556 0.07794753

layer1.0.bn.running_mean f4 [32]
000000 cc 23 6d bf 20 64 fe bf 61 e6 a2 bf 8c 53 62 bf
       -0.92632747 -1.9874306 -1.2726556 -0.8840873
000010 b4 ad 41 3f dc 07 2e bf 6c c8 07 bf 58 e0 d0 be
       0.75655675 -0.6798074 -0.53040195 -0.4079616
000020 87 09 9a be 8b 6a ea bf ea 8e 37 3f 7a 4b 0f bf
       -0.30085394 -1.8313764 0.71702445 -0.55974543
000030 33 75 ca 3d e3 3c cd 3d 24 58 a5 bf 21 7b a0 3e
       0.09885635 0.10021379 -1.2917523 0.3134394
000040 1d c4 a4 bf 2d 92 c9 3d f4 85 a7 bd 5f 8a d6 bf
       -1.2872349 0.09842334 -0.081798464 -1.6760978
000050 3e ca 67 be 8f 29 d1 be 2a bb 03 c0 8b 4b b0 be
       -0.22635743 -0.4085202 -2.0582986 -0.34432635
000060 5c ee 87 bf 27 2d 92 3d ad e1 3c be e5 b7 da be
       -1.0619617 0.071375184 -0.18445463 -0.42718425
000070 a3 f1 cd bd 9a c6 98 3f bf 2c 0f bf 28 91 b0 be
       -0.10055854 1.1935608 -0.5592765 -0.34485745

layer1.0.bn.running_var f4 [32]
000000 de 8c 45 40 b6 88 6e 40 af 6e e0 3f 91 9b c2 3f
       3.0867229 3.7270942 1.7533778 1.5203725
000010 89 d3 ea 3f a6 8d f9 3f 75 39 27 40 06 52 4d 40
       1.8345805 1.9496353 2.612882 3.2081313
000020 0e aa 03 40 c7 4d 78 40 4e 61 ad 3f 56 59 97 3f
       2.0572543 3.8797472 1.354532 1.1824138
000030 7f ae cd 3f 94 6c 00 40 ea 6c e5 3f 0a cf bf 3f
       1.6068877 2.006627 1.7923863 1.4985058
000040 d8 cf 0a 40 53 a9 8d 3f 9b 8e ce 3f 42 76 5a 40
       2.1689358 1.1067299 1.613727 3.413468
000050 6c 43 f0 3f b4 cd f4 3f b2 2b 36 40 97 73 3e 40
       1.8770576 1.9125276 2.846417 2.975805
000060 a8 2d 05 40 ab f7 85 3f d1 04 e0 3f b3 67 fa 3f
       2.0809116 1.0466207 1.750147 1.9562896
000070 53 14 df 3f 49 bc 52 40 e7 ca f5 3f 98 78 c0 3f
       1.7428077 3.292742 1.9202546 1.5036802

layer1.0.downsample.0.weight f4 [32, 16, 1, 1]
000000 bd 20 c7 be 52 4d 35 be 3b 1e e7 3d c9 f8 73 3d
       -0.38892165 -0.17705277 0.11285063 0.059563432
000010 af 3e c8 bc 63 30 b8 bd b0 be 92 be 01 e4 d9 bd
       -0.024443952 -0.08993604 -0.28661108 -0.106391914
000020 9e 2d 2a 3d 47 6d b7 3d 5a 09 d0 bd 3a f2 1b bd
       0.04154741 0.0895639 -0.10158034 -0.038072802
000030 6f 52 00 bf 10 7f 21 3e 31 67 5a 3e 27 c5 09 3e
       -0.50125784 0.15771127 0.21328427 0.13454114
000040 b3 f6 df be f4 b4 ef 3d 2c 59 65 bd 80 a9 1e be
       -0.43742904 0.11704436 -0.055993244 -0.15494347
000050 9f 37 b0 be 10 41 24 bd 5b f6 16 be 60 71 fe bd
       -0.34417436 -0.04010111 -0.14742415 -0.12423968
000060 06 3b 9d 3d e3 86 23 be 88 80 cb 3c 2d 3c 90 be
       0.076772735 -0.15969424 0.024841562 -0.2817091
000070 41 f3 03 be 7d 9c 8e 3d db 44 4f bd ae cf ac bd
       -0.12885763 0.069634415 -0.050602775 -0.08438049
000080 55 fb 96 3e 72 c2 aa be 2b e9 04 3d f8 41 22 3d
       0.29488626 -0.33351475 0.03244893 0.039613694
000090 f3 bf 15 be 82 be 83 bd 82 6d 4f 3e ab 70 a9 bd
       -0.14624004 -0.06432821 0.20256618 -0.08273443
0000a0 9a ad 60 3e 45 28 1b bb 9d 42 24 bc 31 a2 86 be
       0.21941224 -0.0023675126 -0.0100256475 -0.26295617
0000b0 ad 1e 4c 3e 47 bf 0d be d4 14 81 3e b0 fe 37 3b
       0.19933577 -0.13842498 0.25211203 0.002807539
0000c0 bd c8 64 bc 40 d0 9f bc 27 65 89 3e 3f 8d 51 be
       -0.013963875 -0.019508481 0.26834986 -0.20464037
0000d0 d8 aa a1 be db 4f 28 be 88 79 83 be 20 c9 ce 3d
       -0.31575656 -0.16436712 -0.25678658 0.10096955
0000e0 4d 16 3f bd ed bb ed bc ba 1c 82 3e 86 cd 67 3e
       -0.046652127 -0.029020274 0.25412542 0.22636995
0000f0 dd 6e 18 be 77 18 b4 3d b4 4d ca 3c 5c f7 84 be
       -0.14886041 0.08793729 0.024695255 -0.2596997
000100 cf 10 03 3c 23 23 62 3e 2b 60 0b bd f3 8a 33 3c
       0.007999613 0.22083716 -0.03402726 0.010958421
000110 be d4 b0 3c db 37 a1 3e 08 67 8b bc 5f d3 d8 bd
       0.021585818 0.31487927 -0.017016903 -0.10587191
000120 aa 3b cb 3e 47 49 82 3c 9f c4 8d bd 21 44 76 3e
       0.39693958 0.015904082 -0.06922268 0.24049427
000130 75 50 32 be 96 7f 6d 3d 35 f2 42 3e c8 2c 28 3e
       -0.17413504 0.057983004 0.19037707 0.16423333
000140 15 a3 b7 be 60 42 83 be 91 6d 6c 3e 4b 34 08 be
       -0.3586661 -0.25636578 0.23088671 -0.13301198
000150 f5 c5 43 be 91 4b a8 3d 7d 7e 44 3e 8d c4 0f bd
       -0.19118483 0.08217538 0.19188876 -0.035099555
000160 5b 75 9b bd 36 0d a1 3d 07 16 c2 bd c6 f2 39 3a
       -0.07590743 0.07863848 -0.09476858 0.0007093366
000170 ac 20 67 be 86 61 2d be 23 3c 90 3e 8e 62 bb 3c
       -0.22571057 -0.16931733 0.2817088 0.022874143
000180 97 66 1e 3e 9a 87 11 3d 48 13 64 3e d0 ba e1 3d
       0.15468822 0.03552971 0.2227298 0.1102196
000190 89 14 d2 3d cb 72 bb bd 7e 5a 82 3e 51 be 82 3d
       0.10257823 -0.091527544 0.25459665 0.06383956
0001a0 6e a4 7f be a7 2a 1c 3e 36 5f 4b 3e ca dd 91 3e
       -0.24965069 0.15250646 0.19860539 0.28489524
0001b0 d8 f4 30 3d 43 36 ad bd 6e 71 91 bd 19 a4 a2 3e
       0.04320225 -0.08457615 -0.07101713 0.31765822
0001c0 c6 b7 e9 bd fb d6 7b bd c1 da 96 be 0e dd be bd
       -0.11412005 -0.06148432 -0.2946377 -0.093195066
0001d0 11 d9 60 3e e6 39 30 be d9 4c 86 3d 45 e4 d8 be
       0.21957804 -0.17209587 0.06557626 -0.42361656
0001e0 f1 15 e8 3d 6d 9f 6e 3e e0 df ff 3d c2 45 93 3d
       0.1133231 0.23303004 0.12493873 0.071910396
0001f0 00 26 f3 bc 8f f2 f4 3d e0 5e 38 3e 21 b2 97 be
       -0.029681206 0.11960327 0.18004942 -0.2962809
000200 d5 01 bf bd 2a 3b 9b bd bc ba e5 bc 82 d0 60 3e
       -0.09326521 -0.07579644 -0.028043143 0.2195454
000210 52 86 07 be 93 a6 ac 3b 34 d2 d5 be d0 f3 7d 3e
       -0.13234833 0.0052688806 -0.41761935 0.24800038
000220 47 17 85 bd ef 6d 36 3e d3 fb b1 bd 3d 0d d3 bd
       -0.064985804 0.17815374 -0.0869061 -0.103052594
000230 30 e5 05 3e 1f b0 5d be 0e 70 88 be 59 d1 e9 bd
       0.1307571 -0.21649216 -0.2664799 -0.11416883
000240 b0 5a e5 bc bc 3c 88 3d e0 7c 02 be f6 5a 35 3e
       -0.027997345 0.06652209 -0.12742949 0.1771048
000250 bc 76 21 3e b6 17 f8 bd 7d 37 ee be f4 0a 0c bd
       0.1576795 -0.121138975 -0.4652671 -0.034190133
000260 e0 75 71 bd 34 41 05 3d b7 87 af be ab c6 67 3e
       -0.058950305 0.032532886 -0.3428323 0.2263438
000270 ef f3 77 bd 7b b7 a7 3d 27 55 b6 bd 31 59 02 be
       -0.060535368 0.08189293 -0.0890296 -0.12729336
000280 94 cb 67 3d 9d 40 9b be 0c 13 89 be 0d b9 57 be
       0.05659063 -0.30322734 -0.26772344 -0.21066685
000290 4c c7 7a 3e 65 51 b7 3d a1 dc 27 3d db 17 88 be
       0.24490088 0.08951072 0.040981892 -0.265807
0002a0 b6 10 e7 3d 00 a5 c5 3d 6a 7a dd 3d 25 9d 1a 3e
       0.11282484 0.09650612 0.10814364 0.15099008
0002b0 02 ec f6 3c 16 db d3 be 49 c8 5b bd 37 21 14 3e
       0.030141834 -0.41378087 -0.053657804 0.14465795
0002c0 fb 18 0c be 64 75 5a 3e b5 17 c3 3c f8 7b d2 3d
       -0.13681404 0.21333843 0.023815015 0.102775514
0002d0 1d a4 1c bd c5 e1 66 3e e3 b8 87 3e 7f 85 a0 3e
       -0.038242448 0.22547062 0.26508245 0.3135185
0002e0 34 41 79 bd 5a 5c 2a bd 44 b1 b1 3d 6f d4 29 bd
       -0.0608532 -0.04159198 0.08676389 -0.041462358
0002f0 2d 6d 9b be db 44 23 3c cd e6 19 be 13 ec 0c bd
       -0.30356732 0.009965147 -0.1502945 -0.034404825
000300 51 4f 4a bd 9b 2e 37 be d3 d3 96 be ec bb 03 bf
       -0.04939205 -0.17888872 -0.29458484 -0.5145862
000310 c1 ce f1 3b c1 c2 0a 3e f9 d4 49 be 4b 91 a4 bc
       0.0073793833 0.13550855 -0.19710149 -0.020088812
000320 59 25 2f 3e 70 0c a3 be fd e3 79 be 90 dc 44 be
       0.17104091 -0.31845427 -0.24403377 -0.19224763
000330 3e 2b 92 bd 8c d7 74 3e 82 5e 54 be 55 c0 03 be
       -0.07137154 0.2391035 -0.20739177 -0.12866338
000340 b3 ca 46 bc 7c 80 e8 bc 77 77 a7 be 2f 98 88 3e
       -0.012133288 -0.028381579 -0.32708332 0.26678607
000350 e9 6c 80 bd f0 fd da 3d f8 6c 77 be 40 49 89 bc
       -0.06270773 0.10692966 -0.24162662 -0.016758561
000360 f6 9e 83 3e 77 5f e5 3d 64 07 18 be fa d1 75 3d
       0.25707215 0.11199849 -0.1484657 0.060014702
000370 23 cd 23 3e 69 71 7f be 4e 6b 2a be 96 a4 87 be
       0.15996222 -0.24945606 -0.16642496 -0.26492757
000380 6c af 92 be 7e 76 64 3e 81 c0 4a be 6a a4 6c be
       -0.2864946 0.22310826 -0.19799997 -0.23109594
000390 a6 93 05 be 67 d5 72 3e 66 03 bb 3d d7 df cf be
       -0.13044605 0.23714219 0.091315076 -0.40600464
0003a0 f3 fc 8c 3e f1 5c 92 bd 4a fd 43 bd 73 fd 6f 3e
       0.27536735 -0.071466334 -0.047848977 0.23436527
0003b0 f2 e0 ab 3d 77 6e 67 be 09 fa 20 be e9 a8 7e 3d
       0.08392514 -0.22600733 -0.15720381 0.062172804
0003c0 e4 15 3b be a7 bc 57 3e 4c ff 97 bd 0d 28 b4 3e
       -0.1827007 0.21068059 -0.07421741 0.35186806
0003d0 1c d6 95 3d 82 be 78 3e 73 8c dd bd df b3 87 3e
       0.07316229 0.24291423 -0.10817804 0.26504418
0003e0 73 30 69 3c a2 76 99 3e 55 b3 72 3e c8 2a e1 3d
       0.014232743 0.29973322 0.23701222 0.10994488
0003f0 6e 6a 82 3d e6 30 2f be bc a1 79 3e 3c 86 92 3c
       0.06367956 -0.17108497 0.24378103 0.017886274

layer1.0.downsample.1.weight f4 [32]
000000 7c 9a 3d 3f a5 8a 78 3f b9 54 17 3f 9e 27 54 3f
       0.7406385 0.97086555 0.5911365 0.8287295
000010 ff e0 2f 3f c8 38 4a 3f fd aa 3b 3f 68 57 49 3f
       0.6870269 0.7899289 0.7330778 0.78648996
000020 f9 72 2e 3f c5 ae 39 3f d9 06 1e 3f b7 69 36 3f
       0.68144184 0.725323 0.617292 0.7125506
000030 eb 4b 5c 3f db 2b 2d 3f f7 d2 58 3f 54 de 0d 3f
       0.8605334 0.67645043 0.84696907 0.5541737
000040 9e ce 44 3f 9b 84 3e 3f 02 ec 49 3f da 85 44 3f
       0.7687777 0.7442109 0.78875744 0.7676674
000050 0f dc 35 3f a0 0e 3c 3f 98 5d 44 3f 85 7f 47 3f
       0.7103891 0.73459816 0.7670531 0.77928954
000060 12 41 5d 3f 66 f6 5c 3f 4a ad 37 3f 92 82 2f 3f
       0.86427414 0.86313474 0.71748793 0.6855861
000070 0c d7 42 3f 34 6f 12 3f e2 3e 48 3f 96 87 40 3f
       0.76109385 0.5720093 0.7822095 0.7520689

layer1.0.downsample.1.bias f4 [32]
000000 6f 80 ac be 04 dd 06 be 79 83 0b be e6 83 27 be
       -0.33691737 -0.13170248 -0.13624372 -0.16358909
000010 fc 01 40 bd c8 67 5f be a2 45 83 bd f1 72 d2 bd
       -0.046876892 -0.21816933 -0.06409766 -0.102758296
000020 b1 d5 8b be 1b e8 ce bd bf a6 65 be 71 33 70 be
       -0.2731147 -0.10102864 -0.2242689 -0.23457123
000030 8d 02 5a be 43 c9 c2 3b e9 4b c9 bd b3 b9 ff 3a
       -0.21290036 0.0059444024 -0.09828932 0.0019510299
000040 c3 73 af be c0 d4 30 bc 9b f3 62 3d 13 4e 60 be
       -0.34268007 -0.010792911 0.0554081 -0.21904783
000050 6f 44 02 bd bf d2 a7 bd a6 09 59 be c9 ab d2 be
       -0.031803545 -0.081944935 -0.21195087 -0.41146687
000060 88 8c 00 3e f8 38 71 be 94 19 94 bd 55 57 a9 be
       0.12553608 -0.23556888 -0.07231441 -0.33074442
000070 e2 d2 b8 bd f6 ea 87 bd 28 b5 0b be ae cd 20 be
       -0.09024598 -0.06636612 -0.13643324 -0.1570346

layer1.0.downsample.1.running_mean f4 [32]
000000 c2 a3 15 bf 92 49 9a bf 4e ff 7c 3e f7 18 b7 be
       -0.58453 -1.2053702 0.24706766 -0.35761234
000010 ad 6e 30 3f 3b 12 a5 be 1d d1 7f 3f 19 35 68 be
       0.6891888 -0.3224047 0.99928457 -0.22676505
000020 2f 40 0c bf d8 be e4 be ae 92 92 be 51 e9 6c 3e
       -0.54785436 -0.44676852 -0.28627533 0.23135878
000030 4c 07 ae bf 5b 59 bc be 62 54 e8 be 5b d9 80 3f
       -1.3595977 -0.36786923 -0.4537688 1.0066332
000040 b3 71 f1 3d b5 b6 84 be b5 01 28 bf ed c7 ea be
       0.117892645 -0.25920644 -0.65627605 -0.45855656
000050 c6 fa d0 3d 0d 69 8b be bc 28 be 3e 6d f0 7e bf
       0.10204081 -0.27228585 0.37140453 -0.9958561
000060 29 0b e4 bd bd 94 3c bf 70 d9 4b 3d e6 e1 4b bf
       -0.11134941 -0.73664457 0.04976791 -0.7964157
000070 c1 da 89 3e a5 f4 75 be b6 71 45 bf 8e ca 0b be
       0.26924708 -0.24019106 -0.77126634 -0.13651487

layer1.0.downsample.1.running_var f4 [32]
000000 29 b9 4f 3f 2b 67 68 3f f4 b7 bb 3e 84 3a ca 3e
       0.81141907 0.9078242 0.36663783 0.3949777
000010 5a e9 8c 3e 1c aa ba 3e 4d 85 11 3f ec 94 01 3f
       0.27521783 0.36457908 0.56844026 0.5061786
000020 c6 34 38 3f 60 5a ce 3e 44 8b 9b 3e 2a 69 19 3e
       0.71955526 0.40303326 0.3037969 0.14981523
000030 df 7b 5b 3f aa fa c0 3e f5 6d d0 3e db f4 12 3f
       0.8573589 0.37691242 0.4070889 0.5740487
000040 0c cf fb 3e e7 4d 44 3e d8 5e b7 3e 9f b4 99 3e
       0.49181402 0.19170342 0.35814548 0.30020615
000050 4e 4d 70 3e 53 73 90 3e 95 a3 d3 3e 47 85 62 3f
       0.2346699 0.28212985 0.4133574 0.88484615
000060 c5 b0 d3 3e 90 37 dd 3e fd 90 a6 3e ce b1 54 3f
       0.41345802 0.43206453 0.32532492 0.8308381
000070 50 a1 b4 3e f2 66 d4 3e ef af 06 3f 87 f1 bd 3e
       0.35279322 0.4148479 0.52612203 0.37098333

layer2.0.conv.weight f4 [64, 32, 3, 3]
000000 cf 4b 1a bd 69 f2 bd 3c b4 17 06 be fe 16 ab bd
       -0.037669953 0.02318688 -0.1309498 -0.08353995
000010 9a 60 9e be 87 dd cf bd a2 f0 2b be ca 8a fe 3d
       -0.30933076 -0.10149675 -0.16791013 0.12428816
000020 4d 7a 02 be d2 17 cb 3c 11 9e 19 be cb 3e 14 bc
       -0.12741967 0.024791632 -0.15001704 -0.009048174
000030 5d 97 0e 3c 09 53 b4 3c b5 44 3f be cd 69 3d bc
       0.00870308 0.02201225 -0.18678553 -0.011560869
000040 b1 26 05 3e 31 86 e5 3c 10 4b ef 3d 79 23 8b 3d
       0.13003041 0.028018089 0.11684239 0.06793875
000050 c2 07 07 3e 00 a9 0f bd 02 70 82 3d d3 eb df bd
       0.13186553 -0.03507328 0.0636902 -0.10933652
000060 d7 75 4e be 11 a0 f1 be 11 8a 82 be 31 40 fb 3d
       -0.2016214 -0.47192433 -0.2549596 0.12268103
000070 62 21 09 3d 94 97 ba 3d e3 48 12 3b 10 91 14 be
       0.033479102 0.091109425 0.0022321276 -0.14508462
000080 f1 cf ec 3b 1d 46 ee 3c 3e 7d 0f 3e 21 f4 ac bc
       0.007226937 0.029086167 0.1401262 -0.021112503
000090 61 52 10 3e 6a a3 11 3e 8b 04 91 3d 16 b4 1d bd
       0.14093925 0.14222494 0.07080945 -0.03850182
0000a0 79 7e 05 3e f8 4f aa 3d 11 ff 2a bd fe 31 31 3d
       0.13036527 0.08316034 -0.041747157 0.043260567
0000b0 fc 26 56 bd a3 02 7b 3e 2f 32 7a 3e 6e 58 9b 3d
       -0.052283272 0.24512725 0.24433206 0.07585226
0000c0 3b 6c 18 be 7d 62 1d 3d e1 d2 ab 3d 57 ce 42 be
       -0.14885037 0.038424004 0.08389831 -0.19024025
0000d0 f0 c7 11 be af 06 5a be d3 e7 c3 3d ba 27 b9 3d
       -0.14236426 -0.21291612 0.09565701 0.0904078
0000e0 63 91 53 3e 3b 9a 09 3d 27 63 b7 3d 3e a0 d9 3d
       0.2066093 0.03359435 0.08954459 0.10626267
0000f0 c4 e4 1d bd 65 d4 4e be da c9 40 be 63 97 bf 3d
       -0.038548246 -0.2019821 -0.18827 0.093550466
000100 96 7d e2 bd ee 5e e5 bd 43 0e 22 3e 3a 35 37 3d
       -0.1105911 -0.11199747 0.15825753 0.044728495
000110 7e ad 63 bd 7b b2 f6 3d 04 06 fe bb e9 dc 0e 3c
       -0.055585377 0.12045761 -0.007752182 0.008719661
000120 ac 79 93 3d ab ef 8f 3d 6f b5 17 3d da 85 21 3e
       0.072009414 0.07028135 0.037038263 0.15773717
000130 f5 7f 93 bd 94 eb c3 3d 29 36 ae 3d b2 cb 31 be
       -0.0720214 0.09566417 0.08506424 -0.1736286
000140 cc 1f 90 be 03 30 4a 3c 83 b0 ac bd 53 d8 de bd
       -0.2814926 0.012340548 -0.084321044 -0.10881104
000150 ba 86 c6 bd d5 93 30 bd 29 9d e9 bd a0 74 cf 3d
       -0.09693666 -0.043109734 -0.11406929 0.10129666
000160 36 7a 85 3d 5d 90 3a 3e 61 5e c0 bd 41 ed e6 3c
       0.065174505 0.18219133 -0.09393001 0.028189303
000170 ea d4 12 bd a9 53 fb bd eb a6 89 3e 58 8d 91 3d
       -0.035847582 -0.12271816 0.2688516 0.07107037
000180 f0 b1 f7 bb 41 c8 81 3c 40 5f 8f 3b 42 08 37 3c
       -0.0075590536 0.015842559 0.0043753684 0.011171402
000190 4d aa ca bb 8c f2 23 3c f6 d6 86 bd 04 15 b0 bd
       -0.006184852 0.010006558 -0.06583969 -0.085977584
0001a0 48 57 21 3c 46 e4 97 bd e6 c8 72 be f2 68 24 bd
       0.00984747 -0.074165866 -0.23709449 -0.040139146
0001b0 a7 22 3e 3d e5 5e 08 be 09 30 f7 3c a1 c4 dd 3c
       0.046419766 -0.1331745 0.030174272 0.027071299
0001c0 cd 86 25 be 9e ce 04 bd 94 c2 a9 bc 8c a7 87 be
       -0.16164704 -0.032423608 -0.020722665 -0.26495016
0001d0 ec c2 bb bd 4e 42 04 be 28 92 07 be 21 ff 61 3c
       -0.09168038 -0.12915918 -0.13239348 0.013793738
0001e0 25 5c 63 bc 13 d1 26 3e b6 68 aa bc 4c a6 84 bd
       -0.013876949 0.16290693 -0.020801883 -0.06477031
0001f0 fc c8 a9 bd 94 c2 4f bd 78 9e b9 3b 91 f0 ae be
       -0.08290288 -0.050722674 0.005664643 -0.34167913
000200 5c 50 43 be 3c 49 c2 3d 6a d2 f1 3d 1e 4e 0d 3e
       -0.19073623 0.094866246 0.118077114 0.1379933
000210 c3 76 85 bb 1d 02 ba 3d 2d 8d 95 3c d0 71 bf bd
       -0.0040729954 0.09082434 0.018255794 -0.0934788
000220 83 d7 8e be c3 c0 5c be db 03 25 be 87 17 eb bd
       -0.27898797 -0.21557908 -0.16114752 -0.11479097
000230 8d 36 30 be 43 36 07 3e 5d 03 94 bb cf 2c 95 3c
       -0.1720831 0.13204293 -0.0045170025 0.018209843
000240 99 5f 59 3d e8 52 23 bd 72 ef f3 3c a4 2d aa 3d
       0.053069685 -0.039873987 0.029777262 0.083094865
000250 b7 3a de bc fe 41 03 3e 24 8c 80 bd 01 f1 ad bc
       -0.027127607 0.12818143 -0.0627673 -0.021233084
000260 c7 bd b6 3d f2 45 56 be 88 09 2c be 49 d2 ea bd
       0.08922916 -0.2092512 -0.16800511 -0.1146589
000270 a8 ba ba 3c cf 24 46 bd 4d 6a c1 3b 6c a4 ab 3d
       0.022794083 -0.048374947 0.0059025646 0.0838097
000280 72 70 9b bd 47 aa 82 3d 4e 2e 88 bc f7 14 25 3e
       -0.075898066 0.06380134 -0.016623642 0.16121279
000290 6b a8 02 3e 8e 0e 01 bd ed be 83 bd 7d 17 9c bd
       0.12759559 -0.03150802 -0.064329006 -0.076216675
0002a0 7f e4 08 bd 93 5e 17 be 19 09 6b be 4b e7 05 bd
       -0.033421036 -0.14782171 -0.22952689 -0.03269128
0002b0 09 31 44 3d 33 76 ba bd af 9c fe bc 80 fe 10 bb
       0.047898326 -0.09104576 -0.031080572 -0.002212435
0002c0 a3 25 bd 3d 79 e1 60 be e6 9f df bd 10 f6 e8 3b
       0.09235694 -0.21961011 -0.1091917 0.007109411
0002d0 c5 e9 49 3e 23 11 d1 3d 21 7d 32 be 0a 45 ba 3d
       0.19718082 0.10208347 -0.17430545 0.090951994
0002e0 d2 63 2b 3e c4 c8 1e 3e 1d bf 84 bd ba b7 8f 3c
       0.16737297 0.15506274 -0.064817645 0.017543662
0002f0 9d e9 a3 3b e6 0f 2f 3d 3f 80 76 3d 04 63 d7 3d
       0.005002214 0.04273977 0.0601809 0.105169326
000300 72 75 08 bd a5 dd b7 3c e2 5e a2 3d ca a2 73 3b
       -0.03331513 0.022444556 0.07928254 0.0037175887
000310 a9 48 8c bb fe df 46 3e 87 18 45 bc c2 50 62 be
       -0.0042811227 0.19421384 -0.012029774 -0.22101119
000320 21 ff d1 bd 5f 76 eb 3d 9f fc 8f bd 5d 72 f5 bd
       -0.1025374 0.11497187 -0.070306055 -0.11984704
000330 03 39 b6 3d eb 80 d2 3d f5 07 a1 bd c8 fe 03 bb
       0.08897593 0.102784954 -0.07862846 -0.0020140875
000340 aa 01 d1 bc a2 6a e8 bd 84 ab 5c 3e 39 55 f4 3d
       -0.025513489 -0.113484636 0.21549803 0.119303174
000350 ce fa 86 3d fe 40 ec bc 35 9c 63 3c 60 b3 c3 bd
       0.06590806 -0.028839584 0.013892223 -0.095556974
000360 15 5a 78 bc 21 20 3a be c0 80 8f be 33 8e a4 3d
       -0.015158196 -0.18176319 -0.28027916 0.08034935
000370 6a aa ad 3d 17 80 a5 bd 6b 17 f2 3d 4b a6 ca 3e
       0.084797695 -0.08081072 0.11820873 0.39579996
000380 3e 4c 23 3e da 67 2d 3d 3c 10 ad 3d 54 c4 a5 bd
       0.15947053 0.04233537 0.08450362 -0.08094087
000390 08 25 15 be 77 2e 36 be be f6 17 bd c4 86 c9 bc
       -0.14564908 -0.17791162 -0.037100546 -0.024600394
0003a0 76 4e 0a 3d 03 e6 69 bb c5 a4 5a bc 91 39 84 3d
       0.033766232 -0.0035690076 -0.013344948 0.064562924
0003b0 01 6f 08 bc 95 18 03 3e 9e 20 dd bd ba 15 91 bd
       -0.008327247 0.12802346 -0.10797237 -0.07084222
0003c0 3a 36 4a bd be 96 5f 3e 80 dc 4d bb ce 4d 02 bc
       -0.04936812 0.21834847 -0.0031411946 -0.00795312
0003d0 d8 6f 5c 3d e9 8c 19 3e 31 cd d6 bd c6 88 8d 3c
       0.0538176 0.14995159 -0.10488356 0.017277133
0003e0 68 db e6 bd 82 ef 4b 3d 84 0b 17 3e ee e4 ac 3d
       -0.11272317 0.04978896 0.14750487 0.084421024
0003f0 1f 26 2e be 5b 4b 00 be 88 4a 56 bd db 09 67 3d
       -0.1700673 -0.12528746 -0.052317172 0.056405883

layer2.0.bn.weight f4 [64]
000000 a0 81 94 3f fe d9 a1 3f 8c db 88 3f 76 68 91 3f
       1.1602058 1.2644651 1.0692 1.1360004
000010 1a 80 99 3f 74 78 8c 3f 6a 62 98 3f 1a 9e 9b 3f
       1.1992218 1.0974259 1.1905034 1.2157624
000020 90 6e 9a 3f ce 9c 96 3f 8e 39 89 3f 49 54 8e 3f
       1.2064991 1.1766603 1.0720689 1.1119472
000030 75 74 87 3f 41 ae 9e 3f 12 63 9b 3f 9a 6f 9f 3f
       1.0582415 1.2396928 1.2139609 1.2455933
000040 cc 49 8a 3f 0c e6 a0 3f 1f bd 84 3f a0 6a aa 3f
       1.0803771 1.2570205 1.0370215 1.3313789
000050 b1 84 87 3f c0 0b 9b 3f 69 83 94 3f f6 a9 99 3f
       1.0587369 1.2112961 1.1602603 1.2004993
000060 7c a2 84 3f 91 da 8e 3f 4d 0d 97 3f d5 d1 91 3f
       1.0362086 1.1160451 1.1800934 1.1392161
000070 15 55 8b 3f 9e b0 82 3f f7 b4 9a 3f a9 2e 95 3f
       1.088534 1.0210149 1.2086476 1.1654865
000080 bb 80 8f 3f f1 29 8a 3f a8 e2 98 3f 6f 86 8c 3f
       1.121116 1.079405 1.194417 1.0978526
000090 cf 9c 95 3f e1 fb 92 3f a2 cc 92 3f fc 1b 86 3f
       1.1688479 1.1483117 1.1468699 1.047729
0000a0 28 47 95 3f 14 09 9b 3f 94 42 9c 3f 25 4e 86 3f
       1.166234 1.2112145 1.2207818 1.0492598
0000b0 f8 0b 8b 3f 2b b9 8d 3f 0a b4 8c 3f e9 71 89 3f
       1.0863028 1.1072134 1.0992444 1.0737888
0000c0 ad fe 90 3f ae eb 8b 3f a7 90 a0 3f 07 00 91 3f
       1.1327721 1.0931299 1.2544144 1.1328133
0000d0 7a 9c 9a 3f 6e 06 92 3f 96 be 92 3f 4a b7 94 3f
       1.2079003 1.1408212 1.1464412 1.1618435
0000e0 dc 6b 9e 3f d4 4c 91 3f 7a 51 8e 3f 28 61 aa 3f
       1.2376666 1.1351571 1.1118615 1.33109
0000f0 18 55 8c 3f 83 7d 94 3f 7b e5 8f 3f b4 4b 92 3f
       1.0963469 1.1600803 1.1241907 1.1429353

layer2.0.bn.bias f4 [64]
000000 e4 e9 f7 bd 1c ec ab bd b1 1d 61 be 49 c0 31 be
       -0.12105158 -0.08394644 -0.21983983 -0.17358507
000010 a7 46 0b bd aa 28 24 be 4a 71 12 be f2 fc 3c be
       -0.034002926 -0.16031137 -0.14301029 -0.18455866
000020 0e d1 86 be 30 27 5f be f4 36 46 be c3 58 ff bd
       -0.2633137 -0.21792293 -0.193569 -0.12468102
000030 25 db 1d be 97 cd 6e be ba 6c 2c be da 9f c4 bd
       -0.15415628 -0.23320614 -0.16838351 -0.09600802
000040 cb 84 8a bd 4f 99 44 be 7c 41 38 be 99 f9 bc bd
       -0.067636095 -0.19199108 -0.1799373 -0.092272945
000050 67 45 ff bd 35 c7 46 be de 35 89 bd c7 87 8d be
       -0.12464409 -0.19411929 -0.066997275 -0.27642652
000060 b6 de 07 be d2 6f 4d be 59 29 9e be 9e f1 28 be
       -0.13268551 -0.20062187 -0.3089092 -0.1649842
000070 09 d4 8a be 2f d8 3a be 6b a2 64 be f8 db 3a be
       -0.27114895 -0.1824653 -0.22327583 -0.18247974
000080 41 82 2b be 2a e3 2d be 88 73 83 be d0 f1 14 be
       -0.16748907 -0.16981187 -0.2567408 -0.14545369
000090 d4 19 b5 bd 66 32 0c be 86 d6 44 be a7 e2 4b be
       -0.08842817 -0.136911 -0.19222459 -0.1991068
0000a0 f4 f7 1c be 00 d5 4d be d4 f0 4c be 30 2e 05 be
       -0.15328962 -0.20100784 -0.20013744 -0.130059
0000b0 4a 7c 67 be 6f fc ee bd e7 f1 65 be 1e 58 0c be
       -0.22606006 -0.11669242 -0.2245556 -0.13705489
0000c0 85 55 21 be c2 a6 b4 bd 13 8f 0f be 94 6b 48 be
       -0.1575528 -0.08820869 -0.14019422 -0.19572288
0000d0 ba d5 89 be b6 e2 af bd de 13 4f be 60 8c ac bd
       -0.26920873 -0.085881636 -0.20222422 -0.08425212
0000e0 bb d1 29 be a7 b2 19 be 90 84 83 be e9 7d 00 be
       -0.16583912 -0.15009557 -0.25687075 -0.12548031
0000f0 b0 02 28 be f6 94 0e be c7 ef 8e be 71 42 51 bd
       -0.16407275 -0.13924012 -0.2791731 -0.051088754

layer2.0.bn.running_mean f4 [64]
000000 d3 02 c5 bf 74 9f 88 bf 65 85 a4 be 3e 03 53 c0
       -1.5391487 -1.0673661 -0.32133022 -3.297073
000010 f4 02 db bf 6f 75 dc bf 2f 2b 5a c0 79 19 a1 c0
       -1.7110276 -1.7223338 -3.4088857 -5.0343595
000020 ab 64 06 c0 e0 44 47 bd f3 42 f1 bf 24 53 9e c0
       -2.0998943 -0.04864967 -1.8848556 -4.947649
000030 0c 88 56 3f 3d 82 57 be 62 4e 2b c0 56 39 cb be
       0.8380134 -0.21045776 -2.676659 -0.3969218
000040 f7 ef 27 3e 34 dc 0c c0 a8 29 12 c0 e4 22 00 c0
       0.16400133 -2.2009401 -2.2837925 -2.0021296
000050 33 65 72 c0 86 92 44 c0 bf 33 2d bf b9 8a 40 c0
       -3.7874267 -3.071443 -0.67657083 -3.008467
000060 9c 4d 5e c0 3a a7 eb bf 0a 71 c7 bf 57 6a 4e c0
       -3.473487 -1.8410408 -1.5581372 -3.2252405
000070 79 4c 94 bf 11 d3 1b bf 4c 85 e2 be f4 27 b6 c0
       -1.1585838 -0.60868937 -0.44242322 -5.692377
000080 9f 86 8a 40 19 ae 29 c0 a5 32 e9 bf 20 dc b7 bf
       4.3289332 -2.651251 -1.821858 -1.4364052
000090 42 14 9b bf bb a2 22 c0 36 e9 e5 3e 02 97 13 c0
       -1.2115557 -2.5411823 0.44904488 -2.3060918
0000a0 2f 01 35 c0 46 4e 42 bd 66 a9 36 bf cf 2d 44 bc
       -2.8281972 -0.04743793 -0.7135223 -0.011973812
0000b0 73 96 7b 3e b1 f6 a3 bf fb 30 ab bf af 23 0c c0
       0.2456911 -1.2809659 -1.3374323 -2.189678
0000c0 6b b0 92 3f e6 e3 fb bf d1 ca f4 be 24 0b 3c bf
       1.1460088 -1.9678924 -0.47810987 -0.734545
0000d0 f3 3d e3 be 55 5c 40 3f b6 3d 86 bf 4a 35 6a bf
       -0.443832 0.7514089 -1.0487583 -0.9148756
0000e0 a4 3e 3e c0 20 d4 b0 3f 5b bd 41 c0 cb 06 02 c0
       -2.9725733 1.3814735 -3.0271823 -2.0316646
0000f0 49 4b 8d c0 42 27 2e c0 fb 7a b4 c0 20 cc a6 bf
       -4.41544 -2.721146 -5.6400123 -1.3031044

layer2.0.bn.running_var f4 [64]
000000 94 d9 4b 40 59 e4 85 40 12 b0 55 40 7a 7b 77 40
       3.185155 4.1841245 3.3388715 3.8669114
000010 e3 32 54 40 2f 10 94 40 05 15 8c 40 81 59 83 40
       3.3156059 4.6269755 4.377566 4.104676
000020 5d ef 27 40 d7 55 89 40 a1 7b 6a 40 66 86 a9 40
       2.6239846 4.2917285 3.6637957 5.297656
000030 f2 0d 96 40 a3 32 71 40 10 64 94 40 b9 c6 81 40
       4.6892023 3.7687156 4.6372147 4.055508
000040 4e 5c 34 40 31 02 72 40 49 89 61 40 41 29 d1 40
       2.8181338 3.7813838 3.5240042 6.536286
000050 75 62 bc 40 0a 6b 4e 40 fa fc 87 40 60 55 62 40
       5.8870187 3.2252831 4.249631 3.5364609
000060 08 da 84 40 c4 a4 77 40 46 89 65 40 96 f9 8c 40
       4.151615 3.8694315 3.5865035 4.405467
000070 65 b3 38 40 0d 22 3d 40 52 7f 82 40 c0 ba 91 40
       2.8859494 2.9552033 4.078042 4.5540466
000080 34 0f 6f 40 61 ee 8f 40 6a e1 98 40 e7 68 37 40
       3.735303 4.497849 4.7775164 2.8657777
000090 dc 68 71 40 68 a0 5c 40 80 62 5b 40 a9 d5 67 40
       3.772025 3.4472904 3.427887 3.6224158
0000a0 69 f1 88 40 f8 29 85 40 b6 e6 ae 40 f8 3d 65 40
       4.279469 4.161373 5.465663 3.5819073
0000b0 8a 2e 4a 40 40 4e 82 40 97 03 4d 40 78 74 4c 40
       3.1590905 4.072052 3.203344 3.1946087
0000c0 ab 8a 8c 40 e9 29 81 40 92 ad b7 40 02 be 4a 40
       4.3919272 4.036366 5.739938 3.1678472
0000d0 7d 33 a1 40 6f 60 87 40 35 f5 7c 40 23 fa 46 40
       5.037535 4.2305217 3.9524662 3.1090171
0000e0 4a a2 55 40 ea a2 89 40 f2 d2 73 40 2a b8 6f 40
       3.3380303 4.301137 3.80975 3.7456155
0000f0 e9 04 de 40 31 b7 65 40 ff c9 50 40 ff 83 84 40
       6.9380994 3.589306 3.2623289 4.141113
