student_models/baseline_res_students/student_1.pth (torch, 346486 bytes, 34 tensors)

conv_initial.0.weight f4 [16, 3, 3, 3]
0	0xbe1849a3	-0.1487184
1	0x3e63c025	0.22241266
2	0xbe2f9d27	-0.17149793
3	0xbe9d4f68	-0.30724645
4	0xbde5600f	-0.11199962
5	0x3e06dc37	0.13169943
6	0xbe01ed7d	-0.12688251
7	0x3e331e61	0.17492057
8	0x3dabf526	0.08396368
9	0xbdf96b03	-0.12178614
10	0x3e4fda10	0.20298028
11	0xbddd27ba	-0.10798593
12	0x3a93dd37	0.0011281137
13	0x3e924d10	0.2857442
14	0xbd51bea1	-0.05120719
15	0xbe2061c7	-0.15662299
16	0xbe6ddcd6	-0.23228773
17	0x3dfc2b2c	0.12312922
18	0x3dab0af6	0.083517
19	0x3e37bcc5	0.17943104
20	0xbe875325	-0.26430622
21	0x3d8613de	0.06546758
22	0x3e8ce2f7	0.2751691
23	0x3d355225	0.044267792
24	0xbd5ea64b	-0.054357808
25	0x3d16237a	0.036654927
26	0xbd2bc5b1	-0.04193658
27	0x3ddae2b2	0.1068777
28	0xbe0a6597	-0.13515316
29	0xbe1a47cf	-0.15066455
30	0xbe237988	-0.15964329
31	0xbe3881f5	-0.18018325
32	0xbe5e427a	-0.21705046
33	0x3e86db96	0.26339406
34	0x3d3668a7	0.044533398
35	0x3ea0ae06	0.3138277
36	0xbe0c9bcf	-0.13731311
37	0x3d1f7ba3	0.03893627
38	0xbb568ccf	-0.0032737737
39	0x3e0306e9	0.12795605
40	0xbd8c6b3f	-0.06856393
41	0xbdebbfd9	-0.115112014
42	0x3d68bc01	0.05681992
43	0x3e355c0b	0.17710893
44	0xbcd64750	-0.026157051
45	0x3c943420	0.018091261
46	0x3e0f7267	0.14008485
47	0x3e09339a	0.1339859
48	0xbded92b9	-0.11600251
49	0x3d8196e2	0.06327607
50	0x3e0aeef4	0.13567716
51	0xbe32c467	-0.17457734
52	0xbd38b659	-0.045095775
53	0xbde42e24	-0.11141613
54	0x3d899b57	0.06719082
55	0xbe981824	-0.29705918
56	0x3e3d419c	0.18482059
57	0xbe5222d1	-0.20521094
58	0x3e252bc4	0.16129977
59	0x3de37c69	0.11107714
60	0x3ba52387	0.0050396356
61	0x3d87b4f2	0.066263095
62	0xbd42ce04	-0.047559753
63	0x3d76e7f8	0.060279816
64	0xbe8b3b18	-0.27193522
65	0x3d31c1e8	0.043397814
66	0xbdab390f	-0.083604924
67	0xbe4d0755	-0.20022328
68	0x3e46a647	0.19399367
69	0xbddcc7ba	-0.10780282
70	0x3e0494cb	0.12947385
71	0x3e224a4c	0.15848655
72	0xbd332be8	-0.043743044
73	0xbd88ac06	-0.06673436
74	0x3df589bc	0.11989161
75	0xbdf7db16	-0.12102334
76	0xbdd585c9	-0.10425908
77	0x3e633271	0.2218721
78	0xbe63046c	-0.22169656
79	0x3e1fae0c	0.15593737
80	0x3de8b4ae	0.11362587
81	0xbd37e7c1	-0.044898752
82	0x3e36374b	0.1779453
83	0xbe1cd5ae	-0.15315887
84	0x3cb554fe	0.022135254
85	0xbe667d08	-0.22508633
86	0xbe2cb7be	-0.16866967
87	0x3da17df1	0.078853495
88	0xbe846170	-0.2585559
89	0xbe61eb2b	-0.22062366
90	0xbd829856	-0.06376712
91	0xbe203a11	-0.1564715
92	0xbd9c7d1e	-0.07641052
93	0xbe0cd605	-0.13753517
94	0x3e3bc844	0.18338114
95	0x3d22ba1e	0.039728276
96	0xbda17afa	-0.07884784
97	0x3c8e68e6	0.017384004
98	0x3b13c2e6	0.0022546588
99	0x3d01001f	0.031494256
100	0xbc870bb1	-0.016485067
101	0x3e0c7184	0.13715178
102	0x3e5cbc0e	0.21556112
103	0x3e6d8862	0.23196557
104	0x3ea46dab	0.3211492
105	0x3e2fc19f	0.17163704
106	0x3e73bf36	0.2380341
107	0x3cf30820	0.02966696
108	0x3c870163	0.016480153
109	0x3db0ad88	0.086268485
110	0xbce38470	-0.027773112
111	0xbe09bd13	-0.13451032
112	0xbe8fa8cb	-0.28058466
113	0x3ea21248	0.31654572
114	0x3d6517f9	0.055931065
115	0x3c3c13e5	0.011479353
116	0xbd918819	-0.07106037
117	0xbe212740	-0.15737629
118	0x3e6ffd79	0.23436536
119	0x3c6f37ef	0.014600738
120	0xbd323b9f	-0.04351389
121	0xbe99832a	-0.29982883
122	0x3e956770	0.2918048
123	0xbba13037	-0.0049190777
124	0x3df19779	0.11796469
125	0xbdffdafa	-0.12492938
126	0x3d982483	0.07428839
127	0xbd89772f	-0.067121856
128	0xbe0ef504	-0.13960654
129	0xbd568688	-0.052374393
130	0xbd15bb92	-0.036555834
131	0x3e668e78	0.22515285
132	0x3e2bb5c4	0.16768557
133	0x3d7b91cb	0.061418336
134	0xbe76ad02	-0.24089435
135	0x3e038cda	0.128467
136	0x3e139580	0.14412498
137	0x3dabd236	0.08389704
138	0xbdc5c6f9	-0.09657092
139	0x3d47b5fd	0.048757542
140	0xbe3bccc0	-0.18339825
141	0x3e3cf5a6	0.18453082
142	0xbd0642c0	-0.0327785
143	0x3dbe6acf	0.09297716
144	0x3d5127f0	0.051063478
145	0x3dfdd096	0.123933
146	0xbd395e04	-0.045255676
147	0x3d763ff2	0.060119577
148	0xbe00cbac	-0.12577695
149	0x3e0af58b	0.1357023
150	0xbe97e716	-0.29668492
151	0xbe674ffa	-0.22589102
152	0xbe953434	-0.2914139
153	0x3df369c1	0.11885405
154	0x3e715b1e	0.23569915
155	0x3e143578	0.14473522
156	0x3d865f80	0.06561184
157	0x3ccc3383	0.024926906
158	0x3e0c019a	0.13672486
159	0xbe8d2c4d	-0.2757286
160	0xbe5fd496	-0.21858439
161	0xbe4a3f9b	-0.19750826
162	0xbc9514a0	-0.018198311
163	0xbe36ec66	-0.17863616
164	0xbe7630eb	-0.24042098
165	0xbd10ffa5	-0.03540005
166	0x3d59d254	0.0531791
167	0x3eb84c3c	0.35995662
168	0x3e37fc9d	0.17967458
169	0x3e9fa400	0.3117981
170	0x3eb6230c	0.35573614
171	0xbdb1913e	-0.08670281
172	0x3e2446c0	0.16042614
173	0x3e2cdada	0.1688036
174	0x3e2adacb	0.16685025
175	0x3d406f0c	0.046980903
176	0x3d555b6a	0.052089132
177	0x3ce161a4	0.027512379
178	0x3d87deab	0.066342674
179	0xbeaa6d7b	-0.33286652
180	0xbe2a6d6c	-0.16643304
181	0xbd782361	-0.060580615
182	0x3d760214	0.060060576
183	0x3d48ee75	0.049055535
184	0xbe1f63fa	-0.15565482
185	0xbd2153ac	-0.039386436
186	0xbe877e3c	-0.26463497
187	0xbd08c7a4	-0.033393517
188	0x3d0cf2a3	0.034411084
189	0x3e4f337d	0.20234485
190	0x3e95ac62	0.2923308
191	0xbd7eca02	-0.06220437
192	0x3e3ad037	0.1824349
193	0x3da4a901	0.080400474
194	0x3d029bfa	0.031887032
195	0x3d05ee1e	0.03269779
196	0x3e20f3bd	0.15717979
197	0x3dca58ce	0.098802194
198	0x3dc66679	0.09687514
199	0xbd6b72ca	-0.05748252
200	0x3d16024c	0.036623284
201	0x3d82bf46	0.06384139
202	0xbdf25051	-0.118317254
203	0xbe93e4f7	-0.28885624
204	0x3e63370c	0.22188967
205	0x3d0b1817	0.03395852
206	0xbe3a1c2f	-0.18174814
207	0x3e898f77	0.26867267
208	0x3e3ffd8e	0.18749067
209	0x3e248c9c	0.16069263
210	0xbe127345	-0.14301784
211	0xbb6312bb	-0.0034648615
212	0x3e0639cc	0.13107985
213	0x3e47939e	0.19489905
214	0xbdde31a9	-0.10849316
215	0x3d3e09a8	0.046395928
216	0xbe898eb5	-0.2686669
217	0xbe3f4058	-0.18676889
218	0x3e143dd0	0.14476705
219	0x3e8ef076	0.27917832
220	0x3e0adb44	0.13560206
221	0xbd90e672	-0.07075204
222	0xbcf705b2	-0.030154083
223	0x3cd2fdc4	0.02575577
224	0xbd38a44d	-0.045078564
225	0xbe0a0a9b	-0.13480608
226	0xbd985c13	-0.07439437
227	0xbc8ceeca	-0.017203707
228	0x3e7d858a	0.24757972
229	0x3e4208f6	0.18948731
230	0xbd4c9cb3	-0.049954128
231	0xbcf53caf	-0.029936163
232	0xbe143508	-0.14473355
233	0x3cc52eb3	0.02407012
234	0xbe85686a	-0.26056224
235	0xbe5d37e0	-0.21603346
236	0xbd4c41eb	-0.04986755
237	0x3d62471f	0.055243608
238	0x3ded9fa1	0.116027124
239	0xbd8815b5	-0.06644765
240	0x3e194d2c	0.14970845
241	0x3e1ccc8f	0.15312408
242	0x3df0365c	0.11729118
243	0xbda6d4bf	-0.08146047
244	0xbe499e8f	-0.19689392
245	0x3e09caba	0.1345624
246	0x3e039c0a	0.12852493
247	0x3d1117be	0.035423033
248	0x3dc42b13	0.09578528
249	0xbe787133	-0.24261932
250	0x3e0b7f07	0.13622676
251	0xbd054b76	-0.03254267
252	0x3e2e2ab0	0.17008471
253	0x3bbc399c	0.0057441723
254	0xbdb64aee	-0.089010105
255	0x3d629858	0.055321068

conv_initial.1.weight f4 [16]
0	0x3f4b486c	0.7940738
1	0x3f785986	0.970116
2	0x3fa33e39	1.2753364
3	0x3f53c1dc	0.8271768
4	0x3f7d9c1b	0.99066323
5	0x3f882e45	1.063912
6	0x3f54da27	0.83145374
7	0x3f4ef244	0.8083842
8	0x3f956b0a	1.1673291
9	0x3f96f43b	1.1793283
10	0x3f7a9b7a	0.9789349
11	0x3f55ce2a	0.83517706
12	0x3f662000	0.8989258
13	0x3f8cde4d	1.1005341
14	0x3f7260af	0.9467878
15	0x3f626406	0.88433874

conv_initial.1.bias f4 [16]
0	0x3e7cfcf6	0.24705872
1	0xbdd29759	-0.102827735
2	0xbd083ff7	-0.033264127
3	0x3e4e90c3	0.2017241
4	0x3dbc29bc	0.09187648
5	0x3c8ebc28	0.017423704
6	0x3b442419	0.0029928742
7	0xbdee4906	-0.11635022
8	0xbbf3ca61	-0.007439897
9	0x3dfb04dc	0.12256786
10	0xbcc0adde	-0.023520406
11	0xbe426949	-0.18985476
12	0xbe890d09	-0.26767758
13	0xbe1261df	-0.14295147
14	0xbe8a27bb	-0.26983437
15	0x3d1b1b18	0.037867635

conv_initial.1.running_mean f4 [16]
0	0xbcddd1b5	-0.027077535
1	0xbbcad1df	-0.0061895694
2	0xbb729dc8	-0.0037020314
3	0xbdf11b9f	-0.117728464
4	0xba5452f6	-0.00080995203
5	0x3c84f190	0.016228467
6	0x3d36b102	0.0446024
7	0xbd739a39	-0.05947325
8	0xbae9ea30	-0.0017846283
9	0x3b246487	0.0025084333
10	0x3c1b4bdd	0.009478536
11	0xbc153f29	-0.009109297
12	0x3cb6fe88	0.022338167
13	0x3a7e3440	0.0009697117
14	0xbcfed0e7	-0.031105472
15	0xbc123cfa	-0.008925671

conv_initial.1.running_var f4 [16]
0	0x3d1e616f	0.03866714
1	0x3c6d92a0	0.01450029
2	0x3d9259ae	0.07146011
3	0x3e24fffc	0.16113275
4	0x3c481f8d	0.012214554
5	0x3e0454c3	0.12922959
6	0x3de24e63	0.11050107
7	0x3ee7148d	0.45132867
8	0x3d61a55a	0.055089332
9	0x3d1e0459	0.038578365
10	0x3ccc6cdf	0.024954258
11	0x3d1b9c2e	0.03799074
12	0x3dcb2084	0.09918311
13	0x3d04b2c8	0.03239706
14	0x3eaf0486	0.3418314
15	0x3cc24211	0.023713144

layer1.0.conv.weight f4 [32, 16, 3, 3]
0	0xbdfb2402	-0.12262727
1	0xbd000384	-0.031253353
2	0x3ce28dec	0.027655564
3	0xbdedc41b	-0.1160967
4	0xbe2575d9	-0.16158237
5	0x3dafe732	0.08589019
6	0xbe0a394b	-0.13498418
7	0x3d02d1cf	0.03193837
8	0x3e35f6d1	0.17769934
9	0x3d985a7d	0.07439134
10	0x3cd86f77	0.026420338
11	0x3e24b426	0.16084346
12	0x3de053fb	0.10953518
13	0x3d3f8e08	0.04676631
14	0x3e06f217	0.13178287
15	0xbcabf941	-0.020992877
16	0xbd03ba5d	-0.03216015
17	0x3e4b2c34	0.19841081
18	0xbdd51643	-0.10404637
19	0xbe2914d6	-0.16511855
20	0xbe1f6610	-0.15566278
21	0x3c2e7921	0.010648997
22	0x3c9f8712	0.019473586
23	0xbc019ab2	-0.007910417
24	0x3da527c4	0.08064225
25	0xbd3bc8ec	-0.04584591
26	0xbd9a1d29	-0.07525093
27	0xbc138248	-0.009003229
28	0x3d37cb97	0.044871893
29	0x3e317f6d	0.17333765
30	0xbe3219dc	-0.17392677
31	0xbdb8f8bf	-0.090318196
32	0x3e2b223b	0.16712277
33	0xbed99d8a	-0.42503005
34	0xbe9f70bf	-0.31140706
35	0x3c6db55b	0.014508571
36	0x3d45ea35	0.04831906
37	0xbd5e9c84	-0.054348484
38	0xbcf11ad8	-0.029431745
39	0xbdfc5736	-0.12321322
40	0xbdeaa222	-0.11456706
41	0xbccc30ef	-0.024925677
42	0x3e0fee84	0.1405583
43	0xbdb7faec	-0.089834064
44	0xbe8320f6	-0.25611085
45	0x3dd89a44	0.10576299
46	0x3d26255c	0.040562972
47	0x3e02445b	0.12721388
48	0x3e587506	0.21138391
49	0x3d30c814	0.04315956
50	0xbd460ef9	-0.048354123
51	0x3bbb5259	0.0057166037
52	0xbc9204b6	-0.017824512
53	0xbc914dd2	-0.017737303
54	0xbc3ab2de	-0.011395184
55	0x3d04ca63	0.032419574
56	0xbe59be22	-0.21263936
57	0x3e1b3391	0.1515639
58	0x3d71bea0	0.059019685
59	0xbe032ac6	-0.12809286
60	0x3e670cfe	0.2256355
61	0x3e0f0a17	0.13968693
62	0xbe2bc82c	-0.16775578
63	0xbd6e4ce3	-0.058178794
64	0x3d4f61d3	0.0506304
65	0x3dc9a1ab	0.09845289
66	0xbdb210ac	-0.08694586
67	0x3d7b1231	0.061296646
68	0xbd5719bc	-0.052514777
69	0xba88dad4	-0.0010441192
70	0x3ca1ce60	0.019751728
71	0xbdb0b9c3	-0.08629181
72	0x3e10aac3	0.1412764
73	0x3d683f55	0.056701023
74	0xbdc69fd1	-0.09698451
75	0xbd4862bf	-0.048922297
76	0x3ce6739b	0.028131297
77	0x3d52864d	0.05139761
78	0xbdb1aefb	-0.08675953
79	0x3c24eb87	0.01006592
80	0xbd979d3a	-0.074030355
81	0xbd4708dd	-0.048592437
82	0xbe27cf25	-0.16387613
83	0x3c991d0b	0.018690607
84	0x3ded2b3f	0.11580514
85	0x3e59424c	0.21216697
86	0xbd69da53	-0.057092976
87	0x3e0abd5b	0.13548796
88	0x3c1bc59e	0.009507565
89	0x3d787bef	0.060665067
90	0xbd1d2bb1	-0.038371745
91	0x3d7104ae	0.058842354
92	0xbb929b64	-0.0044740904
93	0xbd037a5b	-0.03209911
94	0xbdf51324	-0.119665414
95	0xbdfa972d	-0.12235866
96	0x3bb717e2	0.005587564
97	0xbe559143	-0.20856194
98	0xbe49ffd8	-0.19726503
99	0x3d2bc017	0.041931238
100	0x3d9b598b	0.07585438
101	0xbd0cdd2d	-0.034390617
102	0x3de87ebb	0.11352297
103	0x3dad3253	0.08456864
104	0xbd5bb50d	-0.05363946
105	0x3dfd6f69	0.123747654
106	0x3e6105b4	0.21974832
107	0x3eb3caf8	0.3511579
108	0x3e33c60f	0.17556022
109	0xbcdcdbf8	-0.026960358
110	0xbd856218	-0.065128505
111	0x3c1f8835	0.009737064
112	0x3dc041e0	0.09387565
113	0x3ded9ec8	0.11602551
114	0x3e2347b1	0.15945317
115	0x3e6ac81a	0.22927895
116	0x3d56e615	0.052465517
117	0xbdc2d68f	-0.0951358
118	0xbd800677	-0.06251233
119	0xbe9b7856	-0.30365247
120	0xbdd19bb2	-0.10234775
121	0xbd88275d	-0.06648133
122	0xbe6dd686	-0.23226365
123	0x3d81212b	0.063051544
124	0xbd478f6c	-0.048720762
125	0x3d0ade1e	0.033903234
126	0xbd62f25b	-0.05540691
127	0x3e315820	0.17318773
128	0x3e140273	0.1445406
129	0xbdcf6ec6	-0.1012855
130	0x3e030fdb	0.12799017
131	0x3e62fa64	0.22165829
132	0x3cf99c5c	0.030470066
133	0x3e24bcce	0.16087648
134	0x3e0363a4	0.12830979
135	0x3dc641f0	0.09680545
136	0x3d983724	0.07432392
137	0x3d93056e	0.0717877
138	0xbce8def3	-0.028426623
139	0x3d9f3a63	0.07774808
140	0x3d1dcea9	0.038527165
141	0x3d58fe22	0.052976735
142	0xbc1bf4c7	-0.009518809
143	0x3db2c7b2	0.08729495
144	0xbce78e03	-0.028265959
145	0x3decdf7d	0.115660645
146	0xbdafb783	-0.08579924
147	0x3cea47b0	0.028598636
148	0x3d85f78c	0.065413564
149	0x3d107811	0.035270754
150	0xbde98836	-0.11402933
151	0x3d2d2222	0.04226888
152	0x3de8e636	0.11372034
153	0xbd973d11	-0.07384694
154	0xbe1696ea	-0.14706007
155	0x3e335216	0.17511782
156	0xbe0a6833	-0.13516311
157	0xbe8a5496	-0.2701766
158	0xbda929ff	-0.08259963
159	0xbde6f29e	-0.11276744
160	0xbe09eb89	-0.13468756
161	0xbe1510a7	-0.14557134
162	0x3e0ab038	0.13543785
163	0x3ca87493	0.0205634
164	0xbd4e0d68	-0.050305754
165	0x3d278020	0.040893674
166	0xbd4b18dc	-0.049584255
167	0x3e41b4b1	0.18916585
168	0xbdf779b2	-0.120837584
169	0xbccac1b2	-0.024750564
170	0x3e62c598	0.22145689
171	0x3dcdd28e	0.10049926
172	0x3e21c2f5	0.15797026
173	0x3d858c4c	0.065209
174	0x3d2d32bd	0.042284716
175	0x3df1bfe9	0.11804182
176	0xbbab30fc	-0.0052243453
177	0x3e0f4fdb	0.13995306
178	0x3db32fec	0.08749375
179	0x3e202763	0.15640025
180	0x3e4819a8	0.19541037
181	0xbd19ea20	-0.037576795
182	0xbe04cab0	-0.12967944
183	0x3d14ee3b	0.036360007
184	0xbd944086	-0.07238869
185	0x3e767d33	0.24071197
186	0xbe4da95d	-0.20084138
187	0xbde465d9	-0.111522384
188	0x3e728860	0.23684835
189	0xbe255420	-0.16145372
190	0xbe161035	-0.1465462
191	0xbb8be094	-0.004268715
192	0xbdf73acb	-0.12071761
193	0xbd54cd92	-0.05195386
194	0x3cec03a4	0.02881033
195	0xbc62e1d3	-0.013847786
196	0xbda1c548	-0.078989565
197	0xbd997150	-0.07492316
198	0x3dd01a2a	0.101612404
199	0x3d26bd4a	0.040707864
200	0x3c20019b	0.009766008
201	0x3d0b62bc	0.034029707
202	0x3d800ee2	0.06252839
203	0x3cdde0ff	0.027084826
204	0x3bc0be90	0.005882092
205	0x3de50010	0.111816525
206	0x3dce3e1b	0.100704394
207	0x3e32924e	0.17438623
208	0x3e5852be	0.21125314
209	0x3dc9041f	0.09815239
210	0x3e83a506	0.2571184
211	0x3e7f8f61	0.24957038
212	0xbbe299e1	-0.0069153165
213	0x3dfc0c18	0.12306994
214	0x3e85e26d	0.26149312
215	0x3e65a37e	0.22425649
216	0xbb2bdd8b	-0.002622458
217	0xbd70f90b	-0.058831256
218	0x3da9d338	0.0829224
219	0x3dbb8d50	0.091578126
220	0xbd0e3982	-0.034722812
221	0xbdcafcea	-0.09911521
222	0x3d902a42	0.0703931
223	0x3df10e00	0.117702484
224	0x3d79b44d	0.060962964
225	0x3c0bb299	0.008526468
226	0xbc9e80ac	-0.019348465
227	0xbd626783	-0.055274498
228	0x3d90c687	0.07069116
229	0xbe010036	-0.12597737
230	0x3d9d4bd9	0.076804824
231	0xbe16de6d	-0.14733286
232	0xbdb22529	-0.08698494
233	0xbe3d52c6	-0.18488607
234	0x3db63d37	0.088983946
235	0x3e86e01c	0.26342857
236	0x3e1e134d	0.1543705
237	0x3cd053c9	0.025430577
238	0xbd2f96fa	-0.04286859
239	0x3e3ad2fd	0.18244548
240	0x3a67e0a6	0.0008845426
241	0x3dea6e78	0.114468515
242	0x3dc2336c	0.09482464
243	0xbcda2f3b	-0.02663385
244	0xbe017113	-0.1264079
245	0xbd91b52f	-0.07114636
246	0x3d745691	0.05965287
247	0xbe43661e	-0.19081923
248	0xbd5ab432	-0.053394504
249	0x3ded43d4	0.11585203
250	0x3d9dbcea	0.07702048
251	0x3da5b3ea	0.080909565
252	0xbda44b98	-0.08022231
253	0x3d3b03d3	0.045657944
254	0xbd2bc1c1	-0.041932825
255	0xbd70f75f	-0.05882966

layer1.0.bn.weight f4 [32]
0	0x3f8daff2	1.1069319
1	0x3f7de7d7	0.99181885
2	0x3f7d958d	0.9905632
3	0x3f9c3466	1.2203491
4	0x3f8a5c72	1.0809462
5	0x3f9dad3c	1.2318492
6	0x3f8e9adc	1.1141009
7	0x3f9842d1	1.1895391
8	0x3fb2b9f5	1.3963
9	0x3f97bb9f	1.1854132
10	0x3f897678	1.0739279
11	0x3fac524d	1.3462616
12	0x3fa6a5d2	1.3019354
13	0x3fc2b3ef	1.5211161
14	0x3fc2ffc2	1.5234301
15	0x3fa7eabd	1.3118511
16	0x3f9b5ac6	1.2137077
17	0x3f94639c	1.1592898
18	0x3fa93bed	1.3221413
19	0x3f94a961	1.161419
20	0x3f93f404	1.1558843
21	0x3f909dab	1.1298116
22	0x3fc3a543	1.5284809
23	0x3fcc02e7	1.5938386
24	0x3f905d6d	1.1278511
25	0x3fb1d429	1.3892871
26	0x3f9b4271	1.2129651
27	0x3fa02848	1.2512293
28	0x3f91d444	1.1392903
29	0x3f995c05	1.1981207
30	0x3fc55f84	1.5419774
31	0x3f947527	1.1598252

layer1.0.bn.bias f4 [32]
0	0xbe1b4d77	-0.15166269
1	0x3d36aa93	0.044596266
2	0x3df68335	0.120367445
3	0x3e48e511	0.19618632
4	0x3dab9a26	0.08379011
5	0x3d4445d0	0.04791814
6	0xbe26a231	-0.16272809
7	0x3e0dd7f0	0.13851905
8	0xbda96b05	-0.082723655
9	0x3e3844f7	0.17995058
10	0xbda9ba2f	-0.08287465
11	0xbdf06bb2	-0.11739291
12	0xbd9a0987	-0.075213484
13	0x3c1e5310	0.009663358
14	0x3d79da32	0.060999103
15	0x3dec0630	0.11524618
16	0xbde8789e	-0.11351131
17	0x3cfb135f	0.030648885
18	0xbd862073	-0.06549158
19	0xbc8ac83b	-0.01694118
20	0xbcec483d	-0.02884304
21	0xbe863a5b	-0.26216397
22	0x3c849f50	0.016189247
23	0xbd8b1170	-0.06790435
24	0x3dc677aa	0.09690793
25	0xbe795bcb	-0.24351422
26	0xbe03329e	-0.12812278
27	0x3c9df9b1	0.019284101
28	0x3e36a5c5	0.17836674
29	0xbd810ae2	-0.06300904
30	0x3eb0386b	0.34418043
31	0xbcad0c3a	-0.021123994

layer1.0.bn.running_mean f4 [32]
0	0x3ac6fcef	0.0015181581
1	0x3fd72725	1.6808821
2	0xbeaf5181	-0.3424187
3	0xbfa05fb4	-1.2529206
4	0xbfa846a7	-1.3146561
5	0xbfae033f	-1.3594741
6	0x3ed8340a	0.42227203
7	0x3fda01ae	1.7031763
8	0xbd7b6c55	-0.06138261
9	0x3fcaf11e	1.5854833
10	0x3d9aba42	0.07555057
11	0x3ec871f8	0.3914945
12	0xbfb9571a	-1.4479706
13	0xbfd493a5	-1.6607558
14	0xbf2c935e	-0.67412364
15	0xbf98492d	-1.1897331
16	0xbee8ad37	-0.45444652
17	0xbf2da8ec	-0.6783588
18	0xbf21ed40	-0.6325264
19	0x3d9a2f57	0.075285606
20	0xbf93a4d6	-1.1534679
21	0x3cf583d5	0.029970089
22	0xbf8868c9	-1.0656978
23	0xbf30ad68	-0.69014597
24	0x3e711d5c	0.23546356
25	0xbf872848	-1.0559168
26	0xbf758f27	-0.9592156
27	0xc019ac2d	-2.4011338
28	0x3f7ac648	0.97958803
29	0xbf6e9ba7	-0.93206257
30	0xbfc7463d	-1.556831
31	0xbf2b8581	-0.67000586

layer1.0.bn.running_var f4 [32]
0	0x3faae355	1.3350626
1	0x3fe94350	1.8223667
2	0x40808718	4.016491
3	0x40378cab	2.8679607
4	0x4044e403	3.0764167
5	0x40171bc8	2.3610706
6	0x3ffcc9a0	1.9749031
7	0x401d7717	2.4603937
8	0x3ffde908	1.983674
9	0x405c82fb	3.4454944
10	0x3fa1fc0a	1.2655041
11	0x3ffd79f9	1.9802848
12	0x4011da39	2.2789443
13	0x402f03d9	2.7346098
14	0x40651ddb	3.5799472
15	0x40589b29	3.3844702
16	0x3ff6c67c	1.9279323
17	0x3f9b4dc3	1.2133106
18	0x403eb309	2.9796774
19	0x3fd3da16	1.655093
20	0x3fd2d393	1.6470817
21	0x3fa9730e	1.3238237
22	0x40404692	3.0043073
23	0x404d30ad	3.206096
24	0x3fcbac70	1.5911999
25	0x405110ff	3.2666624
26	0x3fcdcf1f	1.6078833
27	0x40842736	4.1297865
28	0x3ff32b58	1.8997602
29	0x3fe4d16d	1.7876412
30	0x40183c9c	2.3786993
31	0x3fd03d97	1.6268796

layer1.0.downsample.0.weight f4 [32, 16, 1, 1]
0	0x3d849b84	0.06474975
1	0x3e72e043	0.23718362
2	0xbe41b6fa	-0.18917456
3	0xbdd7423b	-0.10510679
4	0xbdcf2357	-0.101141624
5	0xbdc45709	-0.09586913
6	0x3bbd4ff7	0.005777355
7	0x3de7853d	0.1130471
8	0x3d821597	0.06351774
9	0xbe04b47b	-0.12959473
10	0x3e66c906	0.22537622
11	0x3e23217e	0.15930745
12	0x3dca87e6	0.09889202
13	0xbe4322fb	-0.19056313
14	0x3e959adb	0.29219708
15	0xbeb90b3f	-0.36141393
16	0xbd3df05f	-0.046371814
17	0xbe12c53e	-0.14333054
18	0x3e8b17fa	0.2716673
19	0x3db5f53b	0.088846646
20	0x3dd5d182	0.10440351
21	0xbdeac90e	-0.114641294
22	0xbd760546	-0.060063623
23	0xbe90d6fc	-0.2828902
24	0xbd3e1788	-0.04640916
25	0x3e2f20b9	0.17102326
26	0x3ea7ee3d	0.3279895
27	0xbe81f5d1	-0.25382856
28	0x3e612ec2	0.21990493
29	0x3da744c7	0.08167415
30	0x3e126e4f	0.14299892
31	0x3caf6a50	0.021412998
32	0xbdf71515	-0.12064568
33	0xbd964840	-0.07337999
34	0x3d74c980	0.059762478
35	0xbe9eb7ee	-0.30999702
36	0x3dc14e89	0.094388075
37	0x3e3775d3	0.1791604
38	0xbe9102fe	-0.28322595
39	0xbdc6ab65	-0.0970066
40	0x3de51a46	0.11186652
41	0x3cc4363d	0.023951644
42	0x3e942705	0.2893602
43	0xbde3735d	-0.11105988
44	0xbe90b489	-0.28262737
45	0x3e105eca	0.14098659
46	0xbdc216e8	-0.09477025
47	0x3d9135b7	0.070903234
48	0x3e0afebf	0.1357374
49	0x3d7cfc83	0.06176425
50	0xbd214e2d	-0.039381195
51	0xbe4b0962	-0.19827798
52	0xbd64a324	-0.055819646
53	0xbe7cdf8d	-0.24694653
54	0x3d972c40	0.07381487
55	0xbbce14d9	-0.0062891063
56	0xbc6beb2d	-0.014399332
57	0x3e4016f5	0.18758757
58	0xbea610fe	-0.3243484
59	0xbebdcad4	-0.37068808
60	0x3dca1c96	0.098687336
61	0x3e745cb6	0.23863491
62	0xbe815f0e	-0.25267833
63	0xbd8d4ce7	-0.068994336
64	0xbd17e581	-0.037084106
65	0xbec05ca2	-0.37570673
66	0x3e0d589a	0.1380333
67	0xbe7f6250	-0.24939847
68	0xbde9929b	-0.11404916
69	0x3e6bbafb	0.23020546
70	0xbe036345	-0.12830837
71	0x3e1f74c9	0.15571894
72	0x3dbf043a	0.09326978
73	0xbcb78e94	-0.022406854
74	0x3e097332	0.1342285
75	0x3e6739f1	0.22580697
76	0xbe127469	-0.1430222
77	0xbe3112e0	-0.17292356
78	0xbdc7cc58	-0.09755772
79	0xbea5bdb3	-0.32371292
80	0xbe9b4d29	-0.30332306
81	0xbe899091	-0.26868108
82	0x3e0619fb	0.13095848
83	0xbe80ec8c	-0.2518047
84	0xbd481b2d	-0.04885404
85	0x3c9e8c37	0.019353969
86	0xbc658f1f	-0.0140111735
87	0x3e0facbe	0.1403074
88	0xbe5f657b	-0.21816055
89	0x3e47f846	0.19528303
90	0x3d24436d	0.040103365
91	0x3d367cf2	0.04455275
92	0xbe0e8824	-0.13919121
93	0x3ceff7d9	0.029292988
94	0xbec77095	-0.3895308
95	0xbdcada55	-0.09904925
96	0xbc07bd4b	-0.008284877
97	0x3d7f9273	0.062395524
98	0xbda56874	-0.080765635
99	0xbdf49e19	-0.11944217
100	0xbd5e22a3	-0.05423225
101	0x3db40847	0.08790641
102	0x3d242891	0.04007775
103	0x3e42df89	0.19030584
104	0xbee8cbf2	-0.45468098
105	0xbe1f8f9e	-0.1558213
106	0xbe6d9216	-0.23200259
107	0x3db975e1	0.09055687
108	0x3e441cc4	0.19151598
109	0x3d3e4e4b	0.046461385
110	0xbeb3b36c	-0.35097826
111	0xbe026e62	-0.1273742
112	0x3d6b7f06	0.057494186
113	0xbe200430	-0.15626597
114	0xbd68225e	-0.0566734
115	0xbeeac6e9	-0.4585488
116	0x3d8dd750	0.06925833
117	0xbe340c45	-0.17582805
118	0x3d2913e0	0.04127872
119	0xbec7b10b	-0.3900226
120	0xbd53022a	-0.051515736
121	0x3de31904	0.11088756
122	0xbe3583af	-0.17726015
123	0xbd379a9f	-0.044825193
124	0x3e4f5a81	0.20249368
125	0xbd00e648	-0.031469613
126	0xbe1a2fd3	-0.15057306
127	0xbd561f58	-0.052275985
128	0xbea5be3a	-0.32371694
129	0x3dce6686	0.100781485
130	0xbe8912be	-0.26772112
131	0xbec8600b	-0.39135775
132	0xbe76543f	-0.24055575
133	0x3e3b5500	0.18294144
134	0x3dc7d470	0.09757316
135	0xbd1e7513	-0.03868587
136	0x3dbc4a5c	0.091938704
137	0xbe6e0109	-0.23242582
138	0xbc176a3a	-0.009241635
139	0xbe14655d	-0.14491792
140	0x3d2f33d7	0.042774048
141	0xbe9e1525	-0.30875507
142	0xbdaf056d	-0.08545957
143	0x3d30db7a	0.04317806
144	0x3e687966	0.2270256
145	0x3d0d8523	0.034550797
146	0x3ca7baeb	0.020474872
147	0xbe27cfcc	-0.16387862
148	0xbe8c070b	-0.27349123
149	0xbde259ec	-0.110523075
150	0xbe9aed69	-0.30259255
151	0xbdf468a5	-0.11934022
152	0xbe7a4b3e	-0.24442765
153	0x3e179451	0.14802672
154	0xbe63039f	-0.2216935
155	0xbea9e186	-0.33179873
156	0x3c577aa8	0.013151802
157	0xbe264ac1	-0.16239454
158	0x3db22c80	0.08699894
159	0x3df342ef	0.11878001
160	0x3e34e65b	0.17665999
161	0x3e0a9cee	0.13536426
162	0xbe76dbb2	-0.24107245
163	0x3e33077a	0.17483321
164	0x3eb30b80	0.3496971
165	0xbc29758d	-0.010342968
166	0x3d6691e0	0.05629146
167	0xbe2a6375	-0.16639502
168	0xbe3ffd55	-0.18748982
169	0xbd82a756	-0.06379573
170	0x3d97510e	0.07388507
171	0x3e3e968e	0.1861212
172	0x3db5363e	0.088482365
173	0xbdda4094	-0.106568485
174	0xbe94810b	-0.29004702
175	0x3e963815	0.29339662
176	0xbc178444	-0.009247843
177	0x3e5556fb	0.20833962
178	0xbd8d5bbf	-0.06902265
179	0x3cd6497a	0.026158083
180	0xbe616dc3	-0.22014527
181	0xbef73769	-0.48284462
182	0x3cb26ec5	0.021781335
183	0xbdd22b06	-0.10262112
184	0x3d941b13	0.072317265
185	0xbe82452c	-0.254434
186	0xbe2870b0	-0.16449237
187	0xbe5dc3a1	-0.21656658
188	0x3d5ecc9e	0.054394357
189	0xbe45e5c7	-0.19325934
190	0xbe975859	-0.2955959
191	0x3e4651f8	0.19367206
192	0x3e410390	0.18849015
193	0xbe6c2a14	-0.23062927
194	0x3e30012d	0.17187949
195	0x3d2e8941	0.042611364
196	0x3d20de3e	0.039274447
197	0x3d345e5c	0.0440353
198	0xbd9449e0	-0.07240653
199	0x3e6d3a13	0.23166685
200	0x3e3b3b46	0.1828433
201	0xbd562286	-0.052279018
202	0xbe0002f8	-0.12501132
203	0xbdcc7091	-0.09982408
204	0xbe9a5721	-0.301446
205	0xbeb7b584	-0.35880673
206	0x3e40e429	0.18837036
207	0x3e182d0a	0.14860931
208	0xbdadd68b	-0.084881864
209	0xbd41386d	-0.047172952
210	0xbe08bb54	-0.1335271
211	0xbecc4991	-0.39899877
212	0xbe1621fd	-0.14661403
213	0xbe40a2fd	-0.18812175
214	0x3d7e923a	0.06215117
215	0x3d052c08	0.032512695
216	0xbe52a570	-0.20570922
217	0xbdf83161	-0.12118793
218	0xbd6fc7fa	-0.058540322
219	0xbebc851a	-0.36820298
220	0x3d4caad7	0.049967613
221	0x3dfb052c	0.12256846
222	0x3e43542f	0.19075082
223	0xbd987705	-0.07444576
224	0xbd846287	-0.06464105
225	0xbe9fccb8	-0.31210876
226	0x3e08c48d	0.13356228
227	0x3de4bb67	0.11168557
228	0x3e945204	0.28968823
229	0xbd457f1e	-0.04821693
230	0x3e4afba4	0.19822556
231	0x3eb1fae3	0.34761724
232	0x3e5343c3	0.20631318
233	0xbe2995fa	-0.16561118
234	0xbe7c719d	-0.24652715
235	0x3e1c78b6	0.15280423
236	0x3d5a876c	0.053351805
237	0xbddc1622	-0.10746409
238	0xbe2485b9	-0.16066636
239	0xbc3ea9e7	-0.011637188
240	0xbe399324	-0.18122536
241	0xbd8c9fc2	-0.06866409
242	0x3da6c406	0.08142857
243	0x3e8502fd	0.25978842
244	0xbd12e98f	-0.03586727
245	0xbefd938f	-0.4952664
246	0xbda855bd	-0.08219478
247	0x3cc4d59b	0.024027636
248	0xbcde6758	-0.027148888
249	0xbd3f15d1	-0.046651665
250	0x3dbab87a	0.09117217
251	0xbd2611ff	-0.040544506
252	0xbe1ff2aa	-0.15619913
253	0x3d97a28e	0.07404052
254	0x3dbb5a19	0.09148044
255	0xbed6466b	-0.418506

layer1.0.downsample.1.weight f4 [32]
0	0x3f1fbe28	0.6239953
1	0x3f683878	0.90711164
2	0x3f0ee38d	0.55815965
3	0x3f29bbd4	0.6630223
4	0x3f33996f	0.70155996
5	0x3f5e30d9	0.86793286
6	0x3f5dd52b	0.86653394
7	0x3f22bb60	0.6356716
8	0x3f443d62	0.7665616
9	0x3f455b1f	0.77092165
10	0x3f36fd1d	0.7147997
11	0x3f44df02	0.7690278
12	0x3f2eca1e	0.68277156
13	0x3f2bf08c	0.6716392
14	0x3f2405b1	0.64071184
15	0x3f692ce4	0.9108412
16	0x3f31b8aa	0.694224
17	0x3f4cf38b	0.8005912
18	0x3f385c41	0.7201577
19	0x3f3ee14f	0.74562544
20	0x3f426a66	0.759436
21	0x3f4d9755	0.8030904
22	0x3f3e699a	0.74379885
23	0x3f654391	0.89556223
24	0x3f0ca70e	0.54942405
25	0x3f55e865	0.8355773
26	0x3f376d3d	0.7165106
27	0x3f62e59f	0.88631624
28	0x3f41749d	0.7556856
29	0x3f4363f5	0.763244
30	0x3f408cf3	0.7521507
31	0x3f368012	0.7128917

layer1.0.downsample.1.bias f4 [32]
0	0xbe99db1c	-0.3004998
1	0x3c31a824	0.0108433105
2	0xbcb2c042	-0.021820191
3	0x3d292d1a	0.041302778
4	0xbdfc2e83	-0.12313559
5	0x3dbf8778	0.093520105
6	0xbe3ee946	-0.18643674
7	0x3cf16e10	0.029471427
8	0xbe69d55b	-0.22835295
9	0x3e5ee408	0.21766675
10	0xbdcbd68e	-0.099530324
11	0xbe4e9c5c	-0.20176834
12	0xbe7964de	-0.24354884
13	0xbe714bc1	-0.23564054
14	0xbea4291b	-0.3206261
15	0x3cf5d8b5	0.03001056
16	0xbe38792d	-0.18014975
17	0xbe64f83b	-0.22360317
18	0xbe3dc525	-0.18532236
19	0xbbc393fd	-0.0059685693
20	0xbbd6e39f	-0.0065578963
21	0xbe71292b	-0.2355086
22	0x3d12693d	0.035744894
23	0xbe7da409	-0.24769606
24	0x3d7601e9	0.060060415
25	0xbeb0f543	-0.3456212
26	0xbe4400f4	-0.19140989
27	0x3d5511a2	0.05201877
28	0xbdac754e	-0.084208116
29	0xbe4e240d	-0.2013094
30	0xba7e1cc9	-0.00096936204
31	0xbdbe6a8a	-0.092976645

layer1.0.downsample.1.running_mean f4 [32]
0	0xbe1b577c	-0.15170091
1	0x3ee81c3d	0.45334044
2	0x3d250d40	0.04029584
3	0xbeb0b441	-0.34512523
4	0xbeaf9f26	-0.34301108
5	0xbf14ee51	-0.5817614
6	0xbf305853	-0.6888477
7	0xbf20bcff	-0.62788385
8	0xbf8123e3	-1.0089077
9	0xbf3b2fe3	-0.73119944
10	0x3ea0d231	0.31410363
11	0xbf6aa9b0	-0.9166517
12	0x3d7ed2c4	0.06221272
13	0xbf664923	-0.8995535
14	0x3e377581	0.17915918
15	0xbf14779b	-0.57995003
16	0xbd720872	-0.059090085
17	0x3d7a6029	0.06112686
18	0xbee0bb6f	-0.43893
19	0xbea8b209	-0.3294833
20	0x3f6b6019	0.9194351
21	0xbed032b8	-0.40663695
22	0x3f915858	1.1355085
23	0xbf9a0ecd	-1.2035767
24	0xbda29105	-0.079378165
25	0xbf13e271	-0.577674
26	0x3ef46763	0.47735128
27	0xbf25392d	-0.6454037
28	0xbedca87c	-0.43097293
29	0xbe52a631	-0.2057121
30	0xbd63195b	-0.055444103
31	0x3e888902	0.2666703

layer1.0.downsample.1.running_var f4 [32]
0	0x3e47a976	0.19498238
1	0x3ea963bd	0.33083907
2	0x3e852d23	0.26011
3	0x3ece608d	0.40308037
4	0x3eb276a0	0.3485613
5	0x3e9abb90	0.30221224
6	0x3ec2da25	0.38057056
7	0x3e822616	0.25419682
8	0x3f2cb0b8	0.6745715
9	0x3ec1f3f8	0.37881446
10	0x3e3df19d	0.185492
11	0x3f351b41	0.7074471
12	0x3eb1bdf6	0.3471524
13	0x3ec70ad1	0.3887544
14	0x3f0bb374	0.545707
15	0x3ebe0ff2	0.3712154
16	0x3e915641	0.2838612
17	0x3eb66320	0.356225
18	0x3ee163b2	0.44021374
19	0x3e51e450	0.2049725
20	0x3ec697a9	0.38787583
21	0x3ec221fa	0.37916547
22	0x3f33baa8	0.7020669
23	0x3f34dad8	0.7064643
24	0x3edbb8d5	0.42914453
25	0x3ec6b343	0.3880864
26	0x3e9f89b8	0.3115976
27	0x3ecee3b4	0.404081
28	0x3e971f00	0.2951584
29	0x3f08d5f1	0.5345145
30	0x3e29cdaa	0.16582361
31	0x3e60594a	0.21909061

layer2.0.conv.weight f4 [64, 32, 3, 3]
0	0x3c609cbb	0.013709242
1	0x3c7135ad	0.01472227
2	0xbd85912e	-0.065218315
3	0xb8190ae0	-3.648817e-05
4	0xbd7b3712	-0.061331816
5	0xbe1b81bb	-0.15186207
6	0xbd7c4f57	-0.061599102
7	0xbe088a24	-0.13333946
8	0xbe05e06f	-0.13073896
9	0x3df1f718	0.118147075
10	0xbb49fc2e	-0.0030820477
11	0x3da998c7	0.08281093
12	0x3db68028	0.089111626
13	0xbd66d063	-0.056351077
14	0xbbfa839c	-0.0076450836
15	0x3d9e5ea5	0.07732896
16	0x3cf861b2	0.030320022
17	0xbde2e824	-0.110794336
18	0xbdab61f6	-0.08368294
19	0xbdc632f4	-0.09677687
20	0x3dcd70ee	0.10031305
21	0x3a810e85	0.0009846246
22	0xbdbc3499	-0.0918972
23	0x3dc99011	0.098419316
24	0x3d6096c5	0.054831285
25	0x3d808bb7	0.062766485
26	0x3d939afc	0.07207295
27	0x3e07f08c	0.13275355
28	0xbe4918bf	-0.19638346
29	0xbd8412ce	-0.06448899
30	0x3d40cba9	0.047069225
31	0xbdbb853b	-0.09156271
32	0xbe69bc5b	-0.22825758
33	0x3e073e96	0.13207468
34	0xbe2ac759	-0.16677608
35	0xbd4f67dc	-0.050636157
36	0xbc86a8ec	-0.01643797
37	0x3e1a0259	0.15039958
38	0x3e034ce0	0.12822294
39	0x3e0dbaa7	0.13840733
40	0x3d59a8ac	0.053139374
41	0x3ddfa426	0.10919981
42	0x3c28b1f1	0.010296331
43	0x3e0a9c2c	0.13536137
44	0x3dfcc8ae	0.12342964
45	0xbd21d386	-0.039508365
46	0xbe47a0cc	-0.19494933
47	0x3ce46bf9	0.027883517
48	0x3d1fd468	0.039020926
49	0xbda47be6	-0.08031444
50	0xbe16dd8c	-0.14732951
51	0x3e0f15d2	0.13973168
52	0xbd0e79e2	-0.034784205
53	0x3e31df59	0.17370357
54	0x3e0a3183	0.1349545
55	0x3e79a3b4	0.24378854
56	0x3dd5157e	0.1040449
57	0x3da9daea	0.08293708
58	0x3dc7619c	0.097354144
59	0x3e251623	0.16121726
60	0xbd57679b	-0.05258904
61	0x3de81d5c	0.11333725
62	0x3dacb1c8	0.084323466
63	0xbc89d995	-0.016827384
64	0xbe2a900b	-0.1665651
65	0x3c221e90	0.009894982
66	0x3d4789ec	0.048715517
67	0x3cafe68d	0.02147224
68	0xbdf62960	-0.120196104
69	0x3c9e0ee6	0.019294214
70	0x3b8cf8bc	0.0043021124
71	0x3d995794	0.07487407
72	0xbe5202cb	-0.20508878
73	0x3e2bdba3	0.16783004
74	0x3d7b12fe	0.06129741
75	0xbdde2703	-0.10847285
76	0x3d164568	0.036687285
77	0x3e673556	0.2257894
78	0xbd0fbd59	-0.035092685
79	0x3d0c7f70	0.03430122
80	0xbdbd5a5c	-0.0924575
81	0x3e1d7a36	0.15378651
82	0xbb1890e3	-0.0023279719
83	0xbd246b25	-0.040141243
84	0xbcdb9c01	-0.026807787
85	0x3d44e0b0	0.04806584
86	0xbe3ff163	-0.18744425
87	0xbd6bcda5	-0.057569165
88	0xbe9c20bc	-0.30493724
89	0xbe1bf25c	-0.15229172
90	0x3e1501b1	0.14551426
91	0xbdaba2c4	-0.083806545
92	0xbdbb0720	-0.09132218
93	0x3d6fbdee	0.05853074
94	0x3e086756	0.1332067
95	0xbe089196	-0.13336787
96	0xba735f3f	-0.0009283907
97	0xbe35a174	-0.1773737
98	0xbe33459b	-0.17507021
99	0x3da76a77	0.081746034
100	0xbc6ef71e	-0.0145852845
101	0xbd134d87	-0.035962608
102	0x3e1ef743	0.1552401
103	0xbe36b3cb	-0.17842023
104	0xbdd5fc2d	-0.10448489
105	0xbd809b73	-0.062796496
106	0xbd2ceeaa	-0.042219795
107	0xbdcb0ed0	-0.09914935
108	0x3e585d4f	0.21129344
109	0x3d9d2e61	0.07674862
110	0xbaaf4108	-0.0013370821
111	0x3d5b19b3	0.053491306
112	0xbd188c50	-0.037243187
113	0x3dfddb84	0.12395385
114	0x399e618f	0.00030208795
115	0x3e06229d	0.13099141
116	0x3ccb7140	0.024834275
117	0xbe2c18b0	-0.16806293
118	0xbe64e490	-0.22352815
119	0x3dee8c78	0.11647886
120	0xbe474b6b	-0.19462363
121	0xbe8e0812	-0.27740532
122	0xbc453c16	-0.012038251
123	0xbe210024	-0.1572271
124	0xbbf56b5b	-0.0074896044
125	0xbd09b783	-0.033622276
126	0x3db73d31	0.08947218
127	0xbd964879	-0.07338042
128	0x3e2fc40c	0.1716463
129	0xbe0447ec	-0.12918061
130	0xbcc9b19e	-0.024620827
131	0x3d92265a	0.07136221
132	0xbe8ae306	-0.2712633
133	0xbe4159c4	-0.18881899
134	0xbe0b4b3f	-0.13602923
135	0x3e0fe6ca	0.14052883
136	0xbcb7a84c	-0.022419117
137	0x3be69876	0.0070372177
138	0x3d9de91b	0.07710477
139	0xbd26a1dd	-0.04068171
140	0xbe11de30	-0.14244914
141	0x3e1d6025	0.15368707
142	0xbe1d811a	-0.1538128
143	0xbdeb970b	-0.115034185
144	0x3d13f328	0.036120564
145	0x3df888c7	0.12135463
146	0xbd25612f	-0.040375885
147	0x3de93634	0.113872916
148	0xbd64cd55	-0.055859882
149	0xbdc7f1c2	-0.097629085
150	0x3d95ab74	0.07308093
151	0x3c8755ff	0.016520498
152	0x3c3faedc	0.011699405
153	0x3d329609	0.043600116
154	0xbe0972f6	-0.1342276
155	0xbc650652	-0.013978558
156	0xbbd6e9f6	-0.006558652
157	0x3d1debd0	0.038554966
158	0xbdff3f75	-0.12463275
159	0xbdcbd8ab	-0.099534355
160	0xbe290473	-0.16505603
161	0xbcddd2b7	-0.027078016
162	0x3c15ffb3	0.009155202
163	0x3dce0b3b	0.10060736
164	0xbdf3b246	-0.11899237
165	0x3ed9eda8	0.4256413
166	0xbc2727ec	-0.010202389
167	0x3cd43bf5	0.025907496
168	0x3d220609	0.039556537
169	0xbd8e3329	-0.06943352
170	0x3d85ce16	0.065334484
171	0xbd980271	-0.07422341
172	0x3e04ec59	0.12980784
173	0xbd65d601	-0.056112293
174	0xbd9b65cc	-0.075877756
175	0xbc9b0fa0	-0.018928349
176	0x3e20bac8	0.15696251
177	0xbea2fd1c	-0.31833732
178	0xbd10b981	-0.03533316
179	0xbcc67d9c	-0.024229817
180	0xbc8fad83	-0.017538792
181	0x3b01303b	0.0019712585
182	0xbd18f51a	-0.037343122
183	0xbe072710	-0.13198495
184	0xbd84eaeb	-0.064901195
185	0xbd6e05a3	-0.058110844
186	0x3c3d8b4d	0.011568856
187	0xbd83f6fc	-0.06443593
188	0xbe26ce41	-0.16289617
189	0xbd45ae8d	-0.048262168
190	0x3e59ffc7	0.21288978
191	0x3d3ea6f9	0.046545956
192	0xbd8a9bd7	-0.06768005
193	0xbdd027d3	-0.10163846
194	0xbd3e41bb	-0.046449404
195	0x3b1d32dd	0.0023986616
196	0xbd98a24b	-0.0745283
197	0x3e50d34d	0.20393105
198	0xbd03eb02	-0.032206543
199	0x3e9a5fee	0.30151314
200	0xbd384144	-0.044984117
201	0x3d62e721	0.055396203
202	0x3d6b195b	0.057397228
203	0x3e23bb9a	0.15989533
204	0x3c8c22d8	0.017106459
205	0x3da31a2c	0.07963976
206	0x3d929195	0.07156674
207	0x3e9bf564	0.30460656
208	0x3dd4a6d8	0.103833854
209	0xbe38f85d	-0.18063493
210	0x3e56b0e2	0.20965913
211	0x3cb19398	0.021676823
212	0xbda475ca	-0.08030279
213	0x3e984256	0.2973811
214	0xbdec7bf9	-0.115470834
215	0x3d0aab28	0.033854634
216	0xbe73a6dd	-0.23794122
217	0x3e054db1	0.13017918
218	0x3d01d789	0.03169969
219	0x3c3fb0bb	0.011699851
220	0xbde90c3c	-0.11379287
221	0x3d880754	0.06642023
222	0xbc7c6b2e	-0.015406413
223	0x3cca0648	0.024661198
224	0x3d47290c	0.04862313
225	0xbe357a1b	-0.17722361
226	0xbe2651bb	-0.16242115
227	0x3e4031a2	0.18768933
228	0xbe9c4e9f	-0.30528733
229	0xbdea342a	-0.11435731
230	0x3e737b91	0.23777606
231	0xbdb7d6c5	-0.08976511
232	0x3cdc1b48	0.026868477
233	0xbd414a2c	-0.047189876
234	0x3dbad4f7	0.09122651
235	0xbd327e21	-0.043577317
236	0x3d4f0f47	0.05055168
237	0xbd8e9a71	-0.06963051
238	0x3dc35b69	0.095389195
239	0xbcfd3228	-0.030907705
240	0xbd35dbf0	-0.044399202
241	0xbe136729	-0.14394821
242	0xbcd7bcfd	-0.026335234
243	0xbdfbd23f	-0.12295961
244	0x3e1076ec	0.14107865
245	0x3dbf72b8	0.09348053
246	0x3da8bf9c	0.082396716
247	0xbc00ac1c	-0.007853534
248	0x3c9ef462	0.01940364
249	0x3df7a9fa	0.12092967
250	0xbeb81ae4	-0.35958016
251	0xbe4ab9dc	-0.19797462
252	0x3da276b8	0.079328
253	0x3ceb8481	0.028749706
254	0xbdd1cea4	-0.10244492
255	0xbd681a2a	-0.056665577

layer2.0.bn.weight f4 [64]
0	0x3f86ae4d	1.0521942
1	0x3f934279	1.1504661
2	0x3fa56336	1.2920902
3	0x3fa99cf2	1.3251021
4	0x3f96894e	1.1760652
5	0x3f9ca216	1.2236965
6	0x3fa3e621	1.2804605
7	0x3f877061	1.058117
8	0x3f9224ef	1.1417521
9	0x3f87a1ed	1.0596291
10	0x3f845bed	1.0340554
11	0x3f9dc67a	1.2326195
12	0x3f9596f0	1.1686687
13	0x3fa27cf2	1.269438
14	0x3f97207c	1.1806788
15	0x3f9f1d5c	1.2430835
16	0x3f88cf54	1.0688272
17	0x3f94c068	1.1621218
18	0x3f98b853	1.1931251
19	0x3f8bc079	1.0918113
20	0x3f9aad12	1.2084067
21	0x3f92e114	1.1474938
22	0x3f948d28	1.1605577
23	0x3fa9df81	1.3271333
24	0x3f8e55a5	1.1119887
25	0x3f8268fc	1.0188289
26	0x3f8c746b	1.0973028
27	0x3f98e90b	1.1946119
28	0x3f98cea7	1.1938065
29	0x3f957253	1.1675514
30	0x3f91d8cf	1.139429
31	0x3f942422	1.1573527
32	0x3f998abc	1.1995463
33	0x3f8b55d5	1.0885569
34	0x3f9c3f00	1.2206726
35	0x3f95c7d2	1.1701605
36	0x3f84957b	1.0358118
37	0x3f8f5d6f	1.1200389
38	0x3f9738e5	1.1814238
39	0x3fa18636	1.2619083
40	0x3f9c45ae	1.2208765
41	0x3f96fddf	1.1796225
42	0x3f758a59	0.95914227
43	0x3fac9f8b	1.3486189
44	0x3f909bf9	1.1297599
45	0x3f924815	1.1428248
46	0x3f98b0ac	1.1928916
47	0x3f8918a8	1.071065
48	0x3fab1dfe	1.3368528
49	0x3f913964	1.1345639
50	0x3f8e9d81	1.1141816
51	0x3f98b078	1.1928854
52	0x3f9335d4	1.1500802
53	0x3f81cc37	1.0140446
54	0x3f904066	1.1269653
55	0x3f91a22d	1.1377617
56	0x3f95675a	1.1672165
57	0x3fb599b1	1.4187528
58	0x3f938598	1.1525145
59	0x3f8ae94f	1.085245
60	0x3f8bb3ce	1.0914247
61	0x3f96ffba	1.1796792
62	0x3f9259f7	1.1433705
63	0x3f9565bc	1.1671672

layer2.0.bn.bias f4 [64]
0	0xbe369c5b	-0.17833082
1	0xbdd5e30e	-0.10443698
2	0xbd2ce6f6	-0.04221245
3	0xbe0ec14c	-0.13940924
4	0xbe4d646e	-0.20057842
5	0xbe2c5efc	-0.16833109
6	0xbc43140e	-0.011906637
7	0xbe24b2fd	-0.16083904
8	0xbe442352	-0.19154099
9	0xbe128354	-0.1430791
10	0xbe1e36f0	-0.15450644
11	0xbdf8d640	-0.1215024
12	0xbdcfa072	-0.101380244
13	0xbe33f43f	-0.17573641
14	0xbe276836	-0.16348347
15	0xbe920ffb	-0.28527817
16	0xbe344550	-0.17604566
17	0xbe9a0b58	-0.3008678
18	0xbdfa812f	-0.12231671
19	0xbe83770e	-0.2567677
20	0xbe46ba2f	-0.19406961
21	0xbe294ffc	-0.16534418
22	0xbe241b26	-0.16025981
23	0xbe2edbd1	-0.17076041
24	0xbe06bd18	-0.13158071
25	0xbdd92b67	-0.106039815
26	0xbe257a24	-0.16159874
27	0xbe3ee08a	-0.18640342
28	0xbe2ee9c0	-0.17081356
29	0xbe10e395	-0.14149316
30	0xbe2d76d2	-0.16939858
31	0xbe9598a4	-0.29218018
32	0xbd654f11	-0.055983607
33	0xbe519bd2	-0.20469597
34	0xbe6fb9d1	-0.23410727
35	0xbdd1957b	-0.10233589
36	0xbe3757f0	-0.17904639
37	0xbd4fb6f4	-0.050711587
38	0xbe4cc1db	-0.19995825
39	0xbe90d40a	-0.28286773
40	0xbe3332a4	-0.17499787
41	0xbe03224c	-0.12806052
42	0xbe53d176	-0.20685372
43	0xbe54e1e7	-0.207893
44	0xbe63abd9	-0.22233523
45	0xbe8b3935	-0.27192083
46	0xbdd00426	-0.10157041
47	0xbe376073	-0.17907886
48	0xbe492971	-0.19644715
49	0xbdd746d9	-0.1051156
50	0xbe3b6ef3	-0.18304043
51	0xbde9654b	-0.11396273
52	0xbe40a065	-0.18811186
53	0xbe68db60	-0.22739935
54	0xbdaa8fdc	-0.0832822
55	0xbe1d0114	-0.15332443
56	0xbe9866bc	-0.2976588
57	0xbea91787	-0.33025762
58	0xbe550204	-0.2080155
59	0xbe8b1e2b	-0.27171454
60	0xbe0cb7e4	-0.13742024
61	0xbe8337d6	-0.25628537
62	0xbdf7342a	-0.120704964
63	0xbde58c72	-0.112084284

layer2.0.bn.running_mean f4 [64]
0	0xbfe28236	-1.7695987
1	0xbfb19cc0	-1.3875961
2	0xc0204717	-2.504339
3	0xbe9bb6c3	-0.30412874
4	0xc02d4e7d	-2.7079155
5	0xc01dcdef	-2.4656942
6	0xbd9be3a3	-0.07611778
7	0xbfa8a4bf	-1.3175277
8	0xc0446163	-3.068444
9	0x3fdfbad4	1.747889
10	0xbf1a8fe7	-0.6037583
11	0xbfd1de86	-1.6396034
12	0xbe0d87e0	-0.13821363
13	0xc0264a57	-2.5982873
14	0xbfa1a2b1	-1.2627774
15	0xbf25e214	-0.6479809
16	0x3fa6e99e	1.3040044
17	0xbff0ad6b	-1.8802923
18	0xbf70a565	-0.9400237
19	0xc09e1acd	-4.9407716
20	0xbfb79a2c	-1.4343925
21	0xbff31646	-1.8991172
22	0xc0415d22	-3.0213094
23	0xbf01f52e	-0.5076474
24	0xc0a32314	-5.098032
25	0xbfbb8b21	-1.4651834
26	0xc00e5232	-2.2237668
27	0xbf6ae10b	-0.9174964
28	0xc06ae209	-3.670046
29	0xc002c028	-2.0429783
30	0x3f660bd0	0.89861774
31	0xc02a4143	-2.6602333
32	0xbfac37fc	-1.3454585
33	0xbf74df97	-0.9565367
34	0xbfae6c37	-1.3626775
35	0xbf14fb10	-0.5819559
36	0xbf93a285	-1.1533972
37	0xc0011a65	-2.017236
38	0xbfe0a532	-1.7550414
39	0xbfab77e6	-1.3395965
40	0xbfea14e7	-1.8287629
41	0xc0069621	-2.1029131
42	0xc004b769	-2.0736945
43	0xc046348c	-3.0969572
44	0xc021a2fe	-2.5255733
45	0xbf505100	-0.81373596
46	0xc09278e6	-4.577258
47	0x3e9b45cb	0.30326685
48	0xbeb605fe	-0.35551447
49	0xc04fd67c	-3.247466
50	0xbfce6e6a	-1.6127446
51	0xc03f1bcc	-2.9860716
52	0xc01418fe	-2.3140254
53	0xbfdf23a4	-1.7432752
54	0xbfd6215e	-1.6728933
55	0xbf358830	-0.7091093
56	0x3f9b60fc	1.2138972
57	0xbc32e483	-0.010918739
58	0x3f73db44	0.9525645
59	0xbea72c83	-0.32651147
60	0x3eb287a4	0.3486911
61	0xc05ab815	-3.4174855
62	0xc05bf24f	-3.4366643
63	0xbfff1dc4	-1.9930959

layer2.0.bn.running_var f4 [64]
0	0x40321f3e	2.7831569
1	0x40408332	3.0080075
2	0x409db0ae	4.9278173
3	0x40762e35	3.8465703
4	0x4061282c	3.518077
5	0x405cd412	3.4504437
6	0x403fc7a8	2.996561
7	0x40869a4a	4.206334
8	0x4039d479	2.9035933
9	0x4062d6e8	3.5443668
10	0x40500bf4	3.2507296
11	0x4085ec44	4.185091
12	0x4085f6bb	4.1863685
13	0x40a6975f	5.205978
14	0x406f6b3b	3.7409198
15	0x403bfc59	2.937277
16	0x406c7ed7	3.6952417
17	0x403144c5	2.7698224
18	0x4092a527	4.58266
19	0x40648e65	3.571191
20	0x4073dfcc	3.8105345
21	0x407cf309	3.9523337
22	0x405ece9f	3.4813612
23	0x408b6331	4.3558583
24	0x4089977b	4.2997413
25	0x4048d38d	3.137912
26	0x404752f7	3.1144388
27	0x4035e987	2.8423784
28	0x4065c686	3.590242
29	0x40731e4c	3.7987242
30	0x40523507	3.2844865
31	0x40311af6	2.7672706
32	0x404fa037	3.2441537
33	0x401743d6	2.3635154
34	0x40772986	3.8619094
35	0x401bd5ed	2.434932
36	0x405c8747	3.4457567
37	0x40387d5c	2.8826513
38	0x40316eab	2.7723796
39	0x4095b007	4.6777377
40	0x404bff86	3.187471
41	0x4033e1eb	2.810664
42	0x408e83c5	4.453585
43	0x4082bbb9	4.0854154
44	0x404eddcb	3.2322872
45	0x407cc276	3.949369
46	0x408a595a	4.323407
47	0x4085a0aa	4.1758623
48	0x406fc52a	3.746409
49	0x40457011	3.084965
50	0x4040a339	3.0099623
51	0x408ffa7f	4.499328
52	0x405cbdd4	3.4490862
53	0x4092b367	4.5843997
54	0x4034d790	2.825657
55	0x405aceb5	3.4188664
56	0x404aa81e	3.166511
57	0x4094ae8b	4.6463065
58	0x40603b70	3.5036278
59	0x4018ed83	2.3894966
60	0x408ec391	4.461373
61	0x402b3757	2.6752527
62	0x4069dce7	3.6541078
63	0x407f39a2	3.9878926

layer2.0.downsample.0.weight f4 [64, 32, 1, 1]
0	0x3e12b719	0.14327659
1	0xbd87a85c	-0.06623909
2	0x3e5b3ca2	0.21409848
3	0xbf03e1cd	-0.5151642
4	0xbc94c607	-0.018160833
5	0x3c90f16a	0.01769324
6	0x3e63595a	0.22202054
7	0xbe0a0332	-0.13477781
8	0x3d635a7e	0.055506222
9	0x3ddb955d	0.10721848
10	0xbde0d73b	-0.10978552
11	0x3d8444bb	0.06458422
12	0x3d9fc69f	0.07801556
13	0xbdbc0c3d	-0.09182022
14	0xbd7365f6	-0.05942341
15	0xbe9268ed	-0.28595677
16	0x3dcaa20d	0.0989419
17	0x3c8e5d28	0.017378405
18	0x3dd94690	0.10609162
19	0x3dc0e08c	0.09417829
20	0xbe2033d6	-0.15644774
21	0x3e48267e	0.19545934
22	0xbd89956f	-0.06717955
23	0xbe96abd6	-0.29427975
24	0x3d75657e	0.059911244
25	0x3dc9b85b	0.09849616
26	0xbb770171	-0.0037690068
27	0xbe3c204f	-0.183717
28	0xbd9ce0c9	-0.07660062
29	0xbde8c412	-0.113655224
30	0xbac0d028	-0.0014710473
31	0xbc70ec4a	-0.014704773
32	0xbe7d4aff	-0.2473564
33	0x3d92efb5	0.07174627
34	0xbd6e7e7d	-0.058226097
35	0xbe2c81be	-0.16846368
36	0xbe6d500a	-0.23175064
37	0x3dfdb48a	0.12387951
38	0x3cb42a15	0.021992723
39	0xbcdb7339	-0.02678834
40	0xbdf149c9	-0.117816515
41	0x3e60dc26	0.2195898
42	0xbe7d14d9	-0.24714984
43	0xbe11460b	-0.14186876
44	0xbdacb9bb	-0.08433863
45	0xbdd191a7	-0.10232859
46	0xbd7b3567	-0.061330225
47	0xbeb602ac	-0.35548913
48	0xbddc7c9f	-0.10765957
49	0xbdb08c3e	-0.08620499
50	0x3c30f673	0.010800946
51	0xbe03e90b	-0.12881868
52	0xbe57a082	-0.21057323
53	0x3db68ca2	0.08913542
54	0xbca9a917	-0.020710511
55	0xbe01c075	-0.12671073
56	0xbe12d227	-0.1433798
57	0x3e216ba2	0.15763715
58	0xbc8fbf15	-0.01754717
59	0xbd1fd3ef	-0.039020475
60	0x3e3faacc	0.18717498
61	0xbe6d08aa	-0.23147836
62	0xbde14689	-0.10999782
63	0xbe14d6be	-0.14535043
64	0xbdb8c5e5	-0.090221204
65	0xbe62d078	-0.22149837
66	0xbbaedfb3	-0.0053367256
67	0x3d762039	0.060089324
68	0x3e0bd24e	0.13654444
69	0x3d2e029f	0.04248297
70	0xbc6c54bb	-0.014424498
71	0xbe96d243	-0.29457292
72	0x3db1cc3d	0.086815335
73	0xbe324294	-0.1740821
74	0xbdc818cd	-0.097703554
75	0x3dbacaa4	0.09120682
76	0xbe4a30c1	-0.1974516
77	0xbc425d8f	-0.011863126
78	0x3dacf89d	0.08445857
79	0xbbf649c3	-0.0075161173
80	0xbd47122f	-0.048601326
81	0x3e1acd6b	0.15117423
82	0x3e16f280	0.14740944
83	0xbe68a95f	-0.2272086
84	0xbe152664	-0.14565426
85	0x3c564175	0.01307713
86	0x3e7c5a67	0.24643861
87	0x3e6ccb59	0.23124446
88	0x3e0ab06d	0.13543864
89	0xbe17c904	-0.14822775
90	0xbe38c8ed	-0.18045397
91	0xbc79b98d	-0.015241993
92	0xbea9e2f6	-0.3318097
93	0x3e38b743	0.18038659
94	0x3e814859	0.2525051
95	0x3d938acb	0.07204207
96	0xbdc99dfc	-0.09844586
97	0x3d3ff243	0.0468619
98	0x3c0db8c6	0.00865001
99	0xbe3ff022	-0.18743947
100	0xbe4d0c7a	-0.2002429
101	0xbe9ca4e2	-0.30594546
102	0xbe0d43a0	-0.13795328
103	0x3dced8d9	0.10099954
104	0xbd916c25	-0.07100705
105	0x3e41c518	0.18922842
106	0xbd804416	-0.06262986
107	0x3cf38101	0.0297246
108	0xbdb31578	-0.08744329
109	0xbe79d6d0	-0.2439835
110	0xbe1f2db2	-0.15544775
111	0xbdeac6c3	-0.11463692
112	0x3e1fffa2	0.1562486
113	0xbdd8a18b	-0.10577687
114	0x3e094b15	0.13407548
115	0x3ca5f959	0.0202605
116	0x3c5a8a95	0.013338705
117	0x3ddabe7b	0.106808625
118	0x3e07088a	0.13186851
119	0x3e2fdb2c	0.17173451
120	0x3e80a37a	0.25124723
121	0x3d827f36	0.0637192
122	0xbdc7445f	-0.097298376
123	0xbd828c6a	-0.06374438
124	0x3e2db7a3	0.16964583
125	0x3da1d06b	0.07901081
126	0xbe87df77	-0.26537678
127	0x3e04f9e0	0.12985945
128	0xbdb430c1	-0.087983616
129	0xbdc5c5a0	-0.096568346
130	0xbdfd6002	-0.12371828
131	0xbeb13059	-0.346072
132	0xbdfe40af	-0.12414681
133	0x3d6cb589	0.057790313
134	0xbdedd119	-0.11612148
135	0xbe6065e7	-0.21913873
136	0x3e3fc2a9	0.187266
137	0x3d9fd9fc	0.07805249
138	0x3e5541da	0.20825902
139	0xbdf64503	-0.12024882
140	0x3da8eaff	0.08247947
141	0x3e5ce89e	0.21573111
142	0xbe182678	-0.14858425
143	0xbdf9835e	-0.121832594
144	0x3da5ec4d	0.081017114
145	0xbe29570c	-0.16537112
146	0x3c69b891	0.0142651955
147	0xbd4ccc99	-0.049999807
148	0x3d843321	0.064550646
149	0xbe99ce08	-0.30040002
150	0xbe839237	-0.2569749
151	0xbe12ad16	-0.1432384
152	0xbe2057c9	-0.15658487
153	0x3db9b3ce	0.09067498
154	0xbd892fc6	-0.06698565
155	0xbe56a28b	-0.20960443
156	0x3d8c7ca0	0.06859708
157	0xbe838787	-0.25689337
158	0x3d2535bd	0.040334452
159	0x3e02aed0	0.12761998
160	0x3adddeff	0.001692742
161	0xbd6dfe28	-0.05810371
162	0x3e2d6a24	0.1693502
163	0x3d215442	0.039386995
164	0xbdac226a	-0.084050015
165	0xbe07d19f	-0.13263558
166	0xbe0c2d01	-0.13689043
167	0xbdada80a	-0.084793165
168	0xbe1934ab	-0.14961497
169	0x3df757cc	0.12077293
170	0x3d05b3fc	0.03264235
171	0x3de284b1	0.11060465
172	0x3cf48806	0.029850017
173	0x3cf2ca00	0.029637337
174	0xbe8413a1	-0.25796226
175	0xbd8d11e1	-0.06888176
176	0xbd911e0e	-0.070858106
177	0xbe8d22d4	-0.27565634
178	0xbdf5d837	-0.1200413
179	0xbe312792	-0.17300251
180	0x3cf2befb	0.029632082
181	0x3dbd2a1a	0.09236546
182	0xbebfca56	-0.37459058
183	0x3ea6ab43	0.32552537
184	0xbe120332	-0.14259031
185	0xbd7e7dbc	-0.06213163
186	0xbe9f373c	-0.31096828
187	0xbda98606	-0.08277516
188	0xbd78a26e	-0.06070178
189	0xbcee3282	-0.029076818
190	0xbe6c8f8b	-0.23101632
191	0x3c84edad	0.016226614
192	0x3c5f9f29	0.013648787
193	0xbdf2057c	-0.11817452
194	0x3dce31ab	0.10068067
195	0xbd2219fc	-0.039575562
196	0x3e4b3ca0	0.19847345
197	0x3e34c42c	0.17652959
198	0x3e3ac1b7	0.18237959
199	0x3dda5b1e	0.106619105
200	0xbd9d9e5b	-0.076962195
201	0x3ddec02c	0.108764976
202	0x3e06b076	0.13153252
203	0xbe800797	-0.2500579
204	0x3db0cd83	0.08632948
205	0x3c9fbeab	0.019500097
206	0x3e328261	0.17432548
207	0xbd512461	-0.051060084
208	0x3d7049de	0.058664195
209	0x3e0240d4	0.12720042
210	0xbe958ebd	-0.29210463
211	0x3dbd750f	0.09250843
212	0xbeb6bb7c	-0.35689914
213	0x3dccd98e	0.10002433
214	0xbe3049ca	-0.17215648
215	0x3e9bbb41	0.304163
216	0xbe0c5733	-0.13705139
217	0x3db27ea6	0.087155625
218	0xbeae1e91	-0.34007695
219	0xbdfc3e77	-0.12316602
220	0xbceaf62b	-0.028681835
221	0xbd353de2	-0.04424847
222	0xbdb8e22d	-0.090275146
223	0xbd2455a2	-0.04012073
224	0x3df50f05	0.119657554
225	0xbda125f5	-0.07868568
226	0xbed030ea	-0.40662318
227	0x3dba8327	0.091070466
228	0x3d7980a3	0.060913693
229	0x3d17c3a6	0.03705182
230	0x3c6d337b	0.014477606
231	0xbd0f3203	-0.034959804
232	0x3e825642	0.25456434
233	0xbe26299f	-0.16226815
234	0x3d438a83	0.047739517
235	0x3d60d416	0.05488976
236	0xbe4a306c	-0.19745034
237	0xbdbfaa19	-0.093586154
238	0x3e394052	0.18090943
239	0xbe35eb67	-0.1776558
240	0xbe5d4d8f	-0.21611618
241	0xbe200f8b	-0.15630929
242	0xbe0d6c1b	-0.1381077
243	0x3d128408	0.035770446
244	0x3d154817	0.036445703
245	0xbe12f708	-0.14352047
246	0xbd237136	-0.03990289
247	0xbb411c64	-0.0029466385
248	0x3e1441a5	0.14478166
249	0xbe677fe6	-0.22607383
250	0x3e97c119	0.2963951
251	0xbd4b51f3	-0.0496387
252	0xbe6e6a9c	-0.23282856
253	0xbe072b08	-0.13200009
254	0xbcdce5df	-0.02696508
255	0x3cdb617b	0.02677988

layer2.0.downsample.1.weight f4 [64]
0	0x3f2aca4b	0.66714925
1	0x3f2ab79f	0.66686434
2	0x3f367c2f	0.7128324
3	0x3f1796d1	0.592145
4	0x3f36f141	0.71461874
5	0x3f3ce394	0.73784757
6	0x3f2de419	0.67926174
7	0x3f379f20	0.7172718
8	0x3f478497	0.7793669
9	0x3f4186b3	0.7559616
10	0x3f232bbf	0.63738626
11	0x3f1761ad	0.59133416
12	0x3f2a424b	0.66507405
13	0x3f19826b	0.5996463
14	0x3f34127c	0.70340705
15	0x3f2ea898	0.68226004
16	0x3f3d0210	0.7383127
17	0x3f29360f	0.6609811
18	0x3f217d1d	0.6308153
19	0x3f337989	0.7010732
20	0x3f395247	0.7239117
21	0x3f21be61	0.6318112
22	0x3f40fb7a	0.7538372
23	0x3f2477fd	0.6424559
24	0x3f40c1b7	0.75295585
25	0x3f2e3f37	0.6806521
26	0x3f1704f2	0.5899192
27	0x3f1e94fa	0.6194607
28	0x3f1682b9	0.58793217
29	0x3f3afaa6	0.7303871
30	0x3f27175f	0.65270036
31	0x3f3687d7	0.71301025
32	0x3f2335e8	0.6375413
33	0x3f2cc29a	0.6748444
34	0x3f19cc3f	0.6007728
35	0x3f3f40a2	0.74707997
36	0x3f46836e	0.77544296
37	0x3f19da0d	0.60098344
38	0x3f1bf8c9	0.6092649
39	0x3f25fda8	0.64840174
40	0x3f32d7ad	0.69860345
41	0x3f2f2f77	0.684318
42	0x3f305d24	0.6889212
43	0x3f1230be	0.57105625
44	0x3f409ff5	0.75244075
45	0x3f1cb39b	0.61211556
46	0x3f3fd9e6	0.7494186
47	0x3f12876e	0.572379
48	0x3f0ef710	0.5584574
49	0x3f3855d6	0.72005975
50	0x3f1e6958	0.6187949
51	0x3f159e48	0.58444643
52	0x3f3b36ba	0.7313038
53	0x3f36803e	0.7128943
54	0x3f38b95b	0.7215783
55	0x3f09dc7c	0.5385206
56	0x3f3350e8	0.7004533
57	0x3f199b6c	0.6000278
58	0x3f2e8a63	0.6817991
59	0x3f28bf0b	0.6591651
60	0x3f337240	0.70096207
61	0x3f11532e	0.5676755
62	0x3f1f838b	0.62310094
63	0x3f336462	0.70075047
