old/student_models/large_res_students/student_3.pth (torch, 385904 bytes, 39 tensors)

conv_initial.0.weight f4 [16, 3, 3, 3]
00000000: dfd1 923e 6627 2cbe 546a e5bd 801d 51be
00000010: 78d7 60be f406 8b3e 3b3a 423d 4f78 453e
00000020: fbb9 8bbd d546 75bc 6563 0abe a626 3ebe
00000030: 06a8 05be 9ccb 4bbc 2ce4 6c3e e9c2 8fbd
00000040: 960d 453e 14c7 913d a812 7c3e ce14 c23d
00000050: 200b 24be 0e8d 12be 5c9b 62be 0f99 2d3e
00000060: 9846 c7bc aa08 423e 0ba5 02be 90ea 133e
00000070: 6d5f e8bc a114 66bc 7874 cebd 6b18 983d
00000080: dca9 f33c eecf 5cbe 68e6 aebb 6785 423e
00000090: 150a 03bc ab7a 87bd 648d 1b3d 9af9 08be
000000a0: 8fef 04be a692 583e ee02 0cbd ae35 56be
000000b0: afa1 3b3e c815 743d 22e1 063e 62a6 5ebe
000000c0: 2555 41be aeff aa3d 6e25 4c3e 87cb 69be
000000d0: 9cc8 cfbb 694a 7d3e e62f 7e3d 6f49 fe3d
000000e0: ff7d 6ebd 6664 6bbc e15a 363e 1554 0cbd
000000f0: 2fd1 5abe f137 efbd 367e 97bd ef3c 3cbe
00000100: 823c 353e 0544 193e 2503 e7bd 07b1 043d
00000110: b3dc 15be 4559 ecbd 9c5e a33e 95b9 493e
00000120: 08d0 f5bd 5c37 173d d944 963c 1aa1 75be
00000130: 00d8 33be d84b ffbd 9e8f 4e3e 446f 153e
00000140: cdb7 8c3d 3719 f1bd b89b 81be c642 5ebe
00000150: dee7 cfbd 7929 b9be a619 b3be c2f4 bb3e
00000160: 6985 273e 54fd 113e ae9c 27bd c0c4 e4bd
00000170: 9419 fdbd ff56 cf3c 4e10 ca3d e25c 36be
00000180: 8ed5 3a3b 86ba 833d c2b3 c13d 97cc 923d
00000190: 2ebf 093e 4926 1b3c e721 103e fda0 5c3d
000001a0: a5d6 4abd e225 92bd 4360 adbc 0074 debc
000001b0: 3bdc 16bd 4191 d63d 27b6 d63d e7c3 843c
000001c0: 9d90 ba3d c84d 9bbd 46c8 9c3d 2fcf 04be
000001d0: 76cb 0b3e 9b9a 873d 597e cfbd 813c 99be
000001e0: f37d 833e b7f9 45be 8d45 10be 4ba8 573e
000001f0: 3f3e 2ebe e9b0 6abe 9775 493e a614 d33b
00000200: 70d1 50bd 26dc f43d 250c 183d f94c e8bd
00000210: ed87 073e b8e6 823c 7fa2 fdbd cde5 853d
00000220: 477f 003e cdb0 e9bd 3ef7 34be 5981 703e
00000230: ea43 d6bd 5344 34be 3f2c 913e 38f3 0bbe
00000240: 6991 18be 1ea3 bf3d 3f98 cebd 8369 9f3d
00000250: 3df3 403e 3af7 d9bd fd4a c9bd 69da 5f3e
00000260: 50be 26be 8d78 df3b 32d6 083e c053 bebd
00000270: 3241 bfbd 6a7c 1b3e 5633 05be 78f1 7abd
00000280: 91c4 3b3e 487b b3bd fc55 1d3e c509 6bbe
00000290: ec6f 18be cdc0 87bd 30c0 90be 7c77 60bd
000002a0: baf8 a2bd 9cc3 17be 0e85 18bd 7ec2 533e
000002b0: 13b4 e8bd 4b0c 8f3c 68da 7c3e 3b70 ebbd
000002c0: 3d41 823d 620f 5d3e f371 50be 0dd9 633e
000002d0: 09db 943d 4ef7 393d 3331 2a3e e565 fabc
000002e0: 2ea9 ddbd 658d 1a3e 382c 423e 0209 d9bd
000002f0: 1a4a 193e 65cd a4bd 2665 9d3d 5098 ce3c
00000300: a5b4 983e 92c2 823e fe38 263e 3d3d 7cbd
00000310: 7b83 fdbd ec9b 1fbe f6e9 12bd 7c83 7abe
00000320: d371 17be 5dfe 7dbe 8238 20be 70dd 353e
00000330: 4dfb 8f3d 601e 60be 1e59 4ebd 0eca e13b
00000340: 6757 33bc 01b6 1b3d 6291 6c3e 6a5b 313e
00000350: c57f 893a a546 98bd c14e 593c c95e 253e
00000360: 7064 a5ba ab20 693e 8d04 23bd 2b27 b73d
00000370: a008 853c 53be 1bbe 1699 c5bd 5e02 04be
00000380: 4319 11be 50ec 85bd 02b4 fd3d 8dcd 263e
00000390: fe34 4f3e cb8e 8a3e e523 0ebe 2124 08bd
000003a0: cc65 e7bd 46ae aebd f001 5abe 4a91 303e
000003b0: 69f2 dfbb 1117 f23d 17a0 1b3e 4523 28be
000003c0: 0a71 ea3d 87e9 4ebe 5c57 abbd 798b 85be
000003d0: b8f7 123d d899 95bc 2f94 79bd a0b1 86be
000003e0: 6e24 0fbe fb67 d5bd 6f14 b83c d763 f3bc
000003f0: 5e48 6b3d bd00 183e b027 8d3d cbde 2eb9
0.28675744 -0.16811904 -0.11201921 -0.2042141 -0.21957195 0.27153742 0.047418814 0.19284175
-0.06822582 -0.014970501 -0.13514479 -0.1856943 -0.13052377 -0.012438681 0.23133916 -0.07019598
0.19243464 0.07118049 0.24616492 0.094766244 -0.16019869 -0.1431162 -0.22129577 0.16952918
-0.024325654 0.18948618 -0.12758271 0.14444947 -0.028365815 -0.014043004 -0.100808084 0.07426532
0.029744081 -0.21563694 -0.005337525 0.18996201 -0.007998009 -0.06615194 0.037976637 -0.13376465
-0.1298201 0.21149692 -0.03418248 -0.20918915 0.18323396 0.059591085 0.13171819 -0.21743158
-0.18880136 0.08349548 0.19936153 -0.22831546 -0.006341053 0.24735416 0.0620574 0.1241635
-0.058225628 -0.014367199 0.17808105 -0.034259874 -0.2136886 -0.11680592 -0.0739712 -0.1838262
0.17698863 0.14967354 -0.11279897 0.03239539 -0.14634971 -0.11540464 0.3190812 0.196997
-0.120025694 0.03691803 0.018343376 -0.23987237 -0.17562866 -0.12465638 0.20171973 0.14593226
0.06870995 -0.117723875 -0.25314116 -0.2170516 -0.10151647 -0.36164454 -0.34980506 0.36710173
0.16359486 0.14256793 -0.040920906 -0.111703396 -0.12358394 0.025310038 0.09866391 -0.1780887
0.0028508636 0.06432061 0.09458114 0.07167929 0.13451836 0.009469577 0.14075433 0.053864468
-0.049521107 -0.07136132 -0.021164065 -0.027154922 -0.036831122 0.10476924 0.104839616 0.016206695
0.09109614 -0.07583195 0.076553866 -0.1296966 0.13651833 0.066212855 -0.10131521 -0.29928973
0.2568203 -0.1933354 -0.14089032 0.21060292 -0.17015933 -0.22919048 0.19673763 0.0064416705
-0.050980985 0.119560525 0.037120957 -0.11342806 0.13235445 0.015979156 -0.12384509 0.06537972
0.12548552 -0.11410675 -0.1767244 0.23486842 -0.10462172 -0.17604189 0.2835407 -0.13667
-0.1489922 0.09357284 -0.100876324 0.07783797 0.18842788 -0.10642858 -0.09828756 0.2186066
-0.16283536 0.0068197907 0.13362959 -0.09293318 -0.09338607 0.15184179 -0.13007864 -0.06126544
0.18336703 -0.087637484 0.15364832 -0.22952946 -0.14886445 -0.06628571 -0.28271627 -0.05480145
-0.07957597 -0.14820713 -0.037236266 0.20679662 -0.113624714 0.017461916 0.2469269 -0.11496016
0.063600995 0.215879 -0.20355968 0.22250767 0.0726834 0.045401864 0.1662033 -0.030566165
-0.10823284 0.15093 0.1896218 -0.10597421 0.14969674 -0.080469884 0.07685308 0.025219113
0.2982532 0.2553907 0.16232678 -0.06158184 -0.123785935 -0.15586823 -0.035867654 -0.2446422
-0.14789514 -0.24804063 -0.15646556 0.17760253 0.07030354 -0.21886587 -0.050377958 0.006890542
-0.010946131 0.03801537 0.23102334 0.17320028 0.0010490349 -0.074353494 0.013263405 0.16149439
-0.0012618434 0.22766368 -0.03979926 0.089430176 0.016239464 -0.15209322 -0.096483395 -0.12891528
-0.14169793 -0.06539214 0.123878494 0.16289349 0.20235059 0.27062067 -0.1388088 -0.03323758
-0.11298713 -0.08529334 -0.21289802 0.17242923 -0.0068343175 0.11820806 0.15197788 -0.16419704
0.11447342 -0.20206271 -0.08366272 -0.26082972 0.035880774 -0.018261835 -0.060932335 -0.26307392
-0.1397874 -0.10420223 0.022470681 -0.029710693 0.05744206 0.14844032 0.068923354 -0.0001667693

conv_initial.1.weight f4 [16]
00000000: b5d8 983f eb73 9c3f 9689 773f 29e4 753f
00000010: 3fbd 8a3f 7260 993f e5eb 4a3f fb8b 693f
00000020: 0cfe 8e3f de30 413f e97c 4f3f 713a 803f
00000030: be0c 3e3f 1e92 373f fe3d 853f 2cfa 763f
1.1941134 1.2222875 0.96694314 0.9605127 1.0839003 1.1982558 0.79266196 0.9122922
1.1171279 0.7546519 0.8104997 1.0017835 0.74238193 0.7170733 1.0409544 0.9647548

conv_initial.1.bias f4 [16]
00000000: 22ee 2ebe b3a4 2abd e27a 403e 446e 8bbc
00000010: b165 a23d ac6f 56bd e1ec 233d 3efa 39be
00000020: e97f 80bd fd1f f93d 26ae 8e3b c998 3d3e
00000030: 0d23 343e 5e87 f2bd 63a6 cabc d2f9 b13c
-0.17083028 -0.041660976 0.18796876 -0.017020352 0.07929552 -0.052352592 0.040020827 -0.18161866
-0.06274397 0.121643044 0.004354256 0.18515314 0.17591496 -0.118422255 -0.024737542 0.021725569

conv_initial.1.running_mean f4 [16]
00000000: 74cb ecba 07a6 96bb fa2e 1f3c 62e8 b8bb
00000010: feb4 12bc 3c0d ebba d0af 70bd a1d6 0dbd
00000020: b39e d83b 0616 08be 105e fbbd 3ef4 313c
00000030: 3301 fbbc 65ba a6bd e52c 3a3c 6631 98bc
-0.0018066005 -0.0045974287 0.00971579 -0.0056429366 -0.008954285 -0.0017933021 -0.058761418 -0.034628514
0.0066107153 -0.13289651 -0.122738004 0.0108614545 -0.03064022 -0.08141021 0.011363243 -0.018578243

conv_initial.1.running_var f4 [16]
00000000: 9b79 bb3c f287 783d 743e d33c 42ec 2a3e
00000010: ca0f 923d 9949 183d 7ef9 aa3d 4a6e e23c
00000020: f3f8 663d f72d 803e d0cf 2a3e 32f9 913d
00000030: 5715 5a3d 3fd4 023f 9a6f 843c 07ba 063e
0.022885134 0.060676523 0.025786616 0.16691688 0.07131918 0.037179563 0.08348368 0.02764048
0.05638976 0.25035068 0.16680837 0.07127608 0.053243008 0.5110511 0.016166497 0.13156901

layer1.0.conv.weight f4 [32, 16, 3, 3]
00000000: 5eda a03c 5ec1 45be d8e1 66be 061a 19be
00000010: 7bcb 13bd 4a09 123e 69f9 443a d9c3 1f3d
00000020: b00d be3e ad0a 8e3c 74de 97be c766 893d
00000030: b41b 9dbe 8e02 1cbd 60e0 b73d b0fc 98bc
00000040: 9a38 bdbc 5b36 9b3d c212 3fbd 2bee a83d
00000050: 689d 00be a626 99bc 51f9 063d 713a 673d
00000060: fecd 27bd 1856 4f3e d599 003d 62e3 73be
00000070: a3ef 33bd 6184 e6bc 1717 aabd 9cc1 d63d
00000080: 4057 84bc 2a38 0a3e 8496 7a3e ed78 333e
00000090: 8e06 01be 3149 6c3d 0521 8abe 0d62 19be
000000a0: 5f4c eb3d 7b05 24be 5f1d 74be 5f1d e73d
000000b0: c4fa 03be 6cb8 04be 830c 31bd 58a5 56be
000000c0: ec3d f0bd e714 03be 371a 2ebe 312d c4bd
000000d0: a91a 543d b44b cbbd 3698 993d 31e3 cc3d
000000e0: 0f8b d63d dd7c 83bd 1e4d 063c 5d6b e2bc
000000f0: f0c5 29bd c04b 883d 40df b0bd 015f ed3d
00000100: 6644 bd3d c381 91bd 6779 b13d 39da db3c
00000110: ab6f b13c 26f4 cdbd 1ca8 dabd 40b7 a7bd
00000120: 032b 8d3d d3cd 0ebc b7a9 ac3d 768c edba
00000130: c4ad f23c a7d9 b93d 2432 f2bd 2be2 90bd
00000140: 722b 193e 8685 bd3d 0773 4d3d d2c0 203e
00000150: 2732 8ebb c5a7 f93d 2ac0 2bbd db37 edbb
00000160: 4f4a c23d 7ddb 3a3d b417 8f3c 21d0 083e
00000170: 5b43 fcbb 5d6f 9fbd 6ee0 5cbd 0ca0 05be
00000180: 93ff 663d e22f 6d3d 867d b9bd caac 9bbd
00000190: 234e c7bd c773 13be 0ea1 b4ba 48e2 88bd
000001a0: 934e 2abe 7df5 23bd fda9 a1bd 06bc 01bd
000001b0: 5359 843d 45ac a8bd 64ac 173e d0cd 9b3b
000001c0: 4356 c33c 7213 11bd 0cc7 343e 70dc 2bbd
000001d0: 054c 84bd cddb 38bc 94fd db3d 0697 c93d
000001e0: ead9 cfbd 6aea f13d 581b e33b 0799 5bbd
000001f0: 68d2 7b3d f7e8 31bd e69d 61be dbe3 c63d
00000200: 3197 2e3e 3f1b 5b3b eca3 44be 005e efbd
00000210: d7b6 aebc 6816 2b3d b36c 09be af8f 45be
00000220: b4d4 073e d53e eebd 226c d3bc 7d3c 013e
00000230: 02e0 0cbe 29c1 f83d dc1f 103d 4d4c 84bb
00000240: 2542 3d3e 9673 293e 7d64 38bd 5340 8f3e
00000250: c117 593e 8546 743d 1ef9 a83d 749a 123e
00000260: 5a6a 163e a9ae 84bd 40d5 ea3d 7483 213d
00000270: 4566 273e 1a95 033e 5265 983d 7c07 433c
00000280: 24d6 ed3d c6c9 d13d 0b89 3abd a63d 3dbe
00000290: fd47 97bd c6b8 1cbe a431 c4bc 1cca 7dbe
000002a0: 57a1 8abd b8f4 3f3c 50bb eebd 9286 d8bd
000002b0: 64d1 87bd 9bd7 0d3b d20b 25be 0b28 06be
000002c0: 67a3 adbc 2138 61be e71c d3bd 0c89 043e
000002d0: 947f 0fbe 64ac 223d 5629 47bd 1a72 72bd
000002e0: aad6 9e3c e918 813d 0344 76bd 8483 bebd
000002f0: beb7 d93d 2d2c dbbc 75e5 52bc 2fcf dbbd
00000300: 10e1 083e d41d b63d c041 333e deae 0d3d
00000310: 994d 403a 1fc1 a63c 370d 22bd bab5 34bd
00000320: 3621 e83b 2afd 17be 934f 5fbe b3af b33c
00000330: f77f 20be f4f0 06be 1332 f53c 24d7 55bb
00000340: 73eb 2b3e 1089 c23c 9ade 223e 28fe b73d
00000350: 4886 373e d1e7 4dbd 7a29 94bd 1c1a 603d
00000360: 0967 f13d 7183 dd3a b4fb a6bb e67e 563e
00000370: a51b eeba ad92 a6bd 54a8 0d3d ad7d 0b3e
00000380: e96f 4d3e d8f7 903d e716 943c 94f0 1e3e
00000390: 0e8b 27be f633 10be 5618 ba3c 3b49 5abd
000003a0: ea3b 34be 4894 d9bc e445 a63d ca2f 143e
000003b0: 4733 ad3d 8aff 87bd f224 57be 2596 a73d
000003c0: 0f0a a3bd ba6c 32bd 040b 133e 9987 8bbd
000003d0: 1a26 983d c2ff e33d 26ee b73b b0ce d1bd
000003e0: d515 bcbd 47d5 003e f4c5 223e ceb3 ca3d
000003f0: e1b0 10bd 4c04 e73d 208f 243e 50c4 81bc
0.019635376 -0.19312045 -0.2254709 -0.14951333 -0.036082726 0.14261356 0.00075139717 0.039005134
0.37119818 0.017339075 -0.29661906 0.06709056 -0.30685198 -0.038088374 0.08978343 -0.018675178
-0.023098279 0.07578727 -0.04664875 0.08248552 -0.12560046 -0.018695187 0.03295261 0.05645222
-0.040967934 0.20247686 0.031396706 -0.23817208 -0.043929707 -0.028139295 -0.08305185 0.10486147
-0.016154885 0.13497987 0.2447148 0.17526598 -0.12600157 0.05768699 -0.26978317 -0.1497881
0.11489176 -0.16017716 -0.23839329 0.11284899 -0.12888628 -0.12960976 -0.043224823 -0.20961511
-0.11730561 -0.12800942 -0.17002188 -0.09578932 0.051783238 -0.099265486 0.07499735 0.10004271
0.10475742 -0.064203 0.008197097 -0.027639085 -0.041448534 0.06655073 -0.086363316 0.11590386
0.092415616 -0.07104828 0.08665734 0.026837455 0.021659693 -0.10056333 -0.106765956 -0.08189249
0.068929695 -0.0087160645 0.08430808 -0.0018123526 0.029623874 0.09074717 -0.1182597 -0.07074388
0.1495798 0.09253983 0.050158527 0.15698555 -0.0043394747 0.121902026 -0.04193131 -0.0072393245
0.094868295 0.045619477 0.017467357 0.13360645 -0.007698459 -0.07784913 -0.05392497 -0.13049334
0.05639608 0.057906993 -0.09057145 -0.07601316 -0.097317 -0.14399634 -0.0013780908 -0.06683785
-0.16631536 -0.040029038 -0.07893751 -0.031673454 0.0646235 -0.08235983 0.14811856 0.0047547594
0.023844844 -0.035418935 0.17654055 -0.041958272 -0.06459812 -0.011282873 0.107417256 0.098432586
-0.10148986 0.11812289 0.00693075 -0.053612735 0.061479956 -0.043435063 -0.2203289 0.09711429
0.17049862 0.0033432988 -0.19203156 -0.11687851 -0.02132742 0.041769415 -0.13420372 -0.19293092
0.13264734 -0.11633078 -0.025808398 0.1262073 -0.13757327 0.121462174 0.035186633 -0.004037416
0.18482263 0.16547999 -0.045017708 0.27978763 0.21200468 0.059637565 0.0825064 0.14316732
0.14689007 -0.06478626 0.114664555 0.039432004 0.16347606 0.12849846 0.074412 0.01190364
0.1161311 0.10243563 -0.04554085 -0.18480548 -0.073867775 -0.1530486 -0.023949452 -0.2478413
-0.067690544 0.01171606 -0.11656821 -0.10572542 -0.06631735 0.0021643403 -0.1611779 -0.13101213
-0.02119608 -0.21994068 -0.10308247 0.12942904 -0.14013511 0.039715186 -0.048623405 -0.059190847
0.01938947 0.06303579 -0.060123455 -0.09302428 0.10630749 -0.026754463 -0.01287209 -0.107328765
0.13367105 0.08892408 0.1750555 0.034590594 0.00073357817 0.02035576 -0.039563384 -0.04411862
0.007084037 -0.14842668 -0.21807699 0.021934366 -0.15673815 -0.13177854 0.029931104 -0.0032629455
0.16789035 0.023746997 0.15905228 0.08984023 0.17922318 -0.050269905 -0.072344735 0.0547124
0.117872305 0.0016900135 -0.0050959233 0.20946845 -0.0018166198 -0.08133445 0.03458436 0.1362216
0.20062222 0.070785224 0.018077327 0.15521461 -0.16361639 -0.14082322 0.022716682 -0.053292494
-0.1760098 -0.026559964 0.08118799 0.14471355 0.08457046 -0.06640537 -0.21010187 0.08182935
-0.07960903 -0.04356072 0.14359671 -0.068129726 0.07429142 0.11132766 0.0056131063 -0.10244501
-0.09183852 0.12581359 0.15895826 0.09897576 -0.035324935 0.112801164 0.16070223 -0.01584068

layer1.0.bn.weight f4 [32]
00000000: 042d 7a3f a5b3 5e3f cf26 7f3f 9aa5 813f
00000010: 4ce0 833f d53e 923f 07bc 733f e5c3 a43f
00000020: cd34 913f 61d9 8a3f ddff 883f 3407 a83f
00000030: fc36 923f ee57 8b3f 3847 763f dc19 693f
00000040: 08e0 813f aa19 9d3f 5239 8e3f 08c0 823f
00000050: 6cef 883f c1fe 5c3f ed2f 823f c4e6 913f
00000060: 2696 763f 4737 863f 4fc8 913f ae8f 8b3f
00000070: 81ac 993f 85e1 883f ccb1 943f eb68 893f
0.9772494 0.86992866 0.9966859 1.0128663 1.0302825 1.1425425 0.9520878 1.2872282
1.1344239 1.0847589 1.0703083 1.3127198 1.142303 1.0886209 0.9620242 0.91055083
1.0146494 1.2273457 1.1111243 1.0214853 1.0698066 0.86326224 1.0170876 1.1398549
0.9632286 1.0485619 1.1389254 1.0903223 1.2005769 1.0693823 1.1616759 1.0735143

layer1.0.bn.bias f4 [32]
00000000: 6369 5fbe 38a2 003a 9f8b d9bc b9be 13bb
00000010: 56ea 20be 3130 923d 2d28 023d 91d0 603c
00000020: 1df1 2ebe e7d9 c3bb b5a4 a1bc 6f03 733d
00000030: 85c2 0bbe 86d7 1ebd 5a38 2dbd 47e5 30be
00000040: 9f59 68bd 5ce8 8e3e b872 2bbd 3eca 29be
00000050: d2b7 f1bd 09cd 58bd 748b 243e 2771 b03d
00000060: ff00 88bd f523 5bbd 64b7 b33d 8420 2fbe
00000070: 07e4 a73d ed77 4ebd 5c69 9fbc 35f6 d93b
-0.21817546 0.0004906985 -0.026555834 -0.00225441 -0.15714392 0.07138098 0.031776596 0.013721601
-0.17084165 -0.0059769037 -0.019731859 0.059329446 -0.13648422 -0.038779758 -0.04229007 -0.17274962
-0.056726094 0.2791165 -0.04185745 -0.16581056 -0.11802639 -0.05292991 0.16068822 0.08615332
-0.06640815 -0.05350109 0.08775213 -0.17102247 0.0819779 -0.05040734 -0.019459419 0.0066516646

layer1.0.bn.running_mean f4 [32]
00000000: aa77 89bf 5559 e13f ace9 9abe f55c 2cbf
00000010: ab76 03bd 6c01 a2bd 7e8d 45bf eabc 19bd
00000020: 0fc9 02bf 9b17 11bf 8181 84bf 88fc 91bf
00000030: c2ea 8cbe 9ad3 c3bf 6ea6 f93b 5a72 27bf
00000040: 5239 703e 33ce 89bf 81dd b9be 9d9f dcbe
00000050: adb2 0bbf c2ef d2bf b414 4e3e facd 25c0
00000060: 5a35 8e3f 8a31 e0bf 48af 16c0 ca87 903e
00000070: 713f f6bf 2681 12bf 64f3 2fbf 6ed4 af3e
-1.0739644 1.7605387 -0.30256402 -0.6732934 -0.032095592 -0.079104275 -0.77169025 -0.037533678
-0.5108804 -0.56676644 -1.0352021 -1.1405191 -0.27522856 -1.5298951 0.007618717 -0.6540886
0.23459366 -1.0766052 -0.36301807 -0.43090525 -0.5456951 -1.6479418 0.20125085 -2.5906968
1.1110032 -1.7515118 -2.3544483 0.282286 -1.9238111 -0.57228315 -0.6873076 0.34341758

layer1.0.bn.running_var f4 [32]
00000000: 5949 3540 58a6 3440 9832 4d40 8db1 0e40
00000010: f48c 983f f1c8 c03f 3a7f 3640 185a 5a40
00000020: 155b f83f d10f 2140 a9c6 0740 5f14 7a40
00000030: 0ac9 2140 859d 2e40 0135 0f40 be2f ce3f
00000040: 89b5 c33f ce1c be3f 6f6a 9f3f d3a6 3240
00000050: 671e 4740 a12b 2540 be7a c23f bfd7 6a40
00000060: 7138 3b40 1cbf 3340 a520 9440 2ced a43f
00000070: 5eba 3e40 0a51 2140 bd38 0c40 85a3 0b40
2.8326018 2.8226528 3.206213 2.2295868 1.1918015 1.5061322 2.8515153 3.411749
1.9402796 2.5165904 2.1215003 3.9074934 2.5278955 2.7283642 2.23761 1.610832
1.5289775 1.485254 1.2454356 2.7914321 3.1112306 2.580788 1.5193708 3.669418
2.92532 2.8085394 4.628985 1.2884879 2.980125 2.5205712 2.190963 2.1818554

layer1.0.downsample.0.weight f4 [32, 16, 1, 1]
00000000: 36c0 e5bd d72f bcbd f0a7 933e f592 70bd
00000010: b36f 7abe 7e66 ccbd fefa 5a3e 2877 5bbe
00000020: 905b 043e 9cc9 4dbe 2167 4dbe 708e 88be
00000030: 8356 e23c 8c2b 5b3b 7e6a 793e 905f 3ebd
00000040: f28f 1f3d e411 a8bd ac85 01be fbc4 463d
00000050: 166a c3bd 92fd 523c fde9 89bd 250e 48be
00000060: a482 75bd 7273 debe 81ae 07bf e3d0 023e
00000070: c8e0 013e 8894 5abe 0fe7 6c3e 96a2 2bbe
00000080: 9244 863e 9976 693d df16 d1bb 853a 0abe
00000090: a55a 993e 25dc 773e a498 ab3e ebeb 67bd
000000a0: d5fe 9abc 5dc8 c2bd bca1 b0bb 7868 29be
000000b0: 1d7a a13d 87a8 fcbc 9b3a 9a3e caf8 ee3d
000000c0: 68c4 033e 1542 e93d 2f7c 143e 06cb 99be
000000d0: b4e6 05bd e7fc d13e d469 0a3e 428a 353e
000000e0: 537a 36bd 2277 d9bd fac0 323a 6f7d c5be
000000f0: 7373 9cbd 3f00 ae3e 9985 c2bd f736 e9bb
00000100: 346e e4bd 1a4f ff3d 4c10 b33d 0c79 45be
00000110: 4df2 ebbb 8b94 c43e ed93 ae3d dcaf 71be
00000120: d04e 703e 8075 42be 3e9a 223e 82ec 8d3e
00000130: a72a a1bd 3305 37bd 76e3 1f3c fc88 89bd
00000140: aa89 1b3e 2628 68bd a298 93be b230 dfbd
00000150: 351b ab3d 6f08 96be 7a8a c5bd 9038 3e3e
00000160: 7c6c 173e b9d0 fd3d 0ede 823d 9979 36be
00000170: eaac fabd 614a b03d 5c45 95be 846d 46be
00000180: 58ef 06be 74dd 403e 3a20 c4be 9e62 ff3d
00000190: 2341 4f3e c2ac 133e ac82 17be eabe 0cbe
000001a0: a91b 05bd 4cfb 99bd dd59 9bbd 79eb 0b3e
000001b0: d231 b7be 57f4 e4bd b81b 7b3d 5482 09be
000001c0: fae6 543e c738 ea3d 68c3 143e de92 96be
000001d0: 0386 3ebe c86e dfbd a4e3 b7be 955f 3b3e
000001e0: 1fab dabe f8ec 81bd edbd 02bc 7ff0 4a3e
000001f0: d1fd 333d e142 a33d 6308 ffbc b9cb c23d
00000200: 9ea1 53bd 9495 ac3d c2aa 073d 900e c7bd
00000210: 0406 893e 7c98 f53c c6cd 20bd 1fde b0be
00000220: c528 53bd 3f44 b3be 79cc 5dbd f11c 32be
00000230: d54b 31be 069a 32be 1983 c5bc cf77 22be
00000240: 0ea4 16be f5d7 473e 9317 d2bd 482f b33e
00000250: a0f3 7a3d 4593 55be a63c 983d c521 30be
00000260: 2402 093e 9868 01be d7f7 95be 2dc7 a13c
00000270: 60f9 633e bcf6 c23d cda6 a8bd 32a6 30be
00000280: 95c5 7dbe 4294 a63d dbd7 ce3d fc83 ae3e
00000290: ad0c 86bd fc48 64bc 49b8 023e ff4b 80be
000002a0: af2f eb3d 08d1 d1bd 4dfc 26bd 4f92 67be
000002b0: 1ad9 ff3c eda7 98be ce40 be3c 53a2 f1bd
000002c0: 1ee1 a7bd 415b d6be 1960 8abd 3b27 6f3e
000002d0: f087 6cbd be2d e43b 2da6 363d ef81 383c
000002e0: 2c71 373e 4f64 b5be 64dd 68be a276 fe3d
000002f0: 9bd9 bf3c 9c82 a2be d034 af3d 8e90 943d
00000300: df1d ac3c 648c 9fbe e664 b0bd e1f1 b53d
00000310: 813c 223e 78ec 6bbd 30da 65be f08c dd3d
00000320: 1f39 f33a 7a78 35be ac26 10be 33a9 13be
00000330: e854 98bd b9af c4bc bf3d 523e a659 03be
00000340: 56fd 423e 9f1b 933b 2d82 f4bd a81b 443e
00000350: 07c7 803e 8b04 3f3e 2286 b4bd 4dbb 643e
00000360: b2f6 68be 7ce4 95bc 2497 28be 09b9 b3bd
00000370: 6eb7 143e b38f 0b3d e4c2 e8bd e270 d53e
00000380: 27b5 933d b5b9 38be f6d8 27be bb17 fe3c
00000390: 6f22 02bf b123 bcbe 7d43 ccbc 648c 703d
000003a0: 4bc3 0d3d 0e84 e93d 3abb 8d3e 142c 31be
000003b0: f368 9abd c784 3e3d 4896 043e 8e3a 4f3e
000003c0: 30e5 a03d 6c6b 4c3e b67e 6c3e 623b 50be
000003d0: bcb5 d7be d83a 1bbe 9f9f cdbd 165f 15be
000003e0: 1de0 7ebe 72f4 883e f08d 3c3e 8501 22bd
000003f0: ad14 17be 4956 713d a1ec e5bd ff0e 6f3e
-0.11218302 -0.09188812 0.28839064 -0.0587339 -0.24456672 -0.09980486 0.21384808 -0.21432173
0.12925553 -0.20096439 -0.20058872 -0.2667117 0.027629143 0.0033442704 0.2435703 -0.046477854
0.038955636 -0.08206537 -0.12648648 0.0485277 -0.09541719 0.012877839 -0.06734083 -0.19536646
-0.05993904 -0.43447453 -0.53000647 0.12774996 0.12683403 -0.21345723 0.23135017 -0.1676124
0.2622419 0.05699787 -0.0063809003 -0.13498886 0.2995197 0.24205072 0.33514893 -0.056621473
-0.018920342 -0.095108725 -0.005390374 -0.16543758 0.078846194 -0.030842079 0.30122837 0.116685465
0.12867892 0.11389557 0.14500497 -0.30037707 -0.03269072 0.41013262 0.13516933 0.17728522
-0.04455025 -0.10618426 0.0006818917 -0.3857226 -0.07639208 0.33984563 -0.09498138 -0.007117148
-0.11153832 0.12466259 0.08743343 -0.19284457 -0.0072005154 0.3839458 0.08524308 -0.23602241
0.23467565 -0.18990135 0.15879151 0.27719504 -0.078694634 -0.044682693 0.009758821 -0.06715581
0.15189233 -0.056678914 -0.28827387 -0.1089796 0.08354799 -0.2930331 -0.09645553 0.18576264
0.14787477 0.12393326 0.0639001 -0.17819823 -0.12240012 0.08607937 -0.2915448 -0.19377714
-0.1317724 0.18834478 -0.38305837 0.124699816 0.20239691 0.1442137 -0.14795941 -0.13744703
-0.032497082 -0.07518634 -0.075854994 0.13664044 -0.35780197 -0.111794166 0.06130573 -0.13428622
0.20791236 0.11436611 0.14527667 -0.29408926 -0.18605809 -0.10909802 -0.35915864 0.1829818
-0.4270868 -0.06344026 -0.007979852 0.19818304 0.04394323 0.079717405 -0.031131929 0.09511513
-0.051667802 0.08426967 0.03312183 -0.097195745 0.26762402 0.029979937 -0.03925874 -0.34544465
-0.051552553 -0.35013005 -0.05415008 -0.17393853 -0.17314084 -0.17441568 -0.024110364 -0.15866016
-0.1471102 0.19515975 -0.10258403 0.3499701 0.061267495 -0.2085696 0.07433443 -0.17200382
0.13379723 -0.12637556 -0.2929065 0.019748295 0.22263098 0.09519717 -0.0823494 -0.17250898
-0.24782403 0.08133747 0.10099765 0.3408507 -0.065453865 -0.013933416 0.12765612 -0.2505798
0.11483704 -0.10244948 -0.040767957 -0.22614406 0.031231452 -0.29815617 0.02322426 -0.11798539
-0.081972346 -0.41866496 -0.067566104 0.23354809 -0.057746828 0.0069634607 0.04459207 0.011261447
0.17914265 -0.35428092 -0.22740704 0.12424971 0.023419192 -0.31740272 0.08554995 0.07254134
0.021010337 -0.31161797 -0.08612995 0.08884025 0.15843393 -0.05759856 -0.22446513 0.10817897
0.0018556452 -0.1772174 -0.14077252 -0.14420013 -0.074380696 -0.024009572 0.20531367 -0.12827167
0.19041952 0.0044893767 -0.119388916 0.19151175 0.25151846 0.18654077 -0.08814646 0.22337075
-0.22750357 -0.018297426 -0.16463906 -0.08775527 0.14523098 0.03407259 -0.113652974 0.41687685
0.072122864 -0.18039592 -0.16391358 0.031017175 -0.5083379 -0.3674598 -0.024934525 0.058727637
0.034610074 0.114021406 0.27681905 -0.1730197 -0.07539549 0.046513345 0.12947953 0.2023718
0.07856214 0.19962853 0.23095211 -0.20335153 -0.4213084 -0.15159166 -0.10040211 -0.14587054
-0.2489018 0.26748997 0.1841352 -0.03955223 -0.14753981 0.05892018 -0.11226774 0.23345564

layer1.0.downsample.1.weight f4 [32]
00000000: 42bc 3f3f 4a98 373f a1b3 1c3f 98ad 303f
00000010: 3c22 283f c6b9 253f ce2f 553f 5bee 273f
00000020: 5ec5 3c3f 9356 2f3f 2c3b 553f efd7 343f
00000030: f02b 3b3f 11d7 1b3f 1bb4 5e3f b4dd 633f
00000040: 22ba 3f3f 729c 113f 8685 103f 46aa 4c3f
00000050: d06a 323f 7807 2e3f 06e5 403f bce6 153f
00000060: f37f 193f f1e0 653f f263 4e3f e5c4 413f
00000070: 487d 313f 8d1c 203f abcf 2c3f e430 413f
0.74896634 0.7171675 0.6121159 0.69014883 0.6567724 0.6473659 0.8327607 0.65598077
0.7373866 0.68491477 0.83293414 0.7064199 0.7311392 0.6087504 0.8699357 0.8901017
0.7489339 0.5687934 0.5645374 0.79947317 0.6969423 0.67980146 0.7534946 0.585552
0.5996086 0.8979636 0.80621254 0.7569106 0.6933179 0.62543565 0.67504376 0.75465226

layer1.0.downsample.1.bias f4 [32]
00000000: 429b a4be 3411 dfbd aabc 27bd 8a6b 953d
00000010: 8e08 ddbd b35b 16be bd51 05bb e970 85be
00000020: d21c 91be 3be8 64be 4ad4 52be 6a85 66be
00000030: 5d23 32be e835 15be 443f 603d 8ade 72be
00000040: 0759 08be a274 e6b8 fdc6 27be 5f5c 1abe
00000050: 0d02 2fbe 5b28 4dbd 91e7 2bbe 582f 78be
00000060: ea0a 8dbe a97c 5cbc 9178 10bd 64a8 bbbe
00000070: 25d8 e33b d08c 32be 51dd b3bd 578c 63bd
-0.32149702 -0.10891953 -0.04095141 0.07295902 -0.10792647 -0.14683418 -0.002034291 -0.26062706
-0.283423 -0.22354214 -0.20588794 -0.22511831 -0.17396303 -0.14571345 0.054747835 -0.23717704
-0.13315211 -0.00010988979 -0.16384502 -0.150743 -0.17090626 -0.050087314 -0.16787554 -0.2423681
-0.2754739 -0.013457456 -0.03527123 -0.3665191 0.0069532567 -0.17436528 -0.08782447 -0.05555376

layer1.0.downsample.1.running_mean f4 [32]
00000000: b6e4 93be 1c0a 0dbf b560 533f 9bcb 113e
00000010: 6603 d83e 0b6b 2bbf 22de b2be ebbc 40be
00000020: f9aa 16bf dbed acbd 0888 80be 0d5d a2be
00000030: 5f51 e3be 2a1a fc3e 152e 0cbf 5afa 7bbe
00000040: 5a4c 523f 43ec d13d bf53 1c3e 7c83 a1bf
00000050: a1aa 03bf 0189 a1be 9f29 d6be 18ad 85be
00000060: 6ba5 35be f363 8abf c7a9 46bf b0da 0abf
00000070: 93a5 1abe 00c7 593e 1552 1fbe f5c9 7abf
-0.2888543 -0.5509355 0.8256944 0.14237826 0.42190093 -0.6696021 -0.349351 -0.18822066
-0.58854634 -0.08443805 -0.25103784 -0.31711617 -0.4439802 0.49238712 -0.54757816 -0.2460722
0.82147753 0.102501415 0.15266322 -1.2618251 -0.51432234 -0.31549838 -0.4182863 -0.26108623
-0.17738883 -1.0811752 -0.7760281 -0.5423994 -0.15102224 0.21267319 -0.15558656 -0.9796441

layer1.0.downsample.1.running_var f4 [32]
00000000: 19f2 653e c81f 113f f269 013f 2517 243f
00000010: 5805 d43e 6e43 be3e f030 b33e abf3 0a3f
00000020: aad5 ad3e 5b15 3e3e 39bd 583e f24c 033f
00000030: ce62 a13e 4674 123f 8f11 1f3f 46c3 3e3f
00000040: 9ea6 3c3f 3068 653e 2b8e b83e 9b27 993f
00000050: 23cf 9d3e 08a0 bc3e 2403 b33e f6dc 353f
00000060: 9166 5e3e da4e 113f 8b17 183f 80d2 ad3e
00000070: 86de 053f 9bb1 7a3e c4da a73e 7c12 1e3f
0.22455634 0.5668912 0.50552285 0.64097816 0.41410327 0.3716082 0.34998274 0.5427806
0.33952075 0.18562834 0.21165933 0.51289284 0.31520694 0.5720867 0.6213617 0.74516714
0.7369174 0.22403026 0.36045966 1.1965212 0.30822095 0.36840844 0.34963334 0.71040285
0.21718813 0.5676094 0.59410924 0.3394966 0.5229267 0.24481814 0.32784092 0.61746955

layer1.1.conv.weight f4 [32, 32, 3, 3]
00000000: edf1 12bb aa34 58bc 531b f9bc 0baf adbd
00000010: 75f0 e5bc f7bf 16bd ba29 c4bd 54a9 b2bd
00000020: efd3 4d3c d3bd fabc 3d1f 86bd 943d f73c
00000030: 53f1 c7bd a65c 29bc 3384 86bc ba05 8ebc
00000040: 822a 9b3d 03ad d33b 4cc6 08be 2d32 2fbe
00000050: 4640 ff3c 3f79 79bd d353 b83c 1b7d 7a3d
00000060: 9116 173e 76c8 353d 242f bcbd 67a7 4dbe
00000070: 2f07 8cbd f651 d53d c502 3bbd bc8f a73d
00000080: 58c3 033e 846f 0c3e 12cb 023e 9e52 c53c
00000090: b203 013e 436d b7bd 181c 92bd 2e93 5bbe
000000a0: 09f2 7cbe d1b2 063d a09a 59bd 84cf aebd
000000b0: 0f7b a13b 3b3b 1d3e aaa4 b63d 7e45 283e
000000c0: 2e3f 563e e649 263e e393 823e 618c 82bd
000000d0: 175b 1ebd f872 343d 9061 7dba 7bd5 acbd
000000e0: 358a 4fbc aae3 99bd 41bd 663c 7f83 8dbd
000000f0: 2a2d e03d fbf3 ac3d ff4b b6bd d0fa c0bd
00000100: df8d dc3d 9ff4 cd3c a7a5 28be 0145 dfbd
00000110: 8817 2e3c 1fa6 1a3b bd58 273c ca2b b83c
00000120: 56e6 64bd 4d26 f5bd 8330 b33a 16ba 8fbd
00000130: 24c4 9dbc 3b09 00be 51ac 0e3c d408 89bd
00000140: 25ac bfbd d0d4 fdbd 3ba1 ccbd ab20 c2bd
00000150: 9516 8e3b ec97 92bd 4302 6a3d beff 613d
00000160: 74be e0bd cd8e 763e 11fe 203e 493e cd3d
00000170: 4b91 b83d 400c b63c 4547 80bd a95c aa3c
00000180: 5a63 a53c c9ac 953d 16f6 9cbd f3bc 39bc
00000190: 82d4 333e 01cf 92bd 02b0 13bd e0e3 59be
000001a0: 241b 1a3e 7706 5bbd 095c a7bd 40c3 e6bd
000001b0: 15b8 c8bc 4c02 a23d 7285 973d 32fb 193e
000001c0: 4271 543e d768 603d 87eb 803e b38a 6ebd
000001d0: c555 da3d 83b5 92be b70f 7ebe f5b7 64be
000001e0: 4472 0a3d 86a8 45be c151 01be 89aa 33bc
000001f0: c8bc bcbc 1c6f 26bd 296a 4bbc 2613 013c
00000200: f640 203e 816e 8dbd bc45 54bd caed ab3c
00000210: e03e 5abc b752 a8bd 31e9 3e3e 2fca ec3d
00000220: 5282 4b3d b3a0 363e 3fbf 283e 01e0 693e
00000230: bdfe 383c 52ff 4b3e 225b 75bd 54c3 7ebd
00000240: 1d10 c83b 040e 40bd 60d0 123d d433 13be
00000250: f28a 6d3d fa0c 4e3e 7696 afbd b963 813d
00000260: 9d4d 053e c0e8 103c 3ebd 2c3e d79c 943e
00000270: 917c c53d 4013 343e c439 673c 18d3 1b3e
00000280: 9ea3 a2bd 8664 1e3e 2c46 54be a03a 12be
00000290: e2bd eabd 7ae2 3cbe cd2a 4dbe 29b2 84be
000002a0: 2ebd 11be 6f2b 5b3d bed2 72bd cd0c 5a3e
000002b0: 526f aebd 8820 33be 8859 08be 4180 07be
000002c0: 9849 0f3e dad2 a7bd 9d7c aa3c e1fa 883e
000002d0: 57bc 88be 4770 04bc 2e9a 353c 0f6c d13c
000002e0: 2f94 153e b823 fabc ad9a 0b3e 46a5 2e3e
000002f0: 9b2f f3bb 6d33 b73c 501f 85bc 026a 85bd
00000300: 028c bcbd a2b6 4fbd 03e1 05be 7ae8 303a
00000310: 7813 bd3b 07b0 a53d 4edf 233e de01 debc
00000320: ddef 4d3e 0ceb bf3c 8ac3 6ebc 3b29 873d
00000330: c26f 493d 1281 47bd b4ca d5bc 996e 7a3e
00000340: 3499 bf3c 1e3e babc 2afe 9a3e 6e72 2c3e
00000350: 9e05 3c3d e996 7b3c ec8e 41be b556 c0bd
00000360: 28f1 60bd f7fb 47be 9f83 9dbd e2fb eabd
00000370: 8fbd 80bd 1970 653e 14c8 3f3e 197f 653d
00000380: 07e1 643d f508 703c e584 033c aac0 eebd
00000390: 1958 79bb 13ae 6d3d 777a 9fbd 5e98 e63b
000003a0: f11a cfbc 659c d0bd 3e3f 723e 059a 623d
000003b0: 5dc3 c0ba 1196 433d d3cc 76bd 06cc 09be
000003c0: e17b 1abe 178b 01be a7f9 b73d 8f3b f3bd
000003d0: 6bac 763d 0e23 b53d bc52 94bd e884 a1bd
000003e0: a0ac 18be 7f33 8c3d 3216 9dbc 012d a23d
000003f0: 4a08 51bd 94c7 453d ce6e 123c 8a1a bb3c
-0.002242203 -0.01319615 -0.030408537 -0.084806524 -0.02806876 -0.036804166 -0.09578271 -0.08723703
0.012562736 -0.030608093 -0.06548927 0.03018073 -0.09762826 -0.0103370305 -0.01642046 -0.017336715
0.07576467 0.0064598336 -0.13356894 -0.17108984 0.031158578 -0.060906645 0.022500908 0.061154466
0.14754702 0.044380628 -0.09188679 -0.2008339 -0.06837308 0.104160234 -0.045656938 0.08181712
0.12867486 0.13714415 0.12772778 0.024087247 0.12599066 -0.08956387 -0.07134265 -0.21442863
-0.24701704 0.032885376 -0.053125978 -0.08535674 0.004928 0.15354626 0.08918126 0.16432759
0.20922539 0.16239128 0.25503454 -0.063744314 -0.03866109 0.044054955 -0.0009665722 -0.08439156
-0.0126672285 -0.075141266 0.014083208 -0.069098465 0.10946114 0.08444973 -0.08901214 -0.09422839
0.10769247 0.025141058 -0.16469441 -0.10901833 0.0106257275 0.002359755 0.010214028 0.022481818
-0.055883728 -0.11970196 0.0013671074 -0.07017915 -0.019258566 -0.12503521 0.008708076 -0.06691137
-0.09359006 -0.123941064 -0.0999169 -0.09478887 0.004336188 -0.07157883 0.057131063 0.055175535
-0.10973826 0.24077912 0.15721919 0.100216456 0.090120874 0.022222638 -0.062635936 0.020796137
0.020188976 0.07308347 -0.07664125 -0.011336553 0.17561534 -0.07168389 -0.036056526 -0.21278334
0.15049416 -0.053472962 -0.08171851 -0.1126771 -0.02450184 0.07910594 0.073984995 0.1503723
0.2074633 0.054787483 0.25179693 -0.058237743 0.106608905 -0.28654107 -0.24810682 -0.22335799
0.03380038 -0.19302568 -0.12628843 -0.010965952 -0.023039237 -0.040633306 -0.012415447 0.0078781005
0.1564978 -0.069058426 -0.051824316 0.02098741 -0.013320655 -0.082189016 0.18643643 0.11562001
0.04968483 0.1783474 0.16479205 0.22839357 0.011291203 0.19921616 -0.059901364 -0.062198
0.0061054365 -0.046888366 0.035843253 -0.1437524 0.057993837 0.20122138 -0.0857362 0.06317849
0.13017888 0.008844554 0.16869065 0.2902591 0.096429 0.17585468 0.0141128935 0.15217245
-0.07941364 0.15468034 -0.20729893 -0.14280176 -0.114619985 -0.18445769 -0.20035858 -0.25917175
-0.14232323 0.05350822 -0.05928301 0.21293946 -0.085173264 -0.17492878 -0.13315403 -0.13232519
0.13992918 -0.081945136 0.020811373 0.26753905 -0.26706192 -0.00808341 0.011084123 0.025564222
0.14607309 -0.03053461 0.13633223 0.17055234 -0.0074214465 0.022363389 -0.016250283 -0.0651436
-0.09206392 -0.05071128 -0.13074116 0.0006748509 0.005770143 0.08090215 0.16003153 -0.0271005
0.20111032 0.023427509 -0.014572987 0.06599661 0.049178846 -0.048707075 -0.026097633 0.24456252
0.023388483 -0.022734698 0.30272037 0.16840526 0.045903794 0.015355804 -0.18902177 -0.09391538
-0.054917485 -0.1952971 -0.0769112 -0.11473824 -0.062861554 0.22406043 0.18728667 0.056029413
0.055878665 0.014650573 0.00802729 -0.116578415 -0.0038046895 0.05802734 -0.0778703 0.0070372066
-0.025281401 -0.1018608 0.23656937 0.055322666 -0.001470666 0.047750536 -0.06025393 -0.13456735
-0.15086319 -0.12650715 0.08983164 -0.11876594 0.060223024 0.08844577 -0.07242343 -0.07886678
-0.14909601 0.068457596 -0.019175623 0.0791874 -0.051033296 0.048286036 0.008937551 0.022839803

layer1.1.bn.weight f4 [32]
00000000: 9b1f 933f 9120 933f 1298 c63f a6bc af3f
00000010: 315e 9c3f de79 b13f c9c0 a13f 19e7 983f
00000020: b3dd 9e3f f750 a63f aad8 b43f c3bf ac3f
00000030: 4237 bc3f 7bc4 d93f 6d07 ae3f 7f6e ae3f
00000040: dead a33f d0eb a23f c162 ae3f 5846 983f
00000050: 3869 963f 809b bd3f 63f7 ae3f 26a2 943f
00000060: 4423 993f b802 8a3f b168 913f 8abc aa3f
00000070: 762a b73f 3907 ba3f d7f1 a83f fe5e bd3f
1.149402 1.1494313 1.5515158 1.3729446 1.2216245 1.3865316 1.2636958 1.1945525
1.2411407 1.2993459 1.4128621 1.3496021 1.4704363 1.7013086 1.3596016 1.3627471
1.2787435 1.2728214 1.3623887 1.1896467 1.175086 1.481308 1.3669246 1.1611984
1.1963887 1.078208 1.1360074 1.3338788 1.4309833 1.4533454 1.3198804 1.4794614

layer1.1.bn.bias f4 [32]
00000000: f506 47be e54a 70be 50d6 9dbd f3c0 2fbd
00000010: 549f f7bd 9740 cabe 14af 72be 0ddd 30be
00000020: 0423 74be 61f6 14be 1685 633d 9d09 b2bd
00000030: e1a7 c1bd afbe 10be ad80 a3bd effb 32bd
00000040: c4a1 8abe 6850 40be 5cf8 39be 419e 58be
00000050: 80db c33d e9bf 84bd 0f14 81be ed9a f7bd
00000060: 457f 87be 83d4 40be 82d5 26be 8a38 91bd
00000070: 8947 8ab9 82a6 a1be 9ba9 c1bd 4225 a2bd
-0.19436248 -0.2346607 -0.077068925 -0.04290862 -0.12090936 -0.39502403 -0.236996 -0.17271824
-0.23841482 -0.14547111 0.055546843 -0.0869324 -0.094558485 -0.1413524 -0.07983527 -0.043697294
-0.27076542 -0.18780673 -0.18161148 -0.21154119 0.09563351 -0.064819165 -0.25210616 -0.120900966
-0.26464286 -0.18831067 -0.16292384 -0.07090862 -0.0002637471 -0.31572348 -0.09456178 -0.079172626

layer1.1.bn.running_mean f4 [32]
00000000: 06ba 0dbf b591 5ac0 0381 14c0 3b48 79c0
00000010: cf3f c5bf c080 bf3d 73a7 edbf 219e 03c0
00000020: 38ab 683e 0919 8cbf 30bf 27c0 6eb7 0bc0
00000030: 5631 69bf 59ac 9fbf 1dec b1be 6438 29c0
00000040: 496e cdbf e3c0 84c0 7bd7 14c0 cefa c1bf
00000050: 3164 00c0 ec7b 72c0 54bf 0b3f 599c c73f
00000060: cf16 4dbf 59fb 253f fc33 f33f a5ec 953f
00000070: a842 36c0 1639 ea3c 55ac 15c0 6a56 d3bf
-0.55361974 -3.4151433 -2.3203743 -3.8950336 -1.5410098 0.09350729 -1.8566726 -2.0565264
0.22721565 -1.094514 -2.6210442 -2.1830707 -0.91090906 -1.2474471 -0.34750453 -2.6440668
-1.6049281 -4.1485457 -2.325652 -1.5154665 -2.0061152 -3.7888136 0.5458882 1.5594589
-0.8011293 0.6483665 1.9000239 1.1712843 -2.8478184 0.028591674 -2.3386433 -1.6510746

layer1.1.bn.running_var f4 [32]
00000000: e003 5b40 f985 3640 5be5 5040 f74a 6140
00000010: 0083 1440 04c8 2740 ac02 4a40 c9de 1d40
00000020: 159c 0c40 8a2c f43f 83bc 4340 7c1c 5e40
00000030: f6f3 7c40 5f7c 2f40 9309 1840 7db9 4140
00000040: 0d66 7240 b8d9 6040 9eac 5c40 48c6 7540
00000050: 94df 3f40 e668 8240 b4e4 1240 ec2e 3a40
00000060: 2f16 0240 b7d5 1840 d689 3240 e746 2540
00000070: 06e8 5640 da29 1040 88c1 2540 1497 1540
3.4221115 2.851927 3.2639987 3.5202005 2.3204956 2.621583 3.156413 2.4667227
2.1970265 1.9076092 3.0583808 3.4704885 3.9523902 2.741966 2.3755844 3.0269463
3.7874787 3.5132885 3.4480357 3.8402271 2.9980211 4.075305 2.295209 2.909114
2.032604 2.388044 2.7896628 2.5824525 3.3579116 2.2525544 2.5899372 2.337346

layer2.0.conv.weight f4 [64, 32, 3, 3]
00000000: ddc7 32be 07fc d5be 1fec 95be 2f4a 933d
00000010: 5d50 49be 7de1 c5bc 1ddb d7bc 5b4f 06be
00000020: 62e3 d0bd f81c ec3d b0b0 a3bc 7687 cfbc
00000030: f98f ecbd 4101 8a3d 41f3 bbbd 8020 20be
00000040: b1ba c7bd e842 3ebd 0321 e9bd 2235 a9bc
00000050: 7638 1f3d 9f58 a83d 40f1 a03d 4491 993e
00000060: d42f f33c 4468 07bd 781b cc3d fb8d c7bd
00000070: 2ab6 27be 7cd1 23be 791e 5ebd a64e 70bd
00000080: 86d6 34be 7f45 f9bd ded8 72be 6227 4cbe
00000090: 8fba 64be 936f 72be 1b30 40bd 7cb4 49be
000000a0: 7c64 38bd 3272 19be fb26 7a3d d029 af3b
000000b0: 4947 0a3d a098 383d 7ec8 98bd 7470 a8bd
000000c0: e3cb fd3b b46e c7bd cb96 9c3b 8e31 b33d
000000d0: 6c48 093e a7ce bcbd a488 213d bfbb c6bd
000000e0: 24e5 bebd 25b0 b03d 1d74 06be 34c7 ecbc
000000f0: 3f48 1a3d 884e edbd 50a2 0c3b 4d06 323c
00000100: 6a59 aabd 62cc 0c3d dbb0 563e 5ff6 b53d
00000110: bf14 823d 421e bf3d dbca ab3d 0e34 fabc
00000120: 27c7 4c3e a2c6 d43d 8339 51bd 1da7 7cbc
00000130: 6a6e 3a3d 9111 02bd c861 8bbd 2b89 95bc
00000140: 0cea e6bd 7d04 4b3e af76 203e cf9e 213e
00000150: cfbe 26bd 6c6d ad3c 20e3 603b 6892 3fbd
00000160: 2a01 d5bd 2291 84bd 097d e63b a520 88be
00000170: 062f 3dbe dc76 6bbd 8448 8f3c 21c2 45be
00000180: 9bbb 063e 0f77 97bd 23d7 4dbc 0b7d fcbc
00000190: aa13 e3bc f918 86be 0038 b33d a0be 06be
000001a0: 527a 85be b579 403d 6130 8abd 2a9c 9bbd
000001b0: c5f1 da3c 4086 613e c026 c6bd 058d 0b3b
000001c0: 0fa6 2bbc 10a2 853d 2a71 43bd 4221 31be
000001d0: 9c59 d1bd 21f6 ecbd 8270 85bc d225 3dbb
000001e0: 5085 34be c712 013d 7d81 95bc 721b bdbc
000001f0: 9061 a13d 9ee2 febc c0ab b0bd fc29 f5bd
00000200: 4014 85bd a432 fbbd d06c 08be 8abe d3bd
00000210: 5cc2 e63d 68c0 3c3e 0634 cfbb 070c c83d
00000220: 49b4 b13c 082e 063e cce0 2c3e 5c32 113e
00000230: fdc8 e43d 53c7 4a3e 4a14 bb3d e46e 233e
00000240: 75f5 b6bd b43f 2cbc d2c8 74bd f229 31be
00000250: 8e9d e7bd d480 a4bd 63c0 d2bd 5b1c 843d
00000260: b625 31be d060 60bc 432f 48be 3011 85bb
00000270: 806c 12be b41d b43c 493d c2bd 4bed 223e
00000280: 23ae 8c3d 6d80 f33c f468 9bbd 9138 e6bd
00000290: 8261 60be b24a 0c3d 60ed b53d 1f3c 88be
000002a0: 3cb6 fabc f21a d7bd 0051 18be 3a8e b43c
000002b0: d4c7 353d c69f 4abd 0ac7 f0bd 9f33 54bc
000002c0: d2de 443d 5246 95bc 4082 9cbd a4d8 07be
000002d0: a0e5 923d e1ad 0e3e 53e5 463d 078f c03c
000002e0: d7c8 b6bc aed6 b53d 19ed 5cbd 2b58 25be
000002f0: 012f 8b3d a079 613d 1292 babd 2529 aa3d
00000300: d3e7 cfbd 748f 6f3d 44a1 d7bd f083 28be
00000310: 549f a0ba f244 2cbd e9e4 ecbd a14e 68bd
00000320: 7b6c 67bd 05e8 1bbe ff3d e9bc 1741 88bd
00000330: ab41 0fbe 72e3 96be 3629 c8bd 3475 03be
00000340: 9009 e4bc b51c 3a3e a1ed bdbc 4fc0 6d3e
00000350: d5de ee3d 690e 5e3d 285c 2bbe ab6f 993d
00000360: ab21 273e dce7 f23d ca41 533d 6e7b 113e
00000370: 3911 123e 1aee 373c 17ff d23d 9558 91bd
00000380: c111 46bc 0f13 023e f22c 293e 5890 933c
00000390: 539e 173d bc59 513d f49f 093d 5225 03be
000003a0: 442c 82bd 152b ebbd b687 5c3c 1d3e b3bd
000003b0: 118f 0dbe 7c12 063d 91a3 c1bb 5327 263d
000003c0: 1b19 6c3c 6b73 a7bd 94a6 0fbe 3957 173e
000003d0: 39d6 1cbe ff71 46be 0335 113e 378e 323b
000003e0: 36b2 e9bd dfd3 af3b 7bd6 8fbc 89d7 503e
000003f0: 112e 6e3d 8cc2 8fbe d60c 663c 24d0 03be
-0.17459054 -0.41793844 -0.2928171 0.07191884 -0.19659562 -0.024155373 -0.026349599 -0.13116209
-0.1019962 0.11528963 -0.019981712 -0.025333147 -0.11550898 0.067385204 -0.091772564 -0.15637398
-0.097524054 -0.046450526 -0.113832496 -0.020655219 0.038872205 0.08220028 0.07858515 0.2999364
0.029685892 -0.03305842 0.09966177 -0.097438775 -0.16378084 -0.1599788 -0.05422828 -0.058668755
-0.17659959 -0.121714585 -0.23715541 -0.19936898 -0.22336791 -0.23675375 -0.046920877 -0.19697756
-0.045017704 -0.14984968 0.06107233 0.0053455606 0.03375939 0.04506743 -0.07460116 -0.08224574
0.0077452525 -0.09737912 0.004778718 0.08749686 0.13406533 -0.09219103 0.03943695 -0.097037785
-0.09321049 0.08627347 -0.13130231 -0.028903581 0.037666555 -0.11587244 0.002145905 0.01086576
-0.08317836 0.034374602 0.20965903 0.08884882 0.06351613 0.09331943 0.08388301 -0.0305424
0.19997846 0.10389449 -0.051080238 -0.015420702 0.045515455 -0.031755034 -0.0680576 -0.018253883
-0.1127511 0.19825931 0.15670274 0.15783237 -0.040709313 0.02117034 0.0034315065 -0.046770483
-0.10400613 -0.064729944 0.0070339483 -0.26587406 -0.1847497 -0.0574864 0.017490633 -0.19312336
0.13157503 -0.073957555 -0.0125635 -0.030821344 -0.027719337 -0.26190928 0.087509155 -0.13158655
-0.26069885 0.04699107 -0.06747509 -0.07598145 0.026726613 0.22023869 -0.0967536 0.002129377
-0.010476603 0.065250516 -0.047715344 -0.17297843 -0.1022217 -0.11570383 -0.016289 -0.0028861654
-0.1762898 0.031512048 -0.018250221 -0.023084376 0.07879937 -0.031113919 -0.08626509 -0.119708985
-0.06498003 -0.12265518 -0.13322759 -0.10339077 0.1126754 0.18432772 -0.0063233403 0.09767919
0.021692412 0.13103497 0.16882628 0.14179367 0.11171148 0.19802599 0.09134729 0.1596027
-0.08933536 -0.010513235 -0.05976183 -0.17301157 -0.11309348 -0.080323845 -0.10290601 0.06450721
-0.17299542 -0.013694957 -0.19549279 -0.004060887 -0.14299202 0.02198682 -0.094843455 0.15910833
0.068691514 0.029724324 -0.075883776 -0.11241258 -0.21912196 0.034250923 0.08883166 -0.2660837
-0.030604474 -0.10503186 -0.14874649 0.022040475 0.044380024 -0.049468778 -0.11756714 -0.012951761
0.04806406 -0.018222008 -0.07642031 -0.13266236 0.07172704 0.13933517 0.048558544 0.0235057
-0.022312565 0.088788375 -0.05393705 -0.16146915 0.06796075 0.05504763 -0.09109892 0.08308629
-0.10151639 0.058486417 -0.10528806 -0.1645658 -0.0012254515 -0.04205794 -0.11567099 -0.05671561
-0.05649994 -0.15225227 -0.028471945 -0.0665304 -0.13989894 -0.29470402 -0.09773485 -0.12837678
-0.027836591 0.18175013 -0.0231846 0.23217891 0.116635956 0.05421296 -0.16734374 0.07492002
0.16321437 0.1186063 0.051576413 0.14207241 0.14264382 0.011226201 0.10302561 -0.07096974
-0.012089194 0.12702583 0.16521052 0.018013164 0.037016224 0.051110968 0.03359981 -0.12807205
-0.06356099 -0.114828266 0.01346009 -0.087520815 -0.13824107 0.03273247 -0.005909391 0.040564846
0.0144102825 -0.08176311 -0.14028388 0.14779367 -0.15316094 -0.19379424 0.14180379 0.0027245411
-0.11410944 0.005365833 -0.017558327 0.2039472 0.0581494 -0.28078115 0.014041146 -0.12872368

layer2.0.bn.weight f4 [64]
00000000: 48a6 8b3f 9ff2 923f 4018 963f 8b75 923f
00000010: 25f9 8f3f c756 923f 1c92 903f 32b6 8c3f
00000020: 4df8 993f fdc4 8a3f 5ea3 943f 1e67 963f
00000030: cba7 8d3f f769 983f 0f21 973f 252e 8f3f
00000040: 0969 913f afc0 a33f f1f7 a33f b966 8f3f
00000050: 7199 8a3f be1a 993f 4e5c 9c3f 87f4 973f
00000060: 05d1 963f cb47 8a3f 99de a83f 2426 9d3f
00000070: 2a48 9d3f 6d5e 903f 832f 933f 3d1a 913f
00000080: 873f 9f3f bf62 843f ad51 9a3f 0cca 8e3f
00000090: 4ddc 863f 759d 923f b9b4 8e3f 377d 9a3f
000000a0: e148 883f 961c 913f 736d 873f 2516 9f3f
000000b0: 735c 943f 6815 8f3f dd8a 913f 26d1 893f
000000c0: 4fae 853f a48f 903f cb19 9f3f 600e 993f
000000d0: d885 8a3f f9e0 813f d3b7 903f c658 973f
000000e0: f8a3 8d3f 02a2 933f 3751 9e3f 24e2 8e3f
000000f0: f8c5 923f 6e85 913f 5757 933f 3c52 973f
1.091012 1.1480292 1.172615 1.1442121 1.1247908 1.1432732 1.1294589 1.0993102
1.20289 1.0841366 1.1612356 1.1750219 1.1066831 1.1907338 1.1806964 1.1185957
1.1360179 1.2793177 1.2810041 1.1203223 1.0828077 1.1961286 1.2215669 1.1871499
1.1782538 1.080316 1.3192931 1.2277265 1.2287648 1.1278816 1.1498874 1.1336132
1.2441262 1.0342635 1.2056175 1.115541 1.053598 1.1454302 1.1148902 1.2069463
1.0647241 1.1336849 1.0580276 1.2428633 1.1590713 1.1178408 1.1370503 1.0766952
1.044382 1.1293836 1.2429746 1.1957512 1.0822096 1.0146781 1.1306099 1.1823967
1.1065664 1.1533816 1.2368535 1.1162763 1.1466665 1.1368845 1.1511029 1.1821971

layer2.0.bn.bias f4 [64]
00000000: 6a4b cabd 4623 d4bd ff2e 2ebe eaa7 36be
00000010: 912d 65be 93f5 cabe 0f00 27be 143b 41be
00000020: 5fce 83be 6938 45be 0a2a 56be ba4e 80be
00000030: ef43 39be 847f 9cbe d07e 4abe 154b 03be
00000040: 0b6e 83be 28e7 1ebe 03b9 a0be c0b1 aabe
00000050: 1b0b 52be c272 2fbe 440b c6bd 3658 c4bd
00000060: 8d6f b2be d5a5 36be a21a e7bd ce21 9abe
00000070: 140b 8dbe 3236 50be 0e16 45be 8ce4 6cbe
00000080: 7d6f a2be f036 42be 2e46 1bbe 2fd8 0cbe
00000090: 4a96 44be d7e7 94be 2269 36be d31e 7ebe
000000a0: b190 2cbe 2080 80be 4d3b 78be b7de 2bbc
000000b0: e837 0bbe c3b2 0ebe d1d3 61bd f153 8bbe
000000c0: 2c3c a8be 5e73 6fbe 2f6b 67be 2299 9cbe
000000d0: 254a 8cbe e46c 57be edbb ccbd aff2 bdbd
000000e0: 3e7b 8dbe 7c7d 2dbd 938b dbbd 3fbd 90be
000000f0: 97a5 7fbe ec88 30be 24b2 6ebe a0b1 58be
-0.09877665 -0.103582904 -0.17010115 -0.17837492 -0.22380663 -0.39640483 -0.16308616 -0.18870193
-0.25743386 -0.192598 -0.20914474 -0.25060064 -0.18092321 -0.30566037 -0.19774938 -0.1282161
-0.25669894 -0.15517867 -0.31391153 -0.33338737 -0.20512049 -0.1713362 -0.096701175 -0.095871374
-0.34850731 -0.17836697 -0.11284377 -0.30103916 -0.27547514 -0.20333174 -0.19246694 -0.23134059
-0.31725684 -0.1896627 -0.1516349 -0.13754342 -0.19197956 -0.2908313 -0.17813542 -0.24816446
-0.1685207 -0.25097752 -0.24241371 -0.010490111 -0.13595545 -0.1393538 -0.055133644 -0.2721248
-0.32858407 -0.23383853 -0.22599481 -0.3058558 -0.27400318 -0.21037632 -0.099967815 -0.09274804
-0.2763309 -0.042356 -0.10719981 -0.28269383 -0.24965511 -0.17239732 -0.23310143 -0.21161509

layer2.0.bn.running_mean f4 [64]
00000000: ce84 b1c0 92d0 1d40 17b8 63bf 5883 283d
00000010: 74c6 91c0 c029 3b3e cd8c 25c0 6ad1 65c0
00000020: afc1 5fc0 2a57 fd3d 18f0 7b3e 1835 863e
00000030: b49c 933f 913e bfbf bfe9 11c0 2f6b 3ec0
00000040: df8a cd3f e5d0 fabf 4829 d03e 78e0 fd3e
00000050: 2803 e4bf 1596 0abf 6658 eabf 2abb 6cc0
00000060: ec2a cbbf b3cd 06bf 4ace 3ec0 23f6 efbf
00000070: c8cb d6bf 6b7d 49bc d12c 913f 1ae4 a3c0
00000080: 9d22 b2c0 bf11 43c0 9750 b33f 581b 4bc0
00000090: 226e 27c0 9774 01c0 eedd 18c0 8667 6fc0
000000a0: 100a 6fc0 9a69 8abf 85a7 3bc0 345d b9bf
000000b0: ee98 0bbf 97a1 893f 8586 9dbf 1ea9 95bf
000000c0: 4e24 0a3f f387 73bf 72ba 9cbf b866 8b3e
000000d0: 8d6d bbc0 79bb bcbf f492 bcc0 0bc3 f43e
000000e0: befb 82bf b9be c43f d1d7 90c0 62dc 15c0
000000f0: faf1 b7bf 3090 10bf cdc1 77c0 7cf5 58bf
-5.5474615 2.4658551 -0.88952774 0.041140884 -4.555475 0.18277645 -2.5867188 -3.5909066
-3.4961965 0.12370141 0.24603307 0.26212382 1.1532197 -1.4940969 -2.2798917 -2.975292
1.6058005 -1.9595 0.40656495 0.4958532 -1.7813463 -0.54135257 -1.8308227 -3.6989236
-1.5872474 -0.5265762 -2.981341 -1.874699 -1.6780939 -0.012297968 1.1341802 -5.1215944
-5.5667253 -3.0479581 1.4008969 -3.173544 -2.616097 -2.022741 -2.3885455 -3.7406936
-3.7349892 -1.0813477 -2.9320996 -1.4481568 -0.5453023 1.0752438 -1.2306677 -1.1692235
0.53961647 -0.9512932 -1.2244399 0.27226806 -5.857123 -1.4744712 -5.8929386 0.47805056
-1.0233076 1.5370704 -4.526345 -2.341576 -1.437072 -0.5647001 -3.8712037 -0.8474958

layer2.0.bn.running_var f4 [64]
00000000: 7449 7240 b72b f540 8979 8940 98f2 7e40
00000010: 63e6 9a40 d2f0 8d40 8171 a240 4e22 b740
00000020: 0e69 8340 a7bf 9e40 1c4c 8240 5fe7 b840
00000030: 1dea b440 c36b b940 9c02 c740 408a 8040
00000040: 7344 9640 0348 ea40 53ec c040 6d37 6640
00000050: 7b52 8840 7918 b240 b263 8d40 5187 9740
00000060: 4b20 ca40 d51d 6c40 b26f d540 8f3d b340
00000070: a06e 8a40 fac5 ab40 ba79 ae40 0fbb 9640
00000080: fb5a 9a40 5899 a340 c90f a340 7202 a540
00000090: 19c5 9340 ea66 ba40 a006 aa40 cfc5 8c40
000000a0: b934 8c40 5e6b 9e40 2bb1 9240 8978 d440
000000b0: ab12 8740 24a0 8b40 87d5 c240 8de8 8240
000000c0: 6eb3 ac40 7032 9040 4155 a940 7910 6c40
000000d0: 1a81 9d40 747e cd40 ff0a 8740 3881 c940
000000e0: 3a56 9940 e52f a740 57f0 c640 31c7 bd40
000000f0: d604 a940 49fb ab40 d1b1 0141 3da3 8140
3.7857332 7.6615863 4.296086 3.9835567 4.8406234 4.435647 5.0763555 5.7229376
4.106574 4.960895 4.0717907 5.7782435 5.6535783 5.7944045 6.2190685 4.016876
4.6958556 7.3212905 6.028848 3.597133 4.2600684 5.5654874 4.41842 4.735268
6.316442 3.6893208 6.6698847 5.6012645 4.326004 5.367917 5.452359 4.7103343
4.823606 5.1124687 5.095677 5.1565485 4.61781 5.8250628 5.3133087 4.3991466
4.381436 4.9506063 4.584127 6.639714 4.221029 4.3632984 6.0885653 4.0908875
5.396903 4.506157 5.291657 3.6885054 4.9220095 6.421686 4.2200923 6.297024
4.7917757 5.2245965 6.2168384 5.9305654 5.2818403 5.3744245 8.105912 4.0511765
