old/student_models/large_res_students/student_0.pth (torch, 385904 bytes, 39 tensors)

conv_initial.0.weight f4 [16, 3, 3, 3]
0.07860563 0.1929804 0.087024234 0.0110971695 0.08585048 -0.08884354 0.14537592 -0.17144999
-0.25253075 -0.2783285 0.047801007 -0.064789444 -0.108300075 -0.11367891 -0.16871817 0.019635882
-0.3197789 -0.3305873 -0.1525171 0.20926169 -0.06287036 -0.24735232 -0.2401876 0.14166036
0.1075999 -0.11909641 0.084238015 -0.07184576 0.026414212 0.20071617 0.018652156 -0.18423551
-0.078892976 0.016461577 0.044131055 0.072854765 -0.07820046 -0.2096257 0.25691438 0.05697832
-0.25356185 -0.065409526 0.24254486 0.12577313 -0.10704741 -0.030644117 -0.038740188 0.116965905
0.14611314 -0.28116357 -0.13674861 0.20837972 -0.05945657 0.07307702 0.10509202 -0.101410605
-0.111085944 -0.10355628 0.17372824 -0.10881405 0.049822915 -0.095352136 0.093680374 0.21029238
-0.21739632 0.071639776 0.026873734 0.20631807 -0.118601106 -0.16793334 -0.09651292 0.22555158
0.2020319 -0.08747088 -0.10590854 -0.21603402 0.32912895 -0.09548998 -0.16884644 -0.0046004597
0.08508467 0.08497668 0.057901055 -0.1239516 0.057149056 0.11164505 0.023952322 -0.18867888
0.13778661 0.018929025 0.071632676 -0.0015933578 -0.24964546 0.109612346 0.0801478 -0.24323362
0.033031717 0.16118804 -0.22488111 0.2092213 -0.16782525 -0.098595664 0.2824986 -0.029192492
-0.29729643 0.28553477 0.021204157 -0.09036145 -0.01581701 0.01441488 -0.047422014 0.043896027
-0.20861708 -0.12863287 -0.025129069 0.071560316 -0.078202665 -0.009842766 0.1418043 0.17403652
0.24631827 0.24654093 0.31743568 0.20601632 0.035275977 0.10363261 -0.0013682137 0.110104494
0.09982816 0.15066954 0.41953257 -0.0894515 0.13174304 0.107953675 -0.30142298 -0.02985483
-0.06688086 0.10135626 -0.25976053 0.08049806 0.11607944 0.25306436 0.037596274 -0.19605216
-0.05884572 -0.04223105 -0.02023225 -0.07801302 -0.052976344 -0.040472418 0.24467273 0.06243526
-0.08599241 -0.065818064 -0.14357471 0.00660249 -0.20773384 -0.09951258 0.18040468 0.07986831
0.29576376 -0.027919095 0.03967805 0.040647738 -0.038476065 0.032521185 -0.016174626 0.02699695
-0.008989541 0.0904592 -0.08385357 0.07362934 -0.037345238 -0.014452175 0.1446573 0.20241122
0.013531748 -0.15262543 -0.26163152 -0.19924723 0.03198328 0.18095586 -0.111590326 0.29752356
0.03813238 0.17254737 -0.16053554 -0.2098956 -0.22992279 0.01933483 0.045004643 0.040720057
-0.17207988 0.1828809 -0.14949682 -0.03955151 0.24006306 -0.16963804 -0.12390136 0.16237602
-0.1617104 -0.07802016 0.26234645 -0.15195559 -0.04464107 0.15028127 -0.011256122 -0.08533038
0.18706162 -0.10200777 -0.11114895 0.21419501 -0.007377593 -0.11726139 0.04414067 -0.0036498054
-0.2908523 -0.2115647 -0.25025976 -0.049826797 -0.076792374 0.24257901 0.24150713 0.25225687
0.10930958 -0.06852797 -0.21435368 0.08350733 -0.02009226 0.19472966 -0.038948998 0.04189372
0.17770424 0.16787404 0.06975407 -0.040600125 -0.08878228 -0.066278435 0.21957427 0.034899093
0.03909058 -0.20705512 -0.14616188 0.09265301 0.25720564 -0.13145141 -0.131561 0.20543236
0.13579997 0.032608256 -0.29564992 0.0446633 -0.07802651 0.10213315 -0.0463935 -0.12559097
00000000: fdfb a03d a79c 453e c339 b23d e7d0 353c
00000010: 60d2 af3d 9af3 b5bd 6ddd 143e 9690 2fbe
00000020: b64b 81be 1381 8ebe fdca 433d 54b0 84bd
00000030: 6ecc ddbd 7dd0 e8bd 75c4 2cbe 6edb a03c
00000040: 0fba a3be bd42 a9be 712d 1cbe b248 563e
00000050: 2dc2 80bd ed49 7dbe bdf3 75be 6a0f 113e
00000060: 565d dc3d d2e8 f3bd fb84 ac3d df23 93bd
00000070: 9e62 d83c 8a88 4d3e 68cc 983c 3ca8 3cbe
00000080: a492 a1bd 6eda 863c c4c2 343d e134 953d
00000090: 9027 a0bd 1fa8 56be 488a 833e 1962 693d
000000a0: dcd2 81be 6ef5 85bd ae5d 783e acca 003e
000000b0: ac3b dbbd 5f09 fbbc 08ae 1ebd d28b ef3d
000000c0: af9e 153e acf4 8fbe d407 0cbe 7e61 553e
000000d0: bb88 73bd 68a9 953d 7c3a d73d 5db0 cfbd
000000e0: 0781 e3bd 5115 d4bd d1e5 313e e7d9 debd
000000f0: 1d13 4c3d fb47 c3bd 7fdb bf3d e356 573e
00000100: 249d 5ebe e0b7 923d 4e26 dc3c 0b45 533e
00000110: 23e5 f2bd b8f6 2bbe 91a8 c5bd fef6 663e
00000120: 73e1 4e3e ef23 b3bd 94e6 d8bd 0638 5dbe
00000130: 9783 a83e 4090 c3bd 15e6 2cbe 74bf 96bb
00000140: df40 ae3d 4108 ae3d a829 6d3d 56da fdbd
00000150: 2115 6a3d 29a6 e43d a937 c43c 0935 41be
00000160: ef17 0d3e 0b11 9b3c 27b4 923d 37d8 d0ba
00000170: 0fa3 7fbe 707c e03d 8824 a43d 3c12 79be
00000180: 444c 073d 7a0e 253e 3c47 66be 1c3e 563e
00000190: 62da 2bbe 86ec c9bd a8a3 903e 1825 efbc
000001a0: 3d37 98be 9d31 923e 57b4 ad3c 6d0f b9bd
000001b0: ad92 81bc 642c 6c3c 963d 42bd 52cc 333d
000001c0: b79f 55be 56b8 03be 7adb cdbc 378e 923d
000001d0: b828 a0bd 8e43 21bc 2535 113e a136 323e
000001e0: db3a 7c3e 3a75 7c3e ee86 a23e f1f5 523e
000001f0: 8b7d 103d 553d d43d a255 b3ba 777e e13d
00000200: b572 cc3d 1e49 1a3e f9cc d63e 5932 b7bd
00000210: a6e7 063e d116 dd3d 1d54 9abe 1e92 f4bc
00000220: d5f8 88bd df93 cf3d 55ff 84be 2bdc a43d
00000230: 0fbb ed3d a791 813e 8dfe 193d e6c1 48be
00000240: 3608 71bd 77fa 2cbd 1bbe a5bc 4ac5 9fbd
00000250: b9fd 58bd 68c6 25bd 7d8b 7a3e 1dbc 7f3d
00000260: ca1c b0bd 9fcb 86bd 4005 13be b359 d83b
00000270: 2eb8 54be 40cd cbbd 01bc 383e ff91 a33d
00000280: 596e 973e 96b6 e4bc 7385 223d 3e7e 263d
00000290: 1499 1dbd ef34 053d a680 84bc b528 dd3c
000002a0: de48 13bc ac42 b93d 6cbb abbd fbca 963d
000002b0: 52f7 18bd d1c8 6cbc 0b21 143e e344 4f3e
000002c0: 44b4 5d3c d749 1cbe 91f4 85be 7707 4cbe
000002d0: e600 033d 7e4c 393e 7889 e4bd 0255 983e
000002e0: b330 1c3d 42b0 303e 6e63 24be dfee 56be
000002f0: e170 6bbe 1464 9e3c ca56 383d 13ca 263d
00000300: b535 30be 2145 3b3e b215 19be c400 22bd
00000310: 17d3 753e 98b5 2dbe ffbf fdbd e645 263e
00000320: 6997 25be 09c9 9fbd 4652 863e 3f9a 1bbe
00000330: 8ed9 36bd 55e3 193e 996b 38bc b2c1 aebd
00000340: 158d 3f3e 73e9 d0bd 10a2 e3bd f055 5b3e
00000350: bcbf f1bb bd26 f0bd d9cc 343d 9331 6fbb
00000360: 98ea 94be 6ba4 58be 0c22 80be 2f17 4cbd
00000370: 5245 9dbd a266 783e a54d 773e d027 813e
00000380: b3dd df3d 6458 8cbd 887f 5bbe e405 ab3d
00000390: 8698 a4bc 3667 473e fc88 1fbd c098 2b3d
000003a0: 1af8 353e 2ce7 2b3e 39db 8e3d 514c 26bd
000003b0: 7cd3 b5bd fdbc 87bd 14d8 603e 5af2 0e3d
000003c0: 721d 203d 4206 54be 76ab 15be dcc0 bd3d
000003d0: 75b0 833e 339b 06be edb7 06be dc5c 523e
000003e0: 260f 0b3e 3c90 053d 6d5f 97be ddf0 363d
000003f0: 5dcc 9fbd 2f2b d13d 1c07 3ebd eb9a 00be

conv_initial.1.weight f4 [16]
0.96917385 1.0598807 0.9656895 1.0947862 0.9205939 0.9775813 1.0061361 1.2289295
0.9578689 0.9275338 0.8649222 0.8528035 0.87411237 1.0349215 0.91365296 1.0938556
00000000: c71b 783f 2caa 873f 6d37 773f f421 8c3f
00000010: 0bac 6b3f c542 7a3f 11c9 803f 904d 9d3f
00000020: e536 753f db72 6d3f 8b6b 5d3f 5551 5a3f
00000030: d4c5 5f3f 4f78 843f 29e5 693f 7603 8c3f

conv_initial.1.bias f4 [16]
-0.16018756 -0.14020899 0.033237696 -0.09523156 0.0046509188 -0.018016428 -0.06418921 -0.15438424
0.17644082 0.12517545 -0.108786285 0.18680656 -0.020494662 -0.0764412 0.4274987 0.31574696
00000000: 3508 24be f292 0fbe 4024 083d c408 c3bd
00000010: bc66 983b 3097 93bc a275 83bd e716 1ebe
00000020: e7ac 343e fe2d 003e 58cb debd 384a 3f3e
00000030: 6ce4 a7bc 348d 9cbd 1ce1 da3e 96a9 a13e

conv_initial.1.running_mean f4 [16]
0.07953928 0.0019129663 0.0043920577 -0.0048874933 -0.11816703 -0.0020381538 0.0066577108 -0.0015444335
0.00722144 -0.03483461 -0.03951734 -0.021414803 0.0052339556 -0.0052154013 0.09378532 0.0012397283
00000000: 7de5 a23d 7fbc fa3a 40eb 8f3b 4427 a0bb
00000010: 8e01 f2bd 8c92 05bb ed28 da3b 976e caba
00000020: d4a1 ec3b bcae 0ebd efdc 21bd 196e afbc
00000030: 9a81 ab3b f5e5 aabb 8512 c03d 617e a23a

conv_initial.1.running_var f4 [16]
0.4688331 0.033411168 0.013282159 0.0976285 0.6284786 0.034875732 0.06328903 0.027345374
0.077686206 0.08581766 0.022869604 0.022114707 0.020791074 0.06663288 0.08199288 0.08245944
00000000: e40a f03e 26da 083d 6a9d 593c 73f1 c73d
00000010: f9e3 203f dbd9 0e3d ae9d 813d 6803 e03c
00000020: f219 9f3d 2bc1 af3d 0959 bb3c e729 b53c
00000030: 0b52 aa3c d276 883d e2eb a73d 7fe0 a83d

layer1.0.conv.weight f4 [32, 16, 3, 3]
0.11194829 -0.02944382 -0.15962309 0.14081888 0.09762371 -0.05315723 0.07537957 0.071687356
-0.060297716 0.0415824 0.07822477 0.021967951 0.120272815 0.3517451 0.089602 0.03502256
0.0019023417 0.15501088 -0.02399818 0.07595105 0.18345138 -0.15048698 0.016728617 0.19228917
-0.0069125895 -0.06014561 0.06970872 -0.022427604 -0.08323259 -0.038739823 -0.029173564 -0.052844904
-0.018690884 0.045496874 -0.06579719 -0.011601267 0.07060979 0.08830519 0.03526076 -0.009746341
0.04907724 -0.055125307 -0.09021053 -0.08604111 -0.091628015 0.05202216 -0.1398039 -0.21871103
-0.0028017983 0.16711906 -0.032259 -0.01697315 0.0059455633 -0.05894026 -0.093718156 -0.08648139
-0.004700069 0.011779739 -0.15344541 0.054211233 -0.030765241 -0.07232644 0.01145028 -0.13184541
-0.078404516 0.07908804 -0.1011963 0.002409222 -0.122574285 0.062017184 -0.04110462 -0.16733575
0.03213448 0.04793658 0.0827093 -0.020488843 0.0034920883 0.16035719 0.012041322 0.053815514
0.066241585 0.066852115 0.10655345 0.0825252 -0.03577461 0.0655245 0.016854847 -0.06405506
-0.07866256 0.09161625 0.12654646 -0.0084668975 -0.06772855 0.037444286 -0.059828132 -0.105551094
0.00018042367 -0.066100866 -0.009575 0.20179036 0.010841485 -0.10352041 0.24625519 -0.03210097
-0.16435711 -0.045163423 0.074159086 -0.16018604 -0.12703268 -0.048662595 -0.03749219 -0.12386638
0.06499251 0.021043757 -0.15534215 0.0029297879 0.13348739 -0.15438876 -0.16194685 -0.16310568
0.002398031 -0.016570125 -0.22625446 0.09314735 0.15061544 -0.07213452 -0.15801479 0.056278106
0.24179234 -0.19452079 -0.0931849 0.3415197 -0.40245104 -0.18715636 0.32155824 0.08707752
0.17855524 0.069407344 0.06739147 -0.006898556 0.04852303 0.020739472 0.0032207498 -0.06807595
0.15118244 -0.0030351253 -0.2700377 0.020360567 0.03100776 -0.1561237 -0.199964 -0.04839017
-0.045059904 0.13243817 -0.27359742 -0.1643893 0.12227447 -0.08603751 -0.13845503 0.018697958
0.18205333 0.00636707 0.21318017 -0.05451507 -0.049349442 0.24058242 -0.07195876 -0.043276336
-0.061241988 0.25745228 -0.030286584 -0.05701848 -0.2289848 -0.12461309 0.010475863 -0.1748768
-0.008617644 0.011123736 0.14605579 0.18898396 -0.026739305 0.19391374 0.10563299 0.028858915
0.014447538 0.11784138 -0.07391066 -0.175891 -0.0759334 0.22527605 0.015369521 0.009594441
0.20322704 0.12285872 0.007136018 0.151872 0.0141365705 -0.054792155 -0.06541984 -0.10106751
-0.1727005 -0.08258362 -0.10059764 -0.25316584 -0.06403201 -0.1073596 -0.1704301 -0.009665174
-0.14235614 -0.20329869 0.076693706 -0.02705743 -0.0766343 0.07181154 0.04971522 -0.15433282
0.048437256 0.004073766 -0.027490346 -0.037426062 -0.03438676 -0.13683924 0.011217849 -0.06918604
-0.16359231 0.02194453 -0.037863657 -0.08656677 0.008937918 0.09996682 0.031341426 0.03919799
0.1873925 0.118944794 -0.050084572 0.016653635 -0.12900813 0.1522778 0.05994421 -0.15981054
0.16577123 0.10350232 -0.03349029 0.104144506 0.14140545 0.17514458 0.22923629 -0.14368428
-0.1179364 0.067392245 0.021353878 -0.1010213 0.16253379 0.19084811 0.0074486528 0.043228183
00000000: 2545 e53d 2a34 f1bc 3c74 23be d332 103e
00000010: f1ee c73d 65bb 59bd 9b60 9a3d d2d0 923d
00000020: bdfa 76bd 4f52 2a3d 4f34 a03d 22f6 b33c
00000030: 9851 f63d ef17 b43e 4181 b73d d173 0f3d
00000040: ff57 f93a 2cbb 1e3e d597 c4bc 398c 9b3d
00000050: aeda 3b3e 4219 1abe 740a 893c 74e7 443e
00000060: 0183 e2bb 3e5b 76bd 72c3 8e3d 18ba b7bc
00000070: d975 aabd a6ad 1ebd 66fd eebc e673 58bd
00000080: a01d 99bc ee5a 3a3d adc0 86bd 3e13 3ebc
00000090: de9b 903d 5ad9 b43d 966d 103d 1eaf 1fbc
000000a0: 3705 493d 13cb 61bd 4cc0 b8bd 5236 b0bd
000000b0: 78a7 bbbd 3015 553d c128 0fbe c9f5 5fbe
000000c0: 609e 37bb 4221 2b3e 0322 04bd 470b 8bbc
000000d0: 00d3 c23b 586b 71bd 4eef bfbd 281d b1bd
000000e0: 0903 9abb ceff 403c cb20 1dbe 990c 5e3d
000000f0: 6307 fcbc e21f 94bd f599 3b3c 7c02 07be
00000100: 8c92 a0bd e9f8 a13d 0140 cfbd 0ae4 1d3b
00000110: 3a08 fbbd bb05 7e3d 515d 28bd 105a 2bbe
00000120: 729f 033d 2659 443d 7e63 a93d 38d8 a7bc
00000130: 85db 643b ad34 243e f748 453c a86d 5c3d
00000140: aba9 873d c3e9 883d b238 da3d f902 a93d
00000150: 6688 12bd b631 863d 2d13 8a3c 4d2f 83bd
00000160: d619 a1bd 4da1 bb3d 6595 013e beb8 0abc
00000170: 44b5 8abd 2e5f 193d 580e 75bd 2c2b d8bd
00000180: 1c30 3d39 e45f 87bd 76e0 1cbc 22a2 4e3e
00000190: 7ca0 313c 8202 d4bd 522a 7c3e 4f7c 03bd
000001a0: 3b4d 28be 48fd 38bd b8e0 973d cf07 24be
000001b0: db14 02be 6e52 47bd 6991 19bd a8ad fdbd
000001c0: cb1a 853d f563 ac3c 0312 1fbe af01 403b
000001d0: ebb0 083e 1618 1ebe 65d5 25be 2d05 27be
000001e0: 4928 1d3b 12be 87bc 40af 67be 0ac4 be3d
000001f0: ef3a 1a3e 43bb 93bd a1ce 21be df83 663d
00000200: 6998 773e 7530 47be bad7 bebd acdb ae3e
00000210: 100e cebe eba5 3fbe 48a3 a43e b355 b23d
00000220: 2fd7 363e 7025 8e3d 8a04 8a3d 480d e2bb
00000230: 16c0 463d d3e5 a93c 3713 533b 676b 8bbd
00000240: 92cf 1a3e f4e8 46bb 6242 8abe 34cb a63c
00000250: fc03 fe3c e4de 1fbe 5dc3 4cbe c534 46bd
00000260: bc90 38bd df9d 073e f614 8cbe ab55 28be
00000270: 0a6b fa3d 6f34 b0bd 28c7 0dbe 762c 993c
00000280: 306c 3a3e dba2 d03b e74b 5a3e 324b 5fbd
00000290: a422 4abd 3d5b 763e 1d5f 93bd 8742 31bd
000002a0: e1d8 7abd c9d0 833e 921b f8bc 368c 69bd
000002b0: fe7a 6abe 2635 ffbd f4a2 2b3c e712 33be
000002c0: 0531 0dbc 5540 363c a68f 153e 0385 413e
000002d0: 630c dbbc 5391 463e 1c56 d83d 8869 ec3c
000002e0: 5eb5 6c3c d256 f13d 795e 97bd c51c 34be
000002f0: f882 9bbd c4ae 663e 72d0 7b3c 0132 1d3c
00000300: c01a 503e 5a9d fb3d 42d5 e93b 5584 1b3e
00000310: 139d 673c bd6d 60bd d6fa 85bd 7cfc cebd
00000320: 66d8 30be 9a21 a9bd 2306 cebd f49e 81be
00000330: 3723 83bd 5adf dbbd 3a85 2ebe ae5a 1ebc
00000340: cfc5 11be 882d 50be 9711 9d3d 8ba7 ddbc
00000350: 72f2 9cbd ee11 933d 30a2 4b3d 6c09 1ebe
00000360: 2566 463d 3a7d 853b 6f33 e1bc 124c 19bd
00000370: 22d9 0cbd 961f 0cbe 12cb 373c 69b1 8dbd
00000380: be84 27be 04c5 b33c ec16 1bbd eb49 b1bd
00000390: 5870 123c 67bb cc3d de5f 003d 128e 203d
000003a0: d2e3 3f3e 5499 f33d 7b25 4dbd 346d 883c
000003b0: b51a 04be b6ee 1b3e 0f88 753d 60a5 23be
000003c0: efbf 293e 06f9 d33d 1d2d 09bd b749 d53d
000003d0: 97cc 103e 1a59 333e ebbc 6a3e f921 13be
000003e0: a488 f1bd f204 8a3d 54ee ae3c 41e4 cebd
000003f0: 426f 263e b06d 433e d413 f43b 0910 313d

layer1.0.bn.weight f4 [32]
1.2467678 1.117653 1.1214797 1.1039463 1.1049986 0.95432067 1.039331 1.0446616
0.8645676 0.99040097 0.981985 1.0935454 1.1301235 1.1736784 1.124136 1.0129142
1.0879303 0.8630675 1.1288384 0.9520747 1.1825168 0.9275636 1.0571771 1.0485421
1.0025173 0.9567792 1.1157216 1.24971 0.82000643 1.0978061 0.82223004 1.2021968
00000000: 1696 9f3f 410f 8f3f a68c 8f3f 1d4e 8d3f
00000010: 9870 8d3f 5c4e 743f cc08 853f 79b7 853f
00000020: 4d54 5d3f eb8a 7d3f 5e63 7b3f 4cf9 8b3f
00000030: e3a7 903f 183b 963f b0e3 8f3f 2ca7 813f
00000040: 4d41 8b3f fef1 5c3f c77d 903f 2bbb 733f
00000050: b65c 973f cf74 6d3f 9451 873f a136 863f
00000060: 7d52 803f 7bef 743f f7cf 8e3f 7ff6 9f3f
00000070: f1eb 513f e984 8c3f ab7d 523f 96e1 993f

layer1.0.bn.bias f4 [32]
-0.051068936 -0.2250489 -0.08470854 -0.08834641 -0.1343372 -0.08413441 0.27508786 -0.11859345
-0.018756218 -0.0031552466 -0.122235455 -0.2365377 0.04961936 -0.08118628 0.03983152 0.09918418
0.025825886 0.002857606 -0.09761726 0.07968981 0.051106427 0.05184039 -0.05791084 -0.05719143
0.080293946 0.11432424 -0.05728991 -0.05793055 -0.088063665 -0.12513961 0.046661768 0.047729094
00000000: a92d 51bd 3873 66be ac7b adbd f6ee b4bd
00000010: b18f 09be a94e acbd 51d8 8c3e 1fe1 f2bd
00000020: a4a6 99bc 41c8 4ebb 9556 fabd f036 72be
00000030: ac3d 4b3d fe44 a6bd 6026 233d 1321 cb3d
00000040: cf90 d33c ac46 3b3b 8feb c7bd 6934 a33d
00000050: f954 513d 9756 543d eb33 6dbd 9041 6abd
00000060: 2771 a43d d422 ea3d d3a8 6abd 9648 6dbd
00000070: b95a b4bd 9924 00be 6920 3f3d 957f 433d

layer1.0.bn.running_mean f4 [32]
0.2385283 -0.39534032 -0.86309385 -0.16366032 -0.49093142 -1.4394069 -0.52347416 -0.08243634
-1.1735435 -0.040923942 -0.32014346 -0.9258219 -0.22807467 -0.90605265 -0.5697999 -0.56267697
-0.12751488 0.62394536 -2.0224707 0.4782307 -1.703506 -0.6656126 -0.5652485 -0.69141185
2.0076182 -0.29150686 -0.31210932 -0.93290645 -0.4987555 -0.9618366 -0.8422987 -1.5030366
00000000: c340 743e 0c6a cabe b8f3 5cbf 9296 27be
00000010: 5d5b fbbe 7c3e b8bf 6702 06bf 62d4 a8bd
00000020: ac36 96bf dd9f 27bd d8e9 a3be aa02 6dbf
00000030: 688c 69be 11f3 67bf 68de 11bf 990b 10bf
00000040: 4393 02be e2ba 1f3f 2970 01c0 a8da f43e
00000050: 7c0c dabf 9665 2abf 20b4 10bf 5e00 31bf
00000060: d17c 0040 6340 95be cbcc 9fbe f5d2 6ebf
00000070: e25c ffbe ec3a 76bf e3a0 57bf 8163 c0bf

layer1.0.bn.running_var f4 [32]
1.2038583 2.3559866 1.7423162 1.9595001 2.5348465 2.605256 1.7513945 3.2846243
1.7137933 2.1975706 2.8464997 5.4108686 1.3183109 2.3038814 1.8353246 1.9995041
1.7253226 2.3982673 4.3328524 1.9948378 3.3196564 4.391417 2.7486238 1.8377898
3.732758 1.4694089 1.9500811 2.1186922 1.3903558 3.4047904 2.2451162 3.5784273
00000000: 0718 9a3f 7cc8 1640 3804 df3f e6d0 fa3f
00000010: ed3a 2240 84bc 2640 b22d e03f 4937 5240
00000020: 945d db3f ffa4 0c40 0d2d 3640 d625 ad40
00000030: 69be a83f cb72 1340 ebeb ea3f c0ef ff3f
00000040: 5fd7 dc3f 367d 1940 baa6 8a40 d856 ff3f
00000050: 4075 5440 7d86 8c40 74e9 2f40 b23c eb3f
00000060: 82e5 6e40 9715 bc3f 429c f93f a798 0740
00000070: 2ef7 b13f 16e8 5940 fcaf 0f40 f404 6540

layer1.0.downsample.0.weight f4 [32, 16, 1, 1]
-0.30116677 -0.27504888 -0.17908765 0.12501907 0.1268523 -0.35648465 0.0006999438 -0.22097172
0.0013170193 -0.14742164 -0.1540859 -0.15848507 -0.31107038 0.07676221 -0.21094643 0.21518779
-0.17980996 0.3413255 0.028566724 0.23842533 -0.46401733 -0.10730007 -0.008592891 -0.13018683
0.024980592 -0.29553837 0.1521726 -0.024716327 0.11436535 0.29202926 0.003189318 -0.15757483
-0.24661422 -0.16508451 0.07025135 -0.02210337 -0.07143391 -0.07382563 -0.26302725 0.00012967584
0.043352768 -0.32329026 0.002186185 0.061136924 0.14888765 0.21913968 -0.030949583 -0.4181762
-0.1534065 0.04627833 -0.13591038 0.015869519 0.22295924 -0.4017615 0.013765117 0.05240728
0.010461473 0.1255988 -0.27242166 -0.2305366 0.16336958 -0.013896144 -0.27932423 -0.00792423
0.15485364 0.0032349585 0.15420988 -0.2517424 -0.33895284 0.1981968 -0.063747786 -0.044564065
0.0878627 0.2503079 -0.14891458 -0.2320961 -0.00019016437 -0.079663366 0.025327673 0.17986956
-0.08653819 0.06996576 -0.16887513 -0.103014305 -0.18445216 -0.015162167 -0.26150882 -0.2707808
0.17595068 0.13105479 0.05492618 0.11019548 -0.16389921 0.20651002 -0.2717555 -0.29847273
-0.20923527 0.10423887 0.30946293 0.11949385 0.34115884 -0.100830786 -0.12311546 0.080234595
0.11332122 0.3790866 0.16004637 0.22626825 -0.1525501 -0.314457 0.1218134 0.0063031823
0.04801723 -0.38975507 -0.2013211 0.18792568 -0.12305855 -0.238705 0.030599585 -0.23391543
-0.16131088 -0.18572439 0.36442485 0.23999892 0.03675178 -0.08719519 0.11915046 0.11983739
0.07069518 0.08427864 -0.018009678 -0.40117455 0.23486066 -0.23434578 0.3175574 -0.20149912
0.06477251 0.14981718 0.039862182 0.044173088 -0.027228247 0.16224153 0.17243168 0.03230526
0.3298505 0.057633027 0.16414328 0.033724606 -0.33215582 0.13707568 0.22058259 0.040967837
-0.017743051 0.02834843 0.11532296 0.2429452 0.10589989 -0.11045542 0.184352 0.1117765
-0.21181768 -0.14292894 0.22746861 -0.09489973 -0.19551305 -0.04865943 0.042086914 0.013897569
-0.46523798 -0.010829565 -0.16126293 0.03359368 -0.00853121 -0.16492511 -0.18756077 -0.2462973
-0.077290565 -0.18375419 -0.022027418 -0.42896682 -0.28319004 0.25315115 0.023583312 -0.22403361
-0.08816849 -0.08131805 0.07713722 0.16440934 0.025986612 -0.15297014 -0.018129488 -0.21108955
0.22642638 -0.36809507 -0.02763309 -0.26028433 -0.10090776 0.29366288 0.017177239 -0.026208939
-0.13181096 -0.19858569 0.020678747 -0.09473494 0.19458127 0.011777167 0.023359105 0.09951884
0.3836507 0.09314292 -0.067094386 0.13846757 -0.010062352 0.0006661671 0.34032077 -0.008332426
-0.28969407 -0.31017083 0.088407554 0.040000975 -0.045720845 0.17445591 -0.09368735 0.014950633
-0.20722258 -0.4046347 -0.21606313 -0.03865872 0.10815771 -0.27728578 -0.102899976 0.2771704
-0.095314525 -0.26885146 0.0015897348 -0.12479033 -0.08193887 -0.2537592 0.03778491 0.038096823
0.10433839 0.14347354 0.05994338 0.24755663 -0.3540922 -0.12528637 -0.061021943 0.17318736
-0.397723 -0.08341669 -0.27000225 -0.1058303 -0.26532757 0.24171284 0.11176972 0.18408453
00000000: 8832 9abe 35d3 8cbe c162 37be 0005 003e
00000010: 92e5 013e 2885 b6be 6f7c 373a 6946 62be
00000020: d69f ac3a b3f5 16be b2c8 1dbe e949 22be
00000030: 9e44 9fbe 8135 9d3d 5702 58be 305a 5c3e
00000040: 1a20 38be 37c2 ae3e c304 ea3c c525 743e
00000050: ae93 edbe 24c0 dbbd 32c9 0cbc b24f 05be
00000060: 19a4 cc3c ce50 97be 22d3 1b3e e579 cabc
00000070: 6138 ea3d dc84 953e e103 513b 4c5b 21be
00000080: 7088 7cbe ea0b 29be f1df 8f3d 2012 b5bc
00000090: f14b 92bd e431 97bd 82ab 86be 98f9 0739
000000a0: ac92 313d 4d86 a5be 1946 0f3b b66a 7a3d
000000b0: 0176 183e 2766 603e fb89 fdbc 311b d6be
000000c0: 9816 1dbe 598e 3d3d 172c 0bbe cb00 823c
000000d0: 6d4f 643e afb3 cdbe 1687 613c 04a9 563d
000000e0: 9966 2b3c f99c 003e da7a 8bbe c911 6cbe
000000f0: 5b4a 273e a7ac 63bc 9603 8fbe a1d4 01bc
00000100: f491 1e3e 9901 543b 32e9 1d3e 61e4 80be
00000110: 3a8b adbe 1af4 4a3e 338e 82bd cf88 36bd
00000120: 5cf1 b33d 5b28 803e 107d 18be 9aaa 6dbe
00000130: dc66 47b9 8c26 a3bd fb7b cf3c ba2f 383e
00000140: ef3a b1bd 354a 8f3d 9aed 2cbe 2af9 d2bd
00000150: 07e1 3cbe bd6a 78bc 7ce4 85be c8a3 8abe
00000160: 6a2c 343e 3a33 063e 46fa 603d 2bae e13d
00000170: 32d5 27be 5d77 533e 8923 8bbe 6bd1 98be
00000180: c541 56be 307b d53d ed71 9e3e 31b9 f43d
00000190: 5fac ae3e 5f80 cebd f523 fcbd 0952 a43d
000001a0: f514 e83d a417 c23e 32e3 233e ddb2 673e
000001b0: 1836 1cbe 8200 a1be 4e79 f93d ed8a ce3b
000001c0: b7ad 443d fa8d c7be 1e27 4ebe 976f 403e
000001d0: 1f06 fcbd 156f 74be fbab fa3c 8787 6fbe
000001e0: ae2e 25be 892e 3ebe e595 ba3e 47c2 753e
000001f0: 0989 163d 6493 b2bd 2805 f43d 4e6d f53d
00000200: a2c8 903d 489a ac3d 0889 93bc c066 cdbe
00000210: 507f 703e 57f8 6fbe e296 a23e c955 4ebe
00000220: 73a7 843d ad69 193e 8746 233d d7ee 343d
00000230: c60d dfbc a522 263e ee91 303e 8552 043d
00000240: 2ae2 a83e 9c10 6c3d 2d15 283e d022 0a3d
00000250: 5410 aabe 915d 0c3e 67e0 613e e4cd 273d
00000260: e059 91bc f73a e83c 722e ec3d a0c6 783e
00000270: 0be2 d83d 7436 e2bd c5c6 3c3e 14eb e43d
00000280: bce6 58be f75b 12be 88ed 683e ca5a c2bd
00000290: 9334 48be 1c4f 47bd 5463 2c3d a1b2 633c
000002a0: ac33 eebe 7d6e 31bc 1c22 25be 8799 093d
000002b0: 7dc6 0bbc 21e2 28be ee0f 40be 5c35 7cbe
000002c0: 844a 9ebd 0f2a 3cbe d872 b4bc 8aa1 dbbe
000002d0: 49fe 90be 079d 813e ca31 c13c 1169 65be
000002e0: ae91 b4bd 148a a6bd 1efa 9d3d ec5a 283e
000002f0: e0e1 d43c 34a4 1cbe 4b84 94bc dc27 58be
00000300: 51dc 673e f576 bcbe ca5e e2bc fd43 85be
00000310: baa8 cebd fb5a 963e 48b7 8c3c 21b4 d6bc
00000320: 74f9 06be 0c5a 4bbe 7a66 a93c 6404 c2bd
00000330: 5040 473e 05f5 403c 985b bf3c 89d0 cb3d
00000340: dd6d c43e b7c1 be3d c868 89bd 71ca 0d3e
00000350: 90dc 24bc b8a1 2e3a 863e ae3e ba84 08bc
00000360: c852 94be b6ce 9ebe 050f b53d 10d8 233d
00000370: c845 3bbd 92a4 323e 27df bfbd 80f3 743c
00000380: 2832 54be 482c cfbe a73f 5dbe 9b58 1ebd
00000390: ca81 dd3d 67f8 8dbe 39bd d2bd 47e9 8d3e
000003a0: 4334 c3bd e6a6 89be a65e d03a 1392 ffbd
000003b0: 91cf a7bd baec 81be 5ac4 1a3d 6a0b 1c3d
000003c0: 5eaf d53d baea 123e 3187 753d 7c7f 7d3e
000003d0: 934b b5be 124b 00be 25f2 79bd 0758 313e
000003e0: 59a2 cbbe 5fd6 aabd bc3d 8abe 8ebd d8bd
000003f0: 04d9 87be 9283 773e 86e7 e43d a880 3c3e

layer1.0.downsample.1.weight f4 [32]
0.6765281 0.5017205 0.71364987 0.735339 0.5529217 0.64899856 0.5944032 0.811516
0.7277491 0.7547873 0.7133516 0.79918844 0.70175594 0.69619364 0.6425521 0.792749
0.6260747 0.7835547 0.6756286 0.5983381 0.84847295 0.83890694 0.78849286 0.7676722
0.7567396 0.69915813 0.79256964 0.69307387 0.77656454 0.7438386 0.59701264 0.81397694
00000000: f230 2d3f c170 003f c2b1 363f 2d3f 3c3f
00000010: 478c 0d3f c524 263f cf2a 183f 83bf 4f3f
00000020: c44d 3a3f be39 413f 369e 363f 9d97 4c3f
00000030: 47a6 333f bf39 323f 4b7e 243f 99f1 4a3f
00000040: 6e46 203f 0a97 483f fff5 2c3f b02c 193f
00000050: 8635 593f 9bc2 563f abda 493f 2a86 443f
00000060: b0b9 413f 07fc 323f d8e5 4a3f 4a6d 313f
00000070: efcc 463f 356c 3e3f d2d5 183f cb60 503f

layer1.0.downsample.1.bias f4 [32]
-0.13538891 -0.22652985 -0.027275946 -0.22902176 -0.21066973 -0.16617538 -0.03937925 -0.17302528
-0.07416768 0.055868935 0.029569095 -0.14478296 -0.24398191 -0.26570734 -0.16327164 -0.07219367
0.021019649 -0.14671974 -0.2649489 0.13295081 -0.11339765 0.11341383 -0.061795242 -0.18498291
-0.062110618 -0.22301713 -0.2378764 -0.15228274 -0.041482493 -0.020819146 -0.088974066 -0.14857835
00000000: 64a3 0abe 71f7 67be ce71 dfbc ae84 6abe
00000010: ceb9 57be e129 2abe 234c 21bd 8a2d 31be
00000020: 3ae5 97bd d3d6 643d e33a f23c fc41 14be
00000030: 65d6 79be cb0a 88be ae30 27be 46da 93bd
00000040: 6631 ac3c b33d 16be 62a7 87be 4224 083e
00000050: 073d e8bd 8345 e83d 021d 7dbd 296c 3dbe
00000060: b467 7ebd 9a5e 64be df95 73be 02f0 1bbe
00000070: 8ce9 29bd ea8c aabc 0938 b6bd ec24 18be

layer1.0.downsample.1.running_mean f4 [32]
-1.0258356 -0.09598249 -0.690147 -0.49986255 0.07079719 -0.7133711 0.71901053 -0.40318006
0.27839807 0.82545954 -1.0060705 -0.8071975 -0.25320292 0.1068842 -1.007001 -0.118095316
-0.40062824 -0.4179394 -0.71796596 -0.8309346 -1.131673 0.25739747 -0.3488723 -0.20426576
-1.5993419 -0.4195111 -0.39143115 0.5358487 0.41945633 -0.24529941 -0.14945564 -0.7970789
00000000: 954e 83bf 7892 c4bd 79ad 30bf fced ffbe
00000010: 1efe 903d 7d9f 36bf 1311 383f 9e6d cebe
00000020: 318a 8e3e 5151 533f ebc6 80bf 7fa4 4ebf
00000030: d0a3 81be 1ae6 da3d 69e5 80bf f5db f1bd
00000040: 251f cdbe 27fc d5be 9ecc 37bf 21b8 54bf
00000050: a9da 90bf 9ac9 833e 649f b2be 0b2b 51be
00000060: 3cb7 ccbf 29ca d6be aa69 c8be 612d 093f
00000070: fbc2 d63e c52f 7bbe e60a 19be 5d0d 4cbf

layer1.0.downsample.1.running_var f4 [32]
0.49587238 0.6302393 0.37240607 0.26808533 0.3123879 0.4468757 0.47769833 0.40258485
0.28130478 0.32031325 0.3785346 0.4963547 0.21948636 0.4703515 0.703148 0.5894381
0.27586395 0.42122465 0.5851035 0.6553382 0.75190043 0.4106516 0.39438984 0.2916085
0.94895315 0.29226765 0.3366214 0.5436198 0.46318886 0.28223193 0.3367979 0.7218193
00000000: fce2 fd3e 5d57 213f 02ac be3e 7b42 893e
00000010: 4ff1 9f3e e4cc e43e e094 f43e 9a1f ce3e
00000020: 2e07 903e 1900 a43e 49cf c13e 3422 fe3e
00000030: 08c1 603e e9d1 f03e 8201 343f 6ae5 163f
00000040: 0a3e 8d3e c2aa d73e 58c9 153f 3fc4 273f
00000050: 8c7c 403f ed40 d23e 77ed c93e b64d 953e
00000060: 98ee 723f 1ba4 953e a459 ac3e ab2a 0b3f
00000070: 1727 ed3e b480 903e c670 ac3e 26c9 383f

layer1.1.conv.weight f4 [32, 32, 3, 3]
-0.07363377 -0.022172978 0.19706443 0.0891431 -0.22392096 0.11592815 -0.012198034 0.08148655
-0.21747157 0.027617885 -0.0992379 -0.15926573 0.10321964 -0.13799168 0.14223835 -0.03225711
-0.041439492 0.22945577 -0.046473976 -0.040527377 0.015340832 -0.014010384 -0.103669725 0.101828255
0.21244784 0.054945976 -0.008348625 -0.16789068 -0.003298235 0.06880889 -0.10063296 -0.12865324
0.18497172 -0.059660744 -0.112169676 -0.06808132 -0.051200397 -0.27205968 0.00651254 -0.026753759
0.062823795 -0.03072747 0.036687765 0.111635014 0.21837595 -0.050124984 0.02696204 -0.069229074
-0.096281655 -0.14054465 -0.09793721 0.06308488 -0.11156568 0.06435519 0.12472582 0.022489104
-0.025987977 0.10790227 -0.10681641 -0.13728331 0.07800311 0.015525328 -0.107623376 0.10984198
0.18325283 -0.11284341 0.00761635 0.015829569 -0.042723242 -0.08787777 -0.13215761 0.11193874
-0.09126396 -0.036334164 0.1467054 -0.05225923 0.016554369 -0.061611824 -0.12092369 0.22930932
0.10716262 -0.047428407 -0.12511602 0.12115063 0.064423114 -0.037329163 -0.020126017 -0.02623082
0.048214592 -0.075095914 0.15395716 0.16841634 0.057920694 0.11313036 0.058816858 -0.05067374
0.0939002 0.021269832 -0.105991095 0.06618085 -0.04117859 -0.20127212 0.03628866 0.13229802
-0.015801212 -0.040256992 -0.093789324 0.09523502 -0.016470155 0.05627003 0.3175886 -0.05323631
0.021060815 0.12347579 -0.15106694 -0.08532344 0.017652016 0.048705593 0.050337397 0.16582243
0.06941948 0.24368261 0.10099181 -0.0030149075 0.14830971 -0.036828455 0.17417437 -0.14869452
0.115674034 -0.033956826 -0.18156882 0.059800733 -0.045165572 -0.11218709 0.12342271 -0.031358995
-0.38015807 0.016710887 -0.03681658 -0.0763082 -0.07816853 0.011314126 -0.08688289 0.10693618
0.09083826 -0.037715442 -0.079872064 0.09588773 -0.03651552 -0.26372743 0.14710549 0.087173976
0.10293598 -0.016121315 0.015140298 0.15056734 0.022263141 0.104396135 0.11388691 -0.1477797
-0.12145664 0.22857563 -0.17827605 -0.026156953 -0.00094741955 -0.17346975 -0.25960356 0.045507435
0.16355196 -0.21656491 -0.081658915 0.041537393 0.07126268 -0.016966103 0.057200704 0.043494374
-0.004633771 -0.011068184 0.100811 0.08532491 -0.013966109 -0.042359833 -0.15504117 -0.119486034
-0.1548338 0.0069092484 -0.04476635 -0.29802892 0.117818035 0.012940503 -0.022239003 0.13335273
-0.16495642 -0.12557283 -0.025459627 0.0861588 -0.020794466 -0.13592918 0.12377601 -0.07048169
0.034079418 0.04971924 0.03201354 -0.2511487 -0.049379513 0.15042953 -0.07972404 -0.05745338
-0.19352953 0.06569866 0.019310635 -0.4143852 -0.086645305 0.06713169 0.02516481 -0.16243884
0.05756565 -0.068169594 0.01156478 0.0017191514 -0.04396754 0.028743502 0.21081054 -0.119954176
0.018150551 -0.059011973 0.0426611 0.039483204 0.04019274 0.1476512 -0.03476565 0.0962556
0.10475755 0.10433374 -0.11062114 0.13274193 0.13875459 0.0134093575 0.02785499 0.16154969
-0.04699221 -0.047167048 0.2040635 0.013160893 0.018823026 0.109110445 -0.20748805 -0.084482834
0.052129287 -0.031119728 -0.22073768 0.028940065 -0.049309373 0.04213539 -0.0023234517 0.02861558
00000000: 4dcd 96bd 1ba4 b5bc 42cb 493e a890 b63d
00000010: 894b 65be bd6b ed3d 43da 47bc 6ce2 a63d
00000020: deb0 5ebe e73e e23c 3d3d cbbd 8e16 23be
00000030: d264 d33d b14d 0dbe eea6 113e 0820 04bd
00000040: 75bc 29bd 74f6 6a3e 7f5b 3ebd 0900 26bd
00000050: 1d58 7b3c cf8b 65bc cb50 d4bd 558b d03d
00000060: ed8b 593e 080f 613d acc8 08bc 89eb 2bbe
00000070: 3327 58bb adeb 8c3d a718 cebd adbd 03be
00000080: 3a69 3d3e d35e 74bd 37b9 e5bd 386e 8bbd
00000090: 82b7 51bd 684b 8bbe 2567 d53b b32a dbbc
000000a0: c3a9 803d 2db8 fbbc e945 163d e6a0 e43d
000000b0: f29d 5f3e db4f 4dbd 7fdf dc3c f9c7 8dbd
000000c0: 512f c5bd f0ea 0fbe 4e93 c8bd a532 813d
000000d0: 8c7c e4bd a7cc 833d 4070 ff3d 123b b83c
000000e0: bde4 d4bc defb dc3d 90c2 dabd ff93 0cbe
000000f0: 18c0 9f3d f25d 7e3c a569 dcbd d5f4 e03d
00000100: a1a6 3b3e 721a e7bd 9392 f93b 03ad 813c
00000110: 91fe 2ebd 43f9 b3bd 5354 07be 2340 e53d
00000120: 99e8 babd 22d3 14bd f139 163e c60d 56bd
00000130: 079d 873c ae5c 7cbd d7a6 f7bd 10d0 6a3e
00000140: 1378 db3d 4a44 42bd 6a1e 00be d21d f83d
00000150: 44f0 833d 77e6 18bd 51df a4bc 04e2 d6bc
00000160: aa7c 453d e3cb 99bd f2a6 1d3e 5575 2c3e
00000170: 403e 6d3d e4b0 e73d f2e9 703d 458f 4fbd
00000180: c04e c03d 123e ae3c dc11 d9bd d389 873d
00000190: e2aa 28bd 471a 4ebe 6ba3 143d 2279 073e
000001a0: 8b71 81bc 84e4 24bd 9e14 c0bd 940a c33d
000001b0: 6bec 86bc 677b 663d f99a a23e 510e 5abd
000001c0: bb87 ac3c e0e0 fc3d 4bb1 1abe 0ebe aebd
000001d0: f69a 903c 847f 473d 962e 4e3d 5bcd 293e
000001e0: cd2b 8e3d ef87 793e cbd4 ce3d c195 45bb
000001f0: 80de 173e 6fd9 16bd c45a 323e 6043 18be
00000200: 82e6 ec3d 5016 0bbd 2ded 39be 9df1 743d
00000210: 89ff 38bd 58c2 e5bd 0cc5 fc3d 4a72 00bd
00000220: 14a4 c2be 45e5 883c fbcc 16bd 7947 9cbd
00000230: d216 a0bd e25e 393c a8ef b1bd 5b01 db3d
00000240: 6909 ba3d 827b 1abd f793 a3bd c960 c43d
00000250: 4c91 15bd 4807 87be d2a2 163e 4588 b23d
00000260: 19d0 d23d d910 84bc 030f 783c 532e 1a3e
00000270: 3161 b63c a4cd d53d 8a3d e93d 9053 17be
00000280: 42be f8bd bb0f 6a3e ff8d 36be 1b47 d6bc
00000290: 405c 78ba 0ea2 31be c2ea 84be 0166 3a3d
000002a0: 2a7a 273e 31c3 5dbe ca3c a7bd 1d23 2a3d
000002b0: 2bf2 913d 7ffc 8abc 494b 6a3d 2827 323d
000002c0: e3d6 97bb 5457 35bc ff75 ce3d d4be ae3d
000002d0: 1bd2 64bc 8181 2dbd 1dc3 1ebe 18b5 f4bd
000002e0: c08c 1ebe fa66 e23b ec5c 37bd 3f97 98be
000002f0: 954a f13d 6704 543c 922e b6bc 9e8d 083e
00000300: 56ea 28be 2a96 00be b590 d0bc 0674 b03d
00000310: 2859 aabc 0531 0bbe 477e fd3d b458 90bd
00000320: dc96 0b3d 67a6 4b3d a120 033d 9096 80be
00000330: 2c42 4abd 330a 1a3e 5c46 a3bd 3c54 6bbd
00000340: 9b2c 46be 058d 863d 5631 9e3c 4c2a d4be
00000350: 1873 b1bd 577c 893d 6e26 ce3c 5e56 26be
00000360: f6c9 6b3d 809c 8bbd 347a 3d3c 2655 e13a
00000370: 4f17 34bd 7e77 eb3c b8de 573e 89aa f5bd
00000380: 77b0 943c 8ab6 71bd 68bd 2e3d 24b9 213d
00000390: 24a1 243d e031 173e 6d66 0ebd a821 c53d
000003a0: 208b d63d eeac d53d 568d e2bd 80ed 073e
000003b0: af15 0e3e ecb2 5b3c 2630 e43c 486d 253e
000003c0: e77a 40bd 3c32 41bd 06f6 503e c9a0 573c
000003d0: bf32 9a3c 4c75 df3d bf77 54be 5605 adbd
000003e0: 8585 553d cdee febc 0f09 62be b713 ed3c
000003f0: a0f8 49bd 2996 2c3d 0d45 18bb 396b ea3c

layer1.1.bn.weight f4 [32]
1.225639 1.398188 1.2604424 1.3796201 1.4562978 1.3208302 1.341635 1.1893041
1.4493692 1.344621 1.0280612 1.302196 1.3275892 1.444064 1.2455474 1.5125026
1.3936965 1.3942602 1.4006904 1.2597191 1.3670709 1.4542122 1.2840043 1.430168
1.1426439 1.4623924 1.3782936 1.3016764 1.1803392 1.2535254 1.1933124 1.2506762
00000000: bde1 9c3f d3f7 b23f 2d56 a13f 6497 b03f
00000010: f767 ba3f f710 a93f b2ba ab3f 1e3b 983f
00000020: ee84 b93f 8a1c ac3f 8297 833f 5cae a63f
00000030: 71ee a93f 17d7 b83f 196e 9f3f af99 c13f
00000040: a664 b23f 1e77 b23f d349 b33f 7a3e a13f
00000050: 2efc ae3f a023 ba3f 415a a43f bf0f b73f
00000060: 2842 923f ad2f bb3f ed6b b03f 559d a63f
00000070: 5b15 973f 8573 a03f 76be 983f 2816 a03f

layer1.1.bn.bias f4 [32]
-0.14264555 -0.2837339 -0.04765534 -0.06914336 -0.056529846 -0.2195044 -0.14745003 0.03386455
-0.35772565 -0.3266313 -0.30100015 -0.22671278 0.06786776 -0.18873477 -0.054023 -0.11500013
-0.06203519 -0.05958819 -0.15639886 -0.21338746 -0.41340506 -0.07032525 -0.23805802 -0.074824385
0.015822973 -0.12313255 -0.15774275 -0.22339769 -0.23347749 0.15060237 -0.20017396 -0.12469603
00000000: ad11 12be 9245 91be 3f32 43bd 099b 8dbd
00000010: d78b 67bd c3c5 60be 24fd 16be 8eb5 0a3d
00000020: d127 b7be 383c a7be b11c 9abe 6527 68be
00000030: 41fe 8a3d b043 41be 3947 5dbd 3085 ebbd
00000040: 9d18 7ebd bf12 74bd 0627 20be 3e82 5abe
00000050: d4a9 d3be af06 90bd 7bc5 73be 873d 99bd
00000060: 2e9f 813c eb2c fcbd 5187 21be 5dc2 64be
00000070: b914 6fbe 8237 1a3e 67fa 4cbe a260 ffbd

layer1.1.bn.running_mean f4 [32]
-0.6167668 -0.44057128 -1.1576294 -2.4550588 -1.0442883 -1.3169183 -3.059083 -0.17171572
-0.8912682 -2.779598 -0.5142356 -2.0325315 0.14764573 -1.9362361 0.31495327 0.6262554
-2.437792 -2.217092 -1.5195876 -1.5523696 -0.06815627 -4.313702 -1.0528291 -0.27992263
-1.808866 -0.8865163 -1.6274552 -0.73064953 -1.696189 -1.0827726 -4.7317286 -1.1546263
00000000: 6ee4 1dbf 8f92 e1be 332d 94bf af1f 1dc0
00000010: 3dab 85bf c790 a8bf 04c8 43c0 3fd6 2fbe
00000020: 272a 64bf efe4 31c0 f2a4 03bf ff14 02c0
00000030: 7130 173e 96d6 f7bf 8e41 a13e 4652 203f
00000040: c904 1cc0 d6e4 0dc0 d981 c2bf 0cb4 c6bf
00000050: 8495 8bbd d909 8ac0 1bc3 86bf 0552 8fbe
00000060: ec88 e7bf bbf2 62bf 7450 d0bf d90b 3bbf
00000070: b91c d9bf 4b98 8abf 526a 97c0 cbca 93bf

layer1.1.bn.running_var f4 [32]
2.4073968 2.9828446 2.0883436 2.7972038 3.4124231 2.6495237 2.4814818 1.917087
1.7232374 2.6949055 2.2630968 3.2048404 2.3410769 2.2728772 2.9405804 2.276613
3.0369356 2.884109 3.5875201 2.4562283 2.8450236 5.035857 2.2940133 2.660882
2.4101899 2.8288355 2.2269318 2.0758522 2.4197197 2.6302488 2.9391162 4.1853366
00000000: ca12 1a40 ede6 3e40 6ca7 0540 6305 3340
00000010: 2465 5a40 cc91 2940 99d0 1e40 1b63 f53f
00000020: 0b93 dc3f 5579 2c40 94d6 1040 1b1c 4d40
00000030: 34d4 1540 d276 1140 7832 3c40 07b4 1140
00000040: 275d 4240 3e95 3840 ee99 6540 d832 1d40
00000050: de14 3640 be25 a140 1dd1 1240 e44b 2a40
00000060: 8d40 1a40 a40b 3540 0d86 0e40 c3da 0440
00000070: b0dc 1a40 ff55 2840 7b1a 3c40 47ee 8540

layer2.0.conv.weight f4 [64, 32, 3, 3]
-0.11902604 -0.112870544 -0.16633444 -0.14843376 -0.10989943 -0.20716678 -0.060001966 0.20680009
0.023560166 0.08190334 0.2721748 0.21855864 -0.044353813 -0.09180884 -0.03881441 0.06914975
-0.2676848 -0.31114998 0.15557598 0.10711167 0.06703791 -0.16361035 0.016838124 -0.040547688
0.07319401 -0.0051463787 -0.10536626 -0.2919248 -0.09164032 -0.055704903 0.01311939 -0.012459443
-0.077785544 -0.0073864143 -0.04479872 -0.00842079 -0.09894481 -0.055670667 -0.2051348 -0.1276413
-0.032607023 -0.16623545 0.0070099863 0.054660026 -0.038522445 0.039409332 -0.07189907 -0.044959407
-0.035307653 -0.20281069 -0.08649811 -0.17663501 -0.024846535 -0.06355285 0.018373255 -0.029515022
0.1819631 -0.10821064 0.033808928 0.0065349652 0.009436155 -0.010536296 -0.02981591 0.018400513
-0.0015978479 -0.14678343 0.01768586 0.12937981 -0.008678111 0.095438614 -0.046804346 -0.039272718
0.085835725 0.04426151 -0.14560422 -0.06418884 0.17020619 -0.02897431 0.054003958 0.067087196
0.01979666 0.012374706 0.32312816 0.15636626 -0.10326858 0.02929003 -0.24851246 -0.117379665
-0.031965416 -0.013195881 0.23040722 0.13630839 0.19748169 -0.004847241 -0.17203595 -0.118030004
0.16304198 0.052324414 0.046162035 0.21384908 0.06618859 -0.009305799 -0.13691235 -0.0208606
0.00960389 0.26685888 0.1162362 0.08043075 0.026891803 0.0645556 -0.04146948 -0.107373334
0.059223313 -0.15342103 -0.021554051 -0.056840107 0.08356714 0.032022085 0.041101947 -0.16437645
-0.05305468 -0.17800072 -0.17878996 -0.060251083 0.10310023 -0.11177266 -0.05115154 -0.060740612
0.15920523 0.0990197 0.011471254 0.24007057 0.20732222 0.03847102 0.08046938 -0.052625764
-0.039582934 -0.064524114 0.16882806 -0.0032207712 0.09050712 -0.1405566 -0.16478314 -0.08716568
-0.12702958 -0.31892443 -0.032993734 -0.06412116 0.106858686 0.07277271 0.087294474 0.037045375
0.0138875265 0.116219275 0.00936396 -0.199087 0.115692355 -0.06828945 -0.09607565 0.36166808
0.13710336 0.056933697 0.003157506 0.018644422 -0.07335651 -0.09001475 -0.06807461 -0.07248496
0.10434442 0.03173993 0.030166194 0.027070722 0.11368727 -0.17188624 -0.21269368 -0.05309878
-0.008833227 -0.17580684 -0.3405495 -0.23801327 0.03609409 0.038086005 0.07855335 0.22148494
-0.05511767 0.31391618 0.08704926 0.11541144 0.14308587 0.14870633 0.015537468 0.12107477
0.06847878 0.09361006 -0.08634821 0.17287508 0.17929015 -0.08840165 0.052770868 0.20808834
0.1694462 0.026640318 0.016829422 -0.006370189 0.13497502 -0.019055612 0.041179597 0.07560655
-0.0714842 0.014528436 -0.09550899 -0.06415413 -0.04277203 0.06976359 0.0339767 -0.060492717
-0.20243204 0.017925426 -0.1704271 -0.03052186 0.050234914 -0.0996935 0.22586082 -0.109882765
-0.0053629526 -0.4010747 -0.04386663 -0.2507115 -0.36443794 -0.15800685 -0.050745495 0.20524012
0.24477893 0.020980623 0.1077324 -0.07509443 -0.016362919 0.016980013 -0.07759233 0.044509582
0.08353809 0.29973873 0.21025936 0.01669078 0.016586348 -0.20273653 -0.22001441 -0.11977584
-0.14519465 0.0761399 0.04921093 0.069875255 -0.017660113 -0.03435996 0.06788361 -0.06341842
00000000: edc3 f3bd ac28 e7bd 9353 2abe 05ff 17be
00000010: f412 e1bd 8723 54be 9fc4 75bd 67c3 533e
00000020: 4001 c13c f0bc a73d 7f5a 8b3e d6cd 5f3e
00000030: 58ac 35bd 4606 bcbd dcfb 1ebd 629e 8d3d
00000040: fb0d 89be 0d4f 9fbe 4f4f 1f3e 5d5d db3d
00000050: 2c4b 893d 7989 27be 1bf0 893c 5515 26bd
00000060: bee6 953d f4a2 a8bb 44ca d7bd 2b77 95be
00000070: ecad bbbd d32a 64bd b6f2 563c b122 4cbc
00000080: 074e 9fbd bc09 f2bb dd7e 37bd 5af7 09bc
00000090: 94a3 cabd ed06 64bd db0e 52be 67b4 02be
000000a0: f18e 05bd a039 2abe 07b4 e53b 31e3 5f3d
000000b0: b6c9 1dbd ae6b 213d d23f 93bd 5b27 38bd
000000c0: c29e 10bd 9bad 4fbe ec25 b1bd cfdf 34be
000000d0: f68a cbbc ff27 82bd 8283 963c 7dc9 f1bc
000000e0: 8954 3a3e 8a9d ddbd 3b7b 0a3d 4323 d63b
000000f0: 1a9a 1a3c 6ea0 2cbc 7f40 f4bc acbc 963c
00000100: e16e d1ba 654e 16be f0e1 903c 247c 043e
00000110: a32e 0ebc 5275 c33d eab5 3fbd 6edc 20bd
00000120: a4ca af3d 8f4b 353d 4619 15be 7075 83bd
00000130: 884a 2e3e 885b edbc 4133 5d3d 0365 893d
00000140: 9b2c a23c 47bf 4a3c 0e71 a53e 7a1e 203e
00000150: 7a7e d3bd a5f1 ef3c 0d7a 7ebe c064 f0bd
00000160: 2bee 02bd 8933 58bc dfef 6b3e 6d94 0b3e
00000170: a438 4a3e 9bd5 9ebb 312a 30be b7b9 f1bd
00000180: 7af4 263e 2052 563d 6714 3d3d 41fb 5a3e
00000190: e28d 873d 5a77 18bc c032 0cbe d9e3 aabc
000001a0: a259 1d3c baa1 883e 3f0d ee3d e1b8 a43d
000001b0: 334c dc3c ba35 843d e7db 29bd 8de6 dbbd
000001c0: 2594 723d 671a 1dbe 1f92 b0bc 2cd1 68bd
000001d0: 4025 ab3d 9729 033d 845a 283d 4d52 28be
000001e0: dd4f 59bd d245 36be b714 37be d7c9 76bd
000001f0: 3726 d33d 10e9 e4bd 4784 51bd 26cb 78bd
00000200: b206 233e d7ca ca3d edf1 3b3c 0fd5 753e
00000210: 474c 543e ca93 1d3d 21cd a43d 1d8e 57bd
00000220: b721 22bd 3825 84bd 43e1 2c3e 9313 53bb
00000230: cc5b b93d 12ee 0fbe e9bc 28be ec83 b2bd
00000240: 0b14 02be 104a a3be 7024 07bd f451 83bd
00000250: bad8 da3d dc09 953d 72c7 b23d e4bc 173d
00000260: 8288 633c 5f04 ee3d 4b6b 193c 76dd 4bbe
00000270: 1df0 ec3d 57db 8bbd 4fc3 c4bd 8f2c b93e
00000280: d364 0c3e 4f33 693d 29ee 4e3b 30bc 983c
00000290: f03b 96bd a759 b8bd b36a 8bbd ff72 94bd
000002a0: 87b2 d53d bb01 023d 181f f73c 6bc3 dd3c
000002b0: dfd4 e83d f202 30be 5fcc 59be 1b7e 59bd
000002c0: 3db9 10bc b506 34be 815c aebe c0b9 73be
000002d0: 66d7 133d 1200 1c3d 94e0 a03d f3cc 623e
000002e0: 11c3 61bd 9fb9 a03e e246 b23d d55c ec3d
000002f0: 1a85 123e 7946 183e dd90 7e3c 0df6 f73d
00000300: 9a3e 8c3d a2b6 bf3d 55d7 b0bd 2a06 313e
00000310: d697 373e ed0b b5bd 4426 583d 1c15 553e
00000320: 4e83 2d3e cc3c da3c dbdd 893c 05bd d0bb
00000330: e436 0a3e 841a 9cbc f0ab 283d 9bd7 9a3d
00000340: 4f66 92bd ad08 6e3c 389a c3bd 3e63 83bd
00000350: b931 2fbd 37e0 8e3d 272b 0b3d 36c7 77bd
00000360: 584a 4fbe 58d8 923c 7184 2ebe fb08 fabc
00000370: 20c3 4d3d 1b2c ccbd 0f48 673e 370a e1bd
00000380: b5bb afbb aa59 cdbe 7fad 33bd 425d 80be
00000390: 9c97 babe 8ccc 21be 82da 4fbd 772a 523e
000003a0: 54a7 7a3e 8edf ab3c cea2 dc3d 1ccb 99bd
000003b0: 870b 86bc ab19 8b3c bae8 9ebd ae4f 363d
000003c0: 0516 ab3d 5b77 993e 3b4e 573e 1abb 883c
000003d0: 18e0 873c 2a9a 4fbe 754b 61be 094d f5bd
000003e0: e8ad 14be 3cef 9b3d 6691 493d c21a 8f3d
000003f0: f1ab 90bc 08bd 0cbd 9006 8b3d 84e1 81bd

layer2.0.bn.weight f4 [64]
1.0749489 1.0837489 1.1588693 1.1490135 1.1844411 1.093648 1.0755695 1.0864501
1.2566195 1.1451269 1.1292169 1.2240087 1.1673375 1.0697209 1.1047317 1.1772472
1.1250832 1.236454 1.1255325 1.2365125 1.0257992 1.14633 1.0832106 1.1400617
1.2223283 1.1940111 1.3255786 1.1883409 1.1902095 1.0331151 1.2199432 1.138525
1.1565613 1.13627 1.0844585 1.3343227 1.1884184 1.1581445 1.0587993 1.027253
1.2418594 1.1725105 1.1017071 1.1088711 1.1744319 1.1081543 1.1337469 1.1690652
1.0219948 1.1470792 1.1101958 1.1866511 1.2692695 1.1047227 1.226228 1.0942304
1.241496 1.1962849 1.0498945 1.1507266 1.1531394 1.1631343 1.1379584 1.1596535
00000000: ed97 893f 49b8 8a3f d455 943f e012 933f
00000010: c49b 973f a8fc 8b3f 43ac 893f cc10 8b3f
00000020: e8d8 a03f 8593 923f 2e8a 903f 51ac 9c3f
00000030: 516b 953f 9dec 883f d967 8d3f 09b0 963f
00000040: ba02 903f 2044 9e3f 7311 903f 0b46 9e3f
00000050: 634d 833f f1ba 923f a5a6 8a3f 8bed 913f
00000060: 4175 9c3f 5bd5 983f 8fac a93f 8e1b 983f
00000070: c958 983f 1e3d 843f 1927 9c3f 30bb 913f
00000080: 330a 943f 4c71 913f 89cf 8a3f 16cb aa3f
00000090: 181e 983f 143e 943f bc86 873f 077d 833f
000000a0: 40f5 9e3f d314 963f bd04 8d3f 7def 8d3f
000000b0: c953 963f 00d8 8d3f 9e1e 913f eea3 953f
000000c0: bad0 823f 7ed3 923f e51a 8e3f 2fe4 973f
000000d0: 6c77 a23f 8e67 8d3f 0af5 9c3f be0f 8c3f
000000e0: 57e9 9e3f dd1f 993f f162 863f 024b 933f
000000f0: 129a 933f 96e1 943f 9fa8 913f 876f 943f

layer2.0.bn.bias f4 [64]
-0.16979992 -0.24255817 -0.1159176 -0.1856805 -0.19173698 -0.17261185 -0.23570263 -0.2648144
-0.16146192 -0.22245507 -0.27558255 -0.09081795 -0.23788564 -0.14340147 -0.26079842 -0.21674044
-0.21701856 -0.14815049 -0.13629325 -0.0972811 -0.13677663 -0.3292898 -0.2583115 -0.2167071
-0.099161595 -0.22877017 -0.20566645 -0.15262417 -0.20846571 -0.31575194 -0.08211514 -0.312075
-0.32534176 -0.08048735 -0.14528108 -0.23669232 -0.25066635 -0.11467737 -0.2426326 -0.24393879
-0.15983248 -0.29638588 -0.2273641 -0.116093956 -0.16674508 -0.18938603 -0.26968083 -0.30557227
-0.14813341 -0.22443968 -0.14844336 -0.12006892 -0.19672264 -0.124922656 -0.015472321 -0.2217534
-0.30013788 -0.22377446 -0.10802533 -0.2094134 -0.24573016 -0.17829254 -0.08081996 -0.21029134
00000000: 08e0 2dbe 2b61 78be 3566 edbd 0723 3ebe
00000010: b356 44be 29c1 30be 085c 71be c195 87be
00000020: 4656 25be 43cb 63be 2819 8dbe c3fe b9bd
00000030: 4b98 73be d6d7 12be 5f87 85be 35f1 5dbe
00000040: 1d3a 5ebe c3b4 17be 7590 0bbe 503b c7bd
00000050: 2c0f 0cbe ac98 a8be 6841 84be 77e8 5dbe
00000060: 3c15 cbbd ba42 6abe 3a9a 52be 8349 1cbe
00000070: 0978 55be 3daa a1be fc2b a8bd 4bc8 9fbe
00000080: 3293 a6be 8dd6 a4bd 90c4 14be 795f 72be
00000090: 5757 80be f8db eabd ae74 78be 17cb 79be
000000a0: 20ab 23be e4bf 97be 22d2 68be abc2 edbd
000000b0: 39bf 2abe 69ee 41be 9b13 8abe f873 9cbe
000000c0: 49b0 17be 84d3 65be 8901 18be b2e6 f5bd
000000d0: a971 49be 73d7 ffbd 9e7f 7dbc 5313 63be
000000e0: acab 99be 2225 65be 623c ddbd 7770 56be
000000f0: b0a0 7bbe 5292 36be ef84 a5bd 9d56 57be

layer2.0.bn.running_mean f4 [64]
-1.1579553 -3.4306703 -3.7240217 -1.9916136 -3.7682161 -4.4543457 0.24482547 -4.548085
2.886807 -1.9532559 -2.619488 0.88835794 -2.432156 -2.349907 -2.129085 -0.35399672
1.60311 -4.0655546 -5.0427012 -5.240419 -3.8712862 -2.5607789 0.055393476 -2.8299677
3.5279417 -0.22292194 -3.5261846 -3.8179932 -1.241192 -2.9546318 1.2876494 1.1448452
-1.9125046 -5.3751183 -0.70397365 -0.33634987 2.7592065 0.6875116 -1.9989463 0.96696824
-2.0869298 -2.573552 -3.3851168 -1.6078911 -4.6930814 -4.7243824 -3.716406 -1.0461731
-0.8980531 -2.4239774 -0.84923327 -2.5032735 -0.84896183 -2.2739732 -3.0475383 -0.40131447
0.5979315 -1.1218394 -1.7913455 2.5961432 -0.88532615 -2.8384883 1.2256346 -4.8413672
00000000: e137 94bf 1a90 5bc0 5f56 6ec0 32ed febf
00000010: 742a 71c0 008a 8ec0 87b3 7a3e ea89 91c0
00000020: 72c1 3840 4a04 fabf b1a5 27c0 6d6b 633f
00000030: 72a8 1bc0 e064 16c0 ee42 08c0 0f3f b5be
00000040: b532 cd3f 0619 82c0 cf5d a1c0 83b1 a7c0
00000050: 27c3 77c0 cde3 23c0 45e4 623d 311e 35c0
00000060: ccc9 6140 a645 64be 02ad 61c0 005a 74c0
00000070: 61df 9ebf b018 3dc0 b2d1 a43f 4a8a 923f
00000080: f3cc f4bf f800 acc0 9e37 34bf 0d36 acbe
00000090: d796 3040 c300 303f 79dd ffbf 3b8b 773f
000000a0: 4290 05c0 13b5 24c0 c1a5 58c0 60cf cdbf
000000b0: b92d 96c0 242e 97c0 99d9 6dc0 00e9 85bf
000000c0: cfe6 65bf 7222 1bc0 5a67 59bf a235 20c0
000000d0: 9055 59bf c788 11c0 de0a 43c0 1779 cdbe
000000e0: 0a12 193f 6f98 8fbf cf4a e5bf 3627 2640
000000f0: bca4 62bf cba9 35c0 98e1 9c3f 7bec 9ac0

layer2.0.bn.running_var f4 [64]
4.5931387 3.6485975 4.7150326 5.030248 4.2629066 3.8898668 4.561215 4.6229568
4.942683 6.8311186 4.1180935 5.56095 4.270877 4.679269 5.293089 4.59977
4.653521 5.3925805 3.6213624 6.8779783 4.56861 4.6713886 6.694437 3.748494
5.1096134 3.75466 5.0694203 5.550536 4.634514 3.6895418 6.5368905 6.0555124
4.160684 5.6187253 5.2105885 4.6647367 3.700354 5.3898883 4.023668 3.774961
4.405359 6.090818 3.598367 5.1561804 5.0189185 4.082936 4.306689 3.405366
5.0311275 5.182219 4.2244496 5.282565 4.8526807 5.1994767 4.8084598 4.467781
4.64893 4.375521 3.9977798 4.526742 4.7277484 5.395644 4.6745853 4.7162232
00000000: fefa 9240 9f82 6940 8ce1 9640 cbf7 a040
00000010: bb69 8840 94f3 7840 79f5 9140 43ef 9340
00000020: 762a 9e40 8698 da40 6cc7 8340 4df3 b140
00000030: 06ab 8840 92bc 9540 fc60 a940 5131 9340
00000040: a5e9 9440 0590 ac40 67c4 6740 6618 dc40
00000050: 0e32 9240 047c 9540 d438 d640 53e7 6f40
00000060: f481 a340 594c 7040 b138 a240 fe9d b140
00000070: f04d 9440 7421 6c40 352e d140 c2c6 c140
00000080: 5324 8540 99cc b340 24bd a640 8645 9540
00000090: 9ad2 6c40 f779 ac40 e3c1 8040 f698 7140
000000a0: b3f8 8c40 fbe7 c240 a54b 6640 6eff a440
000000b0: fb9a a040 69a7 8240 65d0 8940 84f1 5940
000000c0: fffe a040 bdd4 a540 b12e 8740 c60a a940
000000d0: 2949 9b40 1d62 a640 e7de 9940 10f8 8e40
000000e0: 09c4 9440 4504 8c40 a0db 7f40 12db 9040
000000f0: b749 9740 1ea9 ac40 3496 9540 4deb 9640
