old/student_models/large_res_students/student_5.pth (torch, 385904 bytes, 39 tensors)

conv_initial.0.weight f4 [16, 3, 3, 3]
000000 b7 5b 46 bd 3c cc 73 3e 2e bd 28 be a6 c3 44 3e
       -0.04842731 0.23808378 -0.16478416 0.19215259
000010 59 c1 19 bd be 0f ff bd 8a 6b 7c 3a bd 31 4f 3e
       -0.037537906 -0.124541745 0.00096290617 0.20233817
000020 12 14 5e be 2b ba c7 3c 82 46 72 3e ec 2a 3b be
       -0.21687344 0.024380764 0.23659709 -0.18278092
000030 c9 14 0a 3e 0a f1 35 3d a7 cd 85 be 5c 69 9b bd
       0.13484491 0.044419326 -0.26133463 -0.07588455
000040 ca 26 d3 bc de ba ad 3d 2e 09 a4 3c f2 97 50 3e
       -0.025775332 0.08482908 0.020023908 0.20370463
000050 91 94 6b be b8 cf fa bc 7d 6c 7f 3e 67 c4 4a be
       -0.23005892 -0.030616626 0.24943729 -0.19801484
000060 79 88 4a 3d 8b 1c d1 3d 9e 7c 20 be 6e 3e 74 3e
       0.049446557 0.10210522 -0.15672538 0.2385194
000070 c2 e2 29 be c0 ab ae bd 1e 54 27 be 43 f1 9f 3c
       -0.16590407 -0.085288525 -0.16340682 0.019524222
000080 70 dd 0f 3e b8 84 d9 bd 81 56 d3 3a 3b 99 ba 3d
       0.14049315 -0.10621017 0.0016123803 0.09111258
000090 17 4b 7d 3d ea f4 9e be a8 da ff 3d ca 1a 1f 3e
       0.06183919 -0.3104623 0.12492877 0.15537563
0000a0 c0 cb 63 be 8e 7d 44 3e ec 1d 0e bb fa a3 19 3d
       -0.22245693 0.1918852 -0.0021685315 0.037509896
0000b0 e5 98 e9 3d 9c fd 52 3d 8e b9 5f be 4e 08 83 3e
       0.114061154 0.051511392 -0.21848127 0.25592273
0000c0 d4 05 06 3c a6 7b 4c be 33 93 8f 3d a9 17 0e 3c
       0.0081801005 -0.19969043 0.07010498 0.008672633
0000d0 c3 c7 e3 bd a2 8d 51 3c f1 6b 63 3d b7 28 28 be
       -0.11122086 0.012790116 0.055522863 -0.16421781
0000e0 81 ab b9 3d eb 8f d9 bd 59 95 42 bd 2f 5d fb 3d
       0.09065915 -0.10623153 -0.04750571 0.12273633
0000f0 80 70 1e bc be 38 ee 3d 51 5a 8a 3c e7 08 06 3e
       -0.009670377 0.116319165 0.01688877 0.13089333
000100 7b 3c 42 be 28 ee c3 bd ad 2a 5b be 17 f6 e7 bd
       -0.18968384 -0.09566909 -0.21402998 -0.11326235
000110 bf d3 8d 3e 38 79 32 be de a8 a4 3e dc 97 b8 bd
       0.27700612 -0.17429054 0.32160085 -0.0901334
000120 a0 31 54 3e f1 fc 9b bd c1 1d 26 be b6 f2 70 be
       0.20722055 -0.07616604 -0.16222288 -0.23530087
000130 69 f4 a0 bd a0 d0 f5 3d 7e c0 c3 3d 64 08 28 3e
       -0.078591175 0.12002683 0.09558199 0.16409451
000140 b5 a5 8a bd f9 7e 6b 3d eb 04 c7 bd 43 86 0e be
       -0.06769887 0.057494137 -0.09717735 -0.13918404
000150 83 d1 d5 bd 6a fd 1e be 98 03 15 3e 55 3a 26 3b
       -0.10440352 -0.15526357 0.14552152 0.0025364358
000160 97 65 07 3e 7d ea b5 3d 4a b7 6f bd 99 8a 04 3e
       0.13222347 0.08882616 -0.058524407 0.12943496
000170 d1 88 99 3d 7b 12 91 3e 1d be c2 bd df 4d 90 3e
       0.07496799 0.28334412 -0.095089175 0.2818441
000180 a3 6e be 3c 95 48 4b 3e 56 24 5a be ff 57 50 bd
       0.023246115 0.19851907 -0.21302924 -0.05086517
000190 58 77 5e 3e 01 97 63 3d f4 46 b0 bd 44 13 5a be
       0.21725214 0.05556393 -0.08607283 -0.21296412
0001a0 5d b7 d7 bd e4 b9 a8 bd 39 96 10 be ff d1 46 be
       -0.10533021 -0.08238581 -0.14119805 -0.19416045
0001b0 60 0f 33 3d 59 39 1c 3e b4 87 a1 3e 83 43 2e be
       0.043715835 0.15256251 0.31548846 -0.17017941
0001c0 d2 a9 99 be d9 fc 07 3e ab 37 2e 3e e5 64 df bd
       -0.30012375 0.13280047 0.17013423 -0.10907916
0001d0 79 a4 42 be 8e bc 4f bd 5e 2e 69 bd e9 2e 5f bc
       -0.19008054 -0.05071693 -0.056928985 -0.013622024
0001e0 69 9e bc bc 40 46 c8 be 6f 49 20 3e e5 8b 91 3b
       -0.023024755 -0.39116096 0.15653013 0.0044417256
0001f0 69 bb 12 3e 1d c5 d5 3d d2 a8 d4 bd ee a1 37 3e
       0.14329304 0.10437987 -0.103837624 0.17932865
000200 7d 75 14 3e 67 35 19 bd c5 ec 55 bd 67 59 d8 bd
       0.14497943 -0.037404444 -0.052227754 -0.10563927
000210 85 c6 79 3e 8a 41 c7 bd 9c 58 e5 bd de 29 fe bb
       0.24392135 -0.097292975 -0.111985415 -0.007756456
000220 0d a1 4c 3d 90 28 83 3b 65 67 bc 3d a4 cb 81 be
       0.049958277 0.004002638 0.091994084 -0.25350678
000230 27 0f 7c 3d e5 38 41 bd 9b ce 65 be aa 55 97 bc
       0.061537888 -0.0471734 -0.22442095 -0.018473465
000240 84 e7 a9 bd 06 d5 be bd 0d 81 7d 3e a3 69 e5 bd
       -0.08296111 -0.09317975 0.2475626 -0.11201789
000250 cd db 48 be 3d 86 97 3e 98 bc 68 3c bb a2 3f be
       -0.19615097 0.29594603 0.0142051205 -0.1871442
000260 89 a3 2d 3e d7 fe 8b be c6 51 0b bd c6 76 8f 3e
       0.16956915 -0.27342865 -0.034013532 0.28020304
000270 dc c6 34 be 86 d4 c8 3d 80 a4 9e 3d aa d1 f8 bc
       -0.17653984 0.09806161 0.0774622 -0.030373413
000280 da 98 91 3d ae 00 83 3d 45 dd cf bc 97 06 7f 3d
       0.07109232 0.06396614 -0.025374064 0.062262144
000290 4c 31 ad 3d fa da 1c 3e cb e1 57 3e 34 0a d6 bd
       0.08456668 0.15317908 0.21082227 -0.10451165
0002a0 21 8e 6c 3e 38 cf 90 3e c5 27 e8 3d d3 9a 10 3d
       0.23101093 0.28283095 0.113357104 0.035303902
0002b0 ce c7 eb bd e1 94 9c bd d6 0d 41 be 3b 22 43 be
       -0.11512719 -0.07645584 -0.18852934 -0.19056027
0002c0 23 19 03 3b f5 0a 3f be f0 21 2f be 47 03 4a be
       0.0020003996 -0.18656524 -0.1710279 -0.19727813
0002d0 03 73 ac 3d 31 80 6f 3d a3 ce 89 bb 8f 9b ae 3d
       0.08420374 0.058471862 -0.004205541 0.08525764
0002e0 fa f9 89 3c 64 18 8a 3d f8 c1 2a be 8b 76 46 be
       0.01684283 0.067429334 -0.16675556 -0.19381158
0002f0 d2 ec 14 3e 0e 84 30 be d4 32 ce 3d af 81 1b be
       0.14543465 -0.17237875 0.100682884 -0.15186189
000300 93 f2 67 3d 6b 1b 57 3e a4 43 24 be 9e 20 90 bc
       0.05662782 0.21006553 -0.16041428 -0.017593678
000310 69 e3 50 3c cb a9 0a 3e c7 1a 9b 3d 82 b5 13 3d
       0.012749531 0.13541333 0.07573467 0.03606177
000320 fd 23 12 be 91 f4 e9 bd 60 5e a2 3e 26 8b d4 bd
       -0.14271541 -0.114236005 0.31712627 -0.10378103
000330 76 fc 21 be 3d 79 85 3e 8f 19 8e be c6 b4 8c bd
       -0.15818962 0.2606906 -0.27753875 -0.06870417
000340 99 1b 3a 3e 13 72 39 3d 07 cb a1 bd 60 d3 f6 bc
       0.1817459 0.045274805 -0.079000525 -0.030130088
000350 bb 9f fb 3d 5d 46 31 be 0c 3e fd 3c 2f a7 ca bd
       0.122863255 -0.17311998 0.030913375 -0.09895169
000360 f0 36 18 3e bc 7e 54 bc f7 e3 f8 3d 78 8a 80 be
       0.14864707 -0.012969669 0.12152856 -0.25105643
000370 bf e1 85 be a7 17 6e 3d c4 ae 51 bd cb 32 2f 3e
       -0.26148793 0.058128025 -0.05119206 0.1710922
000380 d2 d1 1e 3e 32 64 41 3e 10 5a 32 be 36 17 e7 3a
       0.15509728 0.18885878 -0.17417169 0.0017630819
000390 da 44 9a bc 49 a4 89 be e2 91 52 be 17 38 4f 3d
       -0.01883166 -0.26883152 -0.20563462 0.0505906
0003a0 4c d4 30 be 82 d9 60 3e 56 2d 3a 3e 17 58 02 3e
       -0.17268485 0.21957973 0.18181357 0.12728916
0003b0 fd 81 6a 3e 6c 19 ac 3d 5d 0e ea 3d 55 e0 b8 bd
       0.22901149 0.08403286 0.11428521 -0.09027163
0003c0 f6 5d 1e 3e d8 25 0e be 37 91 8d bd 44 a2 71 bd
       0.15465531 -0.13881624 -0.06912463 -0.05899264
0003d0 36 82 9d bd 96 25 51 3e 55 66 24 be 7c 45 b2 3d
       -0.076908514 0.20424494 -0.16054662 0.08704659
0003e0 27 15 83 3c e7 c7 1a 3e a5 d5 1e 3d ba cc 9b be
       0.016001297 0.15115319 0.038777966 -0.3042963
0003f0 79 ec 03 be 65 54 f0 bd f6 dc 8c 3e c2 7c 26 3d
       -0.12883176 -0.11734847 0.2751233 0.040646322

conv_initial.1.weight f4 [16]
000000 6f 9f a0 3f 65 f5 82 3f 0a 38 91 3f 70 76 5a 3f
       1.2548655 1.0231138 1.1345227 0.8533697
000010 86 dc 8c 3f c5 67 77 3f 7d 3b 7f 3f 2f e0 81 3f
       1.1004798 0.96642715 0.99700147 1.014654
000020 cd 9c 65 3f 76 b8 63 3f 60 74 83 3f c3 f1 83 3f
       0.89692384 0.8895334 1.026989 1.0308155
000030 1f 0b 55 3f 45 64 72 3f 41 98 72 3f 6a aa 8e 3f
       0.83220094 0.9468425 0.9476357 1.1145756

conv_initial.1.bias f4 [16]
000000 4d e7 d9 bd 33 5a 14 3e f2 6a a7 3d 75 05 32 ba
       -0.1063982 0.14487533 0.08174695 -0.00067909743
000010 77 30 b5 bd 14 8c ec ba 71 72 50 3e 03 23 41 3e
       -0.088471346 -0.0018047118 0.20356156 0.18861012
000020 73 b9 0a 3e 2e 81 1b 3e b1 06 a4 3d b2 cd d5 3d
       0.13547306 0.15185997 0.08009089 0.10439624
000030 f6 2a 10 3e b8 12 e1 3c 1f b7 3a 3e 0b 42 13 bb
       0.14078888 0.027474746 0.18233918 -0.0022469785

conv_initial.1.running_mean f4 [16]
000000 f6 56 d3 39 68 bd ef 3b d5 8a a6 3b 4b 32 23 3d
       0.00040309847 0.00731628 0.005082468 0.039842885
000010 f0 0d ec ba 83 1d fb bb fb 0c a7 3c 98 29 2a 3c
       -0.0018009525 -0.00766343 0.020391932 0.010385893
000020 8d 2f 34 bd bd 41 47 bd 3c ba ea 3b c4 16 45 3e
       -0.04399066 -0.048646677 0.007163314 0.19246966
000030 d9 f4 03 bc 48 fa f0 bb 8f dd 58 bc 59 c5 b5 bb
       -0.008053982 -0.0073540546 -0.013236417 -0.0055472073

conv_initial.1.running_var f4 [16]
000000 41 95 97 3d 49 b1 ef 3c 50 5f e2 3c c9 60 a4 3c
       0.07401515 0.02925934 0.02763334 0.020065682
000010 59 08 09 3d 56 c4 ab 3d a9 04 21 3d 3c 4f ab 3c
       0.033455227 0.083870575 0.039311085 0.020911805
000020 21 b5 32 3d 00 3f 33 3d 61 58 95 3d b0 fd a9 3f
       0.04362977 0.043761253 0.072922476 1.3280544
000030 f0 e8 6d 3c c6 06 a0 3d 29 91 ec 3d f6 b7 ec 3d
       0.014520869 0.07813792 0.115511246 0.11558525

layer1.0.conv.weight f4 [32, 16, 3, 3]
000000 65 58 43 3e f7 85 17 3e cf 21 05 bd 93 11 e0 3d
       0.19076689 0.14797197 -0.032502946 0.10940852
000010 59 ae 22 bd b3 c1 f9 3d 38 6c 3f 3d f8 83 a2 bd
       -0.039717052 0.12195148 0.046734065 -0.07935327
000020 15 0b 77 bd 93 49 1b 3e d6 f5 1b 3e 0a d6 52 3e
       -0.060313303 0.15164785 0.15230498 0.20589462
000030 bd d2 1f 3c c5 76 90 3d f5 d3 00 3e 65 30 e2 bd
       0.009754834 0.070539035 0.12580855 -0.11044387
000040 57 87 08 be 6e 56 2e be 23 8c 05 3d 82 65 90 3e
       -0.13332878 -0.17025158 0.032604348 0.28202444
000050 a7 9e 1b 3e ba fc 27 3d a6 c0 0f be 52 e1 fc 3d
       0.1519724 0.041012503 -0.14038333 0.12347664
000060 27 3b f1 3a ad 27 92 3d cb 0b 7c bc fe f2 8e 3c
       0.001840447 0.07136474 -0.015383671 0.017449852
000070 fa d8 e8 bd b8 1f b8 3c 58 a3 c4 bd a7 da e7 3c
       -0.1136951 0.022476062 -0.09601468 0.028302504
000080 26 f6 18 be 14 28 f7 bc c0 ff 02 be 03 63 26 bd
       -0.14937648 -0.030170478 -0.12792873 -0.04062177
000090 45 67 c3 bc cc 76 26 3e de d0 60 3e 26 1d f8 3d
       -0.023852954 0.16256255 0.21954677 0.121149346
0000a0 b1 d6 02 3e be fc a8 bd ba 58 b5 3d fd 71 91 be
       0.12777211 -0.08251332 0.08854814 -0.2840728
0000b0 2c c1 ae be 6a ba e7 bd 62 70 90 3d bd 66 31 3e
       -0.34131753 -0.113148525 0.07052685 0.17324348
0000c0 46 2d c8 3d ad 60 13 bd 07 33 0d 3d 53 4c 06 bd
       0.0977426 -0.03598087 0.03447249 -0.032787632
0000d0 c6 d3 91 be 62 cd 15 be 1d da 75 3d cf a2 b1 bc
       -0.28481883 -0.14629129 0.060022462 -0.021684078
0000e0 46 6b bb 3d 19 31 88 3b 80 74 79 3c dc 42 8f bd
       0.0915132 0.0041562435 0.01522553 -0.06995174
0000f0 be c5 10 be 5a 07 e4 bb 12 d3 a7 bd e1 cb 41 3e
       -0.14137933 -0.006958884 -0.08194555 0.1892543
000100 42 e6 c5 3d fe 76 13 bd af 8f 4e 3e 42 18 b5 3d
       0.09663059 -0.03600215 0.20171998 0.088425174
000110 bc 20 e7 3d 65 9a 6c bd 18 cb 5b be cf 23 37 be
       0.112855405 -0.05776443 -0.21464193 -0.17884754
000120 66 4d 9b bd ba 2e 1e be 51 86 fb bb f3 dc 15 be
       -0.07583122 -0.15447512 -0.007675924 -0.14635067
000130 46 71 00 be 5c 75 b2 bd 0f b9 31 be 37 a8 04 be
       -0.1254321 -0.08713791 -0.1735575 -0.12954794
000140 51 bf 3b be eb a2 2f 3e 30 68 cb 3d 5c 57 49 bd
       -0.183347 0.17151992 0.099319816 -0.049155578
000150 78 11 ae 3d a9 36 21 bb 12 8f 20 bd 00 eb bd 3d
       0.08499426 -0.002459923 -0.039198942 0.09273338
000160 d7 fd 90 b9 ed 03 6a bd c7 9a 3a bc 96 95 02 be
       -0.00027654946 -0.05713265 -0.011389441 -0.12752375
000170 41 5f 55 be b1 41 c1 3d 8e 25 85 bb 55 66 cb bc
       -0.20837118 0.09436358 -0.0040633148 -0.02482907
000180 d8 ff 69 be 4e 8a 83 be e7 79 d7 bd 70 79 ed bd
       -0.22851503 -0.25691456 -0.10521298 -0.11595428
000190 0b c6 b3 bc b8 bd b5 3d cb ec 21 be e4 6f 70 bd
       -0.02194502 0.088740766 -0.15812986 -0.058700457
0001a0 a1 4e 54 bd 12 11 18 bd 82 21 d0 3d 40 29 94 bc
       -0.0518328 -0.037125655 0.10162641 -0.018086076
0001b0 5b e2 c1 bd c3 b2 e3 bd 50 66 a4 bd 40 9d 04 3d
       -0.09467002 -0.111180805 -0.08027327 0.032376528
0001c0 85 c5 93 bc 72 b1 08 be 11 40 86 3d 19 f6 28 bd
       -0.01803852 -0.1334894 0.065551884 -0.041250322
0001d0 af e9 3f bc a7 5c ac 3c b2 4d ae 3d 42 10 67 3d
       -0.011713429 0.021040274 0.08510913 0.05641199
0001e0 bf 97 93 bd 2a e2 1e 3e f8 ff 55 bd 59 99 24 bd
       -0.07206678 0.15515962 -0.052246064 -0.040185306
0001f0 fa 1d b9 bd aa 80 c1 bd ea f4 b1 3c 97 b4 eb 3d
       -0.09038921 -0.09448369 0.02172323 0.11509054
000200 71 d3 19 3d b2 c8 53 3d 16 24 ce 3d 1c ef d7 3b
       0.037555162 0.05170507 0.100654766 0.0065897834
000210 1b 8e 18 be de f3 12 bd 95 37 1c be 4e ae 12 be
       -0.14897959 -0.0358771 -0.15255578 -0.14324304
000220 d5 5d 4b be 93 bc 37 3d 1f bd 4a 3d b2 d7 af bd
       -0.19860013 0.044857573 0.049496766 -0.085860625
000230 62 ec d7 bd 4c 4b 85 3d ce 4b 40 3d 73 89 b7 3d
       -0.10543133 0.06508502 0.046947293 0.08961763
000240 47 88 a4 be 44 80 62 be 61 02 be 3d 35 b0 dc be
       -0.3213522 -0.22119242 0.092777975 -0.43103185
000250 08 09 36 bc 54 bc fc bd aa 76 a5 be f0 06 39 be
       -0.011110552 -0.12340608 -0.32317096 -0.18069053
000260 34 b1 95 bd b8 95 73 bd dc c6 a2 3d c7 2e 86 3e
       -0.073091894 -0.059468955 0.07948086 0.26207563
000270 97 99 85 bc 7d 9f e2 bb 28 33 47 3e f9 31 c6 bd
       -0.016308589 -0.006915985 0.19453108 -0.096775
000280 54 06 86 3d 87 ca 02 3e 8e 57 c3 3d b9 a3 d9 bc
       0.06544176 0.1277257 0.09538184 -0.026567327
000290 ab c5 06 be 41 84 cb 3c d5 95 f6 3d 87 fb d5 bd
       -0.13161342 0.024843337 0.12040297 -0.10448366
0002a0 3a 24 6e 3c 87 44 02 3e 4e 88 35 bb 86 1e 13 be
       0.014535004 0.12721454 -0.0027699652 -0.14367113
0002b0 9f c9 f9 3d 5a a8 f4 3d 5e 01 4e be eb b7 e6 bd
       0.12196659 0.11946173 -0.20117709 -0.11265548
0002c0 51 7e ab bd ac 38 0e be f9 60 26 be 16 36 18 be
       -0.08373702 -0.13888806 -0.1624793 -0.14864382
0002d0 ea a3 25 3c 7a 95 0a 3e 9a 6c 00 bd 44 e1 cf 3d
       0.010109881 0.13533583 -0.03135357 0.10150388
0002e0 c0 b7 82 3e d1 da 98 bc 3a 74 32 3d 60 08 50 3e
       0.25530815 -0.018659027 0.043567874 0.20315695
0002f0 cd af 32 bc 28 54 aa 3d ad bf 9a 3d 70 94 d6 3d
       -0.010906172 0.08316833 0.075560905 0.10477531
000300 bd 62 d3 3d 04 59 46 3e 98 76 11 3e a9 e5 8b 3d
       0.10321567 0.19369894 0.14205396 0.068309136
000310 35 6a ac 3d 4c 99 6f 3d 5e 23 4f 3d 2f 7d 9c 3d
       0.08418695 0.058495805 0.05057084 0.076410644
000320 9f 86 28 3d c5 7e 81 bc 7c 71 01 3e ad a1 57 3d
       0.04114401 -0.015807519 0.12640947 0.05264442
000330 4d ce 71 3d 76 95 93 3d 6a 3a 7c bd ab 3d 3e bd
       0.059034634 0.07206242 -0.061579145 -0.04644553
000340 71 da 0d bd 06 30 c0 bc b5 46 8f 3e 2b 72 58 3d
       -0.03463215 -0.0234604 0.27983633 0.052843254
000350 db 55 94 3d 14 9e 06 3d 7b 57 92 bd 9a 1a 32 bc
       0.07242938 0.0328656 -0.07145592 -0.0108706
000360 19 a8 9d 3d 25 74 0f 3e c0 cd 73 3d 29 ce 9a 3e
       0.07698078 0.1400915 0.05952239 0.30235413
000370 11 62 f5 3c 90 a6 6e bc 27 4d 3f 3e e4 58 03 bc
       0.029953988 -0.014566079 0.18681775 -0.008016799
000380 fb 62 02 be 95 cd cd 3d 17 8d ac bd 0d ed 13 bd
       -0.1273307 0.10048977 -0.08425348 -0.03611474
000390 a7 99 3f 3d 84 cf 87 3d 38 46 c7 bd ad 80 48 bd
       0.046777394 0.06631377 -0.0973019 -0.04895084
0003a0 2f a4 8f bd 65 7f f2 3d ee 63 2d 3e 32 51 7d 3c
       -0.070137374 0.11840705 0.16932651 0.015461253
0003b0 a3 67 14 bd d7 53 7f 3e ce 24 c9 3d 71 08 23 3e
       -0.03623165 0.24934326 0.09821473 0.15921189
0003c0 52 ca b2 3d 56 40 c2 3d a8 9f 04 be 3d da 11 3d
       0.08729996 0.09484927 -0.12951529 0.03560852
0003d0 2f 63 b2 bd 4b 43 26 bd 02 7d 1a bc 2f 16 e6 3c
       -0.08710324 -0.04059152 -0.009429218 0.02808675
0003e0 95 24 5f bd 75 e8 43 3e 91 47 81 bd d1 b9 1a bd
       -0.054478247 0.19131644 -0.06312478 -0.037774865
0003f0 53 40 52 be 85 d1 13 bd 98 93 5e bd db 85 50 be
       -0.2053235 -0.036088485 -0.054339975 -0.20363562

layer1.0.bn.weight f4 [32]
000000 cb f3 88 3f 7d 16 76 3f 61 06 8b 3f 33 19 9b 3f
       1.06994 0.96128064 1.0861322 1.2117065
000010 77 11 75 3f 2d 4b 8c 3f 28 b0 90 3f e4 a4 93 3f
       0.95729774 1.0960442 1.1303759 1.1534696
000020 fa 89 5b 3f cd 2a 99 3f e8 8c 83 3f 9c 1b 90 3f
       0.8575741 1.1966187 1.0277376 1.1258426
000030 91 10 a1 3f b4 bd 64 3f 40 c8 b7 3f d5 85 7d 3f
       1.2583181 0.89351964 1.4357986 0.99032336
000040 d3 dd 83 3f 72 67 8e 3f cf 9e 75 3f cd 5b 7e 3f
       1.030207 1.1125319 0.9594545 0.99358827
000050 76 cd 8d 3f ac ca 91 3f 2b f7 84 3f 20 e1 81 3f
       1.1078327 1.1389976 1.038793 1.0146828
000060 a7 82 8b 3f ae d7 84 3f b1 ba 97 3f 52 13 86 3f
       1.0899247 1.037832 1.1853849 1.0474646
000070 53 7d 76 3f b4 b8 82 3f f5 be 6e 3f 95 91 5e 3f
       0.9628498 1.0212617 0.9326013 0.8694089

layer1.0.bn.bias f4 [32]
000000 1e d0 0e be 44 7e 83 bc 85 d7 85 3d e6 da 04 bd
       -0.13946578 -0.01605142 0.06535248 -0.03243532
000010 76 c5 e5 bd ad 6f cc 3d a1 2a 04 3e 70 ce 1c bd
       -0.11219303 0.09982238 0.12906887 -0.03828281
000020 45 d0 01 bd f9 0f 24 be 27 94 ef 3d c6 f9 d3 bd
       -0.031692762 -0.16021718 0.1169818 -0.10350375
000030 b4 7e a9 3c 34 08 ad bd c9 da de bc 0d 9c d3 bd
       0.0206903 -0.0844883 -0.027203934 -0.10332499
000040 de 22 0c bd b4 c1 83 bc 08 40 d8 bd f2 eb d8 bd
       -0.03421294 -0.016083576 -0.10559088 -0.10591878
000050 b9 40 1b 3d 9a 9c f6 bd 7f b0 7e be 6c 9d 12 3e
       0.03790352 -0.12041588 -0.24872015 0.14317864
000060 56 37 00 3e 25 1e fa bd 89 34 e8 3d f5 bd 60 3e
       0.12521109 -0.12212781 0.11338145 0.21947463
000070 21 47 89 bd b8 eb 00 bd 3d 2b 0c bd cd f5 f2 3d
       -0.0670302 -0.0314748 -0.034220923 0.11863289

layer1.0.bn.running_mean f4 [32]
000000 55 f7 9f bf 8e 38 3e 3e f8 89 55 be 8f ef bd bf
       -1.2497355 0.18576261 -0.20853412 -1.4838732
000010 2e d0 b6 3f bd 21 f9 bd 8b f3 2f bf 64 23 2b c0
       1.4282281 -0.12164638 -0.6873099 -2.674035
000020 20 ab e3 be 06 db 00 bf 19 7f 2c 3f 24 21 92 be
       -0.44466496 -0.50334203 0.67381436 -0.2854091
000030 24 ec f7 bf 2b 2c f9 bf 83 14 2b 3e c5 fd 28 c0
       -1.9368939 -1.9466604 0.16707043 -2.6404889
000040 ee d3 94 bf 55 75 64 bf b5 8f 38 bd f2 5b 33 3f
       -1.1627176 -0.89241534 -0.045058925 0.7006217
000050 90 0d 0f bf ab 41 1b bf ec 7d fd bf f1 98 09 3f
       -0.5588007 -0.60647076 -1.9804053 0.53748995
000060 6b 22 1a c0 77 2d ae bf 61 ed de bf db fb 91 be
       -2.4083507 -1.3607625 -1.7416192 -0.28512463
000070 96 1a 94 bf 90 78 18 bf 3c 0a fa bd b6 ec e8 3e
       -1.1570613 -0.59558964 -0.12208983 0.45493096

layer1.0.bn.running_var f4 [32]
000000 cf cd 1b 40 07 bd 3e 40 72 cf 17 40 83 ac 20 40
       2.4344366 2.9802873 2.3720365 2.5105293
000010 9e f5 5c 40 95 c5 14 40 9b 8a 0e 40 b1 4b ac 40
       3.4524913 2.3245595 2.2272098 5.3842397
000020 6d 5b 40 40 77 f1 30 40 eb 8f a1 3f 9b 62 07 40
       3.0055802 2.7647378 1.2622045 2.1153934
000030 21 82 4f 40 4c 67 26 40 bd fd 68 40 80 71 4d 40
       3.2423174 2.6000547 3.640487 3.2100525
000040 98 84 1c 40 c0 d4 73 40 28 d0 f4 3f 30 26 05 40
       2.4455929 3.8098602 1.9126024 2.0804558
000050 e7 48 de 3f 72 38 ab 3f 9c 94 5c 40 61 38 ba 3f
       1.7365998 1.3376601 3.4465704 1.4548455
000060 e7 42 a8 40 15 aa 4f 40 48 79 99 40 21 f3 b6 3f
       5.258167 3.244756 4.796055 1.4292947
000070 42 27 2c 40 26 6f 3c 40 03 49 0d 40 9d 8e 45 40
       2.689896 2.944284 2.2075813 3.0868294

layer1.0.downsample.0.weight f4 [32, 16, 1, 1]
000000 4f 50 27 3e cd 06 0e 3e a4 71 a9 3e a6 a5 83 bd
       0.16339229 0.13869782 0.33094513 -0.06428079
000010 63 dc f5 3c 11 8c 55 3e da 5e ae be 59 e5 72 3e
       0.030012315 0.20854212 -0.3405674 0.23720302
000020 15 99 52 bd b2 8b c9 3b 63 26 76 be f5 7f 55 3d
       -0.05141552 0.006150686 -0.24038081 0.052123982
000030 74 9c 7e bd 25 d0 66 3d 33 d0 0f 3e 6a 63 af 3e
       -0.062160924 0.056350846 0.14044265 0.34255534
000040 be bd e8 be 2d 03 06 3e 8e 32 45 bd 45 5e 21 3e
       -0.45457262 0.13087149 -0.048143916 0.15758617
000050 59 16 a1 bd 9c 00 7e be dc e8 05 3e 21 5a 21 3d
       -0.078655906 -0.2480492 0.1307711 0.039392594
000060 67 a1 af 3d bc 01 d5 bd e1 eb 7c be d1 26 b5 bd
       0.08575707 -0.104007214 -0.24699356 -0.08845294
000070 bd ea 9f bc fe fe 40 bc 90 45 32 be f3 31 57 3e
       -0.019521112 -0.011779545 -0.17409348 0.21015148
000080 8d b5 8f 3d 08 e0 b4 be 15 40 80 3e c3 16 1b be
       0.0701705 -0.35327172 0.2504889 -0.15145402
000090 13 15 00 be 20 c4 5c 3d 71 a2 a5 be 55 97 6e be
       -0.12508039 0.053897977 -0.32350495 -0.23299916
0000a0 a2 99 19 3d 44 8a 1e bb de 2d 3f 3e 3b 7b 2b 3d
       0.03750003 -0.00241913 0.1866984 0.04186557
0000b0 e7 db 4a 3e 38 3c 1c be 5d 18 77 be 79 87 9e 3e
       0.19810449 -0.15257347 -0.24130388 0.30962732
0000c0 70 f6 aa be aa bd 6e 3d c6 c8 6e be 5f 55 c4 3d
       -0.33391142 0.058286346 -0.23318776 0.09586596
0000d0 72 7a ad 3d 7d 16 5d 3e c1 e1 a6 bd a5 fe 26 3e
       0.0847062 0.2159061 -0.08148528 0.16308077
0000e0 b3 5f bd bc f5 5e 17 be 75 1c f4 bd da df a1 3e
       -0.023116922 -0.14782317 -0.1191949 0.31616098
0000f0 68 e7 89 3d 99 a9 86 be 2f c4 0c bd fd 86 cc 3d
       0.0673359 -0.26301268 -0.034366783 0.099866845
000100 55 b5 c1 bd 4f 8f 26 3e 83 d0 f1 3d bd 17 78 be
       -0.094584145 0.16265605 0.118073486 -0.24227805
000110 f7 f7 df 3d 97 16 2a bc 22 8f 64 be 96 a9 cf 3c
       0.109359674 -0.010381362 -0.22320226 0.02534942
000120 eb 99 05 be 42 a1 1f be 9e 0a 40 3d 1d 42 a8 3d
       -0.13046996 -0.15588859 0.046885125 0.08215735
000130 3f 0d 6c ba 9c 67 bb be 54 b0 b6 be 10 fa c8 3c
       -0.00090046594 -0.36602485 -0.35681403 0.024533302
000140 98 9d 9d 3e 65 0d 73 bb 19 03 00 be 44 ad 2a be
       0.30784297 -0.0037086841 -0.12501182 -0.16667658
000150 ff c1 46 3e 0f e6 a6 bc e2 57 3b be a1 62 d9 3d
       0.19409941 -0.020373372 -0.18295243 0.10614515
000160 73 cf 0b be f3 e4 3e be e3 6f 7c be c1 63 21 3e
       -0.13653354 -0.18642025 -0.24652056 0.1576071
000170 5d 38 6c 3e 8b 5e eb 3e ac 92 b3 bc 47 aa 67 bd
       0.23068376 0.45970568 -0.021920525 -0.056558874
000180 3c 23 77 bd 0b e0 c7 bd 0a 1a 97 be de 59 0a 3e
       -0.060336336 -0.0975953 -0.29512054 0.13510844
000190 ad d9 c3 3e 62 cf 05 be cf 65 19 be c8 dc b7 3d
       0.3825201 -0.13067392 -0.14980243 0.089776576
0001a0 14 62 37 be 22 79 f3 bd 00 3c a3 3c 40 1b 24 3e
       -0.17908508 -0.118883386 0.019926071 0.1602602
0001b0 e4 37 e3 bd 29 2d 4c be b5 36 8d be 35 3e 3e 3e
       -0.11094645 -0.19939102 -0.275808 0.18578418
0001c0 10 34 a8 be bb 78 dc bd fa 1e 25 3e e3 f2 4e 3e
       -0.3285222 -0.10765215 0.16125098 0.20209841
0001d0 36 15 87 be 33 3e 9a 3d b9 05 9b bd 95 2d bf bd
       -0.2638337 0.07531395 -0.07569451 -0.09334866
0001e0 08 02 ed bd e9 9c 4d 3e ce 83 97 be f7 b9 72 3e
       -0.11572653 0.20079388 -0.29592746 0.23703752
0001f0 43 15 da bd 59 3f 6b be 82 52 89 3d 37 e1 69 be
       -0.106485866 -0.22973384 0.0670519 -0.22839819
000200 2a a2 4e 3e f0 20 64 bd c7 39 c7 bd 9c da e4 3c
       0.20179048 -0.055695474 -0.09727817 0.027936272
000210 82 29 24 bd 24 6e 5c be 72 9e 15 bf bb 8f 13 be
       -0.040078647 -0.2152639 -0.58444893 -0.14410298
000220 0e dc 7f be 25 3c 83 bc 17 d9 2b 3e 25 fd ed bd
       -0.24986288 -0.01601989 0.16782032 -0.11620549
000230 76 1e 8d 3d 61 72 2b be d2 a5 93 bc f8 99 8b bc
       0.068905756 -0.16742851 -0.018023405 -0.017041191
000240 aa 12 6f be c5 ad f3 bd 3b 5e 22 3e ee 4e 0a bd
       -0.23346964 -0.11898378 0.15856259 -0.03376668
000250 44 e9 0b be 81 5c 5b 3d 67 6a fd 3d 78 d8 49 3d
       -0.13663203 0.053555015 0.1237381 0.049278706
000260 da e4 53 bc cd 3d 92 3d e1 35 34 be 79 7e 23 3e
       -0.01293298 0.07140694 -0.17598678 0.15966214
000270 40 5d db 3d 84 05 6a bd 40 49 3c be 83 c0 da 3e
       0.107111454 -0.057134166 -0.18387318 0.42725
000280 d9 86 4d be 7d b0 31 be 7e b0 07 be 56 c9 22 3c
       -0.20070972 -0.17352481 -0.1325092 0.009935698
000290 be 58 88 3e bd 20 bd 3d 6e 81 e1 bd 1a c6 a9 bd
       0.26630205 0.0923476 -0.11011015 -0.08289738
0002a0 3a 86 79 bd bc a3 3b 3e a7 96 2b 3d 1d ac 28 be
       -0.060919024 0.18324178 0.04189172 -0.16471906
0002b0 89 a1 6f bd aa d7 29 bd 5f 80 50 be a4 1f 2d be
       -0.05850366 -0.04146544 -0.2036147 -0.16906601
0002c0 be 2f ef 3c cd ce 3e bd 89 0a 2e 3e 08 9c b4 be
       0.02919757 -0.04658394 0.16996206 -0.35275292
0002d0 a2 08 b3 3d 3e f2 b1 3c 40 25 b0 bb 5c b2 a3 be
       0.08741881 0.021721955 -0.0053755343 -0.31972015
0002e0 9e a9 09 3c ee 08 84 3d f5 cb 14 3e d8 4a 37 3e
       0.008402256 0.06447016 0.14530928 0.17899644
0002f0 9d 12 7b be 6b 2e d7 bd d1 a7 10 3e e1 ed 7c be
       -0.24518819 -0.105069004 0.14126517 -0.24700119
000300 31 4c ba be 6f 54 e4 bd 7c 4f 1c be 07 c1 00 3e
       -0.36386254 -0.11148917 -0.15264696 0.12573634
000310 5c 74 78 be b0 39 c6 3a fa c5 bd 3d 30 34 0e bd
       -0.24263138 0.0015123393 0.09266277 -0.03471774
000320 c0 3c 89 3e 1e bf 99 3c b0 1c a3 3d b4 b5 9e be
       0.2680416 0.01876789 0.07964456 -0.30998003
000330 83 71 69 be 21 44 cf 3c fc 4d 2a 3e 51 93 6d 3e
       -0.22797208 0.025301041 0.16631311 0.23200728
000340 46 45 09 3e e5 90 b5 3d 62 45 92 bc e1 9a 93 3e
       0.13405332 0.08865527 -0.01785535 0.288291
000350 9d 16 07 3e ca 39 5a 3d a3 b2 ba be 7f e7 ff 3c
       0.1319222 0.05327777 -0.36464414 0.031238316
000360 8c 43 3a be cd 85 9e be 4f 52 0d 3b d0 ab 33 bd
       -0.1818983 -0.30961457 0.0021563952 -0.043865025
000370 3a df 62 bd c2 8c 7a bc 54 f1 df 3d 12 3a 80 bd
       -0.055388667 -0.015292348 0.109347016 -0.06261076
000380 b4 05 07 be 03 fd 8b be 4a 57 a9 be b6 d0 73 3d
       -0.1318577 -0.2734147 -0.3307441 0.059525214
000390 05 ce 4a be 27 8c 12 3e 60 b8 9c 3e 29 5a 26 3d
       -0.19805153 0.14311276 0.30609417 0.040613327
0003a0 0f 23 6d 3e 13 52 04 3e e2 11 32 3d a9 d8 e7 3d
       0.23157905 0.12921934 0.043474086 0.113206215
0003b0 6b b2 ea 3d 8a e5 94 bd ff 10 96 be 1a c9 66 be
       0.11459812 -0.072703436 -0.29309842 -0.22537652
0003c0 1a f1 0b 3c ff a2 4c 3d ab aa 55 bd b3 f5 2a 3e
       0.00854137 0.049960133 -0.052164715 0.1669529
0003d0 5b 07 a3 bd 61 b2 c1 3d e1 72 20 3e 6c 6d ab 3e
       -0.07960387 0.09457851 0.15668823 0.3348192
0003e0 1a 37 92 3e 93 b9 bf 3d 50 e7 84 be 46 c5 71 be
       0.28557664 0.09361567 -0.25957727 -0.2361041
0003f0 d2 20 00 3e b9 ac c0 bd a7 62 6c 3d 52 a4 13 3e
       0.1251252 -0.09407944 0.05771127 0.14418152

layer1.0.downsample.1.weight f4 [32]
000000 5c 7e 1c 3f 7c f3 37 3f bc 2c 32 3f ae 78 41 3f
       0.6113031 0.718559 0.6959951 0.7557477
000010 3e c2 0d 3f d1 88 36 3f f4 2f 37 3f 13 80 57 3f
       0.55374515 0.71302515 0.71557546 0.841798
000020 ab f1 36 3f c1 69 2c 3f 11 b9 22 3f e3 d0 2b 3f
       0.71462506 0.6734887 0.6356364 0.6711561
000030 d4 08 3a 3f be 53 3c 3f 84 6c 30 3f d7 b1 41 3f
       0.7266972 0.7356528 0.6891558 0.7566199
000040 c8 87 72 3f 80 11 20 3f 67 79 29 3f 1b f0 14 3f
       0.94738436 0.625267 0.6620087 0.5817887
000050 86 23 1d 3f 76 96 39 3f b3 a3 5e 3f 1d af 30 3f
       0.6138233 0.7249521 0.86968535 0.690172
000060 8a 10 43 3f ae 63 4d 3f 83 b4 55 3f c5 e2 21 3f
       0.7619711 0.80230224 0.83478564 0.6323665
000070 f9 b7 51 3f 8c 1a 30 3f b9 e7 4b 3f 78 9d 32 3f
       0.81921345 0.6879051 0.79650456 0.6977153

layer1.0.downsample.1.bias f4 [32]
000000 1e 60 35 be 9e 33 30 3e c7 c1 3e bd 41 15 8e be
       -0.17712447 0.1720719 -0.04657152 -0.2775059
000010 49 7e 47 be 55 f7 ed 3d 4f 46 41 be 58 fb 71 be
       -0.19481768 0.116194405 -0.18874477 -0.23631036
000020 dd 07 cd 3b 2f 68 10 be f6 e2 fe bc 2d 57 13 be
       0.006257041 -0.14102243 -0.031114083 -0.14388724
000030 90 da 83 be 23 b9 0a be 84 b1 2d be 1a 4d 26 be
       -0.25752687 -0.13547187 -0.16962248 -0.1624035
000040 f6 ba 34 be 40 7a 08 be a3 c2 43 be 86 90 01 be
       -0.17649445 -0.13327885 -0.19117217 -0.12652788
000050 12 3f 1c be 64 58 6c be f7 a3 6c be 9a 5e 0f bc
       -0.15258434 -0.23080593 -0.23109423 -0.008750582
000060 dd 0b 03 be a0 e3 20 be 94 d5 06 bd ea 27 04 be
       -0.12797494 -0.15711832 -0.032918528 -0.12905851
000070 4d 56 c2 bd 64 8a b0 be 77 87 29 3c 0c 6b c8 bd
       -0.09489117 -0.34480584 0.010347239 -0.097860426

layer1.0.downsample.1.running_mean f4 [32]
000000 63 2c 3e 3f bd 9c e6 be b3 22 89 be e0 a2 c7 bd
       0.7428648 -0.45041457 -0.26784286 -0.09747863
000010 db da 12 bf 24 30 51 3e d2 52 fb be 5e 51 1d bf
       -0.57365197 0.2042852 -0.49086624 -0.6145228
000020 4a 47 55 bf 3b 2c 24 3e b4 51 10 bf c7 4b 99 be
       -0.83311903 0.16032498 -0.5637467 -0.29940626
000030 f1 43 a1 be 07 db 36 be e8 b4 a6 be 4a 41 1a 3f
       -0.31497148 -0.1785699 -0.32559896 0.60255873
000040 5e f6 ad be 0f 4c 99 bf eb 91 09 3f 59 4b 1f 3f
       -0.33977026 -1.1976336 0.5373828 0.62224346
000050 37 33 30 3f 83 3c a2 be 76 01 3b bf 56 6b 30 bf
       0.6882815 -0.31686792 -0.73049104 -0.6891378
000060 da 67 3f bf 80 08 7d bf 43 43 76 bf 39 b2 dd 3e
       -0.7476784 -0.98841095 -0.96196383 0.43300036
000070 86 73 aa be ba ed 65 bf 34 cb 02 bf f2 5a 37 bf
       -0.33291262 -0.89815867 -0.51091313 -0.71623147

layer1.0.downsample.1.running_var f4 [32]
000000 35 90 47 3f 36 8a b8 3e 87 58 cb 3e 91 d2 bb 3e
       0.7795442 0.36042947 0.39715979 0.36684087
000010 dd fa af 3e 57 c2 f6 3e ef 0e d0 3e 1b 2d 12 3f
       0.3437108 0.48195145 0.40636393 0.57100075
000020 bf 2a d5 3e ba 77 b6 3e b8 12 a7 3e 97 b8 63 3e
       0.41634175 0.3563822 0.3263147 0.22238384
000030 c8 84 aa 3e 3c f5 52 3e 61 ce f1 3e 97 3f 86 3e
       0.3330443 0.20601362 0.47227767 0.2622039
000040 d9 7d 88 3e 45 d0 09 3f 76 de 02 3f 9c c2 bb 3e
       0.26658514 0.5383342 0.511207 0.36671913
000050 93 f7 dc 3e da 8d db 3e 76 15 df 3e 4b 32 f9 3e
       0.43157634 0.42881662 0.4357106 0.48671183
000060 c3 2b e8 3e bf 46 15 3f 4d 35 2d 3f 86 25 98 3e
       0.45345888 0.58311075 0.67659456 0.29716128
000070 ff c6 c0 3e 25 ce 37 3f d8 21 c4 3e 58 3e e5 3e
       0.37651822 0.71798927 0.3830707 0.44774127

layer1.1.conv.weight f4 [32, 32, 3, 3]
000000 db c2 18 bc bc c8 06 3e 6a fd cd 3c 19 3e 88 ba
       -0.009323801 0.13162512 0.025145251 -0.0010394483
000010 b7 8a 55 be ae 9c 6d 3d 11 0d a4 bd e1 a1 0c 3d
       -0.20853697 0.05801075 -0.08010305 0.034334067
000020 e1 e1 eb 3d 65 08 27 3d bf db 3a bc 6b 51 99 bd
       0.11517692 0.04077949 -0.011404931 -0.07486232
000030 d3 f8 8c 3d 1d aa 98 bd 76 0c 99 bd 13 8a 65 3c
       0.06883397 -0.074543215 -0.0747308 0.01400997
000040 5c 9e 85 bd 63 fd d8 3c 44 38 c6 bc 1a c0 19 bc
       -0.06524345 0.026488012 -0.024196751 -0.0093841795
000050 1a 99 26 bd b9 fc 03 be c0 14 3c be a0 dd b5 3c
       -0.040673353 -0.12889375 -0.1836729 0.022200406
000060 4e 4f f0 bc fb e2 89 3e d3 50 b3 3d 61 8f 5a bd
       -0.02933469 0.26930985 0.0875565 -0.053359393
000070 32 20 44 bd a4 62 eb 3d b9 9c 49 3e 03 f0 83 3d
       -0.047882266 0.114934236 0.19688691 0.06442263
000080 14 05 87 be 66 1a b3 3d 31 29 12 3d 05 55 9a bd
       -0.26371062 0.087452695 0.035683814 -0.075357474
000090 1c 1d cc 3c ff 3a 5f 3e 39 40 1b 3e 55 3c 37 3e
       0.024916224 0.21799849 0.15161218 0.17894109
0000a0 87 6d 50 be 24 15 0a 3e c5 52 37 bd c8 5c 42 3b
       -0.20354281 0.13484627 -0.04475667 0.0029657353
0000b0 b3 28 39 bc 97 83 1d bd 1e 5f 17 bd 54 94 68 3d
       -0.011301207 -0.038455572 -0.036955945 0.05678208
0000c0 d1 81 bc 3d b7 bb 8f bb c6 11 94 3d 95 4f 69 3c
       0.09204448 -0.004386391 0.072299525 0.014240165
0000d0 63 44 50 3d 0f 79 00 be 62 88 75 bd 34 7f 2a be
       0.05084647 -0.1254618 -0.059944518 -0.16650087
0000e0 29 6b 90 bc 26 32 a6 3d bf ee e6 3d 13 58 ad bc
       -0.017629223 0.08115034 0.11276006 -0.021160161
0000f0 74 82 3c bd b9 5f 4f 3e 47 6c 76 bc cf a5 89 bd
       -0.046022847 0.20251359 -0.015040464 -0.067210786
000100 24 dc 33 3c 1f f5 a9 3d c1 d8 7a 3e 4d 09 1b 3d
       0.010977779 0.08298706 0.24496748 0.037850667
000110 98 3e 1d bd 62 15 8e 3e e8 7d f4 3d 7a b0 d3 3d
       -0.038389772 0.2775069 0.11938077 0.103363946
000120 7e dd fe 3c 59 b5 0d bc 76 ba bb bd b3 a7 be bd
       0.031111475 -0.008649194 -0.09166424 -0.0930933
000130 e3 79 a9 bd f0 a2 2c be 1e 7e 3a be 7e 05 30 be
       -0.08275201 -0.1685903 -0.18212172 -0.17189595
000140 f2 c4 75 bc 1b c3 14 be 8d b4 e8 3d 8b 63 0e 3d
       -0.015000569 -0.14527552 0.11362562 0.0347629
000150 c7 e5 fd bd 76 1a a8 bd e2 cf 91 3d cd 0f 29 3d
       -0.12397342 -0.08208172 0.071197286 0.041274834
000160 4d 7b 43 bd 5f 49 d5 3d 20 c6 6b 3e 44 39 29 3c
       -0.04772501 0.10414385 0.23024797 0.010328595
000170 b9 1c 3c 3e 1e 3c 31 bd 40 e5 ec 3d b7 aa bc 3c
       0.18370332 -0.043270223 0.115671635 0.023030622
000180 22 b3 93 be 4d 6b d9 bd 9c fe 6a 3d 58 d2 04 bd
       -0.28847605 -0.10616169 0.05737172 -0.032427162
000190 80 b5 33 3e bd 31 cd 3c 97 27 0b be 15 64 67 3d
       0.17549706 0.025048131 -0.13589321 0.05649193
0001a0 06 f5 93 be bf 59 cc bd b6 9c 55 be 65 39 af 3d
       -0.28897876 -0.09978055 -0.20860562 0.08555869
0001b0 17 fc ae bc e1 d6 89 bd 0b 39 3d bd 3a 88 a4 bc
       -0.02136044 -0.06730438 -0.04619698 -0.02008449
0001c0 24 c8 67 3c 73 31 b6 3d 1c 0f 0c 3e 8f 87 58 3e
       0.014146838 0.088961504 0.13677639 0.21145461
0001d0 48 dc c9 3c d1 1c fc 3c 7a de fe bd 77 53 08 3d
       0.024641171 0.03077546 -0.12444778 0.033282723
0001e0 d9 2b 22 3e 85 18 03 be 5e b7 db 3c eb fa 78 3e
       0.15837039 -0.12802322 0.026820835 0.24314468
0001f0 90 a2 7c bd c1 93 62 3d d5 23 97 bd 23 f7 e3 bb
       -0.06167847 0.05531669 -0.07379881 -0.006956951
000200 0f 4b 4c 3c 83 56 15 be ac b4 22 3d 4c 89 9f 3d
       0.012469067 -0.14583783 0.039723083 0.07789859
000210 7a 03 e7 3d 90 00 ba 3d a7 c5 a5 3d 86 61 4e bd
       0.1127996 0.090821385 0.0809434 -0.050385974
000220 c4 8d 1b be 86 bf 25 3c ef 14 ec 3d 1c fa cc 3d
       -0.15190798 0.0101164635 0.1152743 0.10008642
000230 57 f2 67 bd 2f 4d cb 3d 7a 3f 73 3e 08 49 11 3d
       -0.056627598 0.09926831 0.23754683 0.03547004
000240 c8 56 2d 3e 24 b5 b5 bd f2 4d 37 3c 61 58 8b 3d
       0.16927636 -0.088724405 0.011188017 0.06803966
000250 dd 08 89 3d 60 04 0e be c3 92 3c 3e 03 51 e7 3d
       0.06691144 -0.13868856 0.1841536 0.11294749
000260 fe cb 7f 3d 87 7e 4d 3e 75 c1 b4 3a d9 35 7d 3e
       0.0624504 0.20067798 0.0013790565 0.24727573
000270 a8 31 6a bb 4e 35 53 3d a6 d2 78 3d e2 12 a2 bd
       -0.0035735164 0.051564507 0.060747765 -0.07913758
000280 23 92 f5 bd db 72 a8 bb 98 17 1d 3e c6 f0 f0 3c
       -0.11990764 -0.005140645 0.15341032 0.029411685
000290 18 73 0b 3e cf 13 32 bb a3 89 75 3c 1c db 29 be
       0.13618124 -0.0027172451 0.014986428 -0.1658749
0002a0 35 76 41 be 85 b6 f2 bc 16 4b da bc 4f 85 02 3e
       -0.18892749 -0.029628048 -0.026647132 0.12746166
0002b0 be 0b f8 3d ad 72 5f 3e 1f 0c 64 3d 27 b9 10 be
       0.12111615 0.21821089 0.055675622 -0.1413313
0002c0 88 12 c3 3d 8d d1 6c bd dd 62 d2 3d 2a 30 95 3d
       0.09525019 -0.05781703 0.10272763 0.07284577
0002d0 df 9b 2a 3e 0f f7 66 3c 88 4b e7 3d a1 dd ff bc
       0.16661023 0.014096989 0.11293703 -0.03123361
0002e0 9e 5a f9 3d b7 15 75 bd ff 41 cd bd e0 34 a7 3d
       0.12175487 -0.059835162 -0.100223534 0.08164382
0002f0 bc c5 e7 bd 30 52 80 3e 4b f9 83 3e 1d b9 29 3e
       -0.11317012 0.25062704 0.25776133 0.16574521
000300 88 42 87 bd db 36 ce 3d 4f 54 e0 3d f0 c7 c7 bc
       -0.06604487 0.100690566 0.109535806 -0.02438733
000310 b5 70 30 3e 2f b6 7a 3d 8c a9 bb bd 66 d8 97 3d
       0.17230494 0.0612089 -0.09163198 0.074143216
000320 9e 61 27 3e d0 08 1c 3d 85 c8 40 3b 17 bd b1 3d
       0.16345832 0.03809434 0.0029416394 0.08678644
000330 ec 4b 56 3e 5a 91 ed 3d 08 46 b3 3e c3 da 09 3b
       0.209274 0.11599989 0.35014367 0.0021034933
000340 bc 1a a3 bd 46 08 90 3d f9 1a 14 3e 57 00 e7 3d
       -0.079640836 0.07032828 0.14463414 0.11279362
000350 3b 01 e5 3d 14 8f 0f 3d 59 43 78 bd 10 4f 8d 3b
       0.11181875 0.03504856 -0.060611103 0.0043124035
000360 9b 78 ce bb ae fd af bd 8e cc f7 3c c2 38 4e 3c
       -0.0063009984 -0.085933074 0.030248906 0.012586774
000370 73 d1 0b bd fc d9 86 3d 9b e1 4b 3d c0 8c bd 3c
       -0.034135293 0.06584546 0.0497757 0.023138404
000380 4b 7a 24 3d 9e dd d2 bc b0 07 d1 bd 74 37 5b 3d
       0.04015569 -0.025740441 -0.102065444 0.05351968
000390 1e 31 e9 3d 43 f3 94 3d 6c 4f a5 3d 90 f7 5c 3d
       0.113863215 0.07272961 0.08071789 0.05394703
0003a0 ac 26 cd bc fd 49 88 3e ec 47 89 be 47 19 81 bd
       -0.025042854 0.2661895 -0.26812685 -0.063036494
0003b0 14 05 b9 3b 17 01 5d 3b 59 5f a3 3b 85 ae d2 bd
       0.0056463573 0.0033722573 0.0049857316 -0.10287193
0003c0 0f da 33 3e 7d 22 ec 3d 95 44 d7 3d b4 f6 f2 3c
       0.17563652 0.115300156 0.10511128 0.029658653
0003d0 e5 cf 20 3e 84 56 f2 bb 9e e9 0c be ea 51 05 3c
       0.15704305 -0.0073955674 -0.13760993 0.008137206
0003e0 39 07 26 3d d1 ec a1 be 4e a2 9c 3c 4c 96 1e bd
       0.04053423 -0.3162599 0.019120362 -0.038717553
0003f0 29 73 d0 bd 7d 18 6d be 21 3a 3b be 73 19 94 bd
       -0.10178215 -0.23153873 -0.18283893 -0.072314166

layer1.1.bn.weight f4 [32]
000000 76 82 98 3f 9e 68 ae 3f 8c 3c 97 3f 18 47 ab 3f
       1.1914814 1.3625677 1.1815352 1.3381071
000010 c2 a9 bb 3f 74 38 ae 3f 77 ee aa 3f c7 01 a1 3f
       1.4661181 1.3610978 1.3354024 1.2578667
000020 26 21 b0 3f 16 33 8e 3f 24 6b ae 3f 14 48 a6 3f
       1.3760116 1.110934 1.3626447 1.2990746
000030 94 1c 9d 3f 1f 57 b1 3f 4e 4d 9d 3f c6 7e 94 3f
       1.2274346 1.3854712 1.2289217 1.1601188
000040 66 27 a1 3f 6d a1 b5 3f 09 50 ab 3f d5 c7 b5 3f
       1.2590148 1.4189888 1.33838 1.4201609
000050 59 67 a8 3f 78 18 97 3f d0 ed bc 3f 09 00 90 3f
       1.3156539 1.1804342 1.4760075 1.1250011
000060 53 be 9e 3f bd 96 b1 3f e6 ce b5 3f a9 83 aa 3f
       1.2401832 1.3874127 1.4203765 1.332143
000070 a1 8d a3 3f 77 50 e6 3f aa aa b9 3f 08 92 ae 3f
       1.2777597 1.7993306 1.4505208 1.3638315

layer1.1.bn.bias f4 [32]
000000 b7 4e ab be a7 8f 2f be 9e e5 eb bd 05 68 fa bd
       -0.33458492 -0.17144643 -0.115184054 -0.122268714
000010 37 d4 41 be c1 c6 5c be 9e 66 8f be 47 78 7c bd
       -0.1892861 -0.21560194 -0.28007978 -0.061638143
000020 1b d8 5b bd 25 0b 33 be 9d 57 4b be 7d 8e 99 be
       -0.05367289 -0.1748472 -0.1985764 -0.29991522
000030 eb 2a 69 3c db 36 8f 3c a6 c7 fe bd bc 9e 84 be
       0.014231424 0.017482212 -0.12440424 -0.25902355
000040 2c eb 48 be 3d 7f 68 be 12 39 53 be 69 e6 b0 bd
       -0.19620961 -0.22704788 -0.2062724 -0.08637697
000050 f0 eb 1c be 66 cf 65 be 99 6a 5c be e4 2e 20 be
       -0.15324378 -0.22442397 -0.21525039 -0.15642887
000060 fd 1c f2 bd 25 6c 4c 3c 5f 22 cf bd b3 99 2c bd
       -0.11821935 0.012476956 -0.10113978 -0.042138766
000070 40 18 43 be b8 78 b9 be 3f 3d d9 3c 96 af b0 3d
       -0.1905222 -0.36224914 0.026518462 0.0862724

layer1.1.bn.running_mean f4 [32]
000000 91 22 d9 3f 43 7d 51 bf 52 5e 5e bf 5c cb 05 bf
       1.6963674 -0.8183176 -0.8686267 -0.52263427
000010 67 6a d1 bf db c2 d5 bf ae c1 27 bf 8a 78 cf bf
       -1.6360596 -1.670009 -0.65529907 -1.6208661
000020 d0 9b 0e c0 2f 7e 8b bf 13 59 1d bd 8f c7 d4 be
       -2.22826 -1.0897883 -0.038415026 -0.415585
000030 05 d4 d2 be 15 97 86 c0 e1 52 e8 bf 72 2c 7f 3e
       -0.41177383 -4.2059426 -1.8150293 0.24919298
000040 34 f3 c4 bf 44 a5 2b c0 c0 c5 9a bf 05 c0 46 bf
       -1.538672 -2.681962 -1.2091599 -0.7763675
000050 98 4b dc bf a9 7c 45 3e a2 95 90 bf 26 67 b8 bf
       -1.7210569 0.19285835 -1.1295664 -1.4406478
000060 a4 e5 13 be a8 21 bd bf 61 01 74 c0 03 dd db bf
       -0.1444307 -1.4775896 -3.8125842 -1.7176822
000070 e2 7a b9 bf 4e aa 00 bf 36 33 70 c0 9e b2 50 c0
       -1.4490626 -0.50259864 -3.7531257 -3.260902

layer1.1.bn.running_var f4 [32]
000000 85 e5 33 40 b7 0c 1f 40 17 72 26 40 d6 8d 45 40
       2.8108838 2.485151 2.6007135 3.086782
000010 08 77 52 40 fe 68 30 40 02 b6 36 40 ea ea 40 40
       3.288515 2.7564082 2.8548589 3.014338
000020 99 20 20 40 65 42 f1 3f f7 2e 14 40 a3 2f d2 3f
       2.5019896 1.8848387 2.3153665 1.6420788
000030 50 43 20 40 73 7b 69 40 e0 ea 3f 40 8a 4d 20 40
       2.5041084 3.6481597 2.9987106 2.5047326
000040 11 f8 57 40 30 87 50 40 bc 25 11 40 7b 64 55 40
       3.3745158 3.2582512 2.2679281 3.3342578
000050 6b f5 2b 40 e7 bf 1e 40 0c a3 56 40 2b a9 02 40
       2.6868541 2.4804628 3.3537016 2.0415752
000060 13 ca 0f 40 67 f2 3c 40 32 ff 67 40 77 02 0a 40
       2.2467086 2.952295 3.624951 2.1564004
000070 0c b3 17 40 df 20 23 40 79 02 75 40 34 16 89 40
       2.3703032 2.5488813 3.828276 4.2839603

layer2.0.conv.weight f4 [64, 32, 3, 3]
000000 7d c7 95 bc ae be 61 3e a0 cc 89 bc 18 77 3f bd
       -0.0182836 0.22045395 -0.016821206 -0.046744436
000010 05 a9 ae bc 3a d8 13 b9 30 df 1f 3e 36 62 b2 3d
       -0.02132083 -0.00014099563 0.15612483 0.087101385
000020 e4 c9 39 3e 19 20 69 bd 69 d1 f9 bd 40 09 9b 3d
       0.18143421 -0.056915376 -0.12198145 0.07570124
000030 30 21 d1 3c b2 43 3b be 8e 7b aa 3d 3a 73 3d be
       0.02552852 -0.18287542 0.083243474 -0.18500987
000040 7a 8b 41 be e2 73 8d 3d ea ef 81 3d c1 63 60 bd
       -0.18900862 0.069068685 0.06344588 -0.054782633
000050 5f 9d f0 3d 35 26 cd ba 68 55 f6 bc 69 93 5c 3e
       0.11748766 -0.0015651645 -0.030070022 0.21540608
000060 7a 2e 0c 3e f0 a7 18 bd 7b 8a f1 bd c8 ed c4 3d
       0.13689604 -0.037269533 -0.11793991 0.09615666
000070 88 62 20 3e 58 58 c9 3d c3 6a c5 bb e5 34 df 3d
       0.15662587 0.09831303 -0.00602469 0.10898761
000080 03 b2 06 bb 48 25 40 bd 76 94 d6 3d 57 b3 0a be
       -0.002055288 -0.046910554 0.104775354 -0.13544975
000090 47 78 18 be 03 69 4b 3d 43 c9 07 3e 8a 50 27 be
       -0.14889632 0.049660694 0.13260369 -0.16339317
0000a0 92 3b fa 3c 83 2f 21 be 99 8e 4f bd 2e c8 bb 3d
       0.030545983 -0.1574078 -0.0506731 0.091690406
0000b0 c9 03 e7 bd 43 44 ab ba 70 b2 eb 3d 08 b9 ad 3d
       -0.11280019 -0.0013066608 0.115086436 0.084825575
0000c0 57 41 13 be 6b 09 65 3e 1e 5e a9 3d 66 2d b4 bd
       -0.14380394 0.22366874 0.082699046 -0.087977216
0000d0 cd b0 cc 3d 50 69 bd bc 27 f1 5d 3e 2e 85 11 bd
       0.099946596 -0.023121506 0.21674024 -0.0355274
0000e0 12 19 96 bc d3 79 02 be e6 9b 03 be 47 47 6d bd
       -0.018322501 -0.12741785 -0.1285244 -0.057929303
0000f0 a1 68 b4 bd ca 7a 02 be 10 37 d4 3d dd df fc ba
       -0.08809019 -0.12742153 0.10362065 -0.0019292791
000100 9a a2 77 be 7f 20 52 bd fd 85 f6 3d c4 f7 bc bd
       -0.24183121 -0.051300522 0.12037275 -0.09226945
000110 3c 3f 2b be e0 01 46 be ff 27 8b bc b0 27 0c be
       -0.16723341 -0.19336653 -0.016986845 -0.13687015
000120 75 06 90 3d 90 63 8c 3d 05 14 75 3d 50 95 09 3e
       0.070324816 0.068549275 0.059833545 0.13435864
000130 8e e8 44 3d 16 3d 11 3d f8 a0 9b bc fe 62 d1 bd
       0.048073344 0.035458647 -0.018997654 -0.102239594
000140 7a 3f fd bd 7d 59 96 3d 64 8e 92 bc a1 a2 29 3d
       -0.12365623 0.07341287 -0.017890163 0.04141486
000150 d3 68 c2 3b 4f 7b 31 3e 99 f0 47 be a7 70 fd bd
       0.005932906 0.17332195 -0.19525374 -0.12375002
000160 bf 68 6f 3c f8 3c 8e bd b2 8c 85 bd 10 b3 3d 3e
       0.014612376 -0.069452226 -0.06520976 0.18525338
000170 f2 74 f0 3c 64 9f 39 be 5b 52 5c bd 82 e9 82 bd
       0.029352639 -0.18127209 -0.053789478 -0.06392194
000180 13 26 c4 bd 35 59 8c bd d2 35 c6 3b 45 2c dc 3d
       -0.095775746 -0.068529524 0.0060488963 0.10750631
000190 55 c0 83 3e 93 69 17 3e 80 fa c5 3d ba 82 d2 bb
       0.25732675 0.14786367 0.0966692 -0.006424275
0001a0 dd 17 00 be 27 bd af 3d cc 0a c9 3d c8 9e 1c bd
       -0.12509103 0.08581 0.098165125 -0.038237363
0001b0 7e 8f e5 bc 39 84 b3 3d 57 a9 8e 3e 60 d0 92 bd
       -0.028022524 0.08765454 0.2786357 -0.071686506
0001c0 e8 d9 08 3e 57 c8 6f bd 21 68 c3 bd 1b a8 ce bd
       0.13364375 -0.05854067 -0.095413454 -0.10090657
0001d0 fe b8 94 ba 51 19 2e be 86 c1 36 be 09 df c1 bd
       -0.0011346636 -0.17001845 -0.17847261 -0.09466369
0001e0 30 cd ef 3c 79 91 82 bc 48 79 19 be 3c 76 28 bd
       0.029272646 -0.015938507 -0.14987671 -0.041128382
0001f0 49 ed bc bd 92 7a 94 bd 8e b5 17 be 29 b7 2e be
       -0.09224946 -0.07249941 -0.14815351 -0.17062058
000200 25 19 3a be ac 60 1c 3d 76 81 11 3d a9 c5 c2 bd
       -0.18173654 0.03817813 0.035523854 -0.09510357
000210 45 1a 80 bc 5c c7 5a 3b 79 f6 13 be f4 ef 9a 39
       -0.015637526 0.0033382988 -0.1444949 0.00029551948
000220 6b 1f 65 bd 4a 9d f9 3c 0c 86 f0 bd 69 42 1b 3d
       -0.055938166 0.03047051 -0.117443174 0.03790513
000230 82 cd 2a be 1e 51 29 be 9d 56 1a be b9 46 67 bd
       -0.16679958 -0.1653485 -0.15072103 -0.05646393
000240 f3 90 12 3e f5 3b be bd 44 17 b8 3c 3a 28 c9 3d
       0.14313106 -0.0928878 0.022472031 0.09822126
000250 2f 07 48 bd d2 e1 32 3d e8 ad 57 3d 91 0b 83 bc
       -0.048834976 0.04367239 0.052656084 -0.015996726
000260 d8 fa c6 3c 56 2a 8b 3b e2 d0 06 be 77 63 3d 3d
       0.024289533 0.00424699 -0.1316562 0.046237435
000270 0d e3 75 3d 4a d9 81 be 29 ce 83 3d a4 f7 0b be
       0.060030986 -0.2536109 0.06435806 -0.13668686
000280 92 84 30 be 4e c2 dd bd b0 d9 09 3e 2a bb 59 3d
       -0.17238072 -0.10828076 0.13461947 0.05315701
000290 8e dd 38 3d 28 4b 2c bd c5 42 1b 3e 76 88 1c bd
       0.045133166 -0.042063862 0.1516219 -0.038216077
0002a0 40 c5 eb bd e8 3d 41 be b9 c2 64 be 67 6e 36 3e
       -0.11512232 -0.18871272 -0.22339906 0.17815553
0002b0 8a c6 ea 3d 12 88 8c bc 1b 79 87 3d ce 93 27 3e
       0.114636496 -0.017154727 0.06614896 0.16364977
0002c0 40 7e 46 3d 80 28 a1 3d 99 74 33 bb da a6 11 3c
       0.048460245 0.07869053 -0.002738273 0.008889878
0002d0 df 72 eb 3c 54 40 1b be 3b e7 e3 bd da f6 84 bd
       0.028741298 -0.15161258 -0.11128088 -0.06492396
0002e0 95 91 a1 bd e9 12 0f bd 16 ac 0a 3e 83 3b 5b bd
       -0.07889096 -0.034930144 0.13542208 -0.05352355
0002f0 d1 f1 7a 3e fa 58 f1 3d 90 31 4e 3e d7 b0 9c bd
       0.24506308 0.11784549 0.20136094 -0.07650917
000300 8d 1e 4f be 16 34 8a bd 00 1c 21 bc e0 a3 85 3c
       -0.20226498 -0.06748216 -0.009833336 0.016313493
000310 f6 ba a5 3d b3 e3 fd bd 1f 6c 52 bd 79 e5 0d be
       0.080923006 -0.12396946 -0.051372644 -0.13857068
000320 11 b0 94 bd af a0 c4 bb 84 db 7f be 7b 5c 22 be
       -0.072601445 -0.0060006003 -0.24986082 -0.15855591
000330 ea 78 43 3d 64 4f 11 be ba af 37 be c3 3e 2c 3e
       0.047722735 -0.14190441 -0.17938128 0.16820817
000340 19 7a 9a 3d 24 6a 1d be 7c 9a a2 3d 04 f4 0d bd
       0.075428195 -0.1537252 0.07939622 -0.03465654
000350 16 c3 a7 be 76 6c 0f 3e d9 fa c9 bd fc c0 8c be
       -0.32766026 0.14006218 -0.098622985 -0.27490985
000360 b7 b6 c4 bc c7 ff 11 3e 65 98 7e 3e fb be 9d bc
       -0.024012906 0.14257728 0.24862821 -0.019256106
000370 20 ba c8 3b 2a 44 03 3e fe cf dd bd b3 63 03 be
       0.0061257035 0.12818971 -0.10830687 -0.12831001
000380 4c fc 2e 3d 1a 1e e0 bd ba ee de bd dd 27 a5 3d
       0.042721078 -0.109432414 -0.10885377 0.08064244
000390 59 7c eb bd f1 9d 8e bd 61 76 3a 3d dc 61 83 bb
       -0.11498327 -0.06963719 0.04552305 -0.0040094685
0003a0 0d b2 10 3d e0 2a a0 bb 92 69 36 bd 02 c5 77 3c
       0.035326052 -0.0048879236 -0.044534273 0.015122654
0003b0 85 15 14 be 4a 0a fd bc d9 8d d5 3c 13 77 cf bd
       -0.14461334 -0.030888695 0.026068615 -0.101301335
0003c0 43 df 45 bd 68 75 34 be da 7e 90 be b4 b8 41 bd
       -0.048308622 -0.17622912 -0.2822178 -0.047295287
0003d0 94 0c 8c bd 99 4f 62 be bb 17 32 3e 94 01 14 bc
       -0.068383366 -0.22100677 0.17391865 -0.009033579
0003e0 05 29 69 be 02 ff 29 3e 86 e6 dc 3d 32 ce 7c bc
       -0.22769554 0.16601184 0.10786156 -0.01543002
0003f0 15 f3 0c 3d cc 21 e5 3d eb bd 00 3e 7d 25 1a 3e
       0.03441151 0.11188087 0.12572448 0.15053363

layer2.0.bn.weight f4 [64]
000000 d8 3e 94 3f b6 59 93 3f 37 11 9c 3f 1e a7 98 3f
       1.1581678 1.1511753 1.2192754 1.1926
000010 1e dc 90 3f af eb 94 3f 3c 21 97 3f 08 e7 8b 3f
       1.1317174 1.1634425 1.1807017 1.092988
000020 81 fc a0 3f 3e d0 92 3f 67 43 93 3f 81 49 84 3f
       1.2577058 1.14698 1.1504945 1.0334932
000030 5d 53 8e 3f db 72 8f 3f 48 92 99 3f 10 87 94 3f
       1.111919 1.1206926 1.1997766 1.1603718
000040 74 ab 96 3f 69 85 92 3f 36 52 91 3f aa c2 83 3f
       1.1771073 1.1446964 1.1353214 1.0293782
000050 3f 1c 97 3f 73 15 8a 3f 24 ce a3 3f 23 c0 93 3f
       1.1805495 1.0787796 1.2797284 1.154301
000060 d3 93 8e 3f 12 20 80 3f 48 5d 93 3f fb b3 9d 3f
       1.1138862 1.0009787 1.1512842 1.2320551
000070 b7 db 8c 3f 7f 30 9d 3f 32 eb 96 3f fb 91 86 3f
       1.1004552 1.2280425 1.1790526 1.05133
000080 6e d3 93 3f c1 73 8d 3f a7 b4 8d 3f 65 6f 9a 3f
       1.1548898 1.105095 1.1070756 1.2065245
000090 e9 fd 91 3f f3 b8 9a 3f 85 fc 86 3f d2 e3 93 3f
       1.1405612 1.2087692 1.0545813 1.15539
0000a0 47 33 99 3f 14 7a 92 3f d1 b4 a0 3f f4 8e 93 3f
       1.1968774 1.1443505 1.2555181 1.1528001
0000b0 a9 21 8d 3f a2 fa 96 3f f2 07 9b 3f 09 b4 86 3f
       1.1025897 1.1795237 1.21118 1.0523692
0000c0 c0 38 8c 3f da b4 8a 3f 39 23 85 3f d6 91 9d 3f
       1.0954819 1.0836442 1.0401374 1.2310131
0000d0 ad 5a 92 3f b7 f3 8d 3f 15 ea 92 3f 67 5e 93 3f
       1.1433922 1.1090001 1.1477686 1.1513184
0000e0 ed fe 85 3f 13 8a 94 3f 8f 5a 93 3f 54 73 8a 3f
       1.0468422 1.1604637 1.1512011 1.0816445
0000f0 ef 45 8c 3f 13 fe 9d 3f a2 0e a3 3f 49 1b 9a 3f
       1.0958842 1.2343162 1.273884 1.2039577
