old/student_models/large_res_students/student_1.pth (torch, 385904 bytes, 39 tensors)

conv_initial.0.weight f4 [16, 3, 3, 3]
-0.34401342 -0.022922698 0.15322219 -0.22402775 -0.19718166 0.35051087 -0.15814921 -0.10069875
0.3250983 0.009269813 0.04257511 -0.070471816 -0.13827908 0.011834118 -0.05687451 -0.05434007
-0.06082738 0.20214114 0.11040351 -0.13942759 0.03377064 0.16390821 0.050282214 -0.08263267
0.13946642 -0.027400104 -0.2590246 0.2830423 -0.09405067 -0.067333005 0.10061322 -0.17371146
0.066324994 0.0045117238 -0.082625814 -0.039565522 0.0200474 -0.12418122 -0.016696658 -0.07517239
0.057203252 -0.023906566 -0.17106459 -0.01163226 0.2958259 -0.020994868 -0.15478972 0.13455492
-0.14410742 0.020700412 0.14662753 -0.24610469 0.01678821 0.2554943 0.042689778 0.042649243
-0.075483404 -0.30996647 -0.18260519 0.059730332 -0.011421529 -0.05498915 -0.27472588 0.009318618
0.11514757 0.022398429 -0.15207994 -0.15880218 -0.13572393 -0.030902592 0.17052701 -0.027080024
0.19126132 0.1502593 0.37073073 0.043483626 -0.19241583 -0.036933817 0.13700145 0.14858688
0.13245897 -0.14252898 -0.1467007 0.05329316 -0.020508723 0.13450477 0.08589449 0.07932088
0.12246488 -0.045365613 0.0897879 0.15057132 0.046124965 0.070992835 0.1953031 0.14277153
0.101821706 0.17856176 0.15515953 -0.14089105 -0.22458817 -0.15043685 -0.27063233 -0.32884628
0.027467463 -0.2282055 -0.06504848 -0.09252857 -0.21027012 -0.23304963 0.02863711 -0.07508506
0.072574556 0.107649595 0.1293786 0.07956884 -0.036685288 -0.16255146 -0.12455852 -0.08068833
0.03204597 0.11850974 0.27586257 0.12096944 0.1638633 0.24072577 -0.032324027 -0.27506387
0.098805964 0.09929274 -0.06518001 0.34760925 -0.036831997 -0.10231055 0.09547089 0.086101204
0.10439602 -0.20015979 0.08478605 0.11407455 -0.15080965 0.01894219 0.043320812 -0.16679464
0.22710317 -0.14580917 -0.098725736 0.12999967 0.13390562 -0.1568285 0.05335731 -0.069168456
-0.04472818 0.24862556 -0.14106771 -0.08188488 0.20565881 -0.16444443 -0.16870427 0.31399164
0.059159134 -0.30251148 0.22830547 0.11541859 -0.095376454 -0.0029120867 0.045127053 0.05527256
-0.032285083 -0.204685 -0.07719194 -0.06002828 -0.16138083 -0.22734861 0.015453641 -0.2251557
-0.21243581 -0.010703939 -0.28980926 0.16766506 0.035192348 -0.09703155 0.096159115 0.037221175
-0.35605896 -0.15241362 -0.1583021 -0.268645 -0.0037567546 0.06990186 0.06954055 0.11135518
-0.17758927 0.105169706 0.05734452 -0.28410405 -0.12790404 -0.22877452 -0.12845026 0.15826808
-0.1719526 0.2519283 0.27795136 -0.021096671 -0.1985316 0.21226731 0.18288581 0.070601396
-0.17220329 -0.0351836 -0.0941452 -0.03780351 0.05124284 0.1670758 -0.14803967 -0.13611707
0.11969871 -0.22711787 0.12807664 0.063390225 -0.31333 0.2096165 0.18409625 -0.18269943
0.020340856 0.14406599 -0.19155914 -0.098355584 0.121078536 -0.055564255 0.14872459 0.066598296
-0.25751966 0.11545048 0.011882508 -0.18441224 0.20918949 0.15322469 -0.2122629 -0.0029624398
0.06318367 -0.21172622 0.18967293 -0.11874632 0.20509514 0.23349817 -0.08996643 0.14127013
0.30069622 -0.040319502 -0.003746961 0.1661295 -0.19190638 0.14546476 0.034203142 -0.13415186
00000000: 8722 b0be 62c8 bbbc 47e6 1c3e 8867 65be
00000010: fde9 49be 2976 b33e def1 21be 253b cebd
00000020: 4973 a63e 6ae0 173c 3d63 2e3d 8753 90bd
00000030: 0899 0dbe e3e3 413c 3ff5 68bd b193 5ebd
00000040: 2126 79bd 16fe 4e3e 3c1b e23d 1bc6 0ebe
00000050: 1553 0a3d 8ed7 273e b9f4 4d3d 513b a9bd
00000060: 49d0 0e3e 2f76 e0bc df9e 84be ecea 903e
00000070: a39d c0bd e3e5 89bd 4e0e ce3d 6be1 31be
00000080: 66d5 873d 15d7 933b b937 a9bd 750f 22bd
00000090: 723a a43c b952 febd 6ec7 88bc fbf3 99bd
000000a0: f54d 6a3d b4d7 c3bc 8e2b 2fbe 3c95 3ebc
000000b0: 7e76 973e 6efd abbc 3281 1ebe c4c8 093e
000000c0: e590 13be e993 a93c 8725 163e de02 7cbe
000000d0: 6e87 893c 26d0 823e 7adb 2e3d f9b0 2e3d
000000e0: 0b97 9abd edb3 9ebe dbfc 3abe cba7 743d
000000f0: 5d21 3bbc 4e3c 61bd dfa8 8cbe 1ead 183c
00000100: 7dd2 eb3d e97c b73c d8ba 1bbe 0a9d 22be
00000110: 37fb 0abe 6f27 fdbc a29e 2e3e edd6 ddbc
00000120: 02da 433e 93dd 193e 6bd0 bd3e e31b 323d
00000130: a808 45be ea47 17bd 1c4a 0c3e 2927 183e
00000140: 53a3 073e 1ef3 11be b538 16be ee49 5a3d
00000150: e901 a8bc 9ebb 093e 73e9 af3d fc72 a23d
00000160: dece fa3d 4bd1 39bd b8e2 b73d 5e2f 1a3e
00000170: 88ed 3c3d b164 913d 89fd 473e b332 123e
00000180: e687 d03d e5d8 363e 24e2 1e3e be45 10be
00000190: 71fa 65be 1e0c 1abe 5290 8abe 8a5e a8be
000001a0: 7203 e13c b4ae 69be 2338 85bd 9e7f bdbd
000001b0: 0d51 57be 90a4 6ebe 5f98 ea3c 32c6 99bd
000001c0: f8a1 943d 6477 dc3d d37b 043e fdf4 a23d
000001d0: 5043 16bd e473 26be 8a18 ffbd ec3f a5bd
000001e0: a342 033d 3cb5 f23d dc3d 8d3e d3be f73d
000001f0: c8cb 273e d180 763e 3366 04bd 2cd5 8cbe
00000200: c85a ca3d fe59 cb3d 197d 85bd d7f9 b13e
00000210: 26dd 16bd 3288 d1bd 3e86 c33d d455 b03d
00000220: 95cd d53d b0f6 4cbe 4fa4 ad3d eb9f e93d
00000230: d86d 1abe a72c 9b3c 2a71 313d 37cc 2abe
00000240: bc8d 683e 004f 15be b830 cabd a21e 053e
00000250: 8e1e 093e a697 20be 328d 5a3d 31a8 8dbd
00000260: e534 37bd b397 7e3e 0e74 10be 43b3 a7bd
00000270: 3998 523e 1f64 28be d0c0 2cbe 83c3 a03e
00000280: d950 723d c9e2 9abe e9c8 693e 9560 ec3d
00000290: bb54 c3bd b5d8 3ebb 25d7 383d 7b65 623d
000002a0: 5d3d 04bd f298 51be cf16 9ebd 37e0 75bd
000002b0: 0441 25be 13ce 68be 4531 7d3c 378f 66be
000002c0: c688 59be 935f 2fbc e161 94be 64b0 2b3e
000002d0: da25 103d 7ab8 c6bd 12ef c43d 3b75 183d
000002e0: 5c4d b6be 5112 1cbe f219 22be d68b 89be
000002f0: e233 76bb b528 8f3d 476b 8e3d 2f0e e43d
00000300: f6d9 35be 3763 d73d 16e2 6a3d 1676 91be
00000310: 47f9 02be de43 6abe 7788 03be 0711 223e
00000320: 5814 30be bffc 803e a44f 8e3e edd2 acbc
00000330: de4b 4bbe 9a5c 593e 6b46 3b3e 7797 903d
00000340: 0f56 30be ae1c 10bd 33cf c0bd dad7 1abd
00000350: 03e4 513d eb15 2b3e b697 17be 4662 0bbe
00000360: 9924 f53d 9691 68be 8626 033e bcd2 813d
00000370: ca6c a0be b5a5 563e ba83 3c3e 8f15 3bbe
00000380: dea1 a63c 0986 133e 1428 44be a76e c9bd
00000390: 06f8 f73d 5897 63bd 424b 183e b064 883d
000003a0: 9ed9 83be 4d71 ec3d daae 423c 90d6 3cbe
000003b0: c535 563e efe6 1c3e 725b 59be 7e25 42bb
000003c0: 7166 813d c2ce 58be 9f39 423e 4531 f3bd
000003d0: 7604 523e 251a 6f3e 5240 b8bd 1ea9 103e
000003e0: dbf4 993e 1026 25bd 938f 75bb da1d 2a3e
000003f0: 1b83 44be b7f4 143e 9818 0c3d 1b5f 09be

conv_initial.1.weight f4 [16]
0.8211666 1.1812612 0.754279 0.8776938 0.90345156 1.1202329 0.9294853 0.89850074
1.2318263 0.8038647 1.0767033 0.91756 1.0735354 1.0648274 1.0191036 0.96004415
00000000: f937 523f 9133 973f 6e18 413f 8ab0 603f
00000010: 9a48 673f cb63 8f3f c0f2 6d3f 2504 663f
00000020: 7cac 9d3f 14ca 4d3f 6ad1 893f 36e5 6a3f
00000030: 9c69 893f 444c 883f fd71 823f 74c5 753f

conv_initial.1.bias f4 [16]
-0.053547543 -0.13676749 0.09544309 0.12659757 -0.08139183 -0.057004724 -0.0006526217 0.1125595
-0.19009633 -0.113100804 -0.0865975 -0.1076957 -0.09683985 -0.14056486 -0.058710195 -0.068897225
00000000: ab54 5bbd c70c 0cbe ab77 c33d cba2 013e
00000010: c3b0 a6bd c97d 69bd b314 2bba 9885 e63d
00000020: 9da8 42be 65a1 e7bd 085a b1bd 908f dcbd
00000030: f953 c6bd 3cf0 0fbe 1a7a 70bd fd19 8dbd

conv_initial.1.running_mean f4 [16]
0.0060946634 0.00034602 -0.08162528 0.110552646 -0.03344439 0.0017790253 0.1255065 0.019950671
0.00021271335 -0.027444277 0.00019228055 -0.04104791 -0.000698079 -0.0016944006 0.010424342 0.004346425
00000000: beb5 c73b 056a b539 282b a7bd 6d69 e23d
00000010: fcfc 08bd 2f2e e93a c784 003e 976f a33c
00000020: ce0b 5f39 d2d2 e0bc eb9e 4939 da21 28bd
00000030: 4aff 36ba a616 deba dcca 2a3c 756c 8e3b

conv_initial.1.running_var f4 [16]
0.05122657 0.031611156 0.096544884 0.12043414 0.16707762 0.13044937 0.703156 0.022594066
0.040188447 0.11120421 0.016595367 0.144814 0.015200654 0.12069487 0.06838885 0.021823263
00000000: f4d2 513d b37a 013d 53b9 c53d 2da6 f63d
00000010: 6516 2b3e 8594 053e 0802 343f 3117 b93c
00000020: a49c 243d 08bf e33d 02f3 873c 1f4a 143e
00000030: 2a0c 793c df2e f73d 740f 8c3d b3c6 b23c

layer1.0.conv.weight f4 [32, 16, 3, 3]
-0.058067285 -0.041890167 0.03636559 -0.037647836 -0.10036733 0.064938284 -0.073677294 0.10030524
0.3278503 0.0018025908 0.1762485 0.051722478 0.044499308 -0.0042518238 -0.060863443 0.03215978
0.007543858 -0.033280965 -0.30089045 -0.21246183 0.10310261 -0.40306893 -0.04962467 0.20320155
-0.094737634 0.21040983 0.25746503 0.38048172 0.27778125 -0.13277689 0.34472358 -0.010224149
-0.5266867 0.1362902 -0.2043107 -0.25122637 -0.14041808 -0.04653313 -0.0565147 -0.09233397
0.0061080954 0.0073581273 0.13168149 0.05682881 -0.008550081 0.044337172 0.04144594 0.07174347
0.011861067 0.054689854 0.025210854 0.063036166 -0.04029608 -0.11762783 -0.03205965 0.0426466
-0.043216676 -0.05432396 -0.2063979 -0.11225212 -0.008237935 -0.00739546 -0.032021876 -0.12332276
0.065753244 0.2056698 -0.12190801 -0.075650714 0.16998123 -0.055009916 -0.111268826 -0.0966345
-0.0077473684 -0.0036731097 -0.018187076 -0.09009428 -0.037543032 0.019793821 -0.040002 0.04207336
0.03376258 0.03894909 0.04475431 0.020987587 -0.11166045 -0.05133229 -0.2023209 0.057645537
-0.1347752 -0.15378726 -0.13398862 -0.062802136 0.07223452 0.02384926 0.08156871 0.048172273
0.11984858 0.13055106 0.13573864 -0.057023082 -0.057422113 -0.019988831 -0.14002414 0.089698456
0.14732517 0.06783697 0.043110788 -0.03116377 -0.062215917 -0.10614158 -0.0607422 -0.093088105
-0.061346933 -0.050975215 -0.064902134 -0.029181382 0.037178505 -0.053076494 0.007444421 -0.012803516
-0.054119106 -0.05792429 0.037561037 -0.09833136 0.106716596 0.110338174 0.04916935 -0.082472466
-0.13462165 -0.0043606795 -0.107919835 0.009734041 0.01697078 -0.15777329 0.1324357 0.09464091
0.015113041 -0.16549654 0.0027614343 0.052887376 -0.0297419 -0.051159307 0.08382243 0.059429232
0.009659702 -0.13846834 -0.06800993 0.11702913 -0.030739311 -0.024067892 0.0502767 0.060036883
0.04240667 -0.2233144 -0.29296595 -0.01165655 -0.28724018 0.13554282 0.13638861 -0.03667183
-0.01265931 0.16942888 -0.07031779 -0.0590773 0.08477494 0.1506025 0.01309305 0.05569412
0.08526717 -0.030489257 0.033145607 -0.27875575 -0.075519435 -0.15046269 -0.005529236 0.049033985
-0.054113794 0.027676309 0.13036631 -0.0908349 -0.11473441 0.15361935 0.05641317 -0.021661915
0.06390344 -0.048575863 0.06850294 0.03892594 -0.052521884 -0.13839744 0.08357438 0.09383599
-0.41044268 -0.07903915 0.053835128 -0.16973913 -0.016588928 -0.0039192536 -0.19968493 -0.015289088
0.03017292 -0.075289205 0.07617794 0.021247186 0.052632388 0.12561417 0.20692271 -0.010352398
0.02560051 -0.01782402 0.050003175 0.03630521 -0.10939152 0.096241646 0.11257612 -0.07429004
-0.2156461 0.0869772 0.18712099 -0.29675084 0.10642158 -0.04128525 -0.2328347 -0.016244289
-0.094495185 -0.34706262 -0.1250223 -0.15027961 -0.19642735 0.11359083 -0.06477224 -0.09540919
0.06824867 -0.0051703183 -0.24729234 0.07112376 0.0018172915 -0.08936161 0.19799088 0.084019355
-0.04374949 -0.041708212 0.012398352 0.036492288 -0.050036486 -0.02204516 -0.06744553 -0.24722217
-0.05445236 -0.07746727 -0.11144201 0.020319562 -0.39832866 0.03564123 0.021303788 -0.42125687
00000000: f6d7 6dbd 0695 2bbd 16f4 143d 9e34 1abd
00000010: 638d cdbd 5dfe 843d 1fe4 96bd d56c cd3d
00000020: ffdb a73e e944 ec3a 7d7a 343e f3da 533d
00000030: e844 363d e252 8bbb f24b 79bd f9b9 033d
00000040: 7832 f73b 9f51 08bd 500e 9abe 988f 59be
00000050: 7627 d33d 0d5f cebe 3d43 4bbd 1114 503e
00000060: ce05 c2bd ad75 573e 75d2 833e 80ce c23e
00000070: 5839 8e3e aaf6 07be 9c7f b03e 3083 27bc
00000080: f1d4 06bf a88f 0b3e d336 51be bea0 80be
00000090: c2c9 0fbe 8699 3ebd f57b 67bd 9819 bdbd
000000a0: 6b26 c83b 721c f13b 83d7 063e 54c5 683d
000000b0: a415 0cbc e59a 353d 38c3 293d 3eee 923d
000000c0: ec54 423c 7802 603d fe86 ce3c 1b19 813d
000000d0: 810d 25bd dce6 f0bd fb50 03bd 34ae 2e3d
000000e0: f803 31bd cd82 5ebd f959 53be 71e4 e5bd
000000f0: 67f8 06bc 9d55 f2bb 5f29 03bd a590 fcbd
00000100: a3a9 863d 1b9b 523e e8aa f9bd c3ee 9abd
00000110: 8f0f 2e3e 1452 61bd e9e0 e3bd 4fe8 c5bd
00000120: a3dd fdbb 8eb8 70bb 10fd 94bc 5a83 b8bd
00000130: b9c6 19bd a726 a23c 23d9 23bd 1e55 2c3d
00000140: a24a 0a3d 1589 1f3d 4c50 373d 29ee ab3c
00000150: 3cae e4bd cf41 52bd 362d 4fbe ba1d 6c3d
00000160: 8302 0abe 687a 1dbe 5034 09be 689e 80bd
00000170: b1ef 933d 865f c33c 7f0d a73d 4a50 453d
00000180: 2c73 f53d 2daf 053e 12ff 0a3e 0991 69bd
00000190: 7333 6bbd 9ebf a3bc 7d62 0fbe d3b3 b73d
000001a0: 69dc 163e 1cee 8a3d f094 303d 2a4b ffbc
000001b0: 1ed6 7ebd c260 d9bd d0cc 78bd faa4 bebd
000001c0: ec46 7bbd 63cb 50bd 69eb 84bd cb0d efbc
000001d0: 7d48 183d bd66 59bd 54f0 f33b d7c5 51bc
000001e0: ffab 5dbd 0542 6dbd 9ad9 193d f461 c9bd
000001f0: 3b8e da3d fbf8 e13d cd65 493d 53e7 a8bd
00000200: 42da 09be 08e4 8ebb 1305 ddbd 877b 1f3c
00000210: 4e06 8b3c 528f 21be 399d 073e 18d3 c13d
00000220: b09c 773c ed77 29be 2ef9 343b 6fa0 583d
00000230: 49a5 f3bc 6c8c 51bd 18ab ab3d 116c 733d
00000240: ba43 1e3c a5ca 0dbe ca48 8bbd f8ac ef3d
00000250: 02d1 fbbc 072a c5bc f1ee 4d3d 3ce9 753d
00000260: 9eb2 2d3d 88ac 64be a2ff 95be 1dfb 3ebc
00000270: 2511 93be bdcb 0a3e 75a9 0b3e 3335 16bd
00000280: ff68 4fbc c47e 2d3e c602 90bd 0afb 71bd
00000290: 7c9e ad3d 8b37 1a3e 3b84 563c 841f 643d
000002a0: 8ea0 ae3d 9bc4 f9bc b0c3 073d 13b9 8ebe
000002b0: efa9 9abd e412 1abe 982e b5bb dcd7 483d
000002c0: 6da6 5dbd 6db9 e23c bf7e 053e a607 babd
000002d0: e0f9 eabd 644e 1d3e 7f11 673d 5474 b1bc
000002e0: cfdf 823d 7cf7 46bd 454b 8c3d ce70 1f3d
000002f0: 3021 57bd 0fb8 0dbe 0b29 ab3d 152d c03d
00000300: 8b25 d2be 47df a1bd 3982 5c3d 18d0 2dbe
00000310: 81e5 87bc 156d 80bb 357a 4cbe 157f 7abc
00000320: 332d f73c 3a31 9abd 2e03 9c3d 940e ae3c
00000330: 0f95 573d 00a1 003e 8ce3 533e 1b9d 29bc
00000340: 29b8 d13c ae03 92bc 21d0 4c3d c6b4 143d
00000350: a908 e0bd 571a c53d 4f8e e63d 6025 98bd
00000360: 55d2 5cbe 1a21 b23d a59c 3f3e baef 97be
00000370: 8ff3 d93d b91a 29bd 386c 6ebe be12 85bc
00000380: b186 c1bd 31b2 b1be d905 00be e6e2 19be
00000390: 4024 49be 4fa2 e83d 4fa7 84bd e565 c3bd
000003a0: f5c5 8b3d c66b a9bb 343a 7dbe 55a9 913d
000003b0: 2f32 ee3a 3803 b7bd 1fbe 4a3e 5712 ac3d
000003c0: aa32 33bd 3bd6 2abd 7522 4b3c f078 153d
000003d0: 0ff3 4cbd 0d98 b4bc e220 8abd cf27 7dbe
000003e0: 7009 5fbd 29a7 9ebd b53b e4bd 3675 a63c
000003f0: bcf1 cbbe 8afc 113d 4885 ae3c fbae d7be

layer1.0.bn.weight f4 [32]
1.1804531 1.1314672 1.0759318 1.1236216 0.9172299 1.1187012 0.92025673 1.2966248
0.99860466 1.1281296 1.28631 1.2788728 0.9186068 1.0363355 0.9467931 1.114413
1.2535305 0.964725 0.9612294 1.0369911 1.2053891 1.0276325 0.8682979 1.0076221
1.0527968 0.898717 0.8922979 0.9975189 0.8866112 1.2401767 1.0567982 0.79505956
00000000: 1619 973f ebd3 903f 22b8 893f d5d2 8f3f
00000010: 94cf 6a3f 9a31 8f3f f295 6b3f cdf7 a53f
00000020: 8ea4 7f3f 8d66 903f cea5 a43f 1bb2 a33f
00000030: d129 6b3f a4a6 843f 0861 723f 16a5 8e3f
00000040: b073 a03f 38f8 763f 2113 763f 20bc 843f
00000050: 314a 9a3f 7689 833f c548 5e3f c3f9 803f
00000060: 0cc2 863f 5112 663f a36d 643f 665d 7f3f
00000070: f4f8 623f 1cbe 9e3f 2a45 873f 0689 4b3f

layer1.0.bn.bias f4 [32]
-0.004753763 -0.07509547 -0.11233407 0.09139175 -0.017749388 -0.082615435 -0.27993482 -0.011154327
-0.06623188 -0.18773556 0.08743332 -0.13613872 -0.12343972 -0.17386642 -0.2398511 -0.048218008
-0.041061617 -0.07653891 -0.07576999 -0.07546574 -2.8818804e-05 -0.08048538 -0.04205714 0.07532903
-0.091212556 -0.07110676 -0.073768176 0.044987857 -0.14669095 0.08642859 -0.07662857 0.0060818596
00000000: 74c5 9bbb a7cb 99bd 680f e6bd 992b bb3d
00000010: 2a67 91bc 4832 a9bd 9e53 8fbe a3c0 36bc
00000020: 94a4 87bd c03d 40be 3e10 b33d f367 0bbe
00000030: f7cd fcbd 0a0a 32be 879b 75be 3f80 45bd
00000040: 3a30 28bd 6fc0 9cbd 4c2d 9bbd c88d 9abd
00000050: e9bf f1b7 85d5 a4bd 1c44 2cbd 1b46 9a3d
00000060: a6cd babd 6ca0 91bd c513 97bd 3045 383d
00000070: 2736 16be 7901 b13d 71ef 9cbd 564a c73b

layer1.0.bn.running_mean f4 [32]
-0.5091003 -0.83456045 -0.7240404 -2.5520735 0.05709952 -0.18448518 -0.32702374 -0.38426036
-1.5679486 -0.74651355 -0.69376653 -0.92818063 -0.16704679 -0.5130807 -1.1309626 -2.2890356
-0.5789731 1.1347432 -0.53468394 -0.55020463 -1.805769 -1.2440931 1.4044126 -0.8570759
-1.2166939 -1.2788101 0.19135061 -1.2633908 -1.7599317 0.1824732 -0.18697014 -1.0252185
00000000: 6654 02bf c1a5 55bf b65a 39bf 2c55 23c0
00000010: 30e1 693d afe9 3cbe a86f a7be c6bd c4be
00000020: 8ab2 c8bf 831b 3fbf af9a 31bf 3f9d 6dbf
00000030: 500e 2bbe 4259 03bf 62c3 90bf 8f7f 12c0
00000040: 9537 14bf 443f 913f 0ce1 08bf 36da 0cbf
00000050: 7023 e7bf 713e 9fbf cbc3 b33f 5469 5bbf
00000060: a0bc 9bbf 0db0 a3bf 6af1 433e cab6 a1bf
00000070: 7145 e1bf 41da 3a3e 1a75 3fbe 5c3a 83bf

layer1.0.bn.running_var f4 [32]
0.8196847 3.4881587 1.3289021 5.003988 2.4008834 1.778843 1.375689 1.8423179
3.7999032 4.3145785 3.99159 2.5269496 1.5134174 1.5916616 2.4240654 4.1344857
1.5391005 3.049032 1.3777194 2.1628003 3.7279453 3.3710477 3.0509167 1.9022225
2.8994658 1.4816487 1.1418427 2.1849983 2.960458 1.9807049 1.7027292 1.9651994
00000000: dbd6 513f fe3d 5f40 7719 aa3f ab20 a040
00000010: 13a8 1940 21b1 e33f 9416 b03f 13d1 eb3f
00000020: 9d31 7340 0711 8a40 3676 7f40 8bb9 2140
00000030: a9b7 c13f 91bb cb3f e323 1b40 b54d 8440
00000040: 3f01 c53f 5723 4340 1c59 b03f 526b 0a40
00000050: a896 6e40 3fbf 5740 3842 4340 077c f33f
00000060: d990 3940 aaa6 bd3f e727 923f 03d7 0b40
00000070: 2578 3d40 bd87 fd3f 08f3 d93f a78b fb3f

layer1.0.downsample.0.weight f4 [32, 16, 1, 1]
-0.05579795 0.18411683 -0.075796634 -0.46194306 0.18913274 -0.11624887 0.020839108 0.109238215
-0.07056722 -0.08284275 -0.010779861 -0.10585845 -0.018427134 0.10392804 -0.30299157 -0.015909635
-0.1316436 -0.3948574 -0.310588 0.16391899 0.23899347 0.06503726 -0.18401612 0.054893572
0.022755299 0.000286492 -0.20276798 -0.26053205 -0.0793129 -0.013574843 0.24596919 0.09893406
-0.027546102 0.19034472 0.23813401 -0.0035443685 0.099925704 0.04535892 -0.15207118 -0.17884637
0.0578605 0.120162874 0.014883071 0.31462753 0.23335539 0.15867227 -0.06160424 -0.13253689
-0.14501812 -0.13169323 -0.18094812 0.16842161 0.035146907 -0.043852054 -0.09163398 -0.23012413
-0.40539807 0.29745236 0.030054854 -0.025739282 0.11175998 0.092930876 -0.2860979 -0.2709022
-0.018196201 0.046741616 -0.10197701 0.021009382 0.08963347 0.31134638 -0.5060428 -0.12023348
-0.24472553 0.0108000245 -0.23428331 0.05468865 -0.23778442 -0.16534576 0.17638546 -0.07905258
-0.077828676 0.08963512 0.15503284 0.2102324 -0.29052797 -0.22590072 -0.006970609 -0.06483719
-0.12581018 0.033754203 -0.25255635 -0.14397609 0.10859017 -0.0675741 0.09457908 -0.035457898
0.12665832 0.23897626 0.029995728 -0.17928189 -0.009810639 -0.28269818 0.03577015 -0.0040145796
-0.31221494 0.16781674 0.07341355 0.1074791 -0.17895159 -0.268306 0.22536986 -0.19571324
-0.022066776 0.15810762 -0.17908049 -0.23051618 0.00878587 -0.038820066 -0.034834065 0.0072644227
0.14325556 -0.06423362 -0.2501003 -0.42277068 -0.06466174 -0.024222031 -0.141609 -0.1539937
0.21389095 -0.077474825 0.036499836 -0.047613442 0.03017422 -0.087577656 0.119557194 0.03129078
0.07604759 0.28461137 -0.3709563 -0.07746158 -0.16513863 -0.28042218 -0.41101578 -0.061088573
-0.30138966 -0.01458247 0.06727284 -0.2445923 0.27879566 -0.3304486 0.12790951 -0.15126233
-0.48375455 0.041231383 -0.12222705 0.04679049 -0.20339526 -0.13577613 0.09179203 0.19831686
-0.06322954 -0.10541456 -0.01395209 -0.15657695 -0.033966564 -0.37972182 0.1513068 0.04666408
-0.121136926 0.29393855 -0.34402433 0.15106909 -0.12710448 -0.24083245 -0.30323905 0.101217136
-0.086784914 -0.42448658 0.12391835 -0.275637 -0.18748799 0.21030095 0.16251613 0.13290489
-0.004128219 -0.16311596 -0.13298921 0.14025453 -0.09390267 -0.11666936 0.11045415 -0.044665992
-0.24850754 0.06176019 -0.033641607 -0.2203011 -0.31180412 0.048933756 -0.23064771 0.25588992
-0.072541274 -0.26581433 -0.004301725 0.12567575 -0.08315516 -0.2427026 0.4360022 0.06754226
0.12221179 -0.118256 -0.19164518 0.03446497 -0.11520494 0.23329265 0.24424648 -0.07108005
-0.16222556 -0.27098945 0.018998748 -0.13388473 0.1172703 -0.281223 0.032439098 -0.008229859
0.07401874 -0.14845037 -0.052193135 0.04359252 -0.2012037 -0.046296846 0.0336866 -0.51472616
0.03593359 0.27940902 -0.21447128 -0.32425132 -0.023411237 -0.013776935 0.25409544 0.16548768
-0.17068239 -0.22629657 -0.053234752 -0.107379615 -0.24718271 -0.008962824 -0.085763134 0.21152084
-0.031961076 -0.38841555 0.21235804 0.16034548 0.034462024 -0.4852909 -0.18815726 0.016445883
00000000: 648c 64bd 1f89 3c3e 443b 9bbd cd83 ecbe
00000010: 03ac 413e e313 eebd c7b6 aa3c 49b8 df3d
00000020: 8c85 90bd 76a9 a9bd 049e 30bc 51cc d8bd
00000030: 80f4 96bc 39d8 d43d b621 9bbe ec54 82bc
00000040: 94cd 06be c02a cabe 6405 9fbe 61da 273e
00000050: b4ba 743e 4132 853d b96e 3cbe 15d8 603d
00000060: 5269 ba3c 4e34 9639 69a2 4fbe 7564 85be
00000070: cd6e a2bd 0569 5ebc 59df 7b3e f19d ca3d
00000080: 5da8 e1bc bae9 423e 67d9 733e a348 68bb
00000090: d9a5 cc3d 46ca 393d 8cb8 1bbe 8123 37be
000000a0: 22ff 6c3d f417 f63d 20d8 733c dc16 a13e
000000b0: b7f4 6e3e fc7a 223e ba54 7cbd c0b7 07be
000000c0: a17f 14be 97da 06be 774a 39be b776 2c3e
000000d0: 34f6 0f3d 369e 33bd 99aa bbbd a9a5 6bbe
000000e0: 5690 cfbe ad4b 983e 9935 f63c 30db d2bc
000000f0: 6be2 e43d 8b52 be3d 6d7b 92be b1b3 8abe
00000100: 3310 95bc 2374 3f3d 53d9 d0bd de1b ac3c
00000110: c191 b73d cb68 9f3e 058c 01bf f93c f6bd
00000120: 5499 7abe 96f2 303c f7e7 6fbe 3501 603d
00000130: c27d 73be 6650 29be 649e 343e 52e6 a1bd
00000140: a464 9fbd 9e92 b73d eec0 1e3e 2a47 573e
00000150: 15c0 94be 8552 67be b569 e4bb 5cc9 84bd
00000160: 62d4 00be d941 0a3d 114f 81be 786e 13be
00000170: 8664 de3d 4a64 8abd adb2 c13d 4d3c 11bd
00000180: b8b2 013e 31b6 743e 9ab9 f53c ac95 37be
00000190: cdbc 20bc d1bd 90be b983 123d bc8c 83bb
000001a0: a3da 9fbe 27d8 2b3e d859 963d 011e dc3d
000001b0: 163f 37be 675f 89be 5bc7 663e 0d69 48be
000001c0: 62c5 b4bc f7e6 213e e060 37be 6f0c 6cbe
000001d0: 9cf2 0f3c ca01 1fbd 2aae 0ebd 650a ee3b
000001e0: 96b1 123e eb8c 83bd 260d 80be 6675 d8be
000001f0: 606d 84bd 486d c6bc f301 11be 86b0 1dbe
00000200: 3b06 5b3e 1fab 9ebd da80 153d 5006 43bd
00000210: ed2f f73c ea5b b3bd 67da f43d c32a 003d
00000220: d7be 9b3d 95b8 913e fced bdbe 2da4 9ebd
00000230: 1a1a 29be 7f93 8fbe a970 d2be 0338 7abd
00000240: bf4f 9abe 50eb 6ebc 58c6 893d 6776 7abe
00000250: 4ebe 8e3e 8f30 a9be b6fa 023e 83e4 1abe
00000260: adae f7be 3de2 283d 2d52 fabd 63a7 3f3d
00000270: d946 50be e608 0bbe 76fd bb3d 9313 4b3e
00000280: 7d7e 81bd 97e3 d7bd 4f97 64bc b555 20be
00000290: 8620 0bbd e66a c2be 2bf0 1a3e d622 3f3d
000002a0: a316 f8bd 1d7f 963e f523 b0be dbb1 1a3e
000002b0: ad27 02be c89c 76be 2642 9bbe ee4a cf3d
000002c0: 4abc b1bd 4e56 d9be e7c8 fd3d 4b20 8dbe
000002d0: dafc 3fbe 2259 573e a16a 263e 3818 083e
000002e0: 0346 87bb df07 27be 532e 08be e29e 0f3e
000002f0: 0b50 c0bd 58f0 eebd c935 e23d b0f3 36bd
00000300: c378 7ebe 41f8 7c3d c8cb 09bd 9d96 61be
00000310: caa4 9fbe c36e 483d ea2e 6cbe 0104 833e
00000320: 8590 94bd d118 88be 7cf5 8cbb 25b1 003e
00000330: 414d aabd 0887 78be ae3b df3e 9953 8a3d
00000340: 2d4a fa3d 3430 f2bd a23e 44be 242b 0d3d
00000350: 91f0 ebbd 45e4 6e3e c01b 7a3e 6b92 91bd
00000360: 751e 26be 21bf 8abe 43a3 9b3c 1419 09be
00000370: 692b f03d 76fc 8fbe dcde 043d 88d6 06bc
00000380: 2397 973d 6003 18be 78c8 55bd 128e 323d
00000390: 5808 4ebe c3a1 3dbd f6fa 093d 18c5 03bf
000003a0: 1a2f 133d b30e 8f3e 5c9e 5bbe 4504 a6be
000003b0: ecc8 bfbc a7b8 61bc cc18 823e 9a75 293e
000003c0: 5dc7 2ebe 4aba 67be af0c 5abd d8e9 dbbd
000003d0: 771d 7dbe cfd8 12bc 95a4 afbd eb98 583e
000003e0: 9ee9 02bd 67de c6be 6374 593e 9b31 243e
000003f0: 0d28 0d3d 0d78 f8be 4cac 40be 84b9 863c

layer1.0.downsample.1.weight f4 [32]
0.7092834 0.6767371 0.70648974 0.73796505 0.8027368 0.6873459 0.7947715 0.48594713
0.71195173 0.85079116 0.7119743 0.6282794 0.8125501 0.73158115 0.9241514 0.76404935
0.6481408 0.69664854 0.7869943 0.66692334 0.60686755 0.6443431 0.5381383 0.70691156
0.91405797 0.6499357 0.7162307 0.8469466 0.71322215 0.6528692 0.7557936 0.78321
00000000: 9993 353f a53e 2d3f 83dc 343f 47eb 3c3f
00000010: 2980 4d3f e7f5 2f3f 2576 4b3f 10ce f83e
00000020: 7842 363f 73cd 593f f343 363f ebd6 203f
00000030: 4903 503f e748 3b3f 3095 6c3f bd98 433f
00000040: 8eec 253f 8f57 323f 7578 493f 7dbb 2a3f
00000050: ac5b 1b3f abf3 243f 6ec3 093f 28f8 343f
00000060: b4ff 693f 3062 263f e55a 373f 7ed1 583f
00000070: ba95 363f 7022 273f b07b 413f 7380 483f

layer1.0.downsample.1.bias f4 [32]
-0.03901867 -0.21959831 -0.20793505 -0.1126251 -0.11483023 -0.26030362 -0.21460167 -0.22865474
-0.20133421 0.031796157 -0.2965421 -0.26134288 -0.2230035 -0.23624875 -0.46396366 -0.16272579
-0.22888552 -0.23216082 0.099124305 -0.17243342 -0.13744281 -0.24059601 -0.05363512 0.040128574
-0.04271161 -0.04091604 -0.013332786 -0.018396467 0.093767785 -0.17958677 -0.24042834 -0.2144932
00000000: 0ad2 1fbd 61de 60be edec 54be fda7 e6bd
00000010: 1d2c ebbd 8446 85be 8ac0 5bbe 7824 6abe
00000020: 8e2a 4ebe b03c 023d 5ed4 97be bcce 85be
00000030: 085b 64be 31eb 71be a58c edbe 97a1 26be
00000040: f760 6abe 91bb 6dbe af01 cb3d 6392 30be
00000050: cfbd 0cbe cd5e 76be 80b0 5bbd dc5d 243d
00000060: 5ff2 2ebd 9497 27bd c271 5abc 30b4 96bc
00000070: 5309 c03d 98e5 37be d932 76be 1ba4 5bbe

layer1.0.downsample.1.running_mean f4 [32]
-0.3630685 -0.37542263 0.5005248 -0.672189 -0.6207438 -0.36966607 -0.33976197 -0.7321453
-0.59587836 -0.73887706 -0.7886423 -0.3755782 -0.30313313 -0.26547936 -0.46534684 -0.63303614
0.027824732 0.39918432 -0.20518488 -0.42898226 0.8308631 0.08618963 0.658895 0.18504734
-0.45434588 0.60688835 0.08324125 -0.43545187 -0.05607123 -0.32071263 -0.1809207 -0.20784731
00000000: 1de4 b9be 6537 c0be 6522 003f 9414 2cbf
00000010: 11e9 1ebf df44 bdbe 48f5 adbe e06d 3bbf
00000020: 7c8b 18bf 0c27 3dbf 76e4 49bf c94b c0be
00000030: 4434 9bbe e9ec 87be f141 eebe a80e 22bf
00000040: b1f0 e33c e361 cc3e fc1b 52be 90a3 dbbe
00000050: 72b3 543f 3084 b03d 58ad 283f 0d7d 3d3e
00000060: 06a0 e8be 095d 1b3f 637a aa3d 8cf3 debe
00000070: f2aa 65bd 7234 a4be 4743 39be edd5 54be

layer1.0.downsample.1.running_var f4 [32]
0.19778074 0.2480427 0.3187297 0.6200988 0.26595256 0.24873164 0.50828177 0.34960976
0.4758498 0.8330417 0.6026444 0.5648621 0.53868574 0.27497894 0.24123476 0.64094716
0.29988313 0.33624038 0.39147967 0.4198148 0.5758848 0.4247318 0.32424375 0.34882227
0.40657476 0.53726494 0.31809354 0.45459786 0.20154318 0.28288478 0.43658295 0.3219108
00000000: 0987 4a3e e8fe 7d3e 8a30 a33e ccbe 1e3f
00000010: ef2a 883e 82b3 7e3e c11e 023f 0d00 b33e
00000020: 96a2 f33e 3942 553f e746 1a3f cd9a 103f
00000030: 4fe7 093f 0aca 8c3e 3f06 773e 1d15 243f
00000040: 488a 993e b327 ac3e 0670 c83e f7f1 d63e
00000050: 306d 133f 7276 d93e 4703 a63e d598 b23e
00000060: 912a d03e 328a 093f 28dd a23e 0dc1 e83e
00000070: 5661 4e3e 46d6 903e cd87 df3e 7ed1 a43e

layer1.1.conv.weight f4 [32, 32, 3, 3]
0.036244035 -0.26005086 -0.0066621914 -0.027304381 -0.06025388 0.16052864 -0.124057755 0.19998778
-0.1605472 0.056090143 0.25854388 0.22888732 -0.1305738 -0.084965505 0.011012948 -0.07919008
-0.23969042 0.035930775 -0.04188945 -0.042145766 0.10190887 -0.22183433 0.047779266 -0.034759656
-0.10113611 0.05645994 -0.09358505 0.026240993 -0.22146551 -0.009225167 -0.008859055 -0.06413072
-0.01596872 -0.0728299 0.17105843 -0.0005697911 -0.17094882 -0.2051903 -0.10682292 -0.0034393836
0.088109046 0.12746757 0.03812019 0.1287341 0.0048046405 0.08787678 0.05967055 0.06137298
-0.017963612 0.07193241 0.02321844 -0.07062691 -0.0512538 -0.06576754 -0.14498647 -0.098655
0.01969385 0.09711214 0.2003236 0.039380305 -0.08385757 -0.078952216 -0.13220447 0.07468311
-0.07352987 -0.17706905 -0.17382838 -0.09991689 -0.13749987 -0.14247182 -0.015629634 -0.03724957
0.15515988 -0.080699675 -0.119096324 0.14111961 0.043696735 -0.11620701 -0.014583721 0.21839145
-0.01254418 0.19345537 0.09875146 -0.06955947 0.08835759 0.1244699 -0.079278074 0.025703575
0.052033998 -0.09787562 0.00029970994 -0.08005922 0.036909457 0.023781812 -0.13342474 0.0763935
-0.1146308 0.0066092196 -0.11187617 -0.21229936 -0.009989069 -0.2430615 -0.06608544 -0.010595046
-0.021843374 -0.111891605 0.03939831 -0.013607678 -0.2062448 -0.0037580954 -0.034588896 -0.08768048
0.14739896 0.14655495 0.04715603 -0.23041901 -0.30917254 -0.07403916 0.067165084 0.05352804
-0.225124 -0.11660604 -0.03766739 -0.029378532 0.046276264 -0.101646006 -0.0012180597 0.22721863
0.01935259 -0.08167908 -0.22929789 -0.16730794 -0.12327148 0.025886284 -0.18267226 0.01537557
-0.08358621 -0.07948475 -0.015132453 0.072932884 -0.0016773492 -0.029741682 0.24208222 0.10933393
0.021669546 0.14578867 -0.05465206 0.032248035 0.025685119 -0.027455742 0.039360356 0.044639584
0.050434675 -0.102945216 0.14372437 0.13384022 0.012330873 0.22621797 0.013300787 -0.05186212
-0.19669099 -0.10259264 -0.045537762 -0.26465595 -0.16022097 0.011030353 -0.018650679 0.054295413
-0.006486444 0.097742245 0.03164287 0.19275683 0.083800726 -0.16649203 -0.07890135 -0.20702235
-0.17103606 0.17141049 0.07956841 -0.07641746 0.16167393 0.16323379 0.08143372 -0.122317165
-0.02017259 -0.013734807 -0.03196048 -0.14795835 -0.19387448 -0.18762799 -0.05071842 -0.17145567
-0.08646667 0.08382079 -0.02934628 -0.0973042 -0.11033689 0.015961101 0.021574683 0.14029087
-0.08012948 -0.16627328 -0.02221539 -0.12746394 -0.112724885 -0.020199606 -0.006580909 -0.007034209
0.17822102 -0.029141407 -0.1079707 -0.12816891 -0.06047823 -0.043273572 -0.12847379 -0.14710237
-0.03067192 -0.25995895 -0.19170064 -0.19430508 -0.16802785 0.041514117 -0.07525849 -0.08882487
0.04542636 0.031469747 -0.15264519 -0.024338748 -0.26274222 -0.006077217 -0.100120835 -0.11096044
0.03602071 -0.04077882 0.06614342 -0.015850628 -0.13906282 -0.023522235 -0.012805245 -0.1250724
-0.07967953 -0.113691404 0.08788736 0.038284134 0.11841379 -0.06928382 -0.08727466 0.07714937
-0.13718793 -0.14376694 -0.14895442 -0.14076377 -0.021115 -0.176031 0.12983674 0.092365004
00000000: a074 143d 6325 85be 834e dabb 70ad dfbc
00000010: c6cc 76bd 9f61 243e fe11 febd 99c9 4c3e
00000020: 7c66 24be c7be 653d dd5f 843e 7061 6a3e
00000030: 23b5 05be 6502 aebd a76f 343c 692e a2bd
00000040: 6871 75be 262c 133d 4694 2bbd 0aa1 2cbd
00000050: 99b5 d03d 8a28 63be 31b4 433d 2460 0ebd
00000060: 7320 cfbd 8a42 673d 85a9 bfbd 5af7 d63c
00000070: dbc7 62be 2825 17bc 9225 11bc f856 83bd
00000080: d5d0 82bc d827 95bd f129 2f3e 095e 15ba
00000090: 350d 2fbe 681d 52be fac5 dabd 4867 61bb
000000a0: 8472 b43d dc86 023e eb23 1c3d dfd2 033e
000000b0: 3f70 9d3b bef8 b33d 1b69 743d 3c62 7b3d
000000c0: 6d28 93bc 4d51 933d 9934 be3c d7a4 90bd
000000d0: 81ef 51bd 22b1 86bd 5577 14be a20b cabd
000000e0: ff54 a13c bbe2 c63d a121 4d3e 3e4d 213d
000000f0: 85bd abbd b3b1 a1bd 9c60 07be 75f3 983d
00000100: d496 96bd 9751 35be 1100 32be 3aa1 ccbd
00000110: c4cc 0cbe 22e4 11be b809 80bc 0193 18bd
00000120: 3be2 1e3e df45 a5bd c6e8 f3bd a981 103e
00000130: 59fb 323d f1fd edbd 8ff0 6ebc 02a2 5f3e
00000140: 1b86 4dbc 2a19 463e 353e ca3d 3275 8ebd
00000150: d3f4 b43d 13ea fe3d 8b5c a2bd 4e90 d23c
00000160: 9a21 553d 0373 c8bd 6322 9d39 17f6 a3bd
00000170: 5f2e 173d 13d2 c23c 7fa0 08be 3274 9c3d
00000180: 8ec3 eabd 2792 d83b 551f e5bd 0165 59be
00000190: 31a9 23bc 1de5 78be ce57 87bd d896 2dbc
000001a0: e0f0 b2bc 6d27 e5bd 1f60 213d bdf2 5ebc
000001b0: d631 53be 614a 76bb 16ad 0dbd d391 b3bd
000001c0: c1ef 163e 8012 163e ae26 413d f6f2 6bbe
000001d0: dd4b 9ebe d8a1 97bd d98d 893d 3840 5b3d
000001e0: e886 66be 26cf eebd 1f49 1abd 3fab f0bc
000001f0: 2e8c 3d3d c82b d0bd 4da7 9fba 00ac 683e
00000200: 5389 9e3c 5d47 a7bd 11cd 6abe c652 2bbe
00000210: c275 fcbd 790f d43c 700e 3bbe d1e9 7b3c
00000220: 3f2f abbd e7c8 a2bd 1cee 77bc d65d 953d
00000230: 80da dbba d4a4 f3bc 67e4 773e 78ea df3d
00000240: 5584 b13c a049 153e d7da 5fbd 8416 043d
00000250: 9969 d23c ddea e0bc 5338 213d ffd7 363d
00000260: 9794 4e3d f1d4 d2bd 7b2c 133e 690d 093e
00000270: 6e07 4a3c afa5 673e 8beb 593c 606d 54bd
00000280: 5d69 49be 171c d2bd ce85 3abd fc80 87be
00000290: f710 24be a7b8 343c 4fc9 98bc de64 5e3d
000002a0: 3c8c d4bb 162d c83d f49b 013d 0c62 453e
000002b0: b79f ab3d e37c 2abe 0897 a1bd abfd 53be
000002c0: 1424 2fbe 3b86 2f3e c3f4 a23d c280 9cbd
000002d0: da8d 253e c226 273e b9c6 a63d 6c81 fabd
000002e0: fd40 a5bc f507 61bc fee8 02bd 6582 17be
000002f0: 0887 46be 8d21 40be 1ebe 4fbd 1392 2fbe
00000300: 7015 b1bd 3caa ab3d 9c67 f0bc 6d47 c7bd
00000310: 4ff8 e1bd dbc0 823c 64bd b03c 69a8 0f3e
00000320: ed1a a4bd 8b43 2abe 0dfd b5bc e885 02be
00000330: 4edc e6bd a579 a5bc aaa4 d7bb 397f e6bb
00000340: 927f 363e f6b9 eebc be1f ddbd b63e 03be
00000350: 05b8 77bd a13f 31bd a28e 03be 01a2 16be
00000360: ae43 fbbc 5719 85be 2c4d 44be e9f7 46be
00000370: 7e0f 2cbe b50a 2a3d 2021 9abd d0e9 b5bd
00000380: fe10 3a3d 6ce6 003d 054f 1cbe 0e62 c7bc
00000390: 2686 86be 6423 c7bb 270c cdbd 3a3f e3bd
000003a0: 748a 133d b107 27bd 3476 873d 2dd9 81bc
000003b0: 7c66 0ebe b4b1 c0bc 17cd 51bc fb12 00be
000003c0: 052f a3bd 0ad7 e8bd 4afe b33d d3cf 1c3d
000003d0: ee82 f23d ade4 8dbd 0fbd b2bd 7d00 9e3d
000003e0: fe7a 0cbe a437 13be 8287 18be 6124 10be
000003f0: 5df9 acbc 7841 34be ecf3 043e dd29 bd3d

layer1.1.bn.weight f4 [32]
1.321832 1.4206241 1.2646431 1.4065678 1.123741 1.327999 1.4022353 1.2467251
1.3621165 1.3145865 1.1861011 1.2710364 1.2567254 1.2107478 1.1901505 1.2030097
1.2580614 1.3129841 1.1765935 1.1878226 1.4957249 1.2940357 1.4940535 1.4416201
1.333989 1.6474301 1.216954 1.1332831 1.5090244 1.1414881 1.3493006 1.4080362
00000000: ca31 a93f 03d7 b53f d3df a13f 6a0a b43f
00000010: bfd6 8f3f dffb a93f 727c b33f b094 9f3f
00000020: d559 ae3f 5f44 a83f 29d2 973f 52b1 a23f
00000030: 61dc a03f c9f9 9a3f da56 983f 39fc 993f
00000040: 2808 a13f dd0f a83f 9e9a 963f 920a 983f
00000050: ea73 bf3f f6a2 a53f 253d bf3f 0287 b83f
00000060: 27c0 aa3f fdde d23f 26c5 9b3f 6c0f 913f
00000070: b627 c13f 481c 923f e2b5 ac3f 883a b43f

layer1.1.bn.bias f4 [32]
-0.33273953 -0.2337456 -0.21748032 -0.14716813 -0.2876586 -0.118266076 -0.10996677 -0.38560483
-0.3569667 -0.19842903 -0.06553225 -0.12978585 -0.26567474 -0.2977484 0.038648847 -0.21961595
-0.13626757 -0.19217205 -0.32273173 -0.086025134 -0.15215504 -0.09357342 -0.2749377 -0.14274073
-0.18965603 -0.1340817 -0.017190984 -0.30696774 -0.2479418 -0.21815911 -0.13320369 -0.31024122
00000000: d65c aabe 025b 6fbe 29b3 5ebe 3eb3 16be
00000010: fd47 93be 7c35 f2bd 4236 e1bd ff6d c5be
00000020: 57c4 b6be fb30 4bbe c635 86bd 95e6 04be
00000030: 8506 88be 7a72 98be 414e 1e3d 01e3 60be
00000040: ba89 0bbe c0c8 44be 183d a5be f22d b0bd
00000050: 88ce 1bbe 6ca3 bfbd a2c4 8cbe a02a 12be
00000060: 3135 42be b74c 09be 1bd4 8cbc e02a 9dbe
00000070: 75e4 7dbe 1a65 5fbe 8c66 08be f0d7 9ebe

layer1.1.bn.running_mean f4 [32]
-3.1534204 -1.9850353 -0.37883967 -0.6057112 0.08968481 -0.70519346 -0.15217258 -1.456253
-0.75083065 -2.7826943 2.6436644 0.52252424 -2.0297902 -1.8219658 -0.12946883 0.24398226
-0.22886118 -3.5745113 0.3944708 -3.9145122 -0.9917822 -2.436175 -1.5202944 -2.3294547
-1.2591958 -1.5461265 -2.3076925 -1.3591722 -0.6513523 -0.8171385 -0.49794662 -3.2883482
00000000: a4d1 49c0 a315 febf 46f7 c1be e40f 1bbf
00000010: abac b73d 8f87 34bf 21d3 1bbe 8066 babf
00000020: 7036 40bf aa17 32c0 cc31 2940 26c4 053f
00000030: 15e8 01c0 2d36 e9bf 7a93 04be 7cd6 793e
00000040: 965a 6abe cbc4 64c0 14f8 c93e 5e87 7ac0
00000050: 70e5 7dbf 4bea 1bc0 0299 c2bf c915 15c0
00000060: 542d a1bf 79e7 c5bf 3cb1 13c0 5bf9 adbf
00000070: 06bf 26bf fd2f 51bf dcf2 febe 4c74 52c0

layer1.1.bn.running_var f4 [32]
2.2860608 2.7788157 2.3214104 2.894775 2.0946994 2.8284318 2.4534004 2.2606468
2.7811878 2.8475814 2.6695352 1.7261292 1.9445752 1.7603203 2.2583132 2.0079472
2.0948522 2.9694118 2.6031673 3.4814622 2.7649446 3.6980462 3.1187592 2.3035183
3.3967001 2.8307261 2.7953696 2.0092368 2.9307063 2.0980108 2.7985523 3.59622
00000000: d24e 1240 1ed8 3140 fd91 1440 fe43 3940
00000010: 8e0f 0640 0705 3540 8304 1d40 70ae 1040
00000020: fbfe 3140 c63e 3640 aad9 2a40 cdf1 dc3f
00000030: d7e7 f83f 2d52 e13f 3488 1040 3582 0040
00000040: 0f12 0640 d80a 3e40 4b9a 2640 47d0 5e40
00000050: daf4 3040 caac 6c40 c099 4740 d86c 1340
00000060: 8963 5940 9e2a 3540 56e7 3240 5697 0040
00000070: b190 3b40 cf45 0640 7b1b 3340 7828 6640

layer2.0.conv.weight f4 [64, 32, 3, 3]
-0.100837275 -0.13166682 -0.0096979495 0.00036716787 0.024912532 0.2187255 0.019128745 -0.05658618
0.26333117 0.08184637 0.07020037 0.1592978 0.048897363 -0.18124306 -0.2066099 0.15826046
-0.02950745 -0.22680554 -0.08728626 0.08479844 0.039400496 0.051441714 0.22783329 -0.09612912
-0.19611713 -0.24050999 -0.048324134 0.21104886 -0.14182696 0.00044934277 -0.0109999515 -0.13543108
0.10722414 0.10519542 0.11883794 0.14324658 0.156681 0.10277398 -0.1746452 0.10442424
0.0060903393 -0.14952673 -0.022310235 -0.29463518 -0.104287796 -0.0021550818 -0.3591492 -0.05634386
-0.23726471 -0.15784714 0.12062007 -0.19468905 0.0015741229 0.12065922 -0.117461726 0.07938758
0.031768844 -0.07778302 -0.03569223 0.15700577 -0.15566307 0.033985578 -0.030556882 0.03037276
-0.07544681 0.10383142 0.017604904 -0.17819731 0.17453602 0.020780314 -0.048843354 0.14192882
-0.027402896 -0.078732096 -0.20893073 0.062075447 -0.07506986 0.24365322 -0.08050652 0.14604491
0.15280335 -0.17592 0.16761887 -0.19178167 -0.024356091 0.01139044 -0.17657287 0.014085649
-0.012452857 -0.18664485 -0.022855634 -0.08486127 -0.08861721 -0.08842565 -0.007614762 0.033486184
0.1125898 -0.085502006 -0.08288273 0.08485556 -0.07323694 0.21620435 0.110001855 0.0026916696
0.05760624 0.021813305 0.20224047 0.21257162 -0.0055625434 0.04382484 0.15084015 0.01801622
-0.17189369 -0.028996592 -0.106864884 0.001353133 -0.11762016 -0.019633086 -0.09170912 -0.002169719
0.07616369 0.076614305 -0.0014897151 0.055724885 0.073374 -0.011202661 -0.060010508 -0.019984689
0.112254046 -0.16827275 -0.0678154 0.03694792 -0.15244325 -0.18355514 -0.27984884 0.1419972
-0.0026146667 0.03679673 0.031166105 -0.1528677 0.13896188 -0.009111533 0.07066551 0.21454632
-0.063947745 -0.08254395 -0.013327834 -0.18764837 0.030108804 0.040956244 -0.32799566 -0.13312064
0.11595215 -0.027947757 -0.004497361 0.0774374 0.0112674525 0.123957306 0.066435464 -0.03369445
-0.108314596 -0.071910165 0.019933756 -0.080104396 0.0057361163 0.006895426 -0.07897046 -0.1339545
0.04514688 0.0022300198 0.08983862 0.22891971 0.2764668 0.0059181945 -0.12066769 -0.08405775
-0.08834256 0.10714509 0.010005237 -0.04030905 -0.105914116 -0.20883295 -0.10727533 -0.1387203
-0.23857415 0.034562916 -0.0010981532 -0.11101856 0.10659563 0.17268391 -0.055581823 -0.0033179664
-0.13241808 0.016459797 0.09217993 -0.04616052 -0.16699907 -0.06663525 -0.032072607 0.14039735
0.26192173 -0.09671679 -0.09316244 0.083047345 -0.03652711 0.108317666 0.15851173 0.18411389
0.09987175 0.07692094 -0.08241513 0.02990261 0.08468343 0.15519774 -0.13121964 0.07540449
0.09487912 0.049736943 0.029370602 -0.019553266 -0.03950571 0.0040550553 0.0054920125 0.016534459
-0.07690452 -0.08649368 0.07994098 0.13055447 -0.047096573 0.07049668 -0.064348444 -0.18721506
-0.07712371 -0.05167997 0.13829173 0.18621777 -0.019349495 0.08032022 -0.11425978 -0.29511365
-0.016976018 -0.14589907 -0.13158208 -0.009981674 -0.059674505 0.051832303 -0.04378173 -0.07013431
-0.14796962 0.13628972 -0.13988617 -0.19222957 0.07744452 -0.037119705 0.19122435 0.09084268
00000000: c683 cebd abd3 06be 26e4 1ebc 7080 c039
00000010: 5e15 cc3c 94f9 5f3e e3b3 9c3c e9c6 67bd
00000020: 58d3 863e 129f a73d 36c5 8f3d f61e 233e
00000030: 9a48 483d c897 39be 8c91 53be 080f 223e
00000040: 9cb9 f1bc b63f 68be 24c3 b2bd ceaa ad3d
00000050: 6a62 213d 8cb4 523d 214d 693e 58df c4bd
00000060: eed2 48be 4048 76be 87ef 45bd 311d 583e
00000070: 163b 11be c495 eb39 2439 34bc 72ae 0abe
00000080: 5498 db3d b270 d73d 4e61 f33d 3baf 123e
00000090: fc70 203e 2a7b d23d 31d6 32be 60dc d53d
000000a0: 7891 c73b 891d 19be f4c3 b6bc 6cda 96be
000000b0: d794 d5bd 463c 0dbb 67e2 b7be d2c8 66bd
000000c0: 85f5 72be aea2 21be a807 f73d 915c 47be
000000d0: cd52 ce3a 2e1c f73d c68f f0bd f595 a23d
000000e0: 0c20 023d b44c 9fbd 0432 12bd 1fc6 203e
000000f0: 2466 1fbe 7634 0b3d 6d52 fabc 4bd0 f83c
00000100: db83 9abd 91a5 d43d 2938 903c 5b79 36be
00000110: 92b9 323e 7a3b aa3c f80f 48bd ca55 113e
00000120: 0a7c e0bc 4b3e a1bd f0f1 55be d342 7e3d
00000130: 3abe 99bd 3b80 793e 9ae0 a4bd cc8c 153e
00000140: 7b78 1c3e 5f24 34be 48a4 2b3e 6a62 44be
00000150: 6d86 c7bc f89e 3a3c 85cf 34be 7ec7 663c
00000160: 1107 4cbc d41f 3fbe bd3b bbbc bfcb adbd
00000170: f17c b5bd 8218 b5bd 4185 f9bb cf28 093d
00000180: 7b95 e63d ad1b afbd 6cbe a9bd c0c8 ad3d
00000190: 40fd 95bd ac64 5d3e a748 e13d b966 303b
000001a0: 85f4 6b3d d1b1 b23c 2018 4f3e 60ac 593e
000001b0: ff45 b6bb ad81 333d d775 1a3e c096 933c
000001c0: e604 30be 438a edbc fadb dabd 9c5b b13a
000001d0: d7e2 f0bd 91d5 a0bc fed1 bbbd d831 0ebb
000001e0: b5fb 9b3d f6e7 9c3d 8b42 c3ba c73f 643d
000001f0: 1c45 963d 5e8b 37bc 94cd 75bd eeb6 a3bc
00000200: 73e5 e53d b14f 2cbe cde2 8abd b456 173d
00000210: 151a 1cbe e1f5 3bbe 5948 8fbe b767 113e
00000220: d45a 2bbb 2bb8 163d 0f50 ff3c 5a89 1cbe
00000230: 064c 0e3e 8a48 15bc 14b9 903d 08b2 5b3e
00000240: 09f7 82bd cd0c a9bd fd5c 5abc e526 40be
00000250: bda6 f63c bcc1 273d 0cef a7be c750 08be
00000260: 5278 ed3d b2f2 e4bc 995e 93bb 8097 9e3d
00000270: 1f9b 383c 54dd fd3d 510f 883d 3103 0abd
00000280: 0bd4 ddbd a345 93bd 1e4c a33c c60d a4bd
00000290: 08f6 bb3b 07f3 e13b 44bb a1bd 5e2b 09be
000002a0: efeb 383d 8625 123b 4ffd b73d ee69 6a3e
000002b0: 0e8d 8d3e 6aed c13b 9f20 f7bd 7826 acbd
000002c0: f2ec b4bd e36e db3d 01ed 233c 1a1b 25bd
000002d0: 80e9 d8bd 4ed8 55be 2bb3 dbbd b20c 0ebe
000002e0: c84c 74be d891 0d3d e8ef 8fba b35d e3bd
000002f0: cf4e da3d 0dd4 303e c4a9 63bd 3d72 59bb
00000300: 9b98 07be b2d6 863c d5c8 bc3d d012 3dbd
00000310: ce01 2bbe 1078 88bd 915e 03bd 53c4 0f3e
00000320: 9b1a 863e 7413 c6bd f3cb bebd ba14 aa3d
00000330: 739d 15bd a7d5 dd3d e650 223e 5a88 3c3e
00000340: 8f89 cc3d ba88 9d3d 44c9 a8bd 52f6 f43c
00000350: 826e ad3d 28ec 1e3e 715e 06be ab6d 9a3d
00000360: fc4f c23d f7b8 4b3d 9e9a f03c 2c2e a0bc
00000370: bdd0 21bd 45e0 843b 57f6 b33b 4673 873c
00000380: 1e80 9dbd 9923 b1bd 19b8 a33d 12b0 053e
00000390: 56e8 40bd 9060 903d 1ec9 83bd 4eb5 3fbe
000003a0: 09f3 9dbd 60ae 53bd 599c 0d3e dfaf 3e3e
000003b0: d582 9ebc ed7e a43d 0801 eabd 2319 97be
000003c0: 4a11 8bbc 9166 15be 74bd 06be 2d8a 23bc
000003d0: 416d 74bd 1c4e 543d 7954 33bd 94a2 8fbd
000003e0: 5985 17be 888f 0b3e 523e 0fbe d4d7 44be
000003f0: 3c9b 9e3d d50a 18bd 51d0 433e ba0b ba3d

layer2.0.bn.weight f4 [64]
1.1482285 1.0489862 1.0556145 1.0953529 1.1740239 1.1645597 1.171643 1.133652
1.1549255 1.121885 1.110649 1.1639057 1.097928 1.14336 1.1772311 1.1068181
1.0802597 1.189052 1.1935253 1.2103423 1.2454177 1.2506977 1.2709887 1.2544812
1.1133878 1.2387823 1.2082205 1.2130983 1.1599547 1.1374034 1.0730078 1.1722901
1.3699983 1.1701429 1.1638615 1.0561194 1.1335635 1.1444684 1.1159573 1.0742066
1.1442252 1.1291646 1.1854056 1.1764922 1.1406189 1.1689419 1.070303 1.1506884
1.1178304 1.1784922 1.1329262 1.1718465 1.183735 1.1509429 1.1849607 1.253165
1.1297792 1.2343857 1.0546644 1.1466587 1.1897225 1.0947943 1.0728209 1.0879326
00000000: 27f9 923f 2e45 863f 601e 873f 8634 8c3f
00000010: 6a46 963f 4b10 953f 66f8 953f 821b 913f
00000020: 99d4 933f ed99 8f3f bf29 8e3f ddfa 943f
00000030: e888 8c3f 9f59 923f 82af 963f 37ac 8d3f
00000040: f345 8a3f db32 983f 70c5 983f 7fec 9a3f
00000050: d969 9f3f dd16 a03f c2af a23f d792 a03f
00000060: 7e83 8e3f 6b90 9e3f f8a6 9a3f ce46 9b3f
00000070: 6579 943f 6f96 913f 5258 893f 9a0d 963f
00000080: 1b5c af3f 3ec7 953f 6af9 943f ec2e 873f
00000090: 9c18 913f f17d 923f b0d7 8e3f 9a7f 893f
000000a0: f975 923f 7788 903f 5fbb 973f 4c97 963f
000000b0: cdff 913f e39f 953f b0ff 883f c249 933f
000000c0: 1115 8f3f d5d8 963f ba03 913f 11ff 953f
000000d0: a184 973f 1952 933f cbac 973f b667 a03f
000000e0: 9b9c 903f 5a00 9e3f 3eff 863f b6c5 923f
000000f0: d448 983f 3822 8c3f 3252 893f 6041 8b3f

layer2.0.bn.bias f4 [64]
-0.19454357 -0.2373407 -0.2141806 -0.1861367 -0.2827438 -0.13619976 -0.20282958 -0.17770101
-0.16451228 -0.2340888 -0.28718153 -0.18059911 -0.22206202 -0.21422699 -0.21943876 -0.15738435
-0.27263334 -0.10454248 -0.24366553 -0.16055813 -0.112652116 -0.24837738 -0.13626763 -0.10346439
-0.13506982 -0.26391822 -0.25377735 -0.17036162 -0.25514397 -0.18667547 -0.2038365 -0.28334096
-0.17974725 -0.21310754 -0.13527645 -0.25714177 -0.15064871 -0.16435161 -0.24267866 -0.044354856
-0.13295758 -0.27113777 -0.124872975 -0.122467354 -0.14289586 -0.21744487 -0.16774811 -0.17307524
-0.18619506 -0.23237987 -0.17252031 -0.166624 -0.18248048 -0.16317134 -0.16471536 -0.19894266
-0.15553032 -0.21225114 -0.2742022 -0.23979093 -0.1708932 -0.20296103 -0.22096387 -0.21242255
00000000: 6e36 47be 7109 73be 2952 5bbe 9e9a 3ebe
00000010: ccc3 90be f377 0bbe 8fb2 4fbe 41f7 35be
00000020: e875 28be f9b4 6fbe 7509 93be f9ee 38be
00000030: 3a64 63be 525e 5bbe 8eb4 60be 5d29 21be
00000040: 9996 8bbe 5e1a d6bd 7583 79be 5a69 24be
00000050: 27b6 e6bd a456 7ebe be89 0bbe 23e5 d3bd
00000060: be4f 0abe 4a20 87be 1bef 81be 4773 2ebe
00000070: 3ba2 82be db27 3fbe 84ba 50be 1112 91be
00000080: aa0f 38be dd38 5abe e985 0abe 16a8 83be
00000090: a843 1abe ca4b 28be c180 78be 70ad 35bd
000000a0: 0826 08be 92d2 8abe 67bd ffbd 2ad0 fabd
000000b0: 4b53 12be dea9 5ebe 29c6 2bbe a33a 31be
000000c0: eba9 3ebe fdf4 6dbe 2aa9 30be 7b9f 2abe
000000d0: 2adc 3abe 6316 27be 25ab 28be a0b7 4bbe
000000e0: 5743 1fbe 5d58 59be 3b64 8cbe c18b 75be
000000f0: a1fe 2ebe 04d5 4fbe 5a44 62be 4c85 59be

layer2.0.bn.running_mean f4 [64]
-1.7737132 -2.643346 2.3317826 -2.0406535 -0.6676644 -3.6739364 -1.4826179 -1.2135059
-3.7379591 -2.2091765 -4.662641 -1.2339739 0.22141415 -1.2372879 -0.8883485 -0.2722691
-2.8171978 -3.5323446 -2.606313 0.18830547 -2.5890281 0.58308524 -0.057117198 -1.848688
-2.1607637 -1.3710259 2.798207 -0.6873638 2.7417636 -4.8434644 0.23842292 -1.6179292
-3.67421 1.9466302 2.5214388 -1.129462 -4.159106 -1.2871379 -3.6979315 -6.268408
0.67961496 -1.5453734 1.343202 -2.3041131 -2.0767817 1.743881 -1.4333751 -0.8754079
-1.9910221 -2.651186 -0.63356864 -5.0366054 -2.7757645 -0.49150515 -3.3201005 -0.6430947
-1.385114 2.0115306 -2.1983294 -0.033385698 1.438508 -1.9775964 -1.5982251 0.71198744
00000000: 0909 e3bf 952c 29c0 ed3b 1540 119a 02c0
00000010: 0eec 2abf c621 6bc0 6cc6 bdbf 2954 9bbf
00000020: b93a 6fc0 2663 0dc0 5b34 95c0 dbf2 9dbf
00000030: 64ba 623e 735f 9ebf cf6a 63bf db66 8bbe
00000040: f84c 34c0 ef11 62c0 d5cd 26c0 26d3 403e
00000050: a3b2 25c0 1345 153f b9f3 69bd cfa1 ecbf
00000060: f449 0ac0 c77d afbf d315 3340 13f7 2fbf
00000070: 0e79 2f40 a9fd 9ac0 2325 743e 4e18 cfbf
00000080: 4226 6bc0 2e2b f93f 415f 2140 3692 90bf
00000090: 6517 85c0 efc0 a4bf e9aa 6cc0 cc96 c8c0
000000a0: 3ffb 2d3f ccce c5bf 0bee ab3f 9776 13c0
000000b0: fee9 04c0 7e37 df3f d678 b7bf bb1a 60bf
000000c0: d0d9 febf 08ad 29c0 8e31 22bf df2b a1c0
000000d0: 20a6 31c0 90a6 fbbe 877c 54c0 dba1 24bf
000000e0: 6a4b b1bf ebbc 0040 6eb1 0cc0 71bf 08bd
000000f0: 0821 b83f e121 fdbf a492 ccbf cf44 363f

layer2.0.bn.running_var f4 [64]
4.604043 3.8551507 5.964493 4.749073 4.460451 4.767295 5.088652 4.502626
4.2558703 3.7296119 3.8020186 4.045846 4.2988725 4.5527897 4.532459 3.9783463
4.0692005 3.8333874 4.5574327 5.794481 5.305022 3.2647595 3.535887 5.9985647
3.8698885 3.7783203 4.4320836 4.30817 3.7753627 3.7687056 5.426874 3.714059
4.0609446 5.0436726 5.213183 4.4779572 4.5578837 4.135174 4.3783054 6.698672
4.1220856 3.8649626 4.9134665 5.571604 4.177679 4.651689 4.4977546 5.3851953
3.985914 4.3834085 5.0661664 4.1535387 3.6930919 5.45272 4.5308595 3.9337711
4.433358 4.373715 5.4506035 3.8808253 4.086735 4.255662 4.8534093 4.624431
00000000: 5254 9340 caba 7640 20dd be40 68f8 9740
00000010: 04bc 8e40 ae8d 9840 3dd6 a240 8315 9040
00000020: 1730 8840 f6b1 6e40 4654 7340 9277 8140
00000030: 5d90 8940 74b0 9140 e709 9140 3a9d 7e40
00000040: e436 8240 3856 7540 7dd6 9140 636c b940
00000050: bdc2 a940 d2f1 5040 f94b 6240 3ef4 bf40
00000060: 41ac 7740 00d0 7140 a1d3 8d40 87dc 8940
00000070: 8b9f 7140 7932 7140 f4a8 ad40 25b3 6d40
00000080: 42f3 8140 c465 a140 65d2 a640 6d4b 8f40
00000090: 2fda 9140 5853 8440 141b 8c40 855b d640
000000a0: 20e8 8340 8c5b 7740 1e3b 9d40 944a b240
000000b0: 8caf 8540 a3da 9440 9bed 8f40 8553 ac40
000000c0: 3719 7f40 e244 8c40 091e a240 cae9 8440
000000d0: 9e5b 6c40 af7c ae40 cdfc 9040 e8c2 7b40
000000e0: 12de 8d40 79f5 8b40 586b ae40 715f 7840
000000f0: 88c6 8240 622e 8840 214f 9b40 57fb 9340
