old/student_models/baseline_res_students/student_4.pth (torch, 346486 bytes, 34 tensors)

conv_initial.0.weight f4 [16, 3, 3, 3]
0	0x3d3bfee2	0.045897372
1	0x3dc98813	0.09840407
2	0xbe6d7962	-0.23190835
3	0xbdc76c14	-0.09737411
4	0xbdf4236a	-0.11920817
5	0xbd9bdf22	-0.076109186
6	0x3dd35384	0.10318664
7	0xbdb71814	-0.089401394
8	0xbd4f17a4	-0.050559655
9	0x3d96bbad	0.07360015
10	0x3da06496	0.07831685
11	0xbe30a610	-0.17250848
12	0x3e429e17	0.19005619
13	0x3dfc9e3b	0.123348676
14	0x3dd43b7a	0.10362907
15	0x3e64e5cb	0.22353284
16	0x3e4bd3ef	0.19905065
17	0xbc8dbc34	-0.017301656
18	0x3e93373d	0.2875308
19	0xbe061303	-0.1309319
20	0xbe906bc0	-0.28207207
21	0x3e15022d	0.14551611
22	0xbd59b164	-0.05314769
23	0xbe9949d7	-0.29939148
24	0xbe389e86	-0.18029222
25	0xbd269e3f	-0.04067826
26	0x3a5d615f	0.00084449904
27	0x3e6e439d	0.2326798
28	0x3da8317d	0.08212564
29	0xbd9dca08	-0.0770455
30	0x3e6600a6	0.22461185
31	0x3e3bc8c9	0.18338312
32	0xbe173c5f	-0.14769123
33	0x3e8017b7	0.25018093
34	0xbe13233e	-0.14368913
35	0xbe50e069	-0.20398106
36	0x3e7c81ed	0.24658938
37	0x3e8f0b46	0.27938288
38	0xbd387fbe	-0.0450437
39	0x3e5c3fd3	0.21508722
40	0xbe0ca8f6	-0.13736328
41	0xbe7ca3b9	-0.2467183
42	0x3d9938d1	0.0748154
43	0x3c847d6e	0.01617309
44	0xbdd9d566	-0.10636406
45	0x3d9ab629	0.075542755
46	0x3c190399	0.009339237
47	0x3d3657df	0.044517394
48	0xbd62a225	-0.055330414
49	0x3be98cb6	0.0071273698
50	0xbd3d0041	-0.04614282
51	0xbe468d21	-0.19389774
52	0xbdedbda0	-0.11608434
53	0xbce6f319	-0.02819209
54	0x3da8f57b	0.08249947
55	0xbe575092	-0.21026829
56	0x3dc957d3	0.09831204
57	0x3d5d06cb	0.053961556
58	0xbd5c934f	-0.053851422
59	0x3d70d9d9	0.058801506
60	0xbcbcd5b0	-0.023051113
61	0xbe5d9900	-0.21640396
62	0x3df69db3	0.120417975
63	0x3d3525b8	0.044225425
64	0xbe1bb5e2	-0.15206102
65	0x3e1d4eca	0.15362087
66	0x3cb28b2a	0.021794874
67	0xbe80698a	-0.2508052
68	0x3e61b4ff	0.22041701
69	0x3d945d4a	0.07244356
70	0xbe65a234	-0.22425157
71	0x3e37031b	0.17872278
72	0x3e463b9a	0.19358674
73	0xbe84cbe3	-0.25936803
74	0x3d5368f7	0.051613774
75	0x3e86274c	0.26201856
76	0xbe69007f	-0.22754095
77	0xbc2831ea	-0.010265807
78	0x3e41521e	0.18878981
79	0x3a96277a	0.0011455857
80	0xbe2c6072	-0.16833666
81	0xbbdaf16d	-0.006681612
82	0xbc1771d1	-0.009243445
83	0x3e592eaf	0.21209215
84	0xbe3efb2f	-0.18650506
85	0x3e906a12	0.28205925
86	0x3e9c9ee0	0.30589962
87	0xbd9a16fc	-0.07523915
88	0xbca69db7	-0.020338876
89	0x3d7177ad	0.058952022
90	0xbdba975c	-0.09110901
91	0xbe20cbda	-0.15702763
92	0xbde1143a	-0.10990186
93	0x3e04520c	0.12921923
94	0xbe4887b6	-0.1958302
95	0xbe853809	-0.26019314
96	0xbde070e7	-0.109590344
97	0x3e1ac61b	0.15114634
98	0xbd2e3556	-0.042531334
99	0x3e14084a	0.14456287
100	0x3e10c9e9	0.14139523
101	0xbdea7300	-0.11447716
102	0x3e58b952	0.21164444
103	0xbe568c84	-0.2095204
104	0xbdc97df3	-0.09838476
105	0x3e584d59	0.21123256
106	0xbe1ada0d	-0.15122242
107	0xbdd9dc63	-0.106377386
108	0x3d9062d2	0.070500985
109	0x3cb3f9e3	0.021969741
110	0xbd7cd4bf	-0.061726328
111	0xbd990265	-0.0747116
112	0xbdb39000	-0.087677
113	0xbc84c593	-0.016207492
114	0xbd3e7657	-0.046499576
115	0xbca18853	-0.019718325
116	0x3dddc198	0.10827941
117	0xbdfaea16	-0.122516796
118	0x3e8e84b0	0.27835608
119	0xbd0a01b1	-0.03369302
120	0x3eab3f27	0.3344662
121	0xbe724383	-0.23658566
122	0x3c893833	0.01675043
123	0xbd0adbbd	-0.033900965
124	0xbd43ab20	-0.04777062
125	0x3e504f5f	0.20342778
126	0x3dcd68f1	0.100297816
127	0x3ca78f0e	0.020453956
128	0xbe4511aa	-0.1924502
129	0x3df34ad3	0.11879506
130	0xbeb51a32	-0.35371548
131	0xbe194862	-0.14969018
132	0xbe674bd3	-0.22587518
133	0xbcf5afac	-0.029990993
134	0x3e985510	0.29752398
135	0x3ba95541	0.0051676338
136	0x3e62f5d8	0.22164094
137	0x3e02dfa4	0.12780625
138	0xbe7eb8ae	-0.24875137
139	0x3e8aa64f	0.27080008
140	0x3e8a5635	0.27018896
141	0xbe39fd6c	-0.18163079
142	0xbdd09b67	-0.10185891
143	0xbdaff6f7	-0.08592027
144	0x3dd18eb6	0.10232298
145	0x3e7d5148	0.24738038
146	0xbd3bf494	-0.045887545
147	0x3d2e2128	0.04251209
148	0xbbab9923	-0.005236761
149	0x3e143c1a	0.14476052
150	0xbe508395	-0.20362695
151	0x3dba25b0	0.090892196
152	0x3e2b32ee	0.16718647
153	0xbd8a51d7	-0.06753891
154	0x3d917dbb	0.07104059
155	0xbe69ac4e	-0.22819635
156	0xbddcfc80	-0.10790348
157	0xbe26f033	-0.16302566
158	0xbc527794	-0.012845892
159	0xbde84c2f	-0.11342656
160	0xbdc084b7	-0.09400313
161	0xbe564ea7	-0.20928441
162	0x3e507bd2	0.20359734
163	0x3d14fc23	0.03637327
164	0xbc38a2a6	-0.011269247
165	0xbccfec3a	-0.025381196
166	0x3e9069ab	0.28205618
167	0x3e2fe551	0.17177321
168	0xbe3e6494	-0.18593055
169	0xbdbdad56	-0.09261577
170	0x3e49160e	0.1963732
171	0x3e052668	0.13002932
172	0x3d5ebd43	0.054379713
173	0xbe825417	-0.2545478
174	0xbdf57139	-0.11984486
175	0x3d8b58a7	0.068040185
176	0x3e179c83	0.14805798
177	0xbe258612	-0.16164425
178	0x3be3a029	0.006946583
179	0x3e151759	0.14559688
180	0x3d814ccd	0.06313477
181	0x3e62280e	0.22085592
182	0x3e14880f	0.14505027
183	0x3c367fb5	0.011138846
184	0x3e92d8e8	0.2868111
185	0xbdb2814b	-0.08716067
186	0xbe9c2afc	-0.30501544
187	0x3c9a0e03	0.01880551
188	0xbdcc257a	-0.099680856
189	0x3b71e059	0.0036907403
190	0xbd3b2894	-0.045692995
191	0xbe1f7604	-0.15572363
192	0x3d688b95	0.05677374
193	0xbea2b2a8	-0.3177693
194	0xbe25ef89	-0.16204657
195	0xbe502063	-0.20324855
196	0xbd97d1f2	-0.07413091
197	0xbd66d45d	-0.05635487
198	0x3cbb8108	0.022888675
199	0x3d0f9bb5	0.035060603
200	0x3d00c5c3	0.0314386
201	0x3caefbaa	0.021360237
202	0xbdc6f31c	-0.09714338
203	0x3da8fcd2	0.08251347
204	0xbdf407bf	-0.1191554
205	0xbe0815e6	-0.13289604
206	0xbd1fa884	-0.03897907
207	0x3e68fc28	0.2275244
208	0x3e9754b8	0.29556823
209	0x3d8464f9	0.064645715
210	0x3e42056d	0.18947382
211	0x3eb8980a	0.36053497
212	0x3c8cc77a	0.017184962
213	0xbd33d194	-0.04390104
214	0x3cf2bb22	0.029630248
215	0x3dfa71f7	0.12228768
216	0xbda33da7	-0.079707436
217	0xbe476f8f	-0.1947615
218	0xbe02d208	-0.12775433
219	0xbd994a33	-0.074848555
220	0xbbe28f3c	-0.0069140475
221	0xbe1ba93b	-0.15201275
222	0x3ea774c4	0.32706273
223	0x3e616901	0.22012712
224	0x3dc6b421	0.097023256
225	0xbc8701d1	-0.016480358
226	0xbdf89485	-0.12137703
227	0xbe2631a8	-0.1622988
228	0x3e636e20	0.22209978
229	0x3d780099	0.060547445
230	0xbe3a0375	-0.18165381
231	0x3de71be8	0.112846196
232	0x3e6dd363	0.23225169
233	0x3e7f514d	0.24933358
234	0xbdf260e7	-0.11834889
235	0xbc9c891b	-0.019108346
236	0xbe5a407a	-0.21313658
237	0x3ce79afb	0.028272143
238	0xbe456e72	-0.19280413
239	0x3cfd604d	0.030929709
240	0x3e5c0b0b	0.21488588
241	0x3da3ff1c	0.080076426
242	0x3e045fd9	0.12927188
243	0x3df75e3c	0.12078521
244	0x3e0eb118	0.13934743
245	0xbe8d5b15	-0.27608553
246	0x3bdaf294	0.0066817496
247	0x3dd90bfe	0.105979905
248	0xbc24a50a	-0.010049114
249	0xbdbd59ab	-0.092456184
250	0xbd8b0506	-0.067880675
251	0x3db79483	0.08963873
252	0x3e8c8afa	0.2744978
253	0x3ca4290b	0.020039102
254	0xbe8bf43e	-0.2733478
255	0xbe802022	-0.25024515

conv_initial.1.weight f4 [16]
0	0x3f562169	0.8364473
1	0x3f507694	0.81430936
2	0x3fa08165	1.2539488
3	0x3f8ac447	1.0841149
4	0x3f7035c3	0.93832034
5	0x3f70f220	0.94119453
6	0x3f5697b3	0.83825225
7	0x3f60279c	0.8756044
8	0x3f66a252	0.9009143
9	0x3f9a982d	1.207769
10	0x3f7e92c9	0.99442726
11	0x3f87850d	1.0587479
12	0x3f78e409	0.97222954
13	0x3f796265	0.97415763
14	0x3f6384ac	0.88874316
15	0x3f90780d	1.1286637

conv_initial.1.bias f4 [16]
0	0x3e97a973	0.29621467
1	0xbd1db09c	-0.038498506
2	0x3d1c584f	0.038170155
3	0x3c556f48	0.01302702
4	0xbc8ab49e	-0.016931828
5	0x3c74f80c	0.014951717
6	0xbe0211b1	-0.12702061
7	0x3c0569f9	0.008142942
8	0xbe5126da	-0.20424977
9	0xbe0e87fb	-0.1391906
10	0xbd77804a	-0.06042508
11	0xbc4abc80	-0.012374043
12	0xbd312803	-0.04325105
13	0x3d956f10	0.07296574
14	0xbe00bffa	-0.12573233
15	0x3993adbe	0.00028167473

conv_initial.1.running_mean f4 [16]
0	0x3d1df75a	0.03856597
1	0x3c8008d8	0.015629217
2	0xbb898efd	-0.0041979537
3	0x3ca1d90d	0.019756818
4	0x3d18ee54	0.037336662
5	0x3dacd0e5	0.08438281
6	0xbd3540fc	-0.044251427
7	0xbe0224dd	-0.12709375
8	0xbc5c973c	-0.013463791
9	0xbb26eda1	-0.0025471228
10	0x3b55f66f	0.0032648107
11	0x3bafe717	0.005368124
12	0xbbcad6a7	-0.0061901393
13	0x3b5cb6ec	0.0033678366
14	0x3d48223a	0.048860766
15	0xbb55a6c7	-0.0032600628

conv_initial.1.running_var f4 [16]
0	0x3da74139	0.08166737
1	0x3e1681a0	0.14697886
2	0x3d074ee1	0.03303421
3	0x3cc1736b	0.023614606
4	0x3cfb5051	0.030677946
5	0x3dc4ab49	0.096029826
6	0x3e5383a4	0.20655686
7	0x3e18b062	0.14911035
8	0x3e443f09	0.19164671
9	0x3c9e9e4e	0.019362595
10	0x3d08a63b	0.033361655
11	0x3df2050a	0.118173674
12	0x3d3538b4	0.04424353
13	0x3da38e8a	0.079861715
14	0x3f01cbe6	0.5070175
15	0x3dfd94d9	0.12381906

layer1.0.conv.weight f4 [32, 16, 3, 3]
0	0x3d8741de	0.0660436
1	0x3e0e8952	0.13919571
2	0xbcb27068	-0.021782115
3	0x3d924355	0.07141749
4	0x3d03aac8	0.03214529
5	0x3e2a7c73	0.16649036
6	0xbd81d4f4	-0.06339446
7	0x3d8dd047	0.069244914
8	0xbdd1c602	-0.10242845
9	0xbe0e2e1a	-0.13884774
10	0xbdcfed3a	-0.10152669
11	0xbd522a72	-0.05131001
12	0x3dd0baef	0.10191905
13	0x3d9d69b2	0.076861754
14	0x3c10770c	0.0088174455
15	0x3d93f0d9	0.072236724
16	0xbd96cee2	-0.073636785
17	0xbdb6f2af	-0.08933007
18	0xbda0f705	-0.07859615
19	0xbd9f3bc8	-0.07775074
20	0xbd4b12b9	-0.049578402
21	0x3e3cba45	0.18430431
22	0x3e08065b	0.13283674
23	0x3d047e12	0.032346793
24	0xbc733539	-0.014844232
25	0x3d4a7634	0.049429134
26	0x3d5ec39a	0.05438576
27	0x3ea156ff	0.31511685
28	0x3d962ffe	0.073333725
29	0xbd3a1837	-0.04543325
30	0xbdfd668d	-0.12373076
31	0xbd3153f1	-0.043292943
32	0xbd505f0d	-0.050871897
33	0xbf01d993	-0.50722617
34	0xbe7013c7	-0.23445044
35	0xbe9dce6a	-0.30821544
36	0x3dc9ee1a	0.098598674
37	0x3d109a2a	0.035303272
38	0x3e1205e0	0.14260054
39	0x3e31c531	0.17360379
40	0x3e005ffa	0.12536612
41	0x3d143953	0.03618748
42	0xbe238cdf	-0.15971707
43	0x3c7ad105	0.015308623
44	0xbd3090f4	-0.043106988
45	0x3e6a1a62	0.22861627
46	0x3d7f5264	0.062334433
47	0x3db83d09	0.089960165
48	0x3def0653	0.11671128
49	0xbdefc2ee	-0.11707102
50	0xbd8847d1	-0.06654323
51	0xbe257428	-0.16157591
52	0xbea4458e	-0.32084316
53	0xbe4c31b6	-0.19940838
54	0xbdbb33fd	-0.09140775
55	0xbd09a4b4	-0.03360434
56	0xbe04b1b3	-0.12958412
57	0x3c87731e	0.016534384
58	0x3d22d829	0.039756928
59	0x3d429ffc	0.047515854
60	0xbdc61aab	-0.09673055
61	0xbd54d176	-0.05195757
62	0xbe166227	-0.1468588
63	0xbdd4c85b	-0.10389777
64	0xbe42ab66	-0.19010696
65	0xbdb708a1	-0.08937193
66	0xbc99710f	-0.018730668
67	0xbc9ab107	-0.018883241
68	0xbafa0e77	-0.0019077797
69	0x3e589c8d	0.2115347
70	0x3e0c9791	0.13729693
71	0x3e17df85	0.1483136
72	0xbd85625e	-0.06512903
73	0x3d520579	0.05127475
74	0xbe5701ae	-0.20996734
75	0xbdcf01a3	-0.10107734
76	0xbe3fef6b	-0.18743674
77	0xbe0eba0d	-0.1393816
78	0x3cd40ffa	0.025886524
79	0x3e174ab7	0.14774595
80	0x3e1e83ce	0.15479967
81	0xbcc5bba7	-0.024137331
82	0x3cfd011e	0.030884322
83	0x3bb3cdaf	0.005487166
84	0xbd9d8d32	-0.076929465
85	0x3dc0e1ab	0.09418043
86	0x3dd9414a	0.10608156
87	0xbd5b68ac	-0.05356662
88	0x3d124804	0.03571321
89	0x3d02301d	0.031784166
90	0x3ca5e203	0.020249372
91	0xbdb42a22	-0.08797099
92	0xbca5201b	-0.02015691
93	0xbe16d9d9	-0.1473154
94	0xbd9ec4ca	-0.07752378
95	0xbd2028e1	-0.039101485
96	0xbc8d2485	-0.017229328
97	0x3b8627cc	0.0040940996
98	0x3e021502	0.12703326
99	0x3cde1a0a	0.027112026
100	0x3da02213	0.07818999
101	0x3e0300f4	0.12793332
102	0xbaeacade	-0.0017913242
103	0x3d81e2b7	0.063420705
104	0x3e04d7ec	0.12972993
105	0x3e3bd87f	0.18344305
106	0x3e247b5b	0.16062681
107	0x3e1233d1	0.14277579
108	0x3e022c40	0.12712193
109	0x3d8a4fd1	0.06753505
110	0x3d3fdd1b	0.046841722
111	0x3b081d0d	0.0020769269
112	0x3c183e3b	0.009292181
113	0x3dc17f44	0.09448102
114	0xbde142bb	-0.10999056
115	0xbbe690fe	-0.0070363274
116	0xbd4f98cb	-0.050682824
117	0x3c4d820c	0.012543213
118	0xbde0ce0a	-0.10976799
119	0xbc26c5cc	-0.010178994
120	0xbe18a684	-0.1490727
121	0x3d4e25b8	0.05032894
122	0x3c9622e4	0.018327184
123	0xbea93b3d	-0.33053008
124	0xbe49a8c7	-0.1969329
125	0xbe6ee763	-0.23330455
126	0xbdeb08cf	-0.114762895
127	0x3da84377	0.08215993
128	0xbd88e5cc	-0.06684455
129	0xbd5c284e	-0.053749375
130	0x3d9b8cf3	0.07595243
131	0xbc4455f3	-0.0119833825
132	0xbd89c517	-0.06727045
133	0xbcc12c45	-0.02358068
134	0x3cadf65a	0.021235634
135	0xbd6362a1	-0.05551398
136	0x3d7016f3	0.058615636
137	0xbd2e1215	-0.042497713
138	0xbd292f4b	-0.041304868
139	0x3e369f3b	0.17834179
140	0x3d260d3a	0.040539958
141	0xbe25b458	-0.16182077
142	0x3dca83fe	0.09888457
143	0x3c06a7a9	0.008218684
144	0x3e3cbfcb	0.18432538
145	0x3c5434c8	0.012952037
146	0x3da6de3d	0.08147857
147	0xbddd6601	-0.10810471
148	0xbde60902	-0.11232187
149	0xbd8f90cd	-0.070100404
150	0x3dbb3883	0.09141638
151	0xbcc775ad	-0.024348104
152	0x3d47c3b7	0.048770633
153	0x3e799e63	0.24376826
154	0x3e72b529	0.2370192
155	0x3d298eea	0.04139606
156	0x3d0e187b	0.034691315
157	0x3db55c6f	0.08855521
158	0xbbf5fb29	-0.0075067473
159	0x3e746c35	0.23869403
160	0x3d14563a	0.036215045
161	0x3d860fde	0.06545995
162	0xbe019ac5	-0.12656696
163	0x3df4793f	0.11937188
164	0x3e2a3e77	0.16625391
165	0xbddece01	-0.10879136
166	0x3e286a8c	0.16446894
167	0x3d6fe755	0.058570225
168	0x3b8414cf	0.004030801
169	0xbd113e0d	-0.035459567
170	0x3de31abd	0.11089084
171	0x3e5d132f	0.21589349
172	0x3d88cf0b	0.06680115
173	0xbd9adc50	-0.075615525
174	0xbd91ef8e	-0.071257696
175	0xbe9b54bd	-0.30338088
176	0xbe3a9f9d	-0.1822495
177	0x3d908258	0.07056111
178	0x3da2c264	0.07947233
179	0x3e0b4994	0.13602287
180	0x3e91747f	0.28409192
181	0x3e26994b	0.16269414
182	0xbd654476	-0.055973493
183	0x3d2215ee	0.039571695
184	0x3d4cd835	0.05001088
185	0xbda503d0	-0.08057368
186	0xbd9498bf	-0.072556965
187	0x3d74d351	0.05977184
188	0x3d55fbee	0.052242212
189	0x3e0dfe8a	0.1386663
190	0xbdcc7d2d	-0.09984813
191	0xbe304759	-0.17214717
192	0xbdb96c62	-0.090538755
193	0xbe516402	-0.20448306
194	0xbe882f48	-0.26598573
195	0xbe8950d0	-0.26819468
196	0xbe901770	-0.2814288
197	0xbe05633b	-0.13026135
198	0x3a466575	0.0007568219
199	0x3cb78337	0.022401435
200	0xbdc02643	-0.09382298
201	0xbe2cb035	-0.16864093
202	0xbe1ca0d0	-0.1529572
203	0xbdd42c30	-0.103599906
204	0x39c1cb81	0.0003696345
205	0xbe404ce7	-0.18779336
206	0xbd3d4bd3	-0.04621489
207	0x3cd7cf3f	0.02634394
208	0xbcc2a1af	-0.023758737
209	0xbd8d5419	-0.06900806
210	0x3da8b535	0.082376875
211	0xbc7b0672	-0.015321361
212	0xbc9aa898	-0.01887922
213	0x3d0f08c7	0.03492048
214	0xbca724e0	-0.020403326
215	0xbc1846c3	-0.009294215
216	0xbcaebae3	-0.021329349
217	0x3d055c07	0.032558467
218	0xbda978b1	-0.08274973
219	0xbcc68d4b	-0.024237296
220	0xbd7a6e08	-0.06114009
221	0xbcce379b	-0.025173
222	0xbd969c23	-0.073539995
223	0xbd9c34ef	-0.07627284
224	0xbe70fe61	-0.23534538
225	0x3c7b1205	0.01532412
226	0x3e698f1f	0.22808503
227	0x3d8eda23	0.069752
228	0x3d2a63ea	0.04159919
229	0xbdc15aea	-0.094411686
230	0xbe62ab97	-0.22135769
231	0xbd1740dc	-0.03692709
232	0x3cf08824	0.029361792
233	0xbd2c2209	-0.042024646
234	0xbc753269	-0.014965632
235	0xbd067545	-0.03282668
236	0xbdaa8302	-0.08325769
237	0xbd356f2b	-0.04429547
238	0x3c211852	0.009832459
239	0xbd93b356	-0.0721194
240	0xbe4201f4	-0.18946058
241	0x3dd65816	0.1046602
242	0xbae6772c	-0.0017583123
243	0x3e3c53d4	0.18391353
244	0x3d1e0d94	0.038587168
245	0x3da60bbe	0.081077084
246	0x3e269452	0.16267517
247	0x3d908431	0.070564635
248	0x3c820836	0.015873056
249	0x3dd3a2fe	0.10333823
250	0xbdfba8c9	-0.122880526
251	0x3ca33ba6	0.019925904
252	0x3e9b1218	0.30287242
253	0x3ea5079e	0.32232374
254	0x3e158ee3	0.14605288
255	0x3e8b342b	0.27188239

layer1.0.bn.weight f4 [32]
0	0x3f971c43	1.18055
1	0x3f801734	1.0007081
2	0x3f9b04de	1.211086
3	0x3f981656	1.1881816
4	0x3fa0f01f	1.2573279
5	0x3f8e4a44	1.1116414
6	0x3f993236	1.1968448
7	0x3fb0b9f4	1.3806748
8	0x3fb4b0bf	1.4116439
9	0x3f913d63	1.1346859
10	0x3fa70950	1.3049717
11	0x3f9acbe9	1.2093478
12	0x3fa0c5aa	1.2560322
13	0x3f9b7d51	1.2147619
14	0x3f9cb869	1.2243778
15	0x3f7da7a9	0.99083954
16	0x3fa46ac7	1.2845086
17	0x3fb13702	1.3844912
18	0x3fc4ff1b	1.5390352
19	0x3f8ac774	1.0842118
20	0x3fae0726	1.3595932
21	0x3fb00a0e	1.3753068
22	0x3f82458d	1.0177475
23	0x3f991176	1.1958454
24	0x3fa47a29	1.284978
25	0x3fa82978	1.3137655
26	0x3fa21a23	1.2664226
27	0x3fb1feb7	1.3905858
28	0x3f9f31d5	1.2437083
29	0x3fa727fc	1.3059077
30	0x3f960dd8	1.1722975
31	0x3f953e50	1.1659641

layer1.0.bn.bias f4 [32]
0	0xbc384dc6	-0.011249011
1	0x3d1b993d	0.037987936
2	0xbe710f8c	-0.23541087
3	0x3e207aad	0.15671797
4	0xbdfe1a90	-0.1240741
5	0xbd033443	-0.032032263
6	0x3d829cc1	0.06377555
7	0x3cf8f879	0.030391918
8	0xbd8670f1	-0.065645106
9	0xbd93926f	-0.07205664
10	0x3e31be4e	0.17357752
11	0x3d38c570	0.045110166
12	0xbe03f7f6	-0.12887558
13	0xbcbaf50e	-0.02282193
14	0x3c966f9b	0.018363765
15	0xbd0269d6	-0.031839214
16	0x3d49f137	0.049302306
17	0xbda75907	-0.081712775
18	0xbdf64a21	-0.12025858
19	0xbd885da3	-0.06658485
20	0x3dd97e67	0.106198125
21	0x3e23acb2	0.15983847
22	0xbd2607d9	-0.040534828
23	0x3d8d5732	0.06901397
24	0xbcd099f0	-0.025464028
25	0x3c3eba3f	0.011641084
26	0xbc525c02	-0.012839319
27	0xbdb4f24e	-0.088352785
28	0x3e228d3e	0.15874192
29	0xbc02040a	-0.007935533
30	0x3d942e90	0.072354436
31	0x3d52dcbc	0.05148004

layer1.0.bn.running_mean f4 [32]
0	0xbe919901	-0.28437045
1	0x3f6109f5	0.8790582
2	0x3ea0bb18	0.3139274
3	0xbeb4df09	-0.35326412
4	0xbf41b1f4	-0.7566216
5	0xbfbe30a4	-1.4858594
6	0x3ed104ed	0.4082407
7	0xbf45abc0	-0.77215195
8	0xbf7fc87f	-0.9991531
9	0xbf9e50e5	-1.2368437
10	0xbeb8842a	-0.36038333
11	0x3e9e67b3	0.3093849
12	0xbe3e6b0c	-0.18595523
13	0xbfb1cc5e	-1.3890493
14	0xbf818581	-1.0118867
15	0x3f1b9478	0.6077342
16	0xbf3e14ed	-0.7425068
17	0xbf4cb907	-0.7996983
18	0xbed7a817	-0.4212043
19	0x3ff29037	1.8950261
20	0xbff18e0b	-1.8871473
21	0xbf61a464	-0.88141465
22	0xbf3d2cca	-0.7389647
23	0xbedb5a88	-0.42842507
24	0xbf79f227	-0.9763512
25	0xc02312cc	-2.5480223
26	0x3e9b927b	0.30385193
27	0xbf94d52d	-1.1627556
28	0x40613a74	3.5191927
29	0xc0249d2c	-2.572093
30	0xbf5636d8	-0.83677435
31	0xbf235faf	-0.63817877

layer1.0.bn.running_var f4 [32]
0	0x3fca971e	1.5827367
1	0x400e2a2a	2.2213235
2	0x3fbb3602	1.4625857
3	0x3f90d585	1.1315161
4	0x4029749d	2.6477425
5	0x3feca5a5	1.8488051
6	0x3fa5f204	1.2964482
7	0x3fd64233	1.6738952
8	0x40087b3f	2.1325223
9	0x4018f063	2.389672
10	0x3fdd7912	1.7302573
11	0x3fdfc3ef	1.7481669
12	0x401b8466	2.429956
13	0x400c02ef	2.187679
14	0x401dfc72	2.468533
15	0x3fcb273a	1.5871346
16	0x3ff38b0a	1.9026806
17	0x401264d8	2.287405
18	0x4076b4cb	3.8547847
19	0x40324865	2.7856686
20	0x407ce91c	3.9517279
21	0x40078b0a	2.1178613
22	0x3ff8c06c	1.9433722
23	0x3fd95e44	1.6981893
24	0x405b9f78	3.4316082
25	0x406998e9	3.649958
26	0x401f07a0	2.4848404
27	0x40137df7	2.3045633
28	0x40bc0857	5.876018
29	0x40b68eab	5.7049155
30	0x3ffeb971	1.9900342
31	0x3f6d891b	0.9278733

layer1.0.downsample.0.weight f4 [32, 16, 1, 1]
0	0xbdbed0ac	-0.09317145
1	0xbe47e990	-0.19522691
2	0xbbd406ff	-0.0064705606
3	0xbeedc1c1	-0.46436885
4	0xbd5ab6f0	-0.05339712
5	0xbd0b7eb1	-0.03405637
6	0xbe315425	-0.17317255
7	0x3e5fbf5d	0.21850343
8	0x3e7879b7	0.2426518
9	0x3e0ed395	0.139479
10	0x3d9a933d	0.07547615
11	0xbe6ad947	-0.22934447
12	0x3b50b3a6	0.003184536
13	0xbe1ed42c	-0.15510625
14	0xbd838f13	-0.064237736
15	0xbeab6ed5	-0.33482996
16	0xbe9d31fc	-0.30702198
17	0xbc04b447	-0.008099622
18	0xbd65c26e	-0.056093626
19	0xbed21fcf	-0.41039893
20	0x3dac2c84	0.08406928
21	0xbeace80d	-0.3377079
22	0x3c875417	0.01651959
23	0xbd0e7499	-0.034779165
24	0xbdfa4537	-0.12220233
25	0x3d6888d6	0.056771122
26	0x3cec93d9	0.028879093
27	0x3dd7b258	0.10532063
28	0x3e66c701	0.22536851
29	0x3e18051b	0.14845698
30	0xbd642ef3	-0.055708837
31	0x3d9a5a0d	0.07536707
32	0xbe3bfbbb	-0.18357746
33	0x3dfb3b50	0.12267172
34	0x3db28a88	0.08717829
35	0xbdd1f38a	-0.102515295
36	0x3e7fa151	0.24963881
37	0xbd25257f	-0.040318962
38	0xbdd4ba90	-0.103871465
39	0x3e2d21df	0.16907452
40	0xbec2542e	-0.3795485
41	0xbebaa560	-0.36454296
42	0xbe213432	-0.15742567
43	0xbe291048	-0.16510117
44	0xbe3b9ce9	-0.18321575
45	0x3e09362a	0.13399568
46	0xbcdc960c	-0.026927017
47	0x3d9054c1	0.070474155
48	0x3e1aa8bb	0.15103428
49	0x3e0ecfa5	0.13946398
50	0xbd6d4390	-0.05792576
51	0x3e7595e6	0.23982963
52	0xbe1a7e08	-0.1508714
53	0xbe2a3250	-0.16620755
54	0xbe87c893	-0.26520213
55	0x3e0f7b29	0.14011826
56	0xbd301eb4	-0.04299803
57	0x3ddc7ee4	0.1076639
58	0x3e82fe27	0.25584528
59	0x3e6335b8	0.22188461
60	0x3d870ec8	0.06594616
61	0x3dcb254e	0.09919225
62	0x3e128ed5	0.14312299
63	0xbdb78cff	-0.0896244
64	0x3d995d94	0.07488552
65	0xbe68f719	-0.2275051
66	0xbd8218fd	-0.063524224
67	0xbe920346	-0.28518122
68	0xbba9e191	-0.0051843603
69	0xbaa0aad3	-0.0012257941
70	0x3e3e5008	0.18585217
71	0xbe7f62c9	-0.24940027
72	0xbe418871	-0.18899705
73	0xbe136858	-0.14395273
74	0xbe6ba831	-0.23013379
75	0xbe842b93	-0.25814494
76	0xbdc29be0	-0.09502387
77	0x3d3576d2	0.04430277
78	0xbdb0b4c6	-0.0862823
79	0x3e817196	0.25281972
80	0x3e343dd7	0.17601715
81	0xbd815531	-0.06315077
82	0x3e2de2eb	0.16981094
83	0x3ec4c9b1	0.38435128
84	0x3e087a34	0.13327867
85	0x3d587d3b	0.052853804
86	0x3e2dacda	0.16960469
87	0xbe5bdbd8	-0.21470582
88	0xba8bfa44	-0.0010679443
89	0xbcde5197	-0.027138514
90	0xbe067e85	-0.13134201
91	0xbcc1fde3	-0.023680633
92	0x3d1d5e15	0.0384198
93	0xbe93d837	-0.28875896
94	0x3e5e1e4d	0.21691246
95	0xbe271084	-0.16314894
96	0x3e86b0e8	0.26306844
97	0x3d2de0b8	0.042450637
98	0x3eb62eb4	0.35582507
99	0x3ea163dc	0.315215
100	0xbe01d737	-0.12679754
101	0xbe17fff9	-0.1484374
102	0xbdec1e8c	-0.11529264
103	0x3dd034eb	0.10166343
104	0xbc0b73ce	-0.008511497
105	0xbe9de2a0	-0.30836964
106	0x3e06674f	0.13125347
107	0x3e5148f8	0.20437992
108	0xbe996805	-0.29962173
109	0x3cbc0a95	0.022954265
110	0xbdeee08b	-0.11663922
111	0xbd1f6f67	-0.0389246
112	0x3de374c7	0.11106258
113	0x3c7b957e	0.015355466
114	0x3e5883f3	0.21144085
115	0xbc1f9321	-0.009739668
116	0xbec009b8	-0.37507415
117	0xbe8792ea	-0.26479274
118	0x3de5e3da	0.112251
119	0x3e9dac24	0.30795395
120	0xbd881b62	-0.06645848
121	0xbd3416a4	-0.043966904
122	0xbeac55df	-0.33659264
123	0xbc6d1846	-0.014471119
124	0x3df31daf	0.11870896
125	0xbccf3092	-0.025291715
126	0xbead4583	-0.33842096
127	0x3dc1b199	0.09457702
128	0x3d195345	0.037432928
129	0xbe29bab4	-0.16575128
130	0x3e006f44	0.12542444
131	0x3d0854fa	0.033284165
132	0xbe27cbc6	-0.16386327
133	0xbb6b3d0a	-0.0035894536
134	0xbdffb22e	-0.12485157
135	0xbece3583	-0.402752
136	0xbd2247eb	-0.039619368
137	0x3e01c9f2	0.12674692
138	0x3da239da	0.079211906
139	0xbe5e9b27	-0.21738873
140	0xbcfa33ae	-0.03054222
141	0x3e3a2e8b	0.18181817
142	0x3dfbdbad	0.12297759
143	0x3e749e6d	0.2388856
144	0xbeb94e64	-0.3619262
145	0x3daac103	0.08337595
146	0xbddcc556	-0.10779826
147	0xbba875b3	-0.005140984
148	0xbeb0e647	-0.34550688
149	0xbc7dd838	-0.015493445
150	0x3dab73ff	0.08371734
151	0x3dd1c2bf	0.10242223
152	0x3cb4b236	0.022057634
153	0x3dc555c3	0.096354984
154	0x3e31bc35	0.17356952
155	0xbd558e6c	-0.052137777
156	0x3e19c49b	0.15016405
157	0x3ebafe11	0.36521962
158	0xbe1f2cb0	-0.1554439
159	0xbbd8e815	-0.006619463
160	0xbde5ec67	-0.11226731
161	0xbe4c0cbe	-0.19926736
162	0xbe9458c2	-0.28973967
163	0xbbe78a39	-0.007066038
164	0x3e354cf5	0.17705138
165	0x3d42033d	0.04736637
166	0x3e6e70e8	0.23285258
167	0x3dfc0ad1	0.123067506
168	0x3ddab89e	0.10679744
169	0xbde3329d	-0.11093638
170	0x3e040f88	0.1289655
171	0x3d2e8879	0.04261062
172	0x3dd4e52c	0.103952736
173	0xbe3f997f	-0.18710898
174	0xbc9a44eb	-0.01883169
175	0xbeaf8d3f	-0.3428745
176	0xbe01f01f	-0.12689255
177	0xbe918f1a	-0.2842949
178	0x3e3a30e4	0.18182713
179	0xbe8008b7	-0.2500665
180	0xbd32f35a	-0.04368911
181	0x3c7e59c6	0.015524333
182	0xbaa04c03	-0.0012229685
183	0xbd5a864c	-0.05335073
184	0xbee49bf1	-0.44650224
185	0xbd043bf7	-0.03228375
186	0xbc4405ef	-0.011964305
187	0x3dd11d2c	0.10210642
188	0xbe9c28d0	-0.30499887
189	0xbdff25c8	-0.12458378
190	0xba541fd3	-0.00080919004
191	0x3e4e505b	0.2014784
192	0x3c465a92	0.012106555
193	0x3d68c3fc	0.05682753
194	0xbe408ebc	-0.18804449
195	0xbed816e1	-0.42204955
196	0xbe3f1997	-0.18662106
197	0x3e26d7f0	0.16293311
198	0x3d10e031	0.035370056
199	0xbb8a013a	-0.004211572
200	0x3be20ca9	0.006898482
201	0x3e158cc8	0.14604485
202	0x3b861e28	0.0040929504
203	0x3cb40616	0.021975558
204	0xbda96951	-0.08272041
205	0xbe5d4d3e	-0.21611497
206	0xbd8b9372	-0.06815232
207	0x3e030901	0.12796403
208	0x3de42dd5	0.11141554
209	0x3e3b22dd	0.18275018
210	0x3de5837b	0.112067185
211	0xbebf0f19	-0.37316206
212	0xbe447109	-0.19183744
213	0x3c231c73	0.009955513
214	0xbdc06dec	-0.09395966
215	0xbd7f6ce8	-0.06235972
216	0x3d690c1c	0.056896314
217	0xbdef6124	-0.1168845
218	0x3e547629	0.207482
219	0xbe82a418	-0.2551582
220	0xbe8e54be	-0.27799028
221	0xbe85d688	-0.26140237
222	0x3de28260	0.11060023
223	0x3d5ec82e	0.054390125
224	0x3e967e2f	0.29393145
225	0x3e2f9640	0.1714716
226	0xbe513080	-0.20428658
227	0x3db9809c	0.090577334
228	0x3e70683b	0.23477261
229	0xbe7b2519	-0.2452587
230	0xbe3dbd98	-0.18529356
231	0x3e204eb9	0.1565503
232	0xb8a6fe02	-7.9628095e-05
233	0x3e0e5651	0.13900115
234	0xbe654f2d	-0.22393484
235	0x3dc704e3	0.09717729
236	0x3d333914	0.043755606
237	0x3cdab8f2	0.026699517
238	0x3e8c0457	0.2734706
239	0xbdba668f	-0.09101593
240	0xbe854246	-0.26027125
241	0xbe5c2597	-0.21498714
242	0xbd089ce7	-0.03335276
243	0xbe8e81aa	-0.278333
244	0xbd115c57	-0.035488453
245	0x3dae5a04	0.08513263
246	0xbe9a5fda	-0.30151254
247	0x3e5727df	0.21011303
248	0xbbce64c7	-0.0062986347
249	0xbe83448f	-0.25638244
250	0xbe337afa	-0.1752738
251	0x3e8088de	0.2510442
252	0xbe475843	-0.19467263
253	0xbeaac8e0	-0.3335638
254	0x3cae0fef	0.021247832
255	0xbe822ac7	-0.25423262

layer1.0.downsample.1.weight f4 [32]
0	0x3f3ff48c	0.74982524
1	0x3f5b392d	0.8563412
2	0x3f25755a	0.6463219
3	0x3f26d045	0.65161544
4	0x3f5f079a	0.87120974
5	0x3f5c077e	0.8594893
6	0x3f23c2e5	0.6396926
7	0x3f3c759c	0.7361696
8	0x3f4bf9ab	0.7967784
9	0x3f403348	0.7507825
10	0x3f511747	0.81676143
11	0x3f33cd5b	0.7023522
12	0x3f2eca52	0.68277466
13	0x3f4e7adf	0.80656236
14	0x3f33918c	0.7014396
15	0x3f586228	0.84524775
16	0x3f77294a	0.9654738
17	0x3f4bce88	0.79612017
18	0x3f353ecd	0.7079895
19	0x3f39a005	0.72509795
20	0x3f63b4b6	0.8894762
21	0x3f295b1d	0.6615465
22	0x3f53edde	0.8278483
23	0x3f4601aa	0.7734629
24	0x3f20012d	0.62501794
25	0x3f53256f	0.82478994
26	0x3f2ec383	0.6826708
27	0x3f4cb898	0.7996917
28	0x3f258a1e	0.64663875
29	0x3f63d435	0.8899568
30	0x3f4386a1	0.763773
31	0x3f2e3f9e	0.6806582

layer1.0.downsample.1.bias f4 [32]
0	0xbd99dfde	-0.075134024
1	0xbde89bb8	-0.11357826
2	0xbe20979d	-0.15682836
3	0xbd69b0da	-0.057053424
4	0xbdb7656e	-0.08954893
5	0xbea84b57	-0.3286998
6	0xbe815db2	-0.25266796
7	0xbe438389	-0.19093145
8	0xbdf56646	-0.11982398
9	0xbec598f8	-0.38593268
10	0xbd6d293c	-0.057900652
11	0xbd520bca	-0.051280774
12	0x3c94d038	0.018165693
13	0x3d687d2d	0.056760002
14	0xbd20c569	-0.039250765
15	0xbe04fdcd	-0.12987442
16	0x3ada240d	0.0016642824
17	0xbd6c9758	-0.05776152
18	0xbc8dc941	-0.01730788
19	0xbd74518f	-0.059648093
20	0xbdb8d168	-0.09024316
21	0xba45d54d	-0.0007546738
22	0xbd83f1ce	-0.06442605
23	0x3e05b0e2	0.13055757
24	0x3db01f2d	0.08599696
25	0x3caa9754	0.020824112
26	0xbe5cfe36	-0.21581349
27	0xbeb36854	-0.35040534
28	0xbbedabea	-0.00725316
29	0xbe7adb77	-0.24497782
30	0xbbf660aa	-0.0075188475
31	0xbe0787be	-0.13235375

layer1.0.downsample.1.running_mean f4 [32]
0	0xbf2fb9d2	-0.68642914
1	0xbebb84f1	-0.36624864
2	0xbf09cfb3	-0.5383255
3	0x3effe59c	0.49979866
4	0xbf3b7d42	-0.73238003
5	0x3e906bbc	0.28207195
6	0x3e7ad087	0.2449361
7	0xbe77aece	-0.24187776
8	0x3d028395	0.031863768
9	0xbd2e8316	-0.042605482
10	0xbeb4204c	-0.3518089
11	0xbf187d43	-0.59566134
12	0xbec967ef	-0.39337108
13	0xbf006515	-0.5015424
14	0x3e974b44	0.2954961
15	0xbf947814	-1.1599145
16	0xbf20d8ff	-0.6283111
17	0xbeadcf6f	-0.33947322
18	0xbf330b9f	-0.6993961
19	0x3bbcb0d1	0.005758383
20	0xbe6600d3	-0.22461252
21	0xbe7cae93	-0.2467597
22	0xbf0dedca	-0.5544096
23	0x3e918d94	0.28428328
24	0x3e4370de	0.19086024
25	0x3f4d8877	0.80286354
26	0xbe38111e	-0.1797528
27	0x3dc42df0	0.095790744
28	0xbf32befa	-0.6982266
29	0xbf9499ee	-1.1609476
30	0xbf64e137	-0.8940615
31	0x3f091c1b	0.5355851

layer1.0.downsample.1.running_var f4 [32]
0	0x3f08fedc	0.53513885
1	0x3ea33ea6	0.31883734
2	0x3ebb4d04	0.36582196
3	0x3e9245bf	0.28568837
4	0x3eb76769	0.35821083
5	0x3e7038d6	0.23459181
6	0x3f4e258b	0.80526036
7	0x3ecb231d	0.39675227
8	0x3e8559d3	0.26045093
9	0x3e6b110c	0.22955722
10	0x3ea35a8f	0.31905028
11	0x3ee12618	0.43974376
12	0x3ee37264	0.4442321
13	0x3e8ddb02	0.27706152
14	0x3e899d95	0.26878038
15	0x3f50fc02	0.81634533
16	0x3ec0144f	0.37515494
17	0x3f054de1	0.5207196
18	0x3ef588a1	0.47955802
19	0x3ee62728	0.4495175
20	0x3e8684ad	0.262731
21	0x3efdf017	0.49597237
22	0x3e8b5601	0.27214053
23	0x3e99cd1e	0.30039304
24	0x3e99d644	0.30046284
25	0x3ead37e3	0.338317
26	0x3eb809fe	0.35945123
27	0x3f0dd460	0.55402184
28	0x3e63da9a	0.22251359
29	0x3f4b942b	0.7952296
30	0x3f443baf	0.7665357
31	0x3ea013be	0.31265062

layer2.0.conv.weight f4 [64, 32, 3, 3]
0	0x3dc95af6	0.098318025
1	0x3e379ff7	0.17932115
2	0x3cd382d2	0.025819216
3	0x3d79b1c8	0.06096056
4	0xbaab535a	-0.0013071105
5	0x3c89eade	0.016835626
6	0x3d9e6c45	0.077354945
7	0xbdb7ab44	-0.08968213
8	0xbe6296c7	-0.2212783
9	0x3d3de8af	0.046364482
10	0xbea239ca	-0.31684715
11	0xbe08fef7	-0.13378511
12	0x3e26601b	0.16247599
13	0xbb04b003	-0.0020246513
14	0xbe2627cf	-0.16226123
15	0x3e14f901	0.14548112
16	0x3c78fc02	0.015196802
17	0xbe329f1f	-0.17443512
18	0x3dabaaf5	0.08382217
19	0x3cca0d3b	0.024664512
20	0x3c847a65	0.016171644
21	0xbc9417df	-0.018077789
22	0xbd2c8f61	-0.042128924
23	0x3d918630	0.07105672
24	0xbda92702	-0.08259393
25	0xbea35966	-0.31904143
26	0xbc8a36e0	-0.01687187
27	0xbe0b7ef3	-0.13622646
28	0xbe1257ed	-0.14291354
29	0xbd6fd0d5	-0.058548767
30	0xbda01cb7	-0.07817977
31	0xbd2789ef	-0.040903028
32	0xbd9a891d	-0.075456835
33	0x3e3567a9	0.17715324
34	0x3ddf8962	0.109148756
35	0xbe20c35a	-0.1569952
36	0xbe81303f	-0.2523212
37	0x3e0122f2	0.12610987
38	0x3e1958bf	0.1497526
39	0x3de3829a	0.11108895
40	0xbe82879e	-0.25494093
41	0xbd147315	-0.036242563
42	0x3d734a2f	0.05939692
43	0x3e7618fb	0.24032967
44	0x3dc4625f	0.09589075
45	0x3e8cba19	0.2748573
46	0xbde74898	-0.11293143
47	0x3d143f1a	0.03619299
48	0x3baca466	0.0052686213
49	0xbd6b2022	-0.05740369
50	0xbe7502c3	-0.23926835
51	0x3c979503	0.018503672
52	0x3d8782eb	0.066167675
53	0x3d949982	0.07255842
54	0xbca8d44a	-0.02060904
55	0x3c11bbf2	0.008894907
56	0xbe4afacd	-0.19822235
57	0x3e11a56a	0.14223257
58	0x3dba0536	0.09083025
59	0x3d1c2123	0.03811754
60	0x3dd3e77c	0.103468865
61	0x3e3fae42	0.18718818
62	0xbc917e25	-0.017760346
63	0x3d5e404b	0.054260533
64	0xbdb04b10	-0.08608067
65	0xbe1b0f09	-0.15142454
66	0xbc4a36bb	-0.01234215
67	0xbe291d8f	-0.16515182
68	0xbd136d3b	-0.035992842
69	0x3dfd6271	0.12372292
70	0xbc01be4c	-0.0079189055
71	0xbe1a80a3	-0.15088134
72	0xbc7c1507	-0.015385873
73	0x3d748bb3	0.05970354
74	0xbba5f908	-0.005065087
75	0xbe90ca86	-0.28279513
76	0x3dd93009	0.10604865
77	0xbd87250b	-0.06598862
78	0xbd54bc8f	-0.051937636
79	0xbe93e66a	-0.2888673
80	0xbcddad08	-0.027060047
81	0x3e384f19	0.17998923
82	0x3d90f216	0.07077424
83	0xbd644bc8	-0.055736333
84	0xbd893959	-0.06700391
85	0xbd337f4c	-0.04382257
86	0xbbce1365	-0.006288933
87	0x3cef27b9	0.029193746
88	0xbca22e04	-0.019797333
89	0xbe01bb3c	-0.1266908
90	0xbe0999b1	-0.13437535
91	0x3d9588f1	0.0730151
92	0x3d8cfff5	0.068847574
93	0x3dcab1ea	0.09897216
94	0xbe7e1a27	-0.24814664
95	0xbdd65caf	-0.10466897
96	0xbcd536bf	-0.026027082
97	0xbe0b2b54	-0.13590747
98	0xbdd26046	-0.10272269
99	0xbdecbe15	-0.11559693
100	0xbd58d93a	-0.05294154
101	0xbe2597f8	-0.16171253
102	0x3e7dbbd6	0.24778685
103	0xbdecab79	-0.11556143
104	0x3e0f095c	0.13968414
105	0x3df47a1c	0.11937353
106	0x3dab1bfa	0.083549455
107	0x3ddfbb08	0.10924345
108	0xbe30fb3d	-0.1728334
109	0x3d9aad85	0.075526275
110	0x3bda0beb	0.0066542528
111	0xbdc53c1c	-0.096306056
112	0xbd9000b9	-0.07031388
113	0x3dbfa104	0.09356883
114	0x3ccc2cc0	0.024923682
115	0xbdc2af01	-0.095060356
116	0x3dceaad3	0.10091176
117	0xbd1bfc09	-0.038082156
118	0x3dcf7ae7	0.10130864
119	0x3e4a56bb	0.19759648
120	0xbc201328	-0.009770192
121	0xbddd68a1	-0.10810972
122	0xbc8597dc	-0.016307764
123	0xbdc6b841	-0.097031124
124	0xbe7c53d7	-0.24641357
125	0xbde38cdd	-0.11110852
126	0x3d1f229c	0.038851365
127	0xbdcff410	-0.10153973
128	0xbd73be80	-0.059507847
129	0x3d9059ec	0.07048401
130	0xbdc592ba	-0.096471265
131	0xbdbf5277	-0.09341901
132	0x3e4f892a	0.20267168
133	0xbd6e47ce	-0.058173947
134	0xbd537797	-0.05162772
135	0x3cb9d5d9	0.022684978
136	0x3d0045b8	0.03131649
137	0x3d965010	0.073394895
138	0xbde5df20	-0.11224198
139	0xbce0b90d	-0.02743199
140	0x3db30843	0.0874181
141	0xbd894f36	-0.067045614
142	0x3c98c270	0.018647403
143	0xbdff03f4	-0.12451926
144	0x3dc0294c	0.09382877
145	0x3cf23215	0.029564897
146	0x3d7abd83	0.06121589
147	0x3c99beeb	0.018767795
148	0x3c990836	0.018680673
149	0xbe02e147	-0.12781249
150	0x3e50fa83	0.20408063
151	0xbbc971ba	-0.0061475905
152	0xbd573e07	-0.05254939
153	0xbd0c0344	-0.0341828
154	0xbdc6308f	-0.096772306
155	0x3cf4a0e1	0.02986187
156	0x3e462afb	0.19352333
157	0x3e11837b	0.14210312
158	0x3e1c9dd1	0.15294577
159	0x3d9d35eb	0.076763
160	0xbd19a7ba	-0.037513472
161	0x3d10e8e2	0.035378344
162	0x3dd70fbf	0.1050105
163	0x3a4999ad	0.0007690441
164	0x3e893f17	0.26805946
165	0x3dde44e5	0.10852984
166	0x3e260add	0.16215082
167	0x3e97d8cb	0.29657587
168	0x3df8f4e2	0.12156083
169	0x3d517dcf	0.05114537
170	0xbc2012b3	-0.009770083
171	0x3ccf50c7	0.025307072
172	0xbdd0cb1f	-0.10194992
173	0xbd81e2a0	-0.063420534
174	0xbdd096d2	-0.10185017
175	0xbd9b4d26	-0.07583074
176	0xbdc1650f	-0.094431035
177	0x3cd58ecf	0.026069073
178	0x3db82580	0.089915276
179	0xbbabc4ed	-0.0052419812
180	0x3e5956e1	0.21224548
181	0x3e1c58a6	0.15268192
182	0x3df42d4e	0.11922704
183	0x3d3cc6aa	0.0460879
184	0xbd4ca0b6	-0.049957953
185	0xbbe27baf	-0.006911717
186	0xbe2a99ef	-0.16660284
187	0xbd82afd9	-0.063811965
188	0x3c15a10c	0.009132635
189	0xbc7edee6	-0.015556073
190	0x3e23daa5	0.16001375
191	0x3eaf97d9	0.34295538
192	0xbe83c84b	-0.2573875
193	0xbe00c408	-0.1257478
194	0xbdca3eec	-0.09875283
195	0x3de171e9	0.11008055
196	0xbe31d3d6	-0.17365965
197	0xbc476802	-0.0121707935
198	0x3d0c177b	0.03420208
199	0x3e56ab1e	0.20963714
200	0xbdca7829	-0.098862
201	0x3db93e41	0.09045077
202	0x3e15a328	0.1461302
203	0x3d277cc0	0.040890455
204	0xbe44deb0	-0.19225574
205	0xbdf09781	-0.11747647
206	0xbb9e6f1f	-0.004835024
207	0xbc80b0b5	-0.01570926
208	0x3e237066	0.15960845
209	0xbc87e77c	-0.016589873
210	0xbe53d971	-0.20688416
211	0x3d6c9d79	0.057767365
212	0xbdf4bf57	-0.11950558
213	0x3d33c9ec	0.04389374
214	0xbd7eb674	-0.06218572
215	0xbd6286ae	-0.05530422
216	0xbed0bed4	-0.4077059
217	0xbea675b0	-0.32511663
218	0xbe37d587	-0.17952548
219	0xbd589683	-0.052877914
220	0xbe0cec39	-0.13761987
221	0xbbbdc88f	-0.0057917307
222	0x3e1b6bdf	0.15177868
223	0xbd128062	-0.035766967
224	0x3dc9795b	0.098376
225	0xbe13ec87	-0.14445697
226	0xbdb88e29	-0.0901149
227	0xbc37d734	-0.011220742
228	0xbcaacd9a	-0.020849992
229	0xbe1c3a2a	-0.15256563
230	0xbe04bc45	-0.12962444
231	0x3e2a74b4	0.16646081
232	0xbdb04691	-0.086072095
233	0x3d1cfb47	0.038325574
234	0x3b9d8a84	0.004807772
235	0xbe0a1df6	-0.13487992
236	0xbda3e7b0	-0.08003175
237	0x3dc24c28	0.09487182
238	0xbe0e2dde	-0.13884684
239	0xbe858da5	-0.2608463
240	0x3de086ce	0.10963212
241	0xbe1b87ee	-0.15188572
242	0xbd1b47f4	-0.037910417
243	0x3e437a9f	0.19089745
244	0x3d40cdda	0.047071315
245	0xbd972eca	-0.07381971
246	0x3de23227	0.11044722
247	0x3e6708a3	0.22561888
248	0xbd8586a5	-0.06519822
249	0x3d7da8fc	0.061928734
250	0xbe4fdaf1	-0.20298363
251	0xbe4bf93a	-0.19919291
252	0x3dfb99b4	0.12285176
253	0xbe82854a	-0.25492316
254	0xbd81ddaf	-0.06341111
255	0x3d4a14ad	0.049336124

layer2.0.bn.weight f4 [64]
0	0x3f99dcde	1.2020528
1	0x3f831e14	1.0243554
2	0x3f99f870	1.2028942
3	0x3f9ee339	1.2413093
4	0x3f97de47	1.1864709
5	0x3f9861a9	1.1904804
6	0x3f9150df	1.1352805
7	0x3f9c6e3c	1.2221141
8	0x3fa4039a	1.2813599
9	0x3f8f028f	1.1172656
10	0x3f8ce6f1	1.1007978
11	0x3f8d9b70	1.1063061
12	0x3f8fe3e3	1.124142
13	0x3f98f9aa	1.1951191
14	0x3f92aeaa	1.1459553
15	0x3f9644b0	1.1739712
16	0x3fa62d86	1.2982643
17	0x3f895ec0	1.073204
18	0x3fa33386	1.2750099
19	0x3f966dd3	1.1752266
20	0x3f8c7a89	1.0974895
21	0x3fa3901e	1.2778356
22	0x3fa24091	1.2675954
23	0x3f8c9f2a	1.0986073
24	0x3f9b6d49	1.2142726
25	0x3f8db9b9	1.1072303
26	0x3f93aeec	1.1537757
27	0x3f9bf510	1.2184162
28	0x3f99cfa5	1.2016493
29	0x3f9f7169	1.2456485
30	0x3f922d7e	1.1420133
31	0x3f8ca570	1.0987988
32	0x3f8be712	1.0929892
33	0x3f8caa1d	1.0989414
34	0x3f991203	1.1958622
35	0x3f8aa272	1.0830824
36	0x3f98fbc5	1.1951834
37	0x3f8ec73c	1.1154552
38	0x3f94f244	1.1636434
39	0x3f98065f	1.1876944
40	0x3f924c05	1.1429449
41	0x3f86e7a5	1.0539442
42	0x3f95ac98	1.1693296
43	0x3f9a594d	1.2058502
44	0x3f905c52	1.1278174
45	0x3f90e02d	1.1318413
46	0x3f90b6bb	1.1305765
47	0x3f85df66	1.0458801
48	0x3f8937d3	1.0720161
49	0x3f95f09f	1.1714057
50	0x3f99fb98	1.2029905
51	0x3f89a0e1	1.0752221
52	0x3f8b0be8	1.0863008
53	0x3f9500c8	1.1640863
54	0x3f9136a2	1.1344798
55	0x3f8cc146	1.0996482
56	0x3f9896f9	1.1921073
57	0x3fa0f57a	1.2574914
58	0x3f92baf3	1.1463302
59	0x3f8a5e80	1.0810089
60	0x3f9b3f8d	1.2128769
61	0x3f90379c	1.1266971
62	0x3f8d2d9f	1.1029547
63	0x3f9e7e40	1.2382278

layer2.0.bn.bias f4 [64]
0	0xbeaa8962	-0.3330794
1	0xbe05970a	-0.13045898
2	0xbe35b823	-0.17746024
3	0xbe1f875b	-0.15578978
4	0xbe8c1765	-0.273616
5	0xbd60303b	-0.054733496
6	0xbe092440	-0.13392735
7	0xbdac9461	-0.084267385
8	0xbdd3e0e3	-0.10345628
9	0xbe881175	-0.2657582
10	0xbe59f8d6	-0.2128633
11	0xbe53f059	-0.20697154
12	0xbe7595f1	-0.2398298
13	0xbe8e383f	-0.27777287
14	0xbe17e301	-0.14832689
15	0xbe7d732a	-0.24750963
16	0xbda40f23	-0.080106996
17	0xbe00373d	-0.12521072
18	0xbe245e93	-0.16051702
19	0xbe4708a5	-0.19436891
20	0xbe2f38df	-0.17111538
21	0xbe666bc1	-0.22502042
22	0xbe8835d7	-0.26603577
23	0xbe740e88	-0.23833668
24	0xbe1ad238	-0.15119255
25	0xbe610ed6	-0.21978316
26	0xbda6b900	-0.08140755
27	0xbe3c1724	-0.18368202
28	0xbe8ad859	-0.27118185
29	0xbd054457	-0.032535877
30	0xbdf9f8a3	-0.12205627
31	0xbe475c9d	-0.19468923
32	0xbe266f7c	-0.16253465
33	0xbe4ce1ac	-0.20007962
34	0xbe32529a	-0.17414322
35	0xbe2e0ec7	-0.16997825
36	0xbe2f3166	-0.17108688
37	0xbe447d28	-0.19188368
38	0xbe70c05b	-0.23510878
39	0xbe1228b9	-0.14273347
40	0xbe34da9e	-0.17661521
41	0xbe60e490	-0.2196219
42	0xbe1a3010	-0.15057397
43	0xbe5f3dc8	-0.21800911
44	0xbe17669a	-0.14785233
45	0xbdf75a3f	-0.1207776
46	0xbe138f86	-0.14410219
47	0xbdff976f	-0.124800555
48	0xbe68c466	-0.2273117
49	0xbe6d208b	-0.23156945
50	0xbe7dd2b3	-0.24787407
51	0xbe8fe447	-0.2810385
52	0xbdc39164	-0.095492154
53	0xbe93107c	-0.28723514
54	0xbe58d0f9	-0.21173467
55	0xbde0c32c	-0.10974726
56	0xbd06e1f0	-0.032930315
57	0xbd2f9cd7	-0.042874184
58	0xbd1bbd0a	-0.03802208
59	0xbd8eec48	-0.06978661
60	0xbe7135d7	-0.23555695
61	0xbe03ea9d	-0.12882467
62	0xbdfcabb8	-0.1233744
63	0xbe4c964e	-0.19979212

layer2.0.bn.running_mean f4 [64]
0	0xbfd4ccd8	-1.6625013
1	0xbe14af54	-0.14520007
2	0xbf9512ad	-1.1646324
3	0xbfcc7468	-1.5973024
4	0xbf76cd99	-0.9640747
5	0xc007018d	-2.1094697
6	0xc046db92	-3.1071515
7	0xbeaaa6f6	-0.33330506
8	0xbffe6039	-1.9873115
9	0xbfe00fa1	-1.750477
10	0xbea7746a	-0.32706004
11	0x3f829fd2	1.0205023
12	0x3fdaac36	1.7083805
13	0x3fefcc24	1.8734174
14	0xc00da9cf	-2.2134893
15	0xc06499e7	-3.5718935
16	0xbd99ace3	-0.07503679
17	0x3fc0301f	1.5014685
18	0xbfa980ac	-1.3242393
19	0xbff5a0b0	-1.9189663
20	0xbf14f651	-0.5818835
21	0xbfddd1e5	-1.732968
22	0xc082e375	-4.0902658
23	0xbe39cbe0	-0.18144178
24	0xbee2f10e	-0.44324535
25	0xc0a17e40	-5.0466614
26	0xbe5cedcc	-0.21575087
27	0xbff9a02f	-1.9502009
28	0xbfcc91ca	-1.5981991
29	0xc09c5a4b	-4.886022
30	0xbf9e6463	-1.2374386
31	0xc02a38ab	-2.6597087
32	0xbff5b37d	-1.91954
33	0xbf56e0ce	-0.83936775
34	0xc014777f	-2.3197935
35	0xc01788e4	-2.3677301
36	0xbec47e0b	-0.38377413
37	0xbff4f3d6	-1.9136913
38	0xc004db7a	-2.0758958
39	0xc01a8d1d	-2.4148629
40	0xbfb44fcb	-1.4086851
41	0x406a4910	3.6607094
42	0xbe21338c	-0.1574232
43	0x3f206b9d	0.62664205
44	0x3e1a10c2	0.15045455
45	0xc075cbdf	-3.8405683
46	0xbfb2a048	-1.3955164
47	0xc0923b23	-4.569719
48	0xbf7e894b	-0.9942824
49	0xbfc905b7	-1.5704869
50	0xbfd5e210	-1.6709614
51	0xbf9c7aa1	-1.2224923
52	0xc0b035ed	-5.5065827
53	0x3f3cb7ee	0.73718154
54	0xc072f960	-3.7964706
55	0x3f8c6e1e	1.0971105
56	0x3efdeca8	0.49594617
57	0xc0021198	-2.0323238
58	0x3f5dbcf3	0.8661644
59	0xbe4b0bc4	-0.19828707
60	0xc05937f8	-3.394041
61	0xbedd941f	-0.4327707
62	0xc02b6278	-2.677885
63	0xbfe9305a	-1.8217881

layer2.0.bn.running_var f4 [64]
0	0x407aba5a	3.917624
1	0x4066022c	3.5938826
2	0x40703e73	3.7538116
3	0x403ccfec	2.9501905
4	0x405a2834	3.4087038
5	0x4039c549	2.9026663
6	0x409c7e99	4.890454
7	0x40853e85	4.163882
8	0x40931712	4.596566
9	0x405a7d1f	3.4138868
10	0x40440944	3.0630655
11	0x405ef843	3.4839027
12	0x408ca13f	4.3946834
13	0x40823407	4.068851
14	0x404fe578	3.2483807
15	0x403862a5	2.8810208
16	0x4071d280	3.778473
17	0x406aa6a3	3.6664207
18	0x4092e7c6	4.5907927
19	0x4045c86c	3.0903578
20	0x402b799f	2.6792982
21	0x408fe762	4.496995
22	0x406f512b	3.739329
23	0x40330294	2.7970324
24	0x406d26cb	3.7054927
25	0x40810bf4	4.032709
26	0x4071f789	3.7807333
27	0x4072f5c0	3.7962494
28	0x401cb7c8	2.448717
29	0x406b7a96	3.679357
30	0x405d1540	3.454422
31	0x405cab42	3.4479527
32	0x4029785d	2.6479714
33	0x4027592c	2.6148176
34	0x406b638f	3.6779516
35	0x40899b80	4.300232
36	0x407d4d40	3.95784
37	0x406f1f38	3.7362804
38	0x4039c906	2.9028945
39	0x406873c9	3.632067
40	0x407afea1	3.9217913
41	0x40846f52	4.138589
42	0x40273eba	2.6132035
43	0x406abb74	3.6676912
44	0x4045f77b	3.09323
45	0x402636b6	2.5970893
46	0x404b4efb	3.1766956
47	0x4088f338	4.27969
48	0x404110cf	3.016651
49	0x404af67a	3.1712937
50	0x4041aec2	3.0262914
51	0x406e04a9	3.7190344
52	0x4071ced4	3.7782488
53	0x404fe59d	3.2483895
54	0x406a8ce1	3.6648486
55	0x402d997b	2.7124927
56	0x40533f24	3.3007288
57	0x407c9ad7	3.9469507
58	0x407aa2f8	3.9161968
59	0x4039c94e	2.9029117
60	0x406a0be7	3.6569765
61	0x40923b7b	4.569761
62	0x405c17bd	3.4389489
63	0x405225cf	3.2835577

layer2.0.downsample.0.weight f4 [64, 32, 1, 1]
0	0x3e28865f	0.16457509
1	0xbdca7022	-0.09884669
2	0x3d80a378	0.06281179
3	0x3d237610	0.039907515
4	0xbe61adb2	-0.22038916
5	0xbe3cc0e9	-0.18432964
6	0xbded177b	-0.11576744
7	0xbd87d7d5	-0.066329636
8	0xbe04a76b	-0.1295449
9	0xbd257008	-0.040390044
10	0xbd55caa3	-0.052195203
11	0x3e9726ec	0.29521883
12	0xbcae475e	-0.021274265
13	0xbdb9d003	-0.09072878
14	0xbdd4470c	-0.103651136
15	0x3e1fc8ab	0.15603893
16	0xbeaff414	-0.34365904
17	0x3d198bac	0.037486717
18	0x3e562bb5	0.2091511
19	0xbe78c86c	-0.24295205
20	0xbde596dd	-0.112104155
21	0xbe027c31	-0.12742688
22	0x3e415ef7	0.18883882
23	0xbe509c2e	-0.20372078
24	0x3df3a3eb	0.11896499
25	0xbd27b6de	-0.04094588
26	0xbd41605e	-0.047211044
27	0x3e3b715a	0.18304959
28	0x3cc16c57	0.02361123
29	0x3e65d906	0.22446069
30	0x3dcab4fa	0.098978
31	0xbded99a9	-0.11601574
32	0x3de6505e	0.112457976
33	0x3e6b4a9b	0.22977678
34	0xbe08bce5	-0.13353308
35	0xbe8ddc02	-0.27706915
36	0xbd97df37	-0.07415622
37	0x3dc11dc4	0.094295055
38	0xbd8d0bb5	-0.068869986
39	0x3ce3138d	0.027719283
40	0x3e01fa37	0.12693106
41	0x3d165cd3	0.036709618
42	0xbe8abacb	-0.27095637
43	0xbe4185d9	-0.18898715
44	0xbd721bba	-0.059108473
45	0x3d76405a	0.060119964
46	0x3e0be891	0.13662936
47	0xbdb9d26f	-0.0907334
48	0xbdc2c416	-0.09510057
49	0x3cdc1ff6	0.026870709
50	0xbe82e965	-0.2556869
51	0xbec11403	-0.3771058
52	0xbe2807a5	-0.16409166
53	0xbe26e838	-0.16299522
54	0xbe10d6db	-0.14144461
55	0xb9b75041	-0.00034964274
56	0xbd904e75	-0.070462145
57	0xbdf00530	-0.117197394
58	0x3d193f95	0.037414152
59	0xbe80bd0e	-0.25144237
60	0xbdd59c1b	-0.104301654
61	0xbd33d2f5	-0.043902356
62	0xbe1e4bf0	-0.15458655
63	0xbe91befd	-0.28466025
64	0xbe9e3584	-0.30900204
65	0xbe0cde29	-0.13756622
66	0xbcfffc1d	-0.031248147
67	0xbc283710	-0.010267034
68	0x3cdb9315	0.026803533
69	0x3d4184e7	0.047245886
70	0xbdfb9cbf	-0.12285756
71	0xbee47f86	-0.44628543
72	0x3e335033	0.17511062
73	0x3d3d160d	0.046163607
74	0x3d4aab2b	0.049479645
75	0x3e36b94a	0.1784412
76	0xbc755de7	-0.014976001
77	0x3dae7d68	0.08520013
78	0xbe757cc2	-0.23973373
79	0x3d25f323	0.040515076
80	0xbe40dfdd	-0.18835397
81	0xbe0d102b	-0.13775699
82	0x3c83ec0f	0.016103772
83	0x3de235d2	0.11045422
84	0x3e1061a1	0.14099742
85	0xbdaf5f5b	-0.085631095
86	0x3d96773d	0.07346962
87	0x3d5fc993	0.054635596
88	0xbd12d270	-0.03584522
89	0xbe844a49	-0.25837925
90	0xbe9e628a	-0.30934554
91	0xbe2324e8	-0.15932047
92	0x3dbc8e9b	0.09206887
93	0x3de95883	0.113938354
94	0x3e076f60	0.1322608
95	0xbda1c170	-0.078982234
96	0xbe3a3a8a	-0.18186393
97	0x3e16956e	0.1470544
98	0x3ca8e88e	0.020618703
99	0x3e9084e8	0.282264
100	0xbe0db295	-0.13837655
101	0xbdb32f93	-0.087493084
102	0x3d8148f6	0.06312744
103	0x3da9ea5a	0.08296652
104	0x3dc2f44c	0.09519252
105	0x3d8f9ca4	0.07012299
106	0xbd9216b8	-0.071332395
107	0xbe6347ba	-0.2219533
108	0xbe402ca9	-0.18767036
109	0x3ce51368	0.027963355
110	0x3e81f653	0.25383243
111	0xbd197e79	-0.03747413
112	0x3e15f768	0.14645159
113	0xbe76612e	-0.24060509
114	0x3e9d5e77	0.30736133
115	0x3da7fc55	0.082024254
116	0xbcc9ab13	-0.024617707
117	0xbd0e74ec	-0.034779474
118	0x3d12cea3	0.035841595
119	0x3c2acd4c	0.010424923
120	0xbe5f039b	-0.21778719
121	0x3d88c3ef	0.06677996
122	0x3df7a952	0.12092842
123	0xbea0e36c	-0.3142351
124	0xbdffc17a	-0.124880746
125	0x3e0239a2	0.12717298
126	0x3e1b9fa9	0.15197624
127	0xbd2109f6	-0.03931614
128	0xbda19df7	-0.078914575
129	0xbe2d726d	-0.16938181
130	0x3dd293b4	0.102820784
131	0x3dc1efef	0.09469592
132	0xbea5dd78	-0.3239553
133	0x3cec1393	0.028817927
134	0x3e1a3959	0.15060939
135	0xbc6671cd	-0.014065218
136	0x3db1c6c7	0.08680492
137	0xbe06b32e	-0.13154289
138	0x3e90c2ec	0.28273714
139	0x3d28385c	0.041069373
140	0x39acebd5	0.00032982105
141	0xbe9cf0be	-0.30652422
142	0xbe200d9a	-0.15630189
143	0x3cdf4eb2	0.027259205
144	0x3df18ddd	0.117946364
145	0xbe87899c	-0.26472175
146	0x3e8c6bf5	0.27426115
147	0x3ca1e518	0.01976256
148	0x3e91a65a	0.2844723
149	0x3d6fb46a	0.058521666
150	0x3d44ec3d	0.048076857
151	0x3cddc740	0.027072549
152	0xbe402654	-0.18764621
153	0xbd2e567f	-0.042562958
154	0xbc858887	-0.016300453
155	0x3c041574	0.008061755
156	0x3d3040cd	0.04303055
157	0xbe545cce	-0.20738527
158	0x3e8f4615	0.27983156
159	0x3d2852cd	0.04109459
160	0xbec13cc6	-0.3774168
161	0xbdf51a93	-0.11967959
162	0x3d276ad5	0.040873367
163	0xbd4df1c9	-0.050279412
164	0xbcceac1e	-0.025228556
165	0x3d168684	0.036749378
166	0x3e2356c7	0.15951072
167	0xbeafa254	-0.34303534
168	0x3e47b096	0.19500956
169	0x3c49def4	0.012321223
170	0xbe0948b0	-0.13406634
171	0xbe446948	-0.19180787
172	0x3dc4b5be	0.09604977
173	0x3e6f8932	0.2339218
174	0xbe0ded9c	-0.13860172
175	0x3e27e7ae	0.16396973
176	0x3e5560b6	0.20837674
177	0xbd9c5070	-0.0763253
178	0x3e232459	0.15931834
179	0x3bbfaed9	0.005849701
180	0xbd9ae23c	-0.07562682
181	0xbd2eaf25	-0.0426475
182	0x3e37bc8a	0.17943016
183	0x3d8a16f8	0.06742662
184	0xbe2e6ad1	-0.17032935
185	0xbe075d1a	-0.13219109
186	0xbdb5ac3a	-0.0887074
187	0x3cffe0df	0.031235157
188	0xbde58f66	-0.11208992
189	0xbe468813	-0.19387846
190	0xbe1e2bff	-0.1544647
191	0x3d10ff1d	0.035399545
192	0xbd37434a	-0.044741906
193	0xbe902ce2	-0.28159243
194	0xbd42ccb8	-0.047558516
195	0x3c78c29e	0.015183119
196	0x3e2e8978	0.17044628
197	0x3e9995ff	0.2999725
198	0xbe27a2bf	-0.16370676
199	0xbe2e40b2	-0.17016867
200	0x3cc2e7b9	0.023792135
201	0xbe16b814	-0.14718658
202	0x3e4b3605	0.19844826
203	0x3cfe744b	0.031061312
204	0xbe3a78a6	-0.18210086
205	0x3e9cddba	0.30637914
206	0x3d7315a4	0.05934681
207	0x3d31fb0c	0.043452308
208	0x3ddf60f2	0.10907163
209	0xbe912cc0	-0.28354454
210	0x3dab1c81	0.08355046
211	0xbe2d6e7e	-0.1693668
212	0xbe2a7b17	-0.16648518
213	0x3dd12e72	0.10213937
214	0xbc5b5753	-0.013387519
215	0xbdd7a4aa	-0.10529454
216	0x3e07fb34	0.1327942
217	0x3d446734	0.047949985
218	0xbce60672	-0.028079245
219	0xbc4ab4ee	-0.012372239
220	0xbe9c931a	-0.3058098
221	0x3e178d3f	0.14799975
222	0x3e430d14	0.19047958
223	0x3d860588	0.06544024
224	0xbd64700c	-0.05577092
225	0xbe189c09	-0.14903273
226	0xbbf8c355	-0.007591645
227	0xbe039aef	-0.12852071
228	0x3e04306b	0.12909095
229	0x3dff80c9	0.12475736
230	0x3e2ed9ff	0.17075346
231	0xbc7dfa75	-0.015501608
232	0x3d2631ba	0.040574767
233	0xbd949042	-0.072540775
234	0x3d5c0355	0.053714115
235	0xbe6eb5ae	-0.23311493
236	0xbe6ed4af	-0.2332332
237	0x3e586dc9	0.2113563
238	0xbddf27e4	-0.108962804
239	0xbe61ecd1	-0.22062995
240	0x3e93b87d	0.2885169
241	0xbe1bd5ac	-0.15218228
242	0xbe32ffb3	-0.17480354
243	0x3d2ccae4	0.04218568
244	0x3d70107c	0.05860947
245	0x3e5728f1	0.21011712
246	0xbda9bb90	-0.08287728
247	0xbe8a1e2c	-0.26976144
248	0x3d9ff4b2	0.07810344
249	0x3d84bff9	0.064819284
250	0x3e0bee63	0.13665156
251	0xbe1f2500	-0.15541458
252	0xbd8ffcc4	-0.07030633
253	0x3e0cbb97	0.13743435
254	0x3d5cceeb	0.05390827
255	0xbe864fc6	-0.26232737

layer2.0.downsample.1.weight f4 [64]
0	0x3f2e1edb	0.6801583
1	0x3f248fd4	0.64281964
2	0x3f29a63f	0.66269296
3	0x3f4c6225	0.79837257
4	0x3f1c69f4	0.6109917
5	0x3f19fd52	0.6015216
6	0x3f1b1d7b	0.6059186
7	0x3f279b49	0.6547132
8	0x3f10c133	0.565448
9	0x3f157c04	0.5839236
10	0x3f1f815a	0.6230675
11	0x3f379bda	0.71722186
12	0x3f32bffb	0.6982419
13	0x3f269f8e	0.6508721
14	0x3f0cebc2	0.5504724
15	0x3f2cd609	0.6751409
16	0x3f20916c	0.62721896
17	0x3f1f7b67	0.6229767
18	0x3f1051eb	0.56374997
19	0x3f3c3c09	0.73529106
20	0x3f2a1627	0.6644005
21	0x3f404d58	0.7511802
22	0x3f24a4bc	0.64313865
23	0x3f2f6b38	0.6852298
24	0x3f176c74	0.5914986
25	0x3f506b1a	0.81413424
26	0x3f059130	0.52174664
27	0x3f1cd613	0.6126415
28	0x3f36558b	0.7122428
29	0x3f1afe16	0.60543954
30	0x3f290744	0.6602671
31	0x3f1ce746	0.61290395
32	0x3f2180b3	0.63087004
33	0x3f4e6903	0.80628985
34	0x3f234842	0.6378213
35	0x3f3e6535	0.7437318
36	0x3f060821	0.52356154
37	0x3f237603	0.63851947
38	0x3f37bae3	0.7176954
39	0x3f2202f3	0.6328575
40	0x3f269fe0	0.650877
41	0x3f3fb866	0.74890745
42	0x3f2c1f90	0.6723566
43	0x3f2ace07	0.6672062
44	0x3f265d52	0.64986145
45	0x3f40f846	0.75378835
46	0x3f041d6e	0.51607406
47	0x3f1abc5f	0.6044368
48	0x3f29d3f7	0.6633906
49	0x3f39bd0c	0.7255409
50	0x3f2932b4	0.6609299
51	0x3f3d6204	0.73977685
52	0x3f5a271a	0.85215914
53	0x3f2de0bc	0.6792104
54	0x3f346c3a	0.7047764
55	0x3f21b75d	0.63170415
56	0x3f4a48e9	0.790175
57	0x3f22a7e4	0.6353743
58	0x3f2ef871	0.6834784
59	0x3f2ddc1e	0.67914
60	0x3f225707	0.63414043
61	0x3f3579c2	0.7088891
62	0x3f1dc559	0.61629254
63	0x3f231a36	0.6371187
