old/student_models/baseline_res_students/student_2.pth (torch, 346486 bytes, 34 tensors)

conv_initial.0.weight f4 [16, 3, 3, 3]
0	0xbdde4d27	-0.108545594
1	0xbdce9f16	-0.10088937
2	0xbd2c692f	-0.0420925
3	0x3d5ee9f8	0.05442235
4	0x3e55e732	0.20888975
5	0x3e13a950	0.14420056
6	0xbdea72f8	-0.1144771
7	0x3e215d91	0.15758349
8	0x3ddb27c4	0.10700944
9	0x39e78fc4	0.00044166867
10	0x3e00caf9	0.12577428
11	0x3e467501	0.19380571
12	0x3e08fbd3	0.13377313
13	0x3b438ed1	0.0029839764
14	0xbd1b1430	-0.03786105
15	0xbd767588	-0.06017068
16	0xbce2defa	-0.027694214
17	0x3e258ccc	0.16166991
18	0x3e5e0cb4	0.21684533
19	0xbe04e30e	-0.1297724
20	0x3d6b8c24	0.057506695
21	0x3db16df0	0.08663547
22	0xbe8299c9	-0.25507954
23	0xbee18915	-0.44049898
24	0xbdf7dbfa	-0.12102504
25	0xbcf02d9e	-0.029318627
26	0xbe6e7713	-0.2328761
27	0x3e036835	0.1283272
28	0x3d96d4c3	0.073648
29	0xbe26e1c8	-0.16297066
30	0x3d47126b	0.04860155
31	0x3e0108ca	0.12601009
32	0xbe396362	-0.18104318
33	0xbd609f13	-0.054839205
34	0x3e1c012c	0.15234822
35	0xbdc5ee4e	-0.09664594
36	0x3d9bb792	0.07603373
37	0x3e1d81c9	0.1538154
38	0xbe8739a0	-0.26411152
39	0x3dd1c70e	0.10243045
40	0x3cd34a6f	0.025792329
41	0xbe649b24	-0.22324806
42	0x3de3fa02	0.111316696
43	0xbd900a58	-0.07033223
44	0x3cb3be6b	0.021941384
45	0x3ce3d90a	0.027813453
46	0x3e61482a	0.22000185
47	0xbe75ae20	-0.23992205
48	0x3e2f22b1	0.17103077
49	0x3da27c8d	0.079339124
50	0xbe47c3c8	-0.19508278
51	0x3d89ef20	0.067350626
52	0x3c633dd1	0.013869719
53	0xbde3ec3e	-0.11129044
54	0x3c67ab20	0.0141399205
55	0x3d769dc0	0.060209036
56	0x3e266198	0.16248167
57	0x3e878623	0.26469526
58	0x3e8dabfc	0.27670276
59	0x3e27a246	0.16370496
60	0x3d82848e	0.06372939
61	0x3e2f868a	0.17141166
62	0x3e2393e8	0.1597439
63	0xbd95660c	-0.072948545
64	0xbcac366a	-0.02102204
65	0x3cb6ab45	0.022298465
66	0xbe3ed5f8	-0.1863631
67	0xbe842bef	-0.2581477
68	0xbd4e9afc	-0.050440773
69	0xbe00e1e3	-0.12586169
70	0xbe3f11fd	-0.18659206
71	0xbd1fa7b7	-0.038978305
72	0x3e3571e0	0.17719221
73	0x3e8ff6f3	0.28118095
74	0xbdf43a2b	-0.11925157
75	0x3e27a2e5	0.16370733
76	0x3d9ac415	0.07556931
77	0xbe43ac99	-0.1910881
78	0xbd137382	-0.03599883
79	0xbd163d46	-0.03667953
80	0xbddd0bde	-0.10793279
81	0x3e32b7a4	0.17452866
82	0xbd07a45a	-0.033115722
83	0x3e57fc13	0.21092252
84	0xbe93a50b	-0.28836855
85	0xbe393328	-0.18085921
86	0x3e44cb28	0.19218123
87	0xbef906e7	-0.4863808
88	0xbd255924	-0.040368214
89	0x3da1af1e	0.07894729
90	0xbb98db7d	-0.004664837
91	0x3db85806	0.09001164
92	0xbe168aec	-0.14701432
93	0xbc46e5b9	-0.012139731
94	0xbe5171b8	-0.20453537
95	0xbe0d1458	-0.13777292
96	0xbd8ddbdc	-0.069267005
97	0x3e6eeb27	0.23331891
98	0x3e39cbaf	0.18144105
99	0x3dcebfeb	0.10095199
100	0xbe1c1ea0	-0.15246058
101	0xbe25b681	-0.16182901
102	0x3e7f3be1	0.24925186
103	0x3cda7157	0.026665373
104	0x3d27c434	0.0409586
105	0x3d9d9f44	0.07696393
106	0xbe06171b	-0.13094752
107	0xbdd31fa1	-0.10308767
108	0xbdbeaf6b	-0.09310802
109	0x3d02b117	0.031907167
110	0xbe50e624	-0.20400292
111	0x3d87c021	0.066284426
112	0xbe817b49	-0.25289372
113	0xbe066cfe	-0.13127515
114	0x3d2b5d37	0.041836943
115	0x3e498242	0.19678596
116	0x3eb29fb0	0.34887457
117	0x3d680046	0.056640886
118	0xbe6d08ba	-0.2314786
119	0x3d843c36	0.06456797
120	0xbdde6e2a	-0.10860856
121	0xbdd31224	-0.103061944
122	0xbd77a3f7	-0.060459103
123	0x3d83fd5f	0.06444811
124	0x3e17820d	0.14795704
125	0x3dd46927	0.10371619
126	0xbbaee386	-0.0053371815
127	0xbdedb011	-0.116058476
128	0xbe800ec5	-0.25011268
129	0xbe2c79f2	-0.16843393
130	0x3d647284	0.055773273
131	0x3e70cebf	0.23516367
132	0xbc6d5f37	-0.014488033
133	0x3e49fe79	0.1972598
134	0x3d7ad975	0.06124254
135	0xbe96afc3	-0.2943097
136	0x3dd9442a	0.106087044
137	0x3d7a81f4	0.06115909
138	0x3e11e4de	0.14247462
139	0x3d68560b	0.056722682
140	0xbde77e50	-0.11303389
141	0x3ddf2384	0.10895446
142	0x3d621a0a	0.055200614
143	0xbe1f0efc	-0.1553306
144	0xbd2be6a6	-0.04196801
145	0x3d8b512c	0.06802592
146	0x3de33ce1	0.11095596
147	0x3e219036	0.15777668
148	0xbd826123	-0.063661836
149	0xbbe42c9c	-0.0069633257
150	0x3e85475d	0.26031008
151	0xbe62044d	-0.22071953
152	0xbe34c503	-0.17653279
153	0xbebb2abf	-0.3655605
154	0x3e5c91a9	0.2153994
155	0x3e11b380	0.1422863
156	0xbd8a8c6d	-0.06765065
157	0xbe003ec6	-0.12523946
158	0xbd8d2a51	-0.06892837
159	0x3e42ce13	0.19023924
160	0xbcd67b0d	-0.026181722
161	0xbcfbd32e	-0.030740347
162	0xbd2d78eb	-0.042351644
163	0xbe37add9	-0.17937411
164	0x3a19e9b0	0.0005871309
165	0xbd4ae31d	-0.049533
166	0xbd965fdd	-0.07342503
167	0xbce39c1a	-0.027784396
168	0x3c77b79f	0.015119462
169	0xbebd7bc6	-0.37008494
170	0xbe033c5e	-0.12815997
171	0x3db9c6d5	0.09071127
172	0xbe4264c1	-0.18983747
173	0xbd24be1a	-0.040220357
174	0x3e2183b0	0.15772891
175	0x3df7c20c	0.120975584
176	0xbd2399ab	-0.03994147
177	0xbc5752fa	-0.013142342
178	0x3d1b5257	0.037920322
179	0xbe02c82b	-0.1277167
180	0x3e1e1295	0.15436776
181	0x3da6aa64	0.08137968
182	0xbdecc580	-0.11561108
183	0x3e8bdf9d	0.2731904
184	0x3e9ccc21	0.30624488
185	0x3e67e49d	0.22645803
186	0x3d920804	0.07130435
187	0x3e3d6450	0.18495297
188	0x3cbfa0e5	0.02339215
189	0xbc12c844	-0.00895888
190	0x3ce18c33	0.027532673
191	0x3dd04701	0.10169793
192	0x3e07309c	0.13202137
193	0x3e4e91b6	0.20172772
194	0xbd933435	-0.07187692
195	0xbe826766	-0.25469512
196	0xbdf86899	-0.121293254
197	0xbd904011	-0.0704347
198	0x3ccae9e5	0.024769733
199	0xbd43ec97	-0.04783305
200	0xbdbc130d	-0.09183321
201	0x3e58bb16	0.21165118
202	0x3e81f66d	0.2538332
203	0x3e56331a	0.20917931
204	0xbe9b7169	-0.30359963
205	0xbd5344f3	-0.051579427
206	0xbdeac5b9	-0.11463494
207	0x3dd7e815	0.10542313
208	0x3c2786c0	0.010224998
209	0xbc923a1b	-0.017849972
210	0x3d9475a2	0.07248999
211	0x3e34fd1f	0.17674683
212	0x3e22ced6	0.15899214
213	0xbe449bee	-0.19200107
214	0xbe917a97	-0.2841384
215	0xbd84f23a	-0.064915136
216	0x3e58c0fa	0.21167365
217	0xbd8382d0	-0.06421435
218	0xbe000290	-0.12500978
219	0xbe2c10a9	-0.1680323
220	0xbe8d126d	-0.2755312
221	0xbdd4bb40	-0.103872776
222	0x3e511046	0.20416364
223	0xbe57821f	-0.21045731
224	0xbde4955c	-0.111613005
225	0xbc490bd2	-0.012270885
226	0x3e30d5c3	0.17269044
227	0x3e684708	0.22683346
228	0x3d3f446e	0.04669612
229	0x3e3a5be7	0.1819912
230	0x3d924e30	0.07143819
231	0x3d94fac7	0.072743945
232	0x3d9b7eca	0.075925425
233	0x3e8e3aad	0.2777914
234	0xbe0ee847	-0.13955794
235	0x3df0a819	0.11750812
236	0xbddbb619	-0.10728092
237	0xbdc6c705	-0.09705929
238	0xbdae73cb	-0.085181795
239	0xbe4850a7	-0.19562016
240	0x3db1f114	0.0868856
241	0xbe0318e4	-0.12802464
242	0x3d91889a	0.07106133
243	0xbd8159ee	-0.06315981
244	0x3d9dc10e	0.07702838
245	0x3d768990	0.060189784
246	0xbe84552f	-0.2584624
247	0x3d8d6deb	0.06905731
248	0x3e97a495	0.29617754
249	0x3dbd39b2	0.0923952
250	0x3e69d375	0.2283457
251	0xbe4eae3d	-0.20183654
252	0xbd79fd97	-0.061032858
253	0xbd106b40	-0.03525853
254	0x3e47a2e6	0.19495735
255	0x3bb5d792	0.0055493796

conv_initial.1.weight f4 [16]
0	0x3f696ab0	0.9117842
1	0x3f981df2	1.1884139
2	0x3f53d10f	0.82740873
3	0x3f686f96	0.90795267
4	0x3f8f6b63	1.1204647
5	0x3f76b77b	0.9637372
6	0x3f76907d	0.9631422
7	0x3f924d15	1.1429774
8	0x3f506200	0.81399536
9	0x3f577787	0.8416676
10	0x3f9995b9	1.1998817
11	0x3f767263	0.9626829
12	0x3f8fa574	1.1222367
13	0x3f74037a	0.95317805
14	0x3f9050ec	1.1274695
15	0x3f53c272	0.82718575

conv_initial.1.bias f4 [16]
0	0x3cfc0ab7	0.030766828
1	0xbe01fd8d	-0.12694378
2	0xbd693313	-0.056933474
3	0xbda1f30c	-0.07907686
4	0xbd39b9f1	-0.045343343
5	0x3ce2fff9	0.027709948
6	0x3b01dd0d	0.0019815594
7	0xbdbe873a	-0.09303136
8	0x3e3026c2	0.17202285
9	0x3d5fee9b	0.05467091
10	0xbd1986b4	-0.03748198
11	0x3e33fa30	0.17575908
12	0xbd9459ff	-0.07243728
13	0xbc1a5b64	-0.009421203
14	0xbdee9a42	-0.11650516
15	0xbd63b828	-0.055595547

conv_initial.1.running_mean f4 [16]
0	0x3d8834fe	0.066507325
1	0xbaa7c4f8	-0.001279979
2	0xbc2143a3	-0.009842786
3	0x3c56991d	0.0130980285
4	0xbaefc46e	-0.0018292794
5	0x3c0f3abb	0.00874203
6	0xbdd6761e	-0.10471748
7	0x3bc56a02	0.0060246
8	0x3c97b883	0.0185206
9	0xbbd3700a	-0.006452565
10	0xbb0e210c	-0.0021687178
11	0xbc291b0f	-0.010321393
12	0xbb8eca41	-0.0043576066
13	0xbb5fdc2a	-0.0034158328
14	0x3b182772	0.002321687
15	0x3e020ad9	0.1269945

conv_initial.1.running_var f4 [16]
0	0x3d4b36b8	0.04961273
1	0x3db11859	0.08647222
2	0x3e065b51	0.13120772
3	0x3d8ff360	0.07028842
4	0x3db8610d	0.09002886
5	0x3cd719c1	0.026257398
6	0x3e2212a6	0.15827426
7	0x3da25204	0.079257995
8	0x3cd1fef2	0.025634263
9	0x3e163fda	0.14672795
10	0x3d648dee	0.055799417
11	0x3c545728	0.012960233
12	0x3d8d6b91	0.06905282
13	0x3cc6fc42	0.024290208
14	0x3cdeb7b8	0.027187213
15	0x3ee60802	0.44927984

layer1.0.conv.weight f4 [32, 16, 3, 3]
0	0xbe61f338	-0.22065437
1	0xbe1cdf51	-0.15319563
2	0xbd3821c4	-0.044954076
3	0xbe23ad42	-0.15984061
4	0xbca03b2e	-0.01955947
5	0x3d81e209	0.06341941
6	0x3e440b9b	0.19145052
7	0x3dcc2d72	0.099696055
8	0x3e54a181	0.20764734
9	0xbe75add9	-0.23992099
10	0xbe4bf7b7	-0.19918714
11	0xbd2e0f62	-0.04249514
12	0xbde3c140	-0.11120844
13	0x3ca32b47	0.019918097
14	0x3d1c6ba8	0.038188607
15	0xbde60d67	-0.11233025
16	0xbdd641c4	-0.104617625
17	0xbda1f40b	-0.079078756
18	0x3ad42279	0.001618459
19	0xbe4512df	-0.1924548
20	0xbe1f05e3	-0.1552959
21	0x3d304dbe	0.04304289
22	0xbdc740b2	-0.097291365
23	0xbde0dc39	-0.10979504
24	0x3d0a6ef8	0.033797234
25	0xbbf4b3a3	-0.0074677034
26	0x3d81e6af	0.063428275
27	0xbe13467b	-0.14382355
28	0xbd41ca1a	-0.04731188
29	0x3d9cf59a	0.07664032
30	0xbd1333ae	-0.035937957
31	0xbc18bacc	-0.00932188
32	0x3d3c7098	0.046005815
33	0xbd19b325	-0.03752436
34	0x3cfee8e7	0.031116916
35	0x3dad8baa	0.084739044
36	0x3dc60695	0.09669224
37	0x3dd4ee44	0.10397008
38	0xbd89df2f	-0.06732022
39	0x3dc53227	0.096287064
40	0x3e3ab2ff	0.18232344
41	0x3d210cc6	0.039318822
42	0x3de9b688	0.11411768
43	0x3e6cca8a	0.23124138
44	0xbd1ed170	-0.038773954
45	0xbe37d65e	-0.17952868
46	0xbe9b4960	-0.30329418
47	0xbe421c78	-0.18956172
48	0xbe12a9bd	-0.14322563
49	0x3daacc79	0.08339781
50	0x3d1dae45	0.038496275
51	0xbe0952ab	-0.13410442
52	0xbdb66fb7	-0.08908027
53	0xbe3bd3eb	-0.18342559
54	0xbe375bbc	-0.17906088
55	0xbdf233f7	-0.11826318
56	0xbe4b1b03	-0.19834523
57	0x3db2c1e0	0.08728385
58	0x3e64e527	0.2235304
59	0x3daa9db0	0.08330858
60	0x3cf4badb	0.029874256
61	0x3e263e5e	0.16234729
62	0x3e26d4d2	0.16292122
63	0xbe4c71ae	-0.1996524
64	0x3e15d40e	0.14631674
65	0x3d8937f1	0.06700123
66	0x3dd77cbc	0.10521838
67	0x3dad56ac	0.08463797
68	0x3d9f3bda	0.07775088
69	0x3c223b1e	0.00990179
70	0x3e0b1eaf	0.13585924
71	0x3dcbba90	0.09947693
72	0xbd5e9d5c	-0.05434929
73	0xbdc000c7	-0.09375148
74	0x3daf5f7d	0.08563135
75	0xbe850f47	-0.25988218
76	0xbe5ee971	-0.21768738
77	0x3d0d071e	0.034430616
78	0xbd9cd33e	-0.07657479
79	0x3d151392	0.036395617
80	0x3ccd35b6	0.025050025
81	0xbd964097	-0.07336538
82	0xbe026a55	-0.12735875
83	0xbc78f358	-0.015194736
84	0xbdc1a104	-0.094545394
85	0x3b414afb	0.0029494155
86	0x3d8914f2	0.06693448
87	0xbcdfb521	-0.027308049
88	0xbc54db0f	-0.012991681
89	0x3cfdb82a	0.030971605
90	0xbbc4604d	-0.0059929253
91	0xbe1efa64	-0.15525204
92	0x3cebd505	0.028788099
93	0xbd9b7c42	-0.0759206
94	0x3b69f1e7	0.0035697164
95	0x3d1cf4b6	0.038319312
96	0xbda78ce5	-0.081811704
97	0xbe1c7c66	-0.15281829
98	0xbe804159	-0.25049856
99	0xbe1add43	-0.15123467
100	0xbe337d68	-0.17528307
101	0xbdfca2e4	-0.123357564
102	0x3e8059ce	0.25068516
103	0x3e569d61	0.20958473
104	0x3e3b5748	0.18295014
105	0xbb97b0b9	-0.0046292213
106	0xbd7f7bdb	-0.062373977
107	0xbc0ecd0b	-0.008715878
108	0x3d294f68	0.041335493
109	0x3d6788ac	0.056526825
110	0x3d6a75d6	0.057241283
111	0xbdb5b7cd	-0.08872948
112	0xbcb2235d	-0.021745378
113	0xbe3063d6	-0.17225584
114	0xbd429438	-0.047504634
115	0xbd798985	-0.060922164
116	0xbdf4f934	-0.11961594
117	0xbda57ae1	-0.08080078
118	0xbdbe0a74	-0.092793375
119	0x3db80661	0.08985592
120	0xbc169f60	-0.009193271
121	0xbe2f8f43	-0.17144494
122	0xbdda9ead	-0.10674796
123	0x3d8509dc	0.06496021
124	0xbc44360f	-0.011975779
125	0xbe47a7b7	-0.19497572
126	0xbdd93c38	-0.10607189
127	0x3d6991de	0.057023875
128	0x3ea5a817	0.32354805
129	0x3dec2124	0.115297586
130	0xbd7d38a6	-0.061821602
131	0x3d1ed591	0.03877789
132	0xbd4af10f	-0.049546298
133	0xbc2fac03	-0.010722163
134	0xbb418f2a	-0.0029534795
135	0xbe03a4d8	-0.12855852
136	0xbde6d89b	-0.11271783
137	0xbe0fffbd	-0.140624
138	0xbdd4e1cf	-0.10394632
139	0xbdc3d9fb	-0.09563061
140	0xbe09cad8	-0.13456285
141	0x3e23a1fd	0.15979762
142	0x3e1c9c39	0.15293969
143	0x3deeae97	0.11654394
144	0x3dfac841	0.12245227
145	0x3e79d32b	0.2439696
146	0x3e236aa8	0.15958655
147	0x3dae7233	0.085178755
148	0xbac63b56	-0.0015123885
149	0xbdd702f2	-0.10498609
150	0x3c9f9c36	0.019483667
151	0xbd683dc1	-0.056699518
152	0xbddd1ae4	-0.107961446
153	0xbeaf4a6b	-0.34236464
154	0xbc070f8f	-0.008243456
155	0xbbb01038	-0.005373027
156	0xbee14fd9	-0.4400623
157	0xbd5f4dff	-0.054517742
158	0xbe18168b	-0.1485235
159	0xbe0baa61	-0.13639213
160	0xbe89ac65	-0.2688934
161	0xbccaedf7	-0.024771674
162	0xbc334fad	-0.010944289
163	0x3d58da85	0.05294277
164	0xbd6da0e6	-0.058014773
165	0x3d894c37	0.0670399
166	0x3da36d16	0.07979791
167	0x3bea80b1	0.0071564545
168	0xbdaed604	-0.08536914
169	0xbde85447	-0.113442
170	0xbc756ee0	-0.014980048
171	0x3dc06a2b	0.0939525
172	0x3dcdea7c	0.1005449
173	0x3dec8ddd	0.11550496
174	0x3e0f33bc	0.13984579
175	0xbda3d94b	-0.0800043
176	0x3c399cf0	0.011328921
177	0xbe3b14f8	-0.18269718
178	0xbd4d3a13	-0.050104212
179	0xbe0ccb4b	-0.13749425
180	0xbdb2d5a7	-0.08732157
181	0xbcef767b	-0.0292313
182	0x3d14f6ec	0.036368296
183	0xbe07f9d0	-0.1327889
184	0x3d15ab4c	0.036540315
185	0x3c3a114d	0.011356664
186	0xbcfad99c	-0.030621342
187	0xbd5fd6ce	-0.054648213
188	0x3df226ee	0.118238315
189	0x3de60aca	0.112325266
190	0x3db67d7f	0.08910655
191	0x3daae905	0.08345226
192	0xbbec614e	-0.007213748
193	0x3e6704ef	0.22560476
194	0xbdae9694	-0.08524814
195	0xbdd49d83	-0.103816055
196	0xbdc7d3da	-0.09757204
197	0xbdec777b	-0.115462266
198	0x3d060a71	0.0327248
199	0x3c9f85b5	0.019472936
200	0x3d44b061	0.04801977
201	0x3d8c10c4	0.06839135
202	0xbe13433d	-0.14381118
203	0x3c6e62e2	0.014549943
204	0xbdbf5bc6	-0.09343676
205	0xbd2404aa	-0.04004351
206	0x3dc43121	0.09579683
207	0x3ec5a427	0.386018
208	0x3e9d1360	0.30678844
209	0x3e2fb350	0.17158246
210	0x3e16ce69	0.14727177
211	0x3c93bdd5	0.018034855
212	0x3d94b7c6	0.072616145
213	0xbd0cb1db	-0.034349304
214	0xbd872e3f	-0.066006176
215	0x3d9c77d9	0.076400466
216	0xbdb7fb76	-0.08983509
217	0xbda59fe8	-0.0808714
218	0xbd90504e	-0.07046567
219	0x3db95635	0.09049646
220	0xbda3e2bd	-0.08002231
221	0x3c7b0225	0.0153203355
222	0xbcc64b38	-0.024205789
223	0xbd1c64e2	-0.038182147
224	0xbd620f69	-0.055190478
225	0xbd4a020e	-0.049318366
226	0x3de90857	0.11378544
227	0x3e1d977b	0.15389816
228	0xbd53c6ca	-0.051703252
229	0xbcda6d24	-0.02666337
230	0x3dbea8d1	0.09309543
231	0xbe499584	-0.19685942
232	0xbd603af6	-0.05474373
233	0x3da62823	0.08113124
234	0x3e1cac71	0.15300156
235	0x3d900176	0.07031529
236	0x3d509dc5	0.05093171
237	0x3cf19df5	0.029494265
238	0x3c08c9c7	0.008348889
239	0x3d8a30ef	0.067476146
240	0x3e097c65	0.13426359
241	0xbd66e895	-0.05637415
242	0x3e07b10d	0.13251133
243	0x3ca1639a	0.019700814
244	0x3de58063	0.112061284
245	0x3e2f7c0d	0.17137165
246	0xbe9df2c9	-0.30849293
247	0xbdd22605	-0.10261158
248	0x3daa4a28	0.083149254
249	0xbc958350	-0.018251091
250	0xbdb59776	-0.088667795
251	0xbbbbb38c	-0.0057281908
252	0x3e8470c9	0.25867298
253	0xbd05a71f	-0.032630082
254	0xbdbb32df	-0.09140562
255	0x3e4d51c2	0.2005072

layer1.0.bn.weight f4 [32]
0	0x3fc0467b	1.5021509
1	0x3f94efa7	1.1635636
2	0x3fa07cfd	1.2538143
3	0x3f9bc62f	1.2169856
4	0x3f8b9fb4	1.0908113
5	0x3fc6858f	1.5509509
6	0x3f93857e	1.1525114
7	0x3fa6a6bd	1.3019634
8	0x3fa95f90	1.3232288
9	0x3fa81ca4	1.313374
10	0x3f92bf45	1.1464621
11	0x3fa4e1ae	1.2881372
12	0x3f8d2fd9	1.1030227
13	0x3fa8a998	1.3176756
14	0x3f932f46	1.1498802
15	0x3f97ffe4	1.1874967
16	0x3f9e2431	1.2354795
17	0x3f788e32	0.9709197
18	0x3f9ee622	1.2413981
19	0x3f9d3bd1	1.228388
20	0x3faee61f	1.3663977
21	0x3f849c14	1.0360131
22	0x3fb6855b	1.4259447
23	0x3fa33512	1.2750571
24	0x3f9e34f7	1.2359914
25	0x3fa0a0d4	1.2549081
26	0x3f9fa828	1.2473192
27	0x3fa2a30a	1.2706006
28	0x3fb60139	1.4219123
29	0x3f97de36	1.1864688
30	0x3f8b7413	1.0894798
31	0x3faca229	1.3486987

layer1.0.bn.bias f4 [32]
0	0x3deb1d45	0.11480192
1	0xbdb2c36e	-0.087286815
2	0xbcedfffb	-0.029052725
3	0xbdef1097	-0.11673086
4	0x3ddbff32	0.10742034
5	0xbe569db3	-0.20958595
6	0x3e0741b2	0.13208655
7	0x3dac33ef	0.08408343
8	0xbbde2a79	-0.0067799655
9	0x3c5df9da	0.013548339
10	0x3e07c785	0.13259704
11	0xbd33abfd	-0.043865193
12	0xbdcc0df2	-0.09963597
13	0xbd9f005b	-0.0776374
14	0x3d85cc7c	0.06533143
15	0xbdac8f3a	-0.08425756
16	0x3e077811	0.13229395
17	0x3d9b6e86	0.0758944
18	0xbdc6a46e	-0.09699331
19	0xbe4332a4	-0.19062287
20	0x3d83a454	0.064278275
21	0xbc8e3124	-0.017357416
22	0x3dfee395	0.124457516
23	0xbccec043	-0.025238162
24	0x3dd96ad3	0.10616078
25	0xbcc77cf6	-0.024351578
26	0x3d6dd595	0.058065016
27	0xbdd6d601	-0.10490037
28	0x3dbefcfa	0.09325595
29	0xbbb1e8f8	-0.0054293834
30	0xbd67a9f8	-0.05655858
31	0xbd35c4d8	-0.044377178

layer1.0.bn.running_mean f4 [32]
0	0xbfbbd71b	-1.467502
1	0x3e99ea4c	0.30061567
2	0xbfaefb6f	-1.3670481
3	0xbfcd9cf0	-1.6063519
4	0xbe16bcf1	-0.14720513
5	0xbf8d6db2	-1.1049101
6	0xbe23ccfe	-0.15996167
7	0xc05158c8	-3.2710438
8	0xbfbde06c	-1.4834113
9	0xbf133d93	-0.5751583
10	0x3eda9694	0.42693007
11	0xbf096d0b	-0.5368201
12	0xbd164985	-0.036691207
13	0xbf09297e	-0.5357894
14	0x3e87f45b	0.26553616
15	0xbec21750	-0.3790841
16	0xbea84179	-0.32862452
17	0x3f406f38	0.75169706
18	0xbf91a32f	-1.1377925
19	0xbea0ea2a	-0.31428653
20	0xbfc69646	-1.551461
21	0xbf906116	-1.1279628
22	0xbf239678	-0.6390147
23	0x3edc5d0c	0.4303974
24	0xbf5d1d4d	-0.86372834
25	0xbfb8335e	-1.4390676
26	0x3f1faca2	0.6237279
27	0xbf724716	-0.9463972
28	0xc00110a9	-2.0166419
29	0xbf0516f1	-0.5198813
30	0xbe3438dc	-0.17599815
31	0x3d887389	0.066626616

layer1.0.bn.running_var f4 [32]
0	0x400f66f1	2.240658
1	0x3fed6d67	1.8549012
2	0x400019e5	2.0015805
3	0x40a5250e	5.1607733
4	0x402f11c1	2.7354586
5	0x40113192	2.2686505
6	0x40043fbc	2.06639
7	0x40b73e04	5.7263203
8	0x402faf83	2.7450874
9	0x40000ad9	2.000662
10	0x3fe89678	1.817092
11	0x40093ffb	2.14453
12	0x3fb19ddf	1.3876303
13	0x3fbed53f	1.4908828
14	0x3fa4055f	1.2814139
15	0x3fb9acb1	1.4505826
16	0x3f89568f	1.072954
17	0x401b5108	2.4268208
18	0x4033f106	2.811586
19	0x3fa28411	1.2696553
20	0x403df3dc	2.968009
21	0x3fadce34	1.3578553
22	0x40338db3	2.8055236
23	0x3f8f8d03	1.1214908
24	0x3fd50119	1.664096
25	0x40084ac0	2.1295624
26	0x3fcca6cb	1.5988401
27	0x3ffc2cc7	1.9701165
28	0x4083d2ce	4.119483
29	0x401b1aaf	2.4235036
30	0x4009d3db	2.1535556
31	0x4006b3e3	2.1047294

layer1.0.downsample.0.weight f4 [32, 16, 1, 1]
0	0x3e9ffa9e	0.31245893
1	0xbc261b00	-0.010138273
2	0x3e31ee01	0.17375948
3	0x3da78164	0.08178976
4	0x3e25a36f	0.16175626
5	0x3df07b2a	0.11742242
6	0xbe255d6a	-0.16148916
7	0x3eb580ad	0.35449734
8	0x3e01a5a7	0.12660848
9	0x3db72e16	0.08944337
10	0xbe33eb92	-0.17570332
11	0x3d5d9bc0	0.054103613
12	0x3c2b4e70	0.010455713
13	0x3e42c2a8	0.19019568
14	0x3d88b0b7	0.06674331
15	0xbe718265	-0.23584898
16	0xbe94989d	-0.29022685
17	0xbd80af34	-0.06283417
18	0x3db31d36	0.08745806
19	0x3d9bc668	0.07606202
20	0x39e79eb0	0.00044177985
21	0xbe72b159	-0.23700465
22	0xbd0ce52a	-0.034398235
23	0x3e9ecd0f	0.31015822
24	0xbb43b046	-0.0029859706
25	0x3e264466	0.1623703
26	0x3e2cd772	0.16879061
27	0xbe41ae74	-0.18914205
28	0x3d81728c	0.06320676
29	0x3bbde088	0.0057945885
30	0xbe6b3bef	-0.22972082
31	0x3e64a2cb	0.22327726
32	0xbeb9d1f2	-0.36292988
33	0x3e32f245	0.17475231
34	0x3e13879d	0.14407201
35	0xbe18543e	-0.14875886
36	0x3e1bbe8e	0.1520941
37	0xbc9b36f1	-0.018947097
38	0x3e0274c8	0.12739861
39	0x3db39d62	0.08770253
40	0xbe292fe2	-0.16522172
41	0x3eb039ff	0.34419248
42	0x3e091fc5	0.13391025
43	0xbdba0ca9	-0.09084446
44	0x3e459a2c	0.19297093
45	0xbd77b2d7	-0.06047329
46	0x3d6d3ec2	0.05792118
47	0xbe90ae1a	-0.2825783
48	0x3da85134	0.08218613
49	0xbec4d7cf	-0.384459
50	0xbc508627	-0.012727297
51	0xbe4850d8	-0.1956209
52	0xbec7e38e	-0.39040798
53	0xbeb3a64a	-0.35087806
54	0x3e6d8a98	0.231974
55	0xbdaeb189	-0.08529956
56	0xbd56f2a5	-0.052477498
57	0xbdddf5d4	-0.108379036
58	0xbddf1150	-0.10891974
59	0xbe1e3202	-0.15448764
60	0xbe34d713	-0.1766017
61	0xbdc11bf0	-0.09429157
62	0x3d5c5a20	0.053796887
63	0x3dd61259	0.10452718
64	0x3da7e718	0.081983745
65	0x3e33ec59	0.17570628
66	0xbeb4c460	-0.35306072
67	0x3e3087f6	0.17239365
68	0xbdf976a5	-0.12180833
69	0x3e2aaccf	0.16667484
70	0xbecd2cd9	-0.4007328
71	0xbe30aa02	-0.17252353
72	0xbe33eb19	-0.17570151
73	0xbe53e940	-0.20694447
74	0xbd758719	-0.059943292
75	0xbb89cf80	-0.004205644
76	0xbd5dfe9e	-0.0541979
77	0x3ca6d6c2	0.020366076
78	0x3e841344	0.25795949
79	0xbdb560f9	-0.08856387
80	0xbdc0ee29	-0.094204254
81	0x3e6e9982	0.23300746
82	0xbf021b40	-0.5082283
83	0x3e245899	0.16049422
84	0x3c4a0876	0.012331119
85	0x3e15fd2d	0.1464736
86	0x3dd7b2a8	0.10532123
87	0xbdc6dae0	-0.09709716
88	0x3ad27bc7	0.0016058617
89	0xbdcab76c	-0.09898266
90	0xbd8a8996	-0.06764524
91	0x3e687e9c	0.22704548
92	0x3de8122b	0.1133159
93	0xbe472ea9	-0.19451393
94	0xbddde0d3	-0.108338974
95	0xbe3e4216	-0.18579897
96	0xbe53ee88	-0.20696461
97	0xbe0ee90d	-0.1395609
98	0x3df7cdb8	0.120997846
99	0xbe1d9b8c	-0.15391368
100	0xbe86e15b	-0.26343808
101	0x3e2ff969	0.17184986
102	0xbed7e3f8	-0.42166114
103	0x3e4fc8ee	0.20291492
104	0x3cfe8ce5	0.031073043
105	0xbe77cadd	-0.2419848
106	0xbe85002e	-0.259767
107	0xbe8b9df4	-0.27268946
108	0x3e2e09ba	0.16995898
109	0x3e0d5c0e	0.13804647
110	0xbe941999	-0.2892578
111	0xbae682cc	-0.0017586588
112	0x3d924bde	0.07143377
113	0xbbfa2f61	-0.0076350425
114	0xbd3efaa3	-0.046625745
115	0xbe58897d	-0.21146198
116	0x3e5dabe2	0.216476
117	0xbe9099e0	-0.28242397
118	0xbd1bb87d	-0.03801774
119	0x3c32d9c8	0.010916181
120	0xbe8064a6	-0.2507679
121	0x3e832b60	0.2561903
122	0x3c929287	0.017892135
123	0x3e15505e	0.14581439
124	0xbe84b045	-0.25915733
125	0x3e05e929	0.13077225
126	0x3e0b5d0f	0.13609718
127	0xbee7c678	-0.45268607
128	0xbd99ff8e	-0.07519446
129	0x3e4e591f	0.20151184
130	0x3bfc6ed5	0.007703642
131	0xbe31997b	-0.17343704
132	0xbe14fb6c	-0.14549035
133	0x3e2e5c5e	0.17027423
134	0x3e85e923	0.26154432
135	0xbdbd13d9	-0.09232301
136	0xbd72fe50	-0.059324563
137	0x3e4b91ed	0.19879885
138	0xbe84183e	-0.25799745
139	0x3e03c150	0.12866712
140	0xbed5c3ed	-0.41751042
141	0xbe2118f9	-0.15732183
142	0x3e307756	0.17233023
143	0x3dd5b5fd	0.10435102
144	0x3d8ceaa2	0.0688069
145	0xbe92c281	-0.2866402
146	0xbe805357	-0.25063583
147	0x3e404966	0.18778
148	0x3dd755d8	0.1051442
149	0x3c30d4c6	0.010792917
150	0xbe57a4bf	-0.2105894
151	0x3ce26c36	0.02763949
152	0xbe43f431	-0.1913612
153	0xbd6891bc	-0.056779608
154	0xbe0e6879	-0.1390704
155	0x3d435f9e	0.04769861
156	0xbed04d9a	-0.40684205
157	0xbeb3e36e	-0.35134453
158	0x3ddfbcd4	0.10924688
159	0xbdaeb7e8	-0.08531171
160	0xbe9ee9a3	-0.31037626
161	0x3d2575e2	0.040395625
162	0x3e002c19	0.12516822
163	0xbe5bcd6b	-0.2146508
164	0x3ea0acf1	0.31381944
165	0xbd653cac	-0.055966064
166	0xbea421ef	-0.3205714
167	0xbe96ef27	-0.29479334
168	0x3c6f1e1a	0.014594579
169	0xbe192e39	-0.14959039
170	0x3e1cd28d	0.15314694
171	0x3dee5dea	0.116390064
172	0xbeaed07a	-0.3414343
173	0x3d8ce977	0.068804674
174	0xbe0aa9e7	-0.13541375
175	0x3d907961	0.07054401
176	0x3e118374	0.14210302
177	0xbe3e39b2	-0.18576697
178	0xbe6a864f	-0.22902797
179	0x3e030eff	0.1279869
180	0x3e21c8a5	0.15799196
181	0xbc2f1e29	-0.010688343
182	0x3dc27cc5	0.09496454
183	0xbe109b6b	-0.14121787
184	0x3e2820fb	0.16418831
185	0xbe7ca072	-0.2467058
186	0x3ea30972	0.31843144
187	0xbe374a3d	-0.17899413
188	0xbe920421	-0.28518775
189	0xbef77fc6	-0.4833967
190	0xbcf0d75d	-0.029399568
191	0xbe769e34	-0.24083787
192	0x3e1cf857	0.15329109
193	0xbd62d838	-0.055381984
194	0xbbbf6e62	-0.005842016
195	0xbe2d0fa9	-0.16900505
196	0xbe629163	-0.22125773
197	0xbe160287	-0.14649402
198	0x3e4149e7	0.18875848
199	0x3e6a679e	0.2289109
200	0xbe64ec46	-0.22355756
201	0xbdb564c4	-0.0885711
202	0x3e95fa63	0.29292592
203	0x3e690be8	0.22758448
204	0xbddd4f9a	-0.108061984
205	0x3e082149	0.13293947
206	0x3eb04d79	0.34434107
207	0x3dcc8909	0.09987075
208	0x3d1831c0	0.03715682
209	0xbc8596be	-0.016307231
210	0x3d6f2d1b	0.058392625
211	0x3de41f1c	0.11138746
212	0xbe05cf18	-0.13067281
213	0xbee2f169	-0.44324806
214	0xbe3782a8	-0.17920935
215	0x3e148578	0.1450404
216	0xbdf83aba	-0.12120576
217	0x3e5b631a	0.21424523
218	0xbe37a799	-0.17935027
219	0xbeb629b0	-0.3557868
220	0x3c9b2b4a	0.01894154
221	0xbd4bf934	-0.049798205
222	0x3e8ab90d	0.27094308
223	0xbe112b25	-0.14176615
224	0xbf06af58	-0.52611303
225	0xbe32418c	-0.17407817
226	0xbdcf59cc	-0.10124549
227	0x3e0745f7	0.13210283
228	0x3d3c9eb1	0.046049777
229	0xbe4a21e8	-0.19739497
230	0x3db84be2	0.089988485
231	0x3e2c9f1f	0.16857575
232	0xbe099ac6	-0.13437948
233	0x3d416113	0.047211718
234	0xbe21ff17	-0.15819965
235	0x3d46b3ad	0.048511196
236	0x3e657f87	0.22411929
237	0xbe4c8a83	-0.19974713
238	0x3d61c897	0.055122938
239	0x3b3de2a4	0.00289742
240	0x3cf5dea8	0.030013397
241	0x3b1a666e	0.0023559588
242	0xbe2f2108	-0.17102444
243	0x3ea91baf	0.33028933
244	0x3c8a7537	0.016901596
245	0x3e2131e0	0.15741682
246	0xbea713cb	-0.32632288
247	0x3d275920	0.04085648
248	0x3e8662e7	0.26247332
249	0xbe9ea7d3	-0.30987415
250	0x3e4a9ab0	0.19785571
251	0xbd3a5bb1	-0.0454976
252	0xbcba3fd3	-0.022735512
253	0xbddd73ee	-0.108131275
254	0x3d56d2e2	0.052447207
255	0x3e5c462d	0.21511145

layer1.0.downsample.1.weight f4 [32]
0	0x3f37a604	0.71737695
1	0x3f29551f	0.6614551
2	0x3f3e9393	0.7444393
3	0x3f7baef2	0.9831382
4	0x3f267154	0.65016675
5	0x3f248773	0.6426918
6	0x3f2fe0dd	0.6870249
7	0x3f42aa18	0.7604079
8	0x3f5680d8	0.8379035
9	0x3f562851	0.8365527
10	0x3f220624	0.6329062
11	0x3f5405ba	0.8282124
12	0x3f4600dc	0.7734506
13	0x3f38a855	0.72131854
14	0x3f238d4b	0.6388747
15	0x3f5e83ce	0.8691987
16	0x3f4a94d5	0.7913335
17	0x3f405279	0.75125843
18	0x3f52ff97	0.8242125
19	0x3f3756d8	0.7161689
20	0x3f343501	0.7039338
21	0x3f61fe0f	0.8827829
22	0x3f3cd567	0.73763126
23	0x3f57da5f	0.8431758
24	0x3f16238a	0.5864798
25	0x3f6029c3	0.87563723
26	0x3f3ae52b	0.7300593
27	0x3f4a3e38	0.7900119
28	0x3f677965	0.9041961
29	0x3f77833a	0.9668461
30	0x3f6b68e5	0.9195693
31	0x3f3ef74a	0.74596083

layer1.0.downsample.1.bias f4 [32]
0	0xbc16641a	-0.0091791395
1	0xbde196f5	-0.11015121
2	0xbe683e78	-0.2268008
3	0xbe415f12	-0.18883923
4	0xbdcd39e7	-0.100208096
5	0xbddf49bb	-0.10902735
6	0xbdbb2833	-0.09138527
7	0xbde840d6	-0.113404915
8	0xbd75a943	-0.059975874
9	0xbbfa9714	-0.0076474044
10	0x3d73fb10	0.059565604
11	0xbda0918e	-0.07840262
12	0xbe1304f8	-0.14357364
13	0xbdd544a8	-0.10413486
14	0x3bcb2063	0.006198929
15	0xbe59ad63	-0.21257548
16	0xbe31ccb0	-0.17363238
17	0xbe0d7033	-0.13812332
18	0xbe70f51c	-0.23531002
19	0xbe24e6e2	-0.161037
20	0xbe5c93f0	-0.21540809
21	0xbde81888	-0.11332804
22	0x3dd16f73	0.102263354
23	0xbe1aafa4	-0.15106064
24	0xbcfe1cc7	-0.031019581
25	0xbdfad188	-0.12246996
26	0xbb0c8c8e	-0.0021446082
27	0xbe1e0887	-0.1543294
28	0xbe1def94	-0.15423423
29	0xbe106daa	-0.14104334
30	0xbe43ac72	-0.19108751
31	0xbe34c393	-0.1765273

layer1.0.downsample.1.running_mean f4 [32]
0	0x3f37333a	0.7156254
1	0xbddf71ef	-0.10910403
2	0x3e4cf43d	0.20015045
3	0xbf8d4ae4	-1.103848
4	0xbea90035	-0.3300797
5	0xbc80cfdb	-0.015724113
6	0xbf5e3546	-0.8680004
7	0xbe6f4cf8	-0.23369205
8	0xbdc54acf	-0.09633409
9	0xbf510c99	-0.8165985
10	0xbf008aa9	-0.5021158
11	0xbf1e6e20	-0.6188679
12	0x3edec4ab	0.4350942
13	0xbf1a2166	-0.6020721
14	0xbebfb530	-0.37442923
15	0x3e5c3896	0.21505961
16	0x3e84cdcd	0.25938264
17	0x3f15d01d	0.5852068
18	0xbf075645	-0.5286601
19	0xbf6d51e1	-0.9270306
20	0xbf3632d1	-0.7117129
21	0xbea7c91d	-0.32770625
22	0xbbbf7271	-0.0058425
23	0xbf47231d	-0.77787954
24	0xbeb08448	-0.34475923
25	0xbee38009	-0.4443362
26	0x3ea227cf	0.31670997
27	0xbecb811f	-0.3974695
28	0xbf5d39bc	-0.8641622
29	0xbf428281	-0.75980383
30	0xbd521f88	-0.0512996
31	0xbf18ba77	-0.5965952

layer1.0.downsample.1.running_var f4 [32]
0	0x3ea7ea33	0.32795867
1	0x3e5dc59c	0.21657413
2	0x3efd97fb	0.49530014
3	0x3f4cd47f	0.80011743
4	0x3eb588b6	0.35455865
5	0x3ebab7cd	0.36468354
6	0x3ef4d135	0.47815862
7	0x3ed35b55	0.41280618
8	0x3e88aaff	0.2669296
9	0x3ef01c03	0.4689637
10	0x3e836897	0.25665733
11	0x3f0cc72b	0.54991406
12	0x3f0890e4	0.53346086
13	0x3ebbf9d9	0.36714056
14	0x3ea93070	0.33044767
15	0x3eeb082b	0.4590467
16	0x3eb74484	0.3579446
17	0x3eef5ab0	0.46748877
18	0x3edcfe37	0.431627
19	0x3ee7fa31	0.45308068
20	0x3f1726c3	0.5904352
21	0x3e53876e	0.20657131
22	0x3eec3c1a	0.46139604
23	0x3f007809	0.5018316
24	0x3ebcde3b	0.36888298
25	0x3e9dc673	0.30815467
26	0x3e590fbf	0.21197413
27	0x3eb23394	0.34804976
28	0x3f166282	0.5874406
29	0x3f16c0d2	0.5888797
30	0x3e29d24e	0.16584131
31	0x3f0cc15e	0.54982555

layer2.0.conv.weight f4 [64, 32, 3, 3]
0	0xbc9b3155	-0.018944422
1	0x3d895be8	0.06706983
2	0x3d4d958a	0.05019144
3	0xbb16a2c3	-0.0022985197
4	0xbdad946f	-0.08475577
5	0x3b93d029	0.0045108986
6	0xbde67051	-0.112518914
7	0xbd97a058	-0.0740363
8	0xbeb19f5c	-0.34691894
9	0x3d5bfbf2	0.05370707
10	0x3e11e2fb	0.14246742
11	0xbdd7fe03	-0.10546496
12	0xbd43a351	-0.047763173
13	0xbc83cb42	-0.016088132
14	0x3dea833c	0.11450812
15	0xbdad187e	-0.08451937
16	0x3a5fce50	0.0008537518
17	0xbdbcfa61	-0.092274435
18	0xbd645156	-0.05574163
19	0x3d0711ca	0.03297595
20	0xbd23e3c6	-0.040012144
21	0x3d3d01d2	0.046144314
22	0xbcaeef9c	-0.021354489
23	0x3c72ed0c	0.014827024
24	0x3cd43d12	0.025908027
25	0x3defab36	0.11702578
26	0xbe7b1422	-0.24519399
27	0xbdc358a9	-0.09538395
28	0xbe040165	-0.12891157
29	0xbe9a8ba4	-0.30184662
30	0x3dbec3b3	0.093146704
31	0xbe0e4860	-0.13894796
32	0xbe042eec	-0.12908524
33	0x3e0454fd	0.12923045
34	0x3e0a21ad	0.13489409
35	0x3c907a6e	0.017636504
36	0xbe416213	-0.18885069
37	0xbe4b850b	-0.1987497
38	0x3dcb9b0c	0.09941682
39	0x3d037df7	0.03210255
40	0x3e2ce152	0.16882828
41	0x3cdcc59b	0.026949694
42	0xbb013a3c	-0.0019718548
43	0x3e115c8f	0.14195465
44	0xbdd458ab	-0.103684746
45	0x3de424cf	0.11139833
46	0xbc900f38	-0.017585382
47	0x3c8bcc09	0.017065065
48	0x3d29aa15	0.04142197
49	0x3db905d6	0.09034316
50	0xbe488635	-0.19582446
51	0x3c4ab778	0.012372844
52	0x3d092fa2	0.03349269
53	0xbd84d496	-0.0648586
54	0xbd8d60c1	-0.0690322
55	0xba7669ec	-0.0009399939
56	0xbdb4d2b3	-0.0882925
57	0x3c9fa182	0.019486193
58	0xbdebc8b1	-0.11512888
59	0xbcb6a5f5	-0.022295931
60	0x3c62e8e1	0.013849468
61	0xbe804141	-0.25049785
62	0x3d634fb7	0.055495944
63	0xbdb342ae	-0.087529525
64	0xbdaff967	-0.085924916
65	0xbc95d1e1	-0.018288555
66	0x3dc2ee07	0.09518056
67	0xbc45fe99	-0.012084627
68	0x3e15e01f	0.14636277
69	0xba933838	-0.0011231964
70	0xbcdb6545	-0.026781688
71	0xbd1c477e	-0.038154118
72	0xbdb2cc36	-0.087303564
73	0xbd9eb005	-0.07748417
74	0x3e3a30f2	0.18182734
75	0x3e06b740	0.13155842
76	0x3cc892f6	0.024484139
77	0x3e3c01ad	0.18360014
78	0x3e14bd16	0.14525256
79	0xbcf17407	-0.029474271
80	0xbe3d1782	-0.18465999
81	0x3c4231a2	0.011852654
82	0xbcf8635f	-0.030320821
83	0xbdbb00b9	-0.09130997
84	0x3e73c5a7	0.23805867
85	0xb9cddfbf	-0.0003926735
86	0x3dae7b0b	0.08519562
87	0x3e69dbc1	0.22837736
88	0x3e5b0273	0.21387653
89	0x3dc435b8	0.095805585
90	0x3d399416	0.04530724
91	0x3c8d204a	0.01722731
92	0x3dc0782f	0.09397923
93	0x3d11d749	0.035605703
94	0x3db4f51d	0.08835814
95	0x3ccb91df	0.02484983
96	0xbc98e774	-0.018665053
97	0xbcc427c3	-0.023944741
98	0xbe10282a	-0.14077821
99	0x3d1c436a	0.03815023
100	0x3c51465d	0.012773124
101	0xbe581009	-0.21099867
102	0xbe57ff84	-0.21093565
103	0xbd9671d1	-0.073459275
104	0x3c936e10	0.017996818
105	0x3da77d1f	0.08178162
106	0x3d82ed73	0.06392946
107	0x3ded5985	0.1158934
108	0x3ddabad7	0.10680168
109	0x3df79752	0.12089409
110	0x3d778e00	0.060438156
111	0xbd57d06c	-0.052689
112	0x3da7d884	0.08195594
113	0x3ddef4e1	0.10886551
114	0xbdc1331a	-0.09433575
115	0xbe55c88e	-0.20877287
116	0xbeba5f49	-0.36400822
117	0xbe09628d	-0.134165
118	0xbd8417f1	-0.06449879
119	0xbdbd74da	-0.09250803
120	0x3d383fb6	0.044982634
121	0x3d81bcdf	0.063348524
122	0xbdab6826	-0.08369474
123	0xbcacedf8	-0.021109566
124	0x3ce962ae	0.028489437
125	0x3cc1f8bf	0.023678182
126	0xbe0b8613	-0.13625364
127	0xbd722884	-0.05912067
128	0xbe09c113	-0.13452558
129	0xbdb21d29	-0.08696968
130	0x3dd45bfd	0.10369108
131	0x3c599e82	0.01328242
132	0x3ce79041	0.028267028
133	0xbe22e72b	-0.15908496
134	0xbd85a29e	-0.065251574
135	0x3dec2604	0.115306884
136	0x3dd539a2	0.10411383
137	0x3da88db3	0.08230152
138	0xbdc090f8	-0.094026506
139	0x3e33f59c	0.17574161
140	0x3df780ca	0.120851114
141	0x3e120be7	0.14262353
142	0x3de9c11c	0.11413786
143	0x3e3a81d5	0.1821359
144	0x3d80ea4a	0.06294687
145	0x3c41bde4	0.011825059
146	0xbdc359c6	-0.09538607
147	0x3e299961	0.16562416
148	0x3bc85959	0.0061141667
149	0xbdca175a	-0.09867735
150	0xbddcb58d	-0.107768156
151	0xbe187d36	-0.14891514
152	0xbe85d2b8	-0.26137328
153	0x3cfbe9b3	0.030751085
154	0x3c4e368b	0.012586246
155	0x3e3ccd39	0.18437661
156	0x3d3db4cd	0.046315003
157	0x3e6a5112	0.22882488
158	0x3e63889d	0.22220083
159	0xbd0b81be	-0.03405928
160	0x3cd2d899	0.025738047
161	0xbd7f0cb7	-0.062267985
162	0xbe1110ad	-0.14166518
163	0xbe3a4806	-0.18191537
164	0x3dc3c774	0.09559527
165	0x3dcf7f7f	0.1013174
166	0x3dd4e93a	0.10396047
167	0x3d265ecb	0.040617745
168	0x3b49bd11	0.0030782858
169	0xbd702b95	-0.058635313
170	0x3e0301a5	0.12793596
171	0xbe2e7c3e	-0.17039582
172	0xbe801872	-0.2501865
173	0xbe0d4f35	-0.13799746
174	0x3ddff184	0.10934737
175	0x3e06285b	0.13101332
176	0x3b49da08	0.0030800123
177	0x3e5fdb65	0.21861036
178	0x3da8e38d	0.08246527
179	0x3e1ed8d0	0.15512395
180	0xbe03f037	-0.12884603
181	0xbe7b1f76	-0.2452372
182	0xbec0bf93	-0.3764616
183	0x3e1f0985	0.15530975
184	0x3dd34979	0.10316748
185	0x3ccd807e	0.025085684
186	0x3e7a781e	0.24459884
187	0x3e143265	0.14472349
188	0xbbd578a3	-0.006514625
189	0xbc99acea	-0.01875921
190	0xbd9098dc	-0.070604056
191	0xbdfeba48	-0.12437874
192	0x3de34ef9	0.11099047
193	0xbc147926	-0.009062087
194	0x3d99f09e	0.07516597
195	0xbd628268	-0.055300146
196	0x3c0f8a40	0.008760989
197	0x3cc7a636	0.024371248
198	0xbe060a61	-0.13089897
199	0xbd44c172	-0.048036046
200	0xbc9235e7	-0.017847968
201	0x3d583f0f	0.052794512
202	0xbdf1a2aa	-0.11798604
203	0x3db6ec4b	0.08931788
204	0x3d7596d7	0.059958305
205	0x3d261821	0.040550355
206	0xbcdb6050	-0.026779324
207	0x3e012b18	0.12614095
208	0xbdf25fe4	-0.11834696
209	0x3d858615	0.06519715
210	0xbe56d1a4	-0.20978409
211	0x3db7a179	0.08966345
212	0x3d825b89	0.06365115
213	0x3e4eb33e	0.20185563
214	0x3df2cc41	0.118553646
215	0x3d9ebd61	0.07750965
216	0x3e55e6e6	0.20888862
217	0x3e11f52f	0.14253686
218	0xbe250dba	-0.16118518
219	0xbe58d3fb	-0.21174614
220	0xbc0980f4	-0.008392561
221	0xbe2a6d17	-0.16643177
222	0xbe4319cc	-0.1905281
223	0xbe1245e0	-0.14284468
224	0xbcb429f7	-0.021992667
225	0xbd3b0e4d	-0.045667935
226	0x3ce3570d	0.02775147
227	0xbe34bb9b	-0.17649691
228	0x3dc40f15	0.09573189
229	0xbde400fa	-0.11132999
230	0xbdf9b240	-0.121922016
231	0x3e08461f	0.13307999
232	0x3dbb50d3	0.09146275
233	0x3d9ef71f	0.07761978
234	0x3dcb830c	0.099371046
235	0xbd3d44bf	-0.04620814
236	0x3e238781	0.1596966
237	0xbd3323f5	-0.043735463
238	0xbdb43f3c	-0.088011235
239	0x3d978961	0.0739925
240	0x3da43867	0.080185704
241	0xbe6801c9	-0.22656931
242	0xbda39a02	-0.07988359
243	0xbd90b189	-0.07065112
244	0x3db0ba50	0.08629286
245	0xbc79d17a	-0.015247697
246	0xb9c4f9db	-0.0003757019
247	0xbc863618	-0.016383216
248	0x3dfaf335	0.12253419
249	0x3e223198	0.15839231
250	0x3db269dd	0.08711598
251	0x3df014a4	0.11722687
252	0xbde84d43	-0.113428615
253	0xbeb781cc	-0.35841215
254	0xbe5ce580	-0.21571922
255	0x3dcf57a6	0.101241395

layer2.0.bn.weight f4 [64]
0	0x3fa301b9	1.2734901
1	0x3f8d4ce8	1.1039095
2	0x3fa13ebe	1.2597272
3	0x3f8ad1c5	1.0845267
4	0x3f9153f1	1.1353742
5	0x3f95480c	1.1662612
6	0x3f9c6e42	1.2221148
7	0x3f9ccfe1	1.225094
8	0x3f8fb687	1.1227578
9	0x3f995ad1	1.198084
10	0x3f7ab092	0.97925675
11	0x3fac2332	1.3448241
12	0x3fa2d9e9	1.2722751
13	0x3f972ea1	1.1811105
14	0x3fa27adb	1.2693743
15	0x3f957c3b	1.1678537
16	0x3f8ebabf	1.115074
17	0x3f8d1d38	1.1024542
18	0x3f94a6a5	1.1613356
19	0x3f9d292a	1.2278187
20	0x3f8fa889	1.1223308
21	0x3f97a48b	1.184709
22	0x3f96e774	1.1789384
23	0x3f8b5fd6	1.0888622
24	0x3f948c6d	1.1605355
25	0x3f980805	1.1877447
26	0x3fa08221	1.2539712
27	0x3f92ae91	1.1459523
28	0x3f93b90d	1.1540848
29	0x3f8d30bb	1.1030496
30	0x3f871a64	1.0554929
31	0x3f8d10a9	1.1020709
32	0x3f8b577d	1.0886074
33	0x3f98665f	1.1906241
34	0x3f930dae	1.148855
35	0x3f94867f	1.1603545
36	0x3f9684ed	1.1759316
37	0x3f906ae2	1.1282618
38	0x3f984d1c	1.1898532
39	0x3f9ac747	1.2092065
40	0x3f96edc5	1.1791312
41	0x3f87e076	1.0615375
42	0x3f9dd685	1.2331091
43	0x3fa17886	1.2614906
44	0x3f900be3	1.1253628
45	0x3f8a5fba	1.0810463
46	0x3f90a813	1.1301292
47	0x3f8c9cd1	1.0985357
48	0x3f8a3e50	1.0800266
49	0x3f93ba28	1.1541185
50	0x3f987e4c	1.1913543
51	0x3fa54f44	1.2914815
52	0x3f968adc	1.1761127
53	0x3f9e5aed	1.2371498
54	0x3fa3c37c	1.2794032
55	0x3f9fd0fa	1.248565
56	0x3f94cfb7	1.162589
57	0x3f8e89d1	1.1135808
58	0x3f8bf4e6	1.0934112
59	0x3f9e55cd	1.2369934
60	0x3f8e71a4	1.112843
61	0x3f88887a	1.0666649
62	0x3f7f1b28	0.9965081
63	0x3f924cc7	1.142968

layer2.0.bn.bias f4 [64]
0	0xbdbffa7e	-0.093739495
1	0xbd2bf52f	-0.041981872
2	0xbddc5521	-0.107584246
3	0xbe26cb52	-0.16288498
4	0xbdb68caa	-0.08913548
5	0xbe7efc4d	-0.24900933
6	0xbdec2674	-0.11530772
7	0xbe529353	-0.20564012
8	0xbe568e82	-0.209528
9	0xbe770f6a	-0.24126974
10	0xbea56856	-0.32306165
11	0xbe55ef7d	-0.20892139
12	0xbe89b1f1	-0.2689357
13	0xbe05e339	-0.1307496
14	0xbe21580f	-0.15756248
15	0xbe7dcea1	-0.24785854
16	0xbe20bdf9	-0.15697469
17	0xbe56cc03	-0.20976262
18	0xbe4ba4c5	-0.19887073
19	0xbd548ecb	-0.05189399
20	0xbe3189d6	-0.17337736
21	0xbe472a6b	-0.19449775
22	0xbe4bb887	-0.1989461
23	0xbe16de07	-0.14733134
24	0xbe51749b	-0.20454638
25	0xbe80357d	-0.25040808
26	0xbe46ed63	-0.19426493
27	0xbe52318e	-0.20526716
28	0xbe85ef21	-0.26159003
29	0xbebd2d98	-0.36948848
30	0xbe00b3c0	-0.12568569
31	0xbdf21085	-0.11819557
32	0xbe440641	-0.1914301
33	0xbe3f8a90	-0.18705201
34	0xbe17d861	-0.14828636
35	0xbe5558c6	-0.20834646
36	0xbe049aa6	-0.12949619
37	0xbe407540	-0.18794727
38	0xbe335b83	-0.17515378
39	0xbe20caca	-0.15702358
40	0xbe794360	-0.24342108
41	0xbe656cbb	-0.22404759
42	0xbd046c97	-0.03233012
43	0xbd8c6575	-0.06855289
44	0xbe349dbf	-0.176383
45	0xbe102c8d	-0.14079495
46	0xbe22c448	-0.15895188
47	0xbe67f64f	-0.22652553
48	0xbe516ea2	-0.2045236
49	0xbda02379	-0.07819266
50	0xbdb795ec	-0.08964142
51	0xbe00362b	-0.12520663
52	0xbea9fac9	-0.33199146
53	0xbe95440d	-0.2915348
54	0xbd3dda77	-0.046350922
55	0xbe3444a2	-0.17604306
56	0xbe4f764e	-0.20259973
57	0xbe43d0a6	-0.19122562
58	0xbdcfbe1a	-0.10143681
59	0xbe767ce1	-0.24071075
60	0xbe86b5c7	-0.2631056
61	0xbe0081c2	-0.12549499
62	0xbe52c316	-0.20582232
63	0xbe56f26e	-0.20990917

layer2.0.bn.running_mean f4 [64]
0	0x3eaee4b9	0.34158877
1	0xc0ac1a89	-5.378239
2	0xc03b5dcd	-2.9276001
3	0x3fa825a3	1.3136486
4	0xc055b56f	-3.3391988
5	0xbf9d14a7	-1.2271928
6	0xc06dbc99	-3.714636
7	0xbf8d4878	-1.1037741
8	0xbf05a0e2	-0.5219861
9	0xc0046ceb	-2.0691478
10	0xbe2474c9	-0.16060175
11	0x3ec6a749	0.38799503
12	0xbe8e0770	-0.2774005
13	0xbfeb7499	-1.8394958
14	0xbebe7759	-0.3720043
15	0x3f7f0dcb	0.9963042
16	0xbf540a8e	-0.82828605
17	0xbfc800f4	-1.5625291
18	0xc016f5e4	-2.358758
19	0xc007bebc	-2.1210165
20	0xbe46c9f1	-0.19412972
21	0xbdc6908b	-0.09695538
22	0x3fa35da3	1.2762951
23	0xc0188a81	-2.3834536
24	0xc058394e	-3.3784976
25	0xc092f1c3	-4.592012
26	0xbfe70e50	-1.8051243
27	0x3e890d81	0.26768115
28	0xbf84ddef	-1.0380229
29	0x3f52743b	0.82208604
30	0xbfe7322a	-1.8062184
31	0xc015d39b	-2.3410404
32	0xc0329c1d	-2.7907784
33	0xbf8b82ad	-1.0899254
34	0xbf5343ea	-0.82525504
35	0xc0520b92	-3.2819562
36	0xc0068cbb	-2.1023395
37	0xbfe49877	-1.7859029
38	0xbfaba261	-1.3408929
39	0xc02079de	-2.5074382
40	0xc089a021	-4.300797
41	0xbfa104bd	-1.2579571
42	0xbf98c365	-1.193463
43	0xbfd28192	-1.6445792
44	0xbfb5ae08	-1.4193735
45	0xbffbf9fb	-1.9685663
46	0xc048e3b8	-3.1388988
47	0x3ff48598	1.910327
48	0xc0249912	-2.5718427
49	0xc09d47db	-4.9150214
50	0xbebc9804	-0.3683473
51	0xbfe35a49	-1.7761928
52	0xbfdad7de	-1.7097127
53	0xbff5987e	-1.9187162
54	0xc034bfdb	-2.82421
55	0xbfe46c79	-1.7845603
56	0xc0472f31	-3.1122553
57	0x3faaf3fc	1.3355708
58	0xc05581f6	-3.3360572
59	0xc000acc5	-2.010545
60	0xc083354b	-4.1002555
61	0xc02d3d52	-2.7068677
62	0xbe8ce5ff	-0.27519223
63	0xc00f35da	-2.2376618

layer2.0.bn.running_var f4 [64]
0	0x40c3b454	6.1157627
1	0x406a161c	3.6575994
2	0x40821485	4.065005
3	0x40500332	3.250195
4	0x407fc570	3.9964256
5	0x403eb1f9	2.9796126
6	0x4084b4c3	4.1470656
7	0x4073834d	3.804889
8	0x408f0595	4.4694314
9	0x40563371	3.3468897
10	0x40058448	2.0861988
11	0x4028d6db	2.6381137
12	0x402fa89f	2.7446668
13	0x4082b2e8	4.084339
14	0x4071cc12	3.7780805
15	0x404e0b94	3.2194567
16	0x40518571	3.2737696
17	0x403016ce	2.751392
18	0x4038fe50	2.890522
19	0x408808a1	4.2510533
20	0x4035e654	2.842183
21	0x407954e4	3.8958063
22	0x4084aad4	4.145853
23	0x403d5b7d	2.958709
24	0x40a3bddb	5.1169257
25	0x409f4e1c	4.978285
26	0x40597b65	3.3981564
27	0x408e29aa	4.442586
28	0x404ca640	3.197647
29	0x406bfe76	3.687406
30	0x408536a2	4.162919
31	0x407df224	3.967904
32	0x4061c1ad	3.527446
33	0x403d58c3	2.9585426
34	0x406ded33	3.7176025
35	0x40586fcf	3.3818243
36	0x406f1ec0	3.7362518
37	0x406453ab	3.5676067
38	0x40425774	3.0365877
39	0x4043568e	3.0521579
40	0x408eabe5	4.458483
41	0x4088a267	4.2698245
42	0x4090607b	4.5117774
43	0x4081cfc2	4.056611
44	0x406c6364	3.6935663
45	0x4049babe	3.1520228
46	0x4086e293	4.215158
47	0x405ed3a5	3.4816678
48	0x405df93a	3.4683366
49	0x408f9293	4.4866424
50	0x403a4f32	2.9110837
51	0x40853910	4.1632156
52	0x40567b8c	3.3512907
53	0x40411c00	3.017334
54	0x4090b7ef	4.522453
55	0x403ed133	2.9815185
56	0x4032c4d2	2.793263
57	0x40657459	3.5852263
58	0x4095ff17	4.687389
59	0x4081d007	4.056644
60	0x4042f386	3.0461135
61	0x40859e5d	4.1755815
62	0x4087c0b4	4.2422733
63	0x406d50c3	3.7080543

layer2.0.downsample.0.weight f4 [64, 32, 1, 1]
0	0x3e10b953	0.14133196
1	0x3d0f0f83	0.034926903
2	0xbe1981c3	-0.14990906
3	0x3d20674b	0.039161008
4	0xbe7297f4	-0.23690778
5	0xbe585509	-0.21126188
6	0xbeaa28bd	-0.33234206
7	0x3e6746c0	0.22585583
8	0x3e443235	0.19159777
9	0x3d85b263	0.06528165
10	0x3dc5a742	0.096510425
11	0xbd974b1c	-0.07387373
12	0xbcc3f898	-0.02392225
13	0xbdb7794e	-0.08958684
14	0x3e4a7a8c	0.1977331
15	0x3da9bac5	0.082875766
16	0xbe170f1b	-0.14751856
17	0xbe3b16b0	-0.18270373
18	0x3d3627c2	0.04447151
19	0x3df561ad	0.11981521
20	0x3d89f101	0.06735421
21	0xbd78d67c	-0.060751423
22	0xbd9c2b9c	-0.07625505
23	0xbe133cd6	-0.14378676
24	0xbdc74c5b	-0.097313605
25	0xbcbdbec3	-0.023162251
26	0x3d9be680	0.07612324
27	0x3e163773	0.1466959
28	0x3e5906ef	0.21194051
29	0x3e05c008	0.13061535
30	0xbea9d1b5	-0.33167806
31	0xbd935709	-0.07194335
32	0xbec1775f	-0.37786385
33	0xbdc1c6af	-0.09461724
34	0xbe53bd74	-0.2067774
35	0x3dd7f6b1	0.105450995
36	0xbd974328	-0.07385856
37	0x3e0dc29b	0.13843767
38	0x3e959054	0.29211676
39	0x3d93b1b9	0.07211632
40	0xbd39c256	-0.04535135
41	0x3d2eb29e	0.04265081
42	0x3e036445	0.12831219
43	0x3e792c01	0.24333192
44	0xbc8e0f42	-0.01734126
45	0xbdad7744	-0.08470014
46	0x3d80d21d	0.06290076
47	0x3de28082	0.11059667
48	0xbe8cc2e5	-0.27492443
49	0x3da63a5b	0.08116599
50	0xbe90957b	-0.28239045
51	0x3b604e32	0.0034226296
52	0xbdc29382	-0.09500791
53	0xbcdb068c	-0.02673652
54	0xbd812229	-0.06305344
55	0x3e3b2dca	0.18279186
56	0xbd880582	-0.066416755
57	0x3d900e14	0.07033935
58	0x3cf234dc	0.029566221
59	0x3d891b0c	0.06694612
60	0x3e39d4b0	0.1814754
61	0x3e17e862	0.14834741
62	0xbdcd70d0	-0.10031283
63	0xbe035b05	-0.1282769
64	0x3e467e70	0.1938417
65	0xbd7751a4	-0.060380593
66	0xbd88c36e	-0.066779
67	0x3e5264ab	0.20546214
68	0xbd9d417e	-0.07678507
69	0xbe138dbb	-0.14409535
70	0xbe0d39e1	-0.1379161
71	0x3ea6b87a	0.3256262
72	0x3da6f496	0.0815212
73	0xbc1903cb	-0.009339283
74	0xbde19008	-0.110138
75	0xbb39d961	-0.0028358328
76	0xbe7a21ab	-0.24426906
77	0xbdd502fd	-0.104009606
78	0xbe04ce50	-0.12969327
79	0x3df562ed	0.11981759
80	0x3c37e22d	0.011223358
81	0xbc1e24a6	-0.009652292
82	0xbe408819	-0.18801917
83	0x3c6b5162	0.014362665
84	0x3c1bbc52	0.009505348
85	0xbd1efba0	-0.038814187
86	0x3daca6c6	0.08430247
87	0xbdafa56d	-0.08576474
88	0xbcdb318c	-0.026757024
89	0x3982aabd	0.00024922742
90	0xbdde0709	-0.108411856
91	0x3e756450	0.23964047
92	0x3e07a9af	0.13248323
93	0x3df0bbb9	0.11754555
94	0xbeb57fd8	-0.354491
95	0x3dc1abad	0.09456573
96	0xbe823311	-0.25429586
97	0x3d75cb28	0.060008198
98	0xbe2b279d	-0.1671433
99	0xbd7438b1	-0.059624378
100	0xbdddd09b	-0.10830804
101	0x3db9e41f	0.09076714
102	0xbe6a12f1	-0.22858788
103	0xbd813489	-0.063088484
104	0xbe90a47f	-0.282505
105	0xbcb608ce	-0.022220995
106	0x3e184ce7	0.14873086
107	0x3daffa61	0.08592678
108	0x3decf7d0	0.11570704
109	0x3e746dd7	0.23870026
110	0x3c870b14	0.016484775
111	0xbd9fad31	-0.077967055
112	0xbdd7fd64	-0.10546377
113	0xbe03bfb2	-0.12866095
114	0x3e838669	0.25688484
115	0x3e2ec636	0.17067799
116	0x3c415b35	0.011801531
117	0x3e01d5f0	0.12679267
118	0xbeba4788	-0.363827
119	0x3d963fe5	0.07336406
120	0x3d73ed89	0.059552703
121	0xbc84cb7b	-0.016210308
122	0x3dad954a	0.0847574
123	0x3d123b45	0.035701055
124	0xbe41fe47	-0.18944655
125	0xbdb85d12	-0.09002127
126	0x3dfcdde5	0.123470105
127	0x3e14ba50	0.14524198
128	0xbe6c235f	-0.23060368
129	0xbe3867a4	-0.18008286
130	0xbdcc51ea	-0.09976561
131	0x3e3fc39e	0.18726966
132	0xbe43e388	-0.19129765
133	0xbe7528cb	-0.23941343
134	0x3d3457e9	0.04402915
135	0xbdd0581b	-0.10173055
136	0x3cba38da	0.022732187
137	0xbe3fab95	-0.18717797
138	0x3ce4a649	0.027911322
139	0xbe9263b7	-0.285917
140	0x3e521e01	0.20519258
141	0x3d907234	0.070530325
142	0x3d593fc0	0.053039312
143	0xbd2b6037	-0.041839805
144	0x3baef4fe	0.005339264
145	0x3d939efa	0.07208057
146	0xbddbc2aa	-0.107304886
147	0xbcb09b8e	-0.02155855
148	0xbe972b0a	-0.29525024
149	0xbd91bab2	-0.071156874
150	0xbe1ca8aa	-0.15298715
151	0x3d770b82	0.06031371
152	0x3d717dbe	0.058957808
153	0xbe159e69	-0.1461121
154	0xbc38b165	-0.011272763
155	0x3e2f8317	0.1713985
156	0xbeb6d04c	-0.35705793
157	0xbe8f2a5d	-0.27962008
158	0x3e03e6af	0.12880968
159	0xbe210ea1	-0.15728237
160	0xbe1191d3	-0.14215784
161	0x3c2d7865	0.010587786
162	0xbebe31c1	-0.37147334
163	0xbd04c259	-0.032411907
164	0x3ddeb4fa	0.10874362
165	0xbd9047b1	-0.07044924
166	0xbd6030bf	-0.054733988
167	0x3d71889b	0.058968168
168	0xbe886b3f	-0.26644322
169	0x3e4983ba	0.19679156
170	0x3d27ed86	0.040998004
171	0xbd89e3c7	-0.06732898
172	0x3e9c6cd7	0.30551788
173	0xbd5b3822	-0.05352033
174	0x3d370e38	0.044691294
175	0x3e9adae8	0.30245137
176	0x3dad9d99	0.08477325
177	0x3e7da99d	0.24771734
178	0xbda9ece5	-0.08297137
179	0x3d97846f	0.073983066
180	0xbcee3d97	-0.029082103
181	0x3e0edc72	0.1395128
182	0xbce4e250	-0.027939945
183	0xbce92672	-0.028460715
184	0xbda75253	-0.08169999
185	0xbdb8e0d8	-0.090272605
186	0xbe62ebb2	-0.22160223
187	0xbe1d0e59	-0.15337504
188	0x3e13e11a	0.14441338
189	0x3c3de0c8	0.011589237
190	0xbe5b3cde	-0.21409938
191	0xbd6aa6c9	-0.057287965
192	0x3e0d41e8	0.13794672
193	0xbe166122	-0.1468549
194	0x3d9f3d6c	0.07775387
195	0xbdcf58ac	-0.10124335
196	0xbd8475ab	-0.06467756
197	0x3e0c53e2	0.13703874
198	0x3e15aa0a	0.14615646
199	0xbcd38c66	-0.025823783
200	0x3e828e25	0.25499073
201	0xbea4096c	-0.32038438
202	0x3e18fa48	0.14939225
203	0xbd761743	-0.060080778
204	0xbe06a72c	-0.13149709
205	0x3e969075	0.29407087
206	0xbe4b4fd0	-0.19854665
207	0x3e518b58	0.20463312
208	0x3e019d0a	0.12657562
209	0xb9cd3c20	-0.00039145444
210	0x3e461a47	0.19345962
211	0x3e182d52	0.14861038
212	0x3d715d49	0.058926854
213	0xbd09635c	-0.033542022
214	0xbd772ad4	-0.06034358
215	0xbe0acb72	-0.1355417
216	0xbd952b96	-0.07283704
217	0xbcef13a8	-0.029184178
218	0xbe703428	-0.23457396
219	0x3c3184da	0.010834897
220	0x3e2fa6ae	0.17153427
221	0xbd3dd40a	-0.046344794
222	0x3d652116	0.055939756
223	0x3e52bed2	0.20580605
224	0xbd9b7dd7	-0.075923614
225	0x3dc0583e	0.09391831
226	0x3dd78013	0.10522475
227	0xbec96f1e	-0.39342588
228	0xbe196929	-0.14981522
229	0x3dcbb07e	0.099457726
230	0xbeceeb33	-0.40413818
231	0xbe365fd0	-0.17809987
232	0x3e4c4da4	0.19951493
233	0x3dfaf206	0.122531936
234	0x3e197b17	0.14988361
235	0xbe2acb1b	-0.16679041
236	0xbe34f893	-0.17672949
237	0xbe19c089	-0.15014853
238	0x3d71e59c	0.059056863
239	0x3d133f52	0.03594906
240	0x3df79fb1	0.120910056
241	0x3daaf3bb	0.08347269
242	0xbd8a17f9	-0.06742854
243	0xbd7e441b	-0.06207667
244	0x3d908a59	0.07057638
245	0xbe35095e	-0.17679355
246	0xbe5cc1e0	-0.21558332
247	0xbb9a7131	-0.0047132005
248	0x3da6ded4	0.0814797
249	0xbdbfcc58	-0.09365147
250	0x3da51593	0.080607556
251	0xbd29ef5b	-0.041488033
252	0xbefa4878	-0.48883414
253	0xbb13009d	-0.0022430785
254	0x3c172747	0.009225673
255	0x3e471b8d	0.19444104

layer2.0.downsample.1.weight f4 [64]
0	0x3f19c52e	0.600665
1	0x3f1d0ec2	0.61350644
2	0x3f32a6d4	0.6978581
3	0x3f23e465	0.6402038
4	0x3f07d1a7	0.5305428
5	0x3f201e2b	0.6254603
6	0x3f42e651	0.76132685
7	0x3f229423	0.6350729
8	0x3f34887c	0.7052076
9	0x3f116061	0.5678769
10	0x3f359f22	0.7094594
11	0x3f12467e	0.5713881
12	0x3f287833	0.6580841
13	0x3f328080	0.69727325
14	0x3efad77c	0.48992527
15	0x3f32e7a7	0.69884723
16	0x3f168b63	0.5880644
17	0x3f237600	0.6385193
18	0x3f282970	0.6568823
19	0x3f09d99f	0.5384769
20	0x3f3dbedd	0.7411936
21	0x3f3be5f5	0.7339776
22	0x3f120b2e	0.5704831
23	0x3f36338c	0.71172404
24	0x3f239c1c	0.6391008
25	0x3f304a94	0.688638
26	0x3f31c34c	0.69438624
27	0x3f213fbc	0.62987876
28	0x3f1edc46	0.6205486
29	0x3f3db85b	0.7410943
30	0x3f2f36ce	0.68443
31	0x3f302393	0.6880428
32	0x3f34ac2a	0.705752
33	0x3f19ec3e	0.601261
34	0x3f1afc10	0.60540867
35	0x3f2ff11b	0.6872727
36	0x3f230d0d	0.6369179
37	0x3efd2ae9	0.494468
38	0x3f1ea91a	0.6197678
39	0x3f2816ab	0.6565959
40	0x3f3e2a80	0.742836
41	0x3f30c82b	0.6905543
42	0x3f25b582	0.64730084
43	0x3f165b0d	0.5873268
44	0x3f31044e	0.69147193
45	0x3f3905cc	0.7227447
46	0x3f3ba557	0.73299164
47	0x3f29c43f	0.6631507
48	0x3f3adcbf	0.7299308
49	0x3f2a4b86	0.6652149
50	0x3f2833f0	0.6570425
51	0x3f2ce8f5	0.67542964
52	0x3f287191	0.6579829
53	0x3f1f4e56	0.62228906
54	0x3f1f967f	0.62339014
55	0x3f26d4a4	0.65168214
56	0x3f222798	0.63341665
57	0x3f4c1f9a	0.7973572
58	0x3f147f9a	0.58007205
59	0x3f1c4121	0.6103688
60	0x3f261167	0.64870304
61	0x3f3ea4f8	0.7447047
62	0x3f2cd551	0.67512995
63	0x3f3cc6c9	0.7374082
