student_models/large_res_students/student_4.pth (torch, 385904 bytes, 39 tensors)

conv_initial.0.weight f4 [16, 3, 3, 3]
0.104994334 -0.042264298 -0.2552667 0.07420265 -0.040260598 -0.028051749 -0.14362101 -0.016624518
-0.026289608 0.04750113 0.1461837 -0.006407607 -0.35158223 -0.42714384 -0.311704 0.071344346
-0.019054024 -0.11786955 0.08931839 0.112343326 -0.035062153 -0.23728965 -0.2854355 -0.32365105
0.070966214 0.028069716 0.109542735 -0.1863743 0.04224867 0.084089085 -0.05967619 -0.17496845
0.028063482 0.27001396 -0.07426667 -0.18620582 0.04290619 0.061071493 -0.09360584 0.013158928
0.025980923 0.029621916 0.21485487 -0.12503746 -0.03648246 -0.30973944 0.063721985 0.2510503
-0.20209846 -0.25123027 0.34908953 -0.074353375 -0.06800259 -0.113710634 -0.05866081 -0.21688741
0.14891073 0.24810357 -0.07126773 0.0033836141 -0.10170444 0.0820572 0.031328972 -0.13476694
-0.23519304 -0.13695803 0.32856518 0.28522387 0.18481763 -0.1955703 -0.1491554 -0.124649234
-0.16759253 -0.048201013 -0.27429566 0.091419384 0.17903285 -0.030931143 0.13222958 0.09414782
0.07252607 -0.14468887 -0.29215342 -0.08620419 -0.06183835 -0.15927848 0.026525402 0.04220102
0.3538203 0.18381873 -0.107894845 -0.0058656503 -0.21590076 0.123648204 -0.11964663 0.10109811
0.041253008 0.17292343 0.15111636 0.13622087 0.17837259 -0.06932646 -0.14684866 -0.083272144
0.18285763 0.07711534 -0.2004766 -0.085833065 0.051777992 -0.11058354 0.13682975 0.21633339
-0.0065007983 0.10114007 0.121559225 0.08355848 0.024242366 -0.06958499 -0.41820225 -0.16904849
-0.35922864 -0.09178643 -0.110458754 -0.25363067 0.026978236 0.098106235 0.26329637 -0.020285407
0.030264476 0.010607792 -0.09124158 0.19405428 -0.11955923 0.03947266 0.029637603 -0.10667541
0.098946705 0.17905733 -0.16069874 -0.013593429 0.0068245158 -0.052968953 -0.33340868 0.084502384
0.10068036 -0.03794856 0.0919411 -0.11292639 0.17156392 -0.15175296 -0.018461008 -0.16892233
0.051476054 -0.07223455 -0.044625 -0.18748884 0.17507996 0.029123934 -0.23016515 0.2627348
0.27156058 0.19544683 -0.0019509842 0.24312682 0.22246848 0.16268475 0.17987004 -0.025581667
-0.020145126 -0.145833 -0.10901552 0.12310435 -0.0048832716 -0.11939477 0.03443015 -0.14242138
0.019000482 0.045695093 0.04362861 0.04673987 -0.07529432 -0.25942546 -0.20473836 -0.23863824
-0.2908359 -0.114329666 0.13220654 0.20260982 0.22483848 0.05203805 0.09974355 0.023949957
0.21906863 -0.19285978 -0.17585258 -0.1348829 -0.031321403 0.14245325 -0.087433286 -0.0059049157
-0.096554644 0.35201553 0.032529358 -0.1483437 -0.24443723 0.0313597 0.19337478 0.04737273
0.056967586 -0.033957243 0.019464027 -0.08431034 -0.105472736 -0.22019136 0.058046147 0.2460484
0.00713553 -0.2547145 0.24010481 0.10565751 -0.11576404 -0.09915652 0.07227072 -0.07333803
0.11289878 0.046547864 -0.28192094 0.13180752 0.23934673 0.039322488 -0.24436387 0.1336681
-0.114567295 0.1030888 0.18736602 -0.18536152 -0.10576301 0.043075055 0.015601943 -0.16763473
0.17249432 0.17820913 -0.21222927 0.0414786 0.13435285 0.07959997 -0.119209155 -0.092950664
-0.01104395 -0.08810422 0.065101795 0.18394756 0.044880997 -0.11616309 -0.100575134 0.021802435
00000000: 4507 d73d 541d 2dbd 51b2 82be 8ff7 973d
00000010: 4ce8 24bd c8cc e5bc 6311 13be 2430 88bc
00000020: 4e5d d7bc 8b90 423d 2eb1 153e e7f6 d1bb
00000030: 9602 b4be 99b2 dabe ab97 9fbe fc1c 923d
00000040: 2f17 9cbc 9765 f1bd 8fec b63d 4214 e63d
00000050: 559d 0fbd 0ffc 72be 9a24 92be 97b5 a5be
00000060: bc56 913d 76f2 e53c f157 e03d e8d8 3ebe
00000070: f10c 2d3d e636 ac3d 056f 74bd ee2a 33be
00000080: 63e5 e53c 453f 8a3e 2019 98bd bdac 3ebe
00000090: 67be 2f3d 1a26 7a3d 6bb4 bfbd 8b98 573c
000000a0: f2d5 d43c a9a9 f23c ea02 5c3e d209 00be
000000b0: a26e 15bd 2b96 9ebe ac80 823d aa89 803e
000000c0: e6f2 4ebe 41a1 80be ddbb b23e 9546 98bd
000000d0: f144 8bbd 1fe1 e8bd 5146 70bd bc17 5ebe
000000e0: 0e7c 183e dd0e 7e3e d1f4 91bd a0bf 5d3b
000000f0: 6b4a d0bd 9b0d a83d cf52 003d 5800 0abe
00000100: 72d6 70be ba3e 0cbe b239 a83e dd08 923e
00000110: d540 3d3e 9543 48be 31bc 18be 1948 ffbd
00000120: 609d 2bbe 6d6e 45bd 7b70 8cbe 163a bb3d
00000130: 6354 373e 4f63 fdbc 3167 073e 92d0 c03d
00000140: 8c88 943d 5229 14be 2295 95be d38b b0bd
00000150: 364a 7dbd e619 23be cd4b d93c fada 2c3d
00000160: ef27 b53e fa3a 3c3e f9f7 dcbd a434 c0bb
00000170: 1715 5dbe 453b fd3d 4b09 f5bd 870c cf3d
00000180: eaf8 283d d712 313e 3fbe 1a3e 7c7d 0b3e
00000190: 4ea7 363e 08fb 8dbd 7f5f 16be 968a aabd
000001a0: 083f 3b3e a6ee 9d3d bd49 4dbe 3fc9 afbd
000001b0: 2915 543d 9f79 e2bd 191d 0c3e 8086 5d3e
000001c0: a604 d5bb 8622 cf3d 0bf4 f83d b520 ab3d
000001d0: ed97 c63c 9382 8ebd 9b1e d6be 0c1b 2dbe
000001e0: d1ec b7be 86fa bbbd 3338 e2bd e1db 81be
000001f0: 7601 dd3c eceb c83d c8ce 863e 952d a6bc
00000200: 35ed f73c 4ecc 2d3c dedc babd 2ab6 463e
00000210: 78db f4bd 15ae 213d 8fca f23c a378 dabd
00000220: 92a4 ca3d ce5a 373e 368e 24be f9b6 5ebc
00000230: 30a0 df3b f9f5 58bd 8bb4 aabe 960f ad3d
00000240: 8131 ce3d f36f 1bbd 9e4b bc3d f345 e7bd
00000250: 74ae 2f3e 2165 1bbe 8a3b 97bc faf9 2cbe
00000260: 8ed8 523d b5ef 93bd b4c8 36bd 13fd 3fbe
00000270: 2948 333e 5195 ee3c 6ab0 6bbe 2d85 863e
00000280: fd09 8b3e 3723 483e 2bb8 ffba 3df6 783e
00000290: c7ce 633e d596 263e da2f 383e a590 d1bc
000002a0: 6407 a5bc 3f55 15be 8743 dfbd 221e fc3d
000002b0: da03 a0bb 3f85 f4bd a106 0d3d e9d6 11be
000002c0: e6a6 9b3c c72a 3b3d eab3 323d 4e72 3f3d
000002d0: e933 9abd 6ad3 84be efa6 51be 955d 74be
000002e0: 71e8 94be ac25 eabd 2761 073e f378 4f3e
000002f0: 0f3c 663e da25 553d 5946 cc3d b332 c43c
00000300: 8753 603e 097d 45be b312 34be be1e 0abe
00000310: df4a 00bd 44df 113e 3910 b3bd 067e c1bb
00000320: 71be c5bd 613b b43e 813d 053d 69e7 17be
00000330: c14d 7abe 0773 003d 0a04 463e e809 423d
00000340: d856 693d c016 0bbd 0673 9f3c e6aa acbd
00000350: 1702 d8bd d879 61be ccc1 6d3d 1df4 7b3e
00000360: 2ad1 e93b f069 82be 09de 753e f762 d83d
00000370: b215 edbd 9312 cbbd ac02 943d 4032 96bd
00000380: 7a37 e73d f9a8 3e3d f157 90be 8df8 063e
00000390: 4f17 753e 9e10 213d 863a 7abe 4ae0 083e
000003a0: 42a2 eabd 3920 d33d e1dc 3f3e 69cf 3dbe
000003b0: 479a d8bd 786f 303d 4b9f 7f3c 70a8 2bbe
000003c0: 5aa2 303e 747c 363e a152 59be 77e5 293d
000003d0: cb93 093e 4f05 a33d ee23 f4bd eb5c bebd
000003e0: aff1 34bc fc6f b4bd 1754 853d c05c 3c3e
000003f0: 23d5 373d eae6 edbd 56fa cdbd 059b b23c

conv_initial.1.weight f4 [16]
0.8310812 0.8035856 1.0740515 1.0373248 0.8875416 0.8475434 0.8780317 1.0705756
1.0676863 0.78657967 0.93348366 1.0292932 1.2797396 0.84036136 1.152947 1.0454183
00000000: bdc1 543f c9b7 4d3f 857a 893f 0fc7 843f
00000010: ed35 633f 9bf8 583f afc6 603f 9f08 893f
00000020: f2a9 883f 495d 493f c9f8 6e3f e1bf 833f
00000030: 82ce a33f ec21 573f c493 933f 44d0 853f

conv_initial.1.bias f4 [16]
-0.21858218 -0.09093583 0.065404765 -0.03632019 0.20470104 0.2994249 0.06778086 -0.13136947
-0.08421853 -0.03305354 -0.010726988 0.0056815413 -0.087071635 0.11515421 -0.08979642 0.030955087
00000000: 02d4 5fbe 903c babd eff2 853d 7bc4 14bd
00000010: 269d 513e 384e 993e b1d0 8a3d b885 06be
00000020: c47a acbd 2663 07bd 40c0 2fbc 392c ba3b
00000030: 9d52 b2bd f8d5 eb3d 2fe7 b7bd 8695 fd3c

conv_initial.1.running_mean f4 [16]
0.0833211 0.035173114 -0.0017714935 -0.0016166256 -0.000994978 -0.03847832 0.056031212 0.0011867076
0.00610167 -0.114521354 -0.025213135 0.0017549802 0.0012840785 0.012981232 0.00025664945 -0.008315354
00000000: 41a4 aa3d af11 103d 7531 e8ba f4e4 d3ba
00000010: ec69 82ba 719b 1dbd fc80 653d 4d8b 9b3a
00000020: 85f0 c73b 2c8a eabd c78b cebc 5d07 e63a
00000030: 864e a83a 3caf 543c e88e 8639 1f3d 08bc

conv_initial.1.running_var f4 [16]
0.68757343 0.07088209 0.045104537 0.04689341 0.06812156 0.021375569 0.05062836 0.0143088335
0.05028458 0.19705157 0.12553196 0.08019835 0.030883731 0.045012243 0.10887488 0.05855026
00000000: d004 303f a12a 913d 89bf 383d 4e13 403d
00000010: 5183 8b3d d11b af3c af5f 4f3d 996f 6a3c
00000020: 34f7 4d3d e3c7 493e 738b 003e 083f a43d
00000030: e1ff fc3c c25e 383d cbf9 de3d 66d2 6f3d

layer1.0.conv.weight f4 [32, 16, 3, 3]
0.0038680153 0.23810858 0.13803133 -0.08459622 0.1584201 -0.16865824 -0.17889252 0.22373094
0.0826203 -0.017301802 -0.0038936792 -0.11459785 -0.11511986 0.020372413 -0.14544247 -0.12063208
-0.07643887 0.021207787 -0.15849607 0.054388005 -0.04253872 -0.34546137 -0.028715177 0.16534138
-0.19138807 0.08591061 0.20559604 -0.13010071 0.2220034 0.05208041 -0.2694386 0.11127532
0.18940179 -0.20904218 0.22086197 0.22031325 -0.015863534 -0.035251927 -0.062360186 -0.13880505
0.013153564 -0.021203795 -0.0530405 0.15880066 0.17156568 -0.09305713 -0.027945438 0.0032263307
-0.025912335 0.12951389 0.034897547 -0.03561282 -2.876422e-05 -0.020494124 0.002337034 0.10162939
-0.049907323 -0.09477704 -0.021857854 -0.02573423 -0.10501313 0.2317925 0.10670148 -0.116163336
-0.112473965 0.040546276 0.06647061 0.026985979 -0.060658075 -0.03462758 0.09910692 0.06951689
-0.038528353 -0.03621901 -0.1636957 -0.15669225 -0.15531912 -0.13590853 -0.19322541 0.021257926
-0.075425796 -0.11828757 -0.18143114 -0.067318924 0.06763112 -0.034886196 0.15143059 -0.023494648
-0.15664864 0.061789654 0.04818849 0.13763696 -0.119640335 -0.1552345 0.0059906673 0.05085866
-0.04738569 0.055090427 0.05829439 -0.17897066 0.090652 -0.059053782 -0.25727737 0.13809034
-0.0010143355 -0.3202915 0.06357628 0.1959767 0.069964044 0.031241287 -0.09704574 -0.00075493543
-0.080486074 -0.045974664 0.03485621 0.10351076 0.08394954 -0.09760351 -0.07266555 -0.21625312
-0.26385516 -0.16064227 0.07683192 -0.053466458 0.21464565 0.22721922 0.035323463 -0.076167144
-0.14110649 -0.08373614 -0.017442128 -0.12690778 -0.13887003 0.063059576 0.1092371 -0.20698714
-0.060793135 -0.13002254 -0.1481103 -0.054931693 0.04978572 0.096304424 -0.11945883 -0.035076704
0.00015159596 -0.041292585 -0.12420185 0.06627911 0.14015387 -0.123093076 -0.039222106 -0.054853488
-0.19542976 -0.028882211 -0.025393238 0.041782964 0.03636848 0.17325185 0.004931964 0.117137134
0.08212796 -0.0050408016 8.683492e-05 -0.16963293 -0.18347424 -0.21749271 -0.051502395 -0.10136272
-0.047570065 -0.35092413 -0.21900536 -0.19916181 -0.12601581 -0.0541365 -0.25355566 -0.19027536
-0.10330743 -0.0963339 -0.04719996 -0.015851771 0.107723214 -0.06296621 0.0028440722 0.12538457
-0.07587223 -0.07892635 0.08326385 -0.047984995 -0.1864798 -0.04749397 -0.20483308 -0.024830926
-0.066073 -0.082312115 0.026256636 0.0064747296 -0.17163005 -0.045762416 0.13524725 0.07929064
0.058982015 0.08578404 -0.023570267 -0.014999741 0.0013612452 -0.23180862 -0.20508079 -0.047916103
-0.15586995 0.016124776 0.10583804 0.014765849 -0.07112947 -0.00889791 -0.09180268 0.048549585
-0.0068380996 0.05808965 0.034044836 0.086639136 0.1481889 0.14635201 0.025947493 -0.008218238
0.15384422 -0.05761358 -0.109415285 -0.07725935 0.053549506 3.3960747e-05 0.040585127 -0.023530932
0.10486085 0.1232944 0.0054961904 -0.10977652 0.03397789 0.06886601 -0.044199944 0.026929697
0.06022488 -0.015600442 0.09300016 -0.05927623 -0.49435043 -0.5787028 0.01778641 -0.1593993
-0.2387618 0.0015316126 -0.119327866 -0.120841786 -0.05288254 0.21946879 0.07539446 0.21959859
00000000: 877e 7d3b bcd2 733e 1658 0d3e c840 adbd
00000010: e138 223e bfb4 2cbe 9a2f 37be b919 653e
00000020: d534 a93d 82bc 8dbc 192d 7fbb 47b2 eabd
00000030: f6c3 ebbd 0ce4 a63c dfee 14be f40d f7bd
00000040: fb8b 9cbd f4bb ad3c cb4c 22be f5c5 5e3d
00000050: 153d 2ebd 50e0 b0be 173c ebbc 404f 293e
00000060: 3cfb 43be e7f1 af3d c587 523e 1f39 05be
00000070: dc54 633e 4552 553d dbf3 89be 51e4 e33d
00000080: 8bf2 413e 270f 56be a429 623e cc99 613e
00000090: 3ef4 81bc 5364 10bd 656d 7fbd e922 0ebe
000000a0: 0c82 573c 95b3 adbc ff40 59bd a49c 223e
000000b0: eaae 2f3e bd94 bebd d5ed e4bc d970 533b
000000c0: 1b46 d4bc 4a9f 043e bbf0 0e3d c0de 11bd
000000d0: b14a f1b7 4be3 a7bc ed28 193b 1223 d03d
000000e0: 9f6b 4cbd 771a c2bd 3e0f b3bc 98d0 d2bc
000000f0: 2011 d7bd 035b 6d3e 4e86 da3d 0be7 edbd
00000100: c058 e6bd da13 263d be21 883d b311 dd3c
00000110: 9a74 78bd a6d5 0dbd 92f8 ca3d df5e 8e3d
00000120: e8cf 1dbd 625a 14bd d89f 27be ef73 20be
00000130: fa0b 1fbe 9b2b 0bbe e2dc 45be 1a25 ae3c
00000140: d778 9abd c140 f2bd 16c9 39be 81de 89bd
00000150: 2f82 8a3d d4e4 0ebd 9f10 1b3e d977 c0bc
00000160: 8068 20be 2617 7d3d 4b61 453d b4f0 0c3e
00000170: fe05 f5bd cbf5 1ebe 5c4d c43b 2c51 503d
00000180: 7f17 42bd 80a6 613d 19c6 6e3d 1644 37be
00000190: c1a7 b93d 61e2 71bd dcb9 83be 8e67 0d3e
000001a0: 74f3 84ba 3ffd a3be 4834 823d 1eae 483e
000001b0: 4f49 8f3d baed ff3c ebbf c6bd dce6 45ba
000001c0: e2d5 a4bd ee4f 3cbd 63c5 0e3d 73fd d33d
000001d0: bded ab3d 59e4 c7bd add1 94bd 7571 5dbe
000001e0: 0618 87be 687f 24be 0e5a 9d3d a5ff 5abd
000001f0: 12cc 5b3e 28ac 683e 56af 103d 85fd 9bbd
00000200: 387e 10be da7d abbd cbe2 8ebc 1df4 01be
00000210: f233 0ebe 6125 813d b3b7 df3d 70f4 53be
00000220: 3902 79bd a124 05be 3aaa 17be 0e00 61bd
00000230: 1cec 4b3d 413b c53d d5a6 f4bd 97ac 0fbd
00000240: bbf5 1e39 6a22 29bd 8a5d febd 58bd 873d
00000250: 7f84 0f3e 3918 fcbd 5ca7 20bd 0dae 60bd
00000260: bd1e 48be 639a ecbc 7b05 d0bc 9d24 2b3d
00000270: 1ef7 143d ef68 313e 509c a13b 98e5 ef3d
00000280: b432 a83d 4f2d a5bb 251b b638 41b4 2dbe
00000290: ace0 3bbe 69b6 5ebe 2df4 52bd 4297 cfbd
000002a0: d4d8 42bd 54ac b3be f142 60be 13f1 4bbe
000002b0: 4a0a 01be 3cbe 5dbd 0cd2 81be 8bd7 42be
000002c0: d992 d3bd b54a c5bd bf54 41bd 93db 81bc
000002d0: fd9d dc3d 6ef4 80bd 9d63 3a3b d064 003e
000002e0: e662 9bbd 23a4 a1bd 3d86 aa3d ea8b 44bd
000002f0: 90f4 3ebe 0989 42bd c3bf 51be 3a6a cbbc
00000300: 4851 87bd 4193 a8bd 2818 d73c f829 d43b
00000310: cabf 2fbe 5f71 3bbd 417e 0a3e 2263 a23d
00000320: 2097 713d 8baf af3d 6f16 c1bc 79c1 75bc
00000330: cf6b b23a 3d5f 6dbe b300 52be ad43 44bd
00000340: 5f9c 1fbe 1b18 843c 9dc1 d83d 76ec 713c
00000350: 54ac 91bd 8ac8 11bc 0b03 bcbd eedb 463d
00000360: 2312 e0bb 6aef 6d3d 9972 0b3d dc6f b13d
00000370: d5be 173e 4ddd 153e d68f d43c caa5 06bc
00000380: 5789 1d3e 38fc 6bbd 1f15 e0bd 263a 9ebd
00000390: ba56 5b3d 1371 0e38 973c 263d f1c3 c0bc
000003a0: 49c1 d63d c681 fc3d 6319 b43b 83d2 e0bd
000003b0: 662c 0b3d 9f09 8d3d 000b 35bd ab9b dc3c
000003c0: 5dae 763d ff98 7fbc de76 be3d a2cb 72bd
000003d0: 801b fdbe de25 14bf ceb4 913c 9239 23be
000003e0: f97d 74be 64c0 c83a 2b62 f4bd e67b f7bd
000003f0: 5d9b 58bd 6dbc 603e 6968 9a3d 74de 603e

layer1.0.bn.weight f4 [32]
1.446499 1.302025 1.0245943 0.9845665 0.9207522 1.0866151 1.0548985 0.9785623
1.1180725 1.3839284 0.92387 1.1143169 1.0460358 1.0761617 1.1617397 1.135353
0.9634269 1.1360003 1.1742797 1.1368778 1.0261163 1.1256764 0.8805024 1.1722349
0.99183565 0.9972641 0.8800328 1.1294271 1.0274184 0.9604156 0.88203365 1.0448773
00000000: e126 b93f c1a8 a63f e825 833f 8d0c 7c3f
00000010: 6bb6 6b3f 3416 8b3f ea06 873f 0f83 7a3f
00000020: 001d 8f3f 9124 b13f bf82 6c3f f0a1 8e3f
00000030: 80e4 853f abbf 893f e3b3 943f 3f53 913f
00000040: 25a3 763f 7568 913f cc4e 963f 3685 913f
00000050: c757 833f 2a16 903f 9b68 613f cb0b 963f
00000060: f1e8 7d3f b34c 7f3f d449 613f 1191 903f
00000070: 7282 833f ccdd 753f f5cc 613f 8abe 853f

layer1.0.bn.bias f4 [32]
-0.018586673 0.21692374 -0.05258016 -0.14038832 -0.06399533 0.16968615 0.045371674 0.11894517
0.13677287 -0.009577199 -0.1682598 -0.013025022 -0.034525424 0.05148702 -0.08480433 -0.14838372
-0.052693862 -0.054936375 -0.0005471346 -0.19962776 -0.044965234 -0.19320428 0.14233609 -0.09830516
-0.06574758 -0.014817135 0.020709006 -0.13106382 -0.038412426 0.08352685 0.12259232 0.11468323
00000000: 1443 98bc 4221 5e3e 4b5e 57bd f5c1 0fbe
00000010: fc0f 83bd 35c2 2d3e a6d7 393d 8699 f33d
00000020: 300e 0c3e afe9 1cbc 4c4c 2cbe e766 55bc
00000030: 886a 0dbd 0ee4 523d e4ad adbd e7f1 17be
00000040: 85d5 57bd f704 61bd 956d 0fba 386b 4cbe
00000050: 772d 38bd 58d7 45be 8dc0 113e 3754 c9bd
00000060: aba6 86bd 92c3 72bc efa5 a93c 9835 06be
00000070: 5956 1dbd 2010 ab3d af11 fb3d 0bdf ea3d

layer1.0.bn.running_mean f4 [32]
-1.2133507 -2.2491832 0.8142351 -1.4469038 0.27052155 -1.0884703 -1.0736451 0.050449416
-0.7255034 -0.80887675 -0.72857946 -0.097286716 -2.4453144 -0.078379795 -0.23539177 -0.85197306
-0.5826501 -2.1552532 -0.7476747 -0.9109061 -0.1513914 -1.6437972 1.0173652 -1.3722891
-0.107973635 -0.05991498 -0.45186654 -0.62849545 -0.10312095 0.076173246 0.61300766 1.72816
00000000: 134f 9bbf 9ef2 0fc0 b671 503f 2534 b9bf
00000010: cd81 8a3e ff52 8bbf 346d 89bf 0ca4 4e3d
00000020: 97ba 39bf 8c12 4fbf 2f84 3abf 423e c7bd
00000030: 0880 1cc0 9685 a0bd 8a0a 71be e81a 5abf
00000040: 8f28 15bf abef 09c0 9c67 3fbf 2431 69bf
00000050: 5906 1bbe f267 d2bf 0639 823f 2ba7 afbf
00000060: 4821 ddbd 6969 75bd 0d5b e7be 14e5 20bf
00000070: 1431 d3bd b800 9c3d 12ee 1c3f 5934 dd3f

layer1.0.bn.running_var f4 [32]
2.2797709 3.0826063 2.0413477 2.8471982 1.9001738 3.421656 3.2964568 2.534234
1.3462536 3.2810042 3.0830677 1.3261241 4.019257 1.1939259 3.277348 1.6949912
1.6451808 5.44729 2.1144574 2.7779052 1.5579927 4.5081797 2.0593054 3.3144555
1.6830021 2.537641 2.0220659 2.4359767 2.392215 1.9001064 1.791518 4.4846954
00000000: c4e7 1140 6c49 4540 71a5 0240 7f38 3640
00000010: e538 f33f 69fc 5a40 26f9 5240 e430 2240
00000020: 0a52 ac3f f9fb 5140 fb50 4540 6fbe a93f
00000030: c19d 8040 90d2 983f 12c0 5140 79f5 d83f
00000040: 4995 d23f 3350 ae40 4553 0740 33c9 3140
00000050: 4e6c c73f 0243 9040 a9cb 0340 0a20 5440
00000060: 9d6c d73f b668 2240 8769 0140 0be7 1b40
00000070: 0d1a 1940 b036 f33f 7650 e53f a082 8f40

layer1.0.downsample.0.weight f4 [32, 16, 1, 1]
-0.0512635 0.05022195 0.22280721 0.067205824 -0.2399046 0.05992027 0.12676948 0.19052537
0.06919428 0.25833705 0.44694176 0.1869632 0.16723368 0.044372197 0.13464764 0.25408456
-0.24013895 -0.086703345 -0.35766008 -0.14592572 -0.19875848 0.17506045 -0.23537032 -0.23843198
0.010642188 -0.12445883 -0.10482474 -0.12314103 0.21180314 -0.31508547 0.027238255 0.12566951
0.055043213 0.028661354 -0.28452006 -0.05130392 -0.25160003 -0.012985754 0.088501394 0.082950756
-0.1385463 0.033943705 -0.104790814 -0.14070162 -0.17783491 -0.28430244 -0.4060015 0.16819428
0.20437527 -0.21700133 0.05721936 -0.08904634 -0.18373613 -0.19217755 0.15361506 -0.21521883
-0.21864244 0.19668567 0.075041264 -0.38567165 -0.33453336 0.10999696 -0.20587188 -0.071624935
-0.12767065 -0.06531682 0.085001595 -0.30204657 0.22195785 -0.05774836 0.04759648 0.110637985
0.31066394 0.036728624 -0.26089737 -0.2038513 0.2495479 -0.10097418 0.16744283 -0.13335036
0.23037882 -0.07475504 0.24336654 0.06358655 0.014658605 -0.008743676 0.09329442 -0.15460102
-0.108054645 -0.17798027 -0.21889229 0.24022157 -0.20209417 -0.21944766 -0.11452929 0.0007941144
-0.014002612 0.1478843 0.14381737 0.007806404 -0.35526934 0.11091293 -0.06807515 -0.07598995
-0.28451723 0.20203309 -0.0318896 -0.22292915 -0.2083657 -0.35043895 0.0044032047 -0.004151687
-0.17538072 0.122157104 -0.15532708 0.041326888 0.16844416 0.068866834 0.04801205 0.24543214
-0.06311057 -0.20382081 -0.15944295 -0.24398455 -0.02034835 -0.1050373 0.32547736 -0.05457236
-0.23749994 0.044081446 -0.10271652 -0.120063625 -0.2172243 -0.18216838 -0.029126517 -0.005747622
0.2796499 -0.16861191 0.046711862 0.13978624 -0.053260367 0.15495583 -0.18648133 0.3302475
0.2056065 -0.18970884 -0.25497755 -0.28313223 0.089639954 0.04782615 0.103409104 -0.37126857
0.17701367 -0.16054296 0.030721601 -0.04268485 -0.012587299 0.2621706 -0.0072681634 -0.15094134
-0.16639927 -0.14395143 0.24655473 -0.040650573 -0.21753776 0.1557805 -0.7124644 -0.13168776
-0.14584497 -0.2140393 -0.09525395 0.011487182 0.24027912 -0.17348073 0.033495363 -0.07785445
-0.18142475 -0.42190042 -0.16158582 0.13724253 -0.215744 -0.079906434 -0.24983971 -0.09220562
-0.09658049 0.21709694 0.22621597 -0.014115215 -0.0041099647 0.016862886 0.13083503 0.15211263
0.16877072 0.19399163 -0.08792252 0.1763474 0.18073098 -0.15637356 0.19022293 0.323128
0.092786185 -0.62533647 0.08955143 0.088839285 0.15917085 -0.03665564 -0.16971838 -0.1029078
0.26832423 -0.24776024 -0.10080798 -0.021308515 0.04423405 -0.1625129 -0.12134874 0.205651
-0.28821945 -0.07868905 -0.11165207 0.08556794 0.10461665 -0.10295654 0.10316669 -0.30969003
-0.26776055 -0.3176909 0.05579387 -0.1661362 -0.49636817 0.027652469 -0.01895557 -0.19495222
0.06907813 0.023303196 6.706438e-06 0.14031386 -0.11413046 -0.26162893 -0.2632634 0.07010954
0.30225417 0.16588537 0.027475528 0.083152175 0.27468175 0.23675853 0.048924826 -0.10421646
0.19454603 -0.28874213 -0.013090598 0.19761765 0.007620646 0.1835288 0.013425378 0.19562279
00000000: adf9 51bd 88b5 4d3d 9327 643e 35a3 893d
00000010: 8da9 75be f56e 753d dccf 013e 1519 433e
00000020: bbb5 8d3d c144 843e 8dd5 e43e 4873 3f3e
00000030: 4e3f 2b3e 9fbf 353d 12e1 093e 5f17 823e
00000040: fce6 75be 8691 b1bd 391f b7be 8d6d 15be
00000050: 5887 4bbe 0c43 333e eb04 71be 8327 74be
00000060: 925c 2e3c 45e4 febd 5aae d6bd 5d31 fcbd
00000070: ece2 583e e252 a1be c322 df3c 82af 003e
00000080: fe74 613d 37cb ea3c 9dac 91be 0f24 52bd
00000090: b8d1 80be 33c2 54bc 3840 b53d 16e2 a93d
000000a0: 15df 0dbe 8e08 0b3d 919c d6bd 1614 10be
000000b0: 5b1a 36be 1790 91be 6edf cfbe 1f3b 2c3e
000000c0: c047 513e 9935 5ebe d95e 6a3d ed5d b6bd
000000d0: 5325 3cbe 31ca 44be 444d 1d3e 5362 5cbe
000000e0: cee3 5fbe f867 493e 3caf 993d c176 c5be
000000f0: f547 abbe 1646 e13d 14d0 52be 18b0 92bd
00000100: 18bc 02be d3c4 85bd 5115 ae3d d9a5 9abe
00000110: eb48 633e 8b89 6cbd 87f4 423d 2b96 e23d
00000120: 580f 9f3e c170 163d 5794 85be 65be 50be
00000130: 7c89 7f3e 8dcb cebd 2276 2b3e ff8c 08be
00000140: 6de8 6b3e 2c19 99bd 1435 793e aa39 823d
00000150: a52a 703c a341 0fbc 2511 bf3d bb4f 1ebe
00000160: c14b ddbd 7640 36be 4d25 60be a5fc 753e
00000170: c6f1 4ebe e3b6 60be 558e eabd 1e2c 503a
00000180: 366b 65bc fb6e 173e dc44 133e ddcc ff3b
00000190: dde5 b5be 5126 e33d fc6a 8bbd 9ea0 9bbd
000001a0: 3eac 91be c3e1 4e3e ab9e 02bd 8a47 64be
000001b0: d15d 55be bc6c b3be c248 903b e00a 88bb
000001c0: 0197 33be 812d fa3d 100e 1fbe 6246 293d
000001d0: a07c 2c3e 0e0a 8d3d 49a8 443d 9052 7b3e
000001e0: 1d40 81bd 67b6 50be 0345 23be 16d7 79be
000001f0: 95b1 a6bc cc1d d7bd f8a4 a63e 4487 5fbd
00000200: 2f33 73be bf8e 343d 0a5d d2bd ebe3 f5bd
00000210: 0c70 5ebe 598a 3abe bc9a eebc 8c56 bcbb
00000220: 462e 8f3e 9aa8 2cbe f054 3f3d 2024 0f3e
00000230: 8b27 5abd beac 1e3e f6f4 3ebe 3316 a93e
00000240: 838a 523e 0943 42be 6b8c 82be b5f6 90be
00000250: 2795 b73d 5ae5 433d 27c8 d33d ea16 bebe
00000260: 1243 353e 6065 24be deab fb3c 4fd6 2ebd
00000270: f53a 4ebc 3a3b 863e c629 eebb 5e90 1abe
00000280: 9264 2abe 0168 13be d878 7c3e 3781 26bd
00000290: 38c2 5ebe ec84 1f3e 1164 36bf 28d9 06be
000002a0: 6258 15be 1e2d 5bbe 8114 c3bd bc34 3c3c
000002b0: bb0b 763e efa4 31be 6f32 093d 2772 9fbd
000002c0: 69c7 39be 5503 d8be c176 25be 4e89 0c3e
000002d0: ffeb 5cbe fca5 a3bd fbd5 7fbe 4dd6 bcbd
000002e0: fecb c5bd a94e 5e3e 29a5 673e 8143 67bc
000002f0: e2ac 86bb 0924 8a3c 9ef9 053e 6ac3 1b3e
00000300: 3bd2 2c3e bea5 463e b910 b4bd 6a94 343e
00000310: 8b11 393e 6420 20be cdc9 423e 0971 a53e
00000320: af06 be3d 0d16 20bf bd66 b73d 5ff1 b53d
00000330: affd 223e 3924 16bd a8ca 2dbe 53c1 d2bd
00000340: cb61 893e dcb4 7dbe 6a74 cebd 328f aebc
00000350: c32e 353d c869 26be b085 f8bd 2d96 523e
00000360: 8091 93be ba27 a1bd d7a9 e4bd 3e3e af3d
00000370: 4141 d63d e1da d2bd 0f49 d33d b18f 9ebe
00000380: e917 89be 62a8 a2be 1d88 643d 9c1f 2abe
00000390: f823 febe 6e87 e23c b648 9bbc 8ea1 47be
000003a0: d678 8d3d 58e6 be3c dd07 e136 70ae 0f3e
000003b0: 3bbd e9bd 3af4 85be 76ca 86be 9795 8f3d
000003c0: 0fc1 9a3e dbdd 293e 5c14 e13c b04b aa3d
000003d0: 16a3 8c3e d470 723e 6665 483d 706f d5bd
000003e0: 1337 473e 02d6 93be f379 56bc 485c 4a3e
000003f0: 9db6 f93b f9ee 3b3e 1ef6 5b3c 5751 483e

layer1.0.downsample.1.weight f4 [32]
0.5986735 0.65301234 0.8608072 0.9917564 0.49147278 0.8219201 0.7342591 0.6311582
0.66291356 0.7431047 0.76459765 0.706173 0.6095427 0.6633886 0.8078232 0.6414904
0.65403235 0.5782265 0.5646014 0.72184306 0.6153687 0.77276623 0.723023 0.7397179
0.7233643 0.6602716 0.8663233 0.7088743 0.67245054 0.81568605 0.6675735 0.7235288
00000000: ab42 193f d12b 273f dc5d 5c3f bfe3 7d3f
00000010: 52a2 fb3e 5b69 523f 68f8 3b3f 9593 213f
00000020: b4b4 293f 1c3c 3e3f acbc 433f c1c7 343f
00000030: fe0a 1c3f d6d3 293f 80cd 4e3f b738 243f
00000040: aa6e 273f a706 143f b889 103f b5ca 383f
00000050: ce88 1d3f 02d4 453f 0918 393f 275e 3d3f
00000060: 672e 393f 8f07 293f 5dc7 5d3f c978 353f
00000070: b825 2c3f cdd0 503f 19e6 2a3f 2f39 393f

layer1.0.downsample.1.bias f4 [32]
-0.12278944 -0.088606365 -0.13945569 -0.090183154 0.051703542 -0.01215642 -0.15031034 -0.18374299
-0.14370064 -0.07036233 -0.24853796 -0.16069143 -0.14152934 -0.14686452 -0.16712104 -0.23450679
-0.089485765 -0.19487193 -0.27211154 -0.07896906 -0.2231416 -0.24095154 -0.08857321 -0.15716134
-0.18528414 -0.13012251 -0.16214122 -0.26418167 -0.0053036837 0.1379396 0.099440075 -0.010293447
00000000: 0879 fbbd 4177 b5bd 79cd 0ebe f2b1 b8bd
00000010: 18c7 533d b92b 47bc f4ea 19be 1f27 3cbe
00000020: 4326 13be 201a 90bd bc80 7ebe 4b8c 24be
00000030: 11ed 10be a763 16be c721 2bbe 8c22 70be
00000040: 5044 b7bd 828c 47be 3452 8bbe 88ba a1bd
00000050: 3b7f 64be 00bc 76be df65 b5bd e7ee 20be
00000060: 20bb 3dbe d63e 05be 5908 26be d242 87be
00000070: 86ca adbb 0a40 0d3e 3da7 cb3d d9a5 28bc

layer1.0.downsample.1.running_mean f4 [32]
1.2593728 -0.86128545 -0.94805104 -0.9903686 0.10696453 -0.25356922 -0.6656122 -0.0028968726
-0.099788025 -0.44600308 -0.6112623 -0.3099433 0.31809235 -0.48520786 -0.93714297 0.9207517
-0.7242149 0.9283633 -0.08675867 -0.6879378 0.0771537 -0.8708585 0.47071403 -0.7389045
-0.56420857 -0.15311238 -0.20244813 -0.84345174 0.1347336 0.296835 -0.3613881 -0.069977485
00000000: 2133 a13f 347d 5cbf 79b3 72bf cc88 7dbf
00000010: 3810 db3d d3d3 81be 9065 2abf 75d9 3dbb
00000020: aa5d ccbd 845a e4be b07b 1cbf e3b0 9ebe
00000030: 00dd a23e 2a6d f8be 9ae8 6fbf 62b6 6b3f
00000040: 2666 39bf 38a9 6d3f 88ae b1bd b11c 30bf
00000050: c202 9e3d 95f0 5ebf 6e01 f13e d828 3dbf
00000060: f96f 10bf 7ec9 1cbe 904e 4fbe 74ec 57bf
00000070: 9bf7 093e c2fa 973e dc07 b9be 5b50 8fbd

layer1.0.downsample.1.running_var f4 [32]
0.8945354 0.47706997 0.7011191 0.82117265 0.5126118 0.26154977 0.6425638 0.2392339
0.1446644 0.5013812 0.41012514 0.37450323 0.64694214 0.3833889 0.71436304 0.38632378
0.87025833 0.5652332 0.32775736 0.96201473 0.49513784 0.5387455 0.35038275 1.0186055
0.37503716 0.24898337 0.30730003 0.47011456 0.4866001 0.5775773 0.29914454 0.43453315
00000000: 4600 653f 8442 f43e 8b7c 333f 5f38 523f
00000010: 873a 033f dae9 853e 107f 243f bbf9 743e
00000020: e822 143e 855a 003f ecfb d13e e3be bf3e
00000030: 009e 253f 8d4b c43e 7fe0 363f 3bcc c53e
00000040: 40c9 5e3f 1fb3 103f d0cf a73e 9946 763f
00000050: b582 fd3e 3aeb 093f 5e65 b33e aa61 823f
00000060: df04 c03e 7ff5 7e3e 6e56 9d3e dbb2 f03e
00000070: a623 f93e 1bdc 133f 7929 993e 217b de3e

layer1.1.conv.weight f4 [32, 32, 3, 3]
-0.13290326 -0.055361208 0.018081302 -0.24529624 -0.06291225 -0.05575836 -0.15446053 0.14355794
-0.16310102 -0.009271909 -0.06482396 0.044562638 -0.12310921 -0.30634946 -0.17224306 0.13203295
-0.08744709 -0.0635599 -0.13056897 -0.12997271 0.115718484 -0.06269329 -0.025876679 -0.026425589
-0.1349842 0.102376536 -0.13782328 -0.2259041 -0.28595862 -0.27808258 -0.21109639 0.2380753
0.13033812 -0.0035057622 0.14069639 0.046492342 0.015892018 0.1263178 0.019279536 -0.046095677
-6.339208e-05 0.017927183 -0.039664675 -0.23131062 -0.05252373 -0.07753513 -0.074864864 -0.14555241
-0.08959869 -0.01672872 -0.013100792 -0.042827547 0.005026661 -0.004627952 -0.17606643 0.10139015
-0.015223906 0.12982617 0.077673614 0.18313321 0.09596073 0.086948015 0.006402745 0.050071366
0.12397287 0.08018376 -0.13030139 -0.07557394 -0.16528028 -0.19258541 -0.15626946 -0.121846914
-0.071581684 0.0033137884 0.012912622 0.09844265 0.030854711 -0.14908886 0.15933636 -0.009995145
-0.23250386 0.008549962 -0.00898172 -0.090221435 -0.02880515 0.033080798 0.1079132 -0.09935932
-0.18957399 0.016813837 -0.08868701 -0.22259921 -0.19439289 -0.11074292 -0.11689473 0.06651439
-0.07485513 0.16471887 0.12011151 -0.04159929 -0.0546271 -0.09264982 0.07119843 0.14378373
0.0932094 -0.086613394 0.058435276 -0.12264522 0.038297564 0.15381704 0.07864182 -0.056769766
0.014385353 0.116776854 -0.05885997 0.048450265 0.14221491 0.09619128 0.09880165 -0.093952514
-0.08100819 0.099213324 0.33014777 -0.052770652 0.06272156 0.22279502 0.055223245 -0.02954987
-0.109275326 -0.051779363 -0.13689046 -0.11995777 0.009918537 -0.1061436 -0.29230067 0.052359905
0.018998533 0.058765896 -0.014299334 0.0029414867 0.13736415 -0.13683622 -0.1126233 0.0083065685
0.0068387426 -0.061755788 -0.024254164 -0.02708348 0.00015312033 0.08547212 0.00071049394 -0.21010002
0.041587457 -0.047272757 -0.18402384 -0.048078693 -0.11864275 -0.07933588 -0.06877049 0.022350373
0.20168345 0.1046785 -0.016434222 -0.14948826 -0.058273777 0.042633418 -0.06110404 -0.0967019
0.14089869 -0.034981575 0.0522618 0.015188047 0.022974476 -0.09918567 -0.08698426 0.049347207
-0.14316323 -0.121688455 -0.018475426 -0.08866987 -0.09777985 -0.060901888 0.05197532 0.021169867
-0.17983899 -0.02883249 -0.12751946 -0.1985999 0.071425855 -0.28253582 -0.12322584 -0.09975223
-0.052698214 0.1606798 0.054502938 0.14013776 0.17014965 0.17613786 -0.0010220443 -0.027484877
0.1321618 -0.045237217 0.014212886 0.03597161 -0.11467122 -0.0080656 0.013060693 -0.14012018
-0.3325412 -0.41417795 0.1027379 0.2912438 0.15763776 0.085746475 -0.018219622 -0.014097911
0.18136914 -0.064208515 -0.08517073 -0.06775842 -0.034830462 0.1452454 -0.08327274 -0.09191
-0.13204166 -0.09394427 -0.010563287 0.07948612 0.0033440285 -0.001214137 0.20603593 -0.077384375
-0.197233 -0.049142014 0.008601407 0.05338501 -0.07597055 -0.09225932 -0.024456626 0.15844175
0.14011168 0.005723272 0.1336022 -0.09104887 -0.061906505 -0.1498744 0.0008311825 0.17361699
0.13314188 0.00607506 0.13773543 0.06286573 -0.028047964 -0.0136877 0.03442824 -0.08411106
00000000: cb17 08be 6fc2 62bd 3d1f 943c f02e 7bbe
00000010: 23d8 80bd e162 64bd e72a 1ebe da00 133e
00000020: f403 27be 34e9 17bc 6dc2 84bd 5087 363d
00000030: ae20 fcbd d6d9 9cbe 7c60 30be a533 073e
00000040: 7617 b3bd b12b 82bd dfb3 05be 9117 05be
00000050: d0fd ec3d 5765 80bd 54fb d3bc 7a7a d8bc
00000060: 4c39 0abe caaa d13d 8c21 0dbe 6853 67be
00000070: 2b69 92be d760 8ebe a729 58be 03ca 733e
00000080: 5b77 053e eec0 65bb b712 103e c16e 3e3d
00000090: fa2f 823c 7459 013e 1ef0 9d3c d2ce 3cbd
000000a0: 5df1 84b8 07dc 923c 6d77 22bd b1dc 6cbe
000000b0: 1f23 57bd bdca 9ebd c052 99bd b10b 15be
000000c0: 857f b7bd ab0a 89bc b4a4 56bc f06b 2fbd
000000d0: b0b6 a43b 13a6 97bb c24a 34be a4a5 cf3d
000000e0: b16d 79bc 27f1 043e 5813 9f3d 4687 3b3e
000000f0: 0f87 c43d cd11 b23d 1ece d13b a217 4d3d
00000100: 7de5 fd3d 6237 a43d ba6d 05be 83c6 9abd
00000110: 3c3f 29be 1c35 45be 1a05 20be e08a f9bd
00000120: 6b99 92bd 252c 593b 768f 533c 4d9c c93d
00000130: 05c3 fc3c c0aa 18be 1229 233e adc2 23bc
00000140: 7e15 6ebe 2415 0c3c 1028 13bc 04c6 b8bd
00000150: c7f8 ebbc bb7f 073d 9901 dd3d e67c cbbd
00000160: af1f 42be 2cbd 893c 89a1 b5bd 0cf1 63be
00000170: ee0e 47be 2fcd e2bd 8166 efbd b238 883d
00000180: a54d 99bd 10ac 283e 06fd f53d 0464 2abd
00000190: aac0 5fbd 30bf bdbd 7cd0 913d 0b3c 133e
000001a0: 92e4 be3d 5d62 b1bd d459 6f3d 6b2d fbbd
000001b0: e8dd 1c3d 3782 1d3e f60e a13d 6a87 68bd
000001c0: 8bb0 6b3c b428 ef3d 2717 71bd c973 463d
000001d0: c9a0 113e efff c43d 8558 ca3d 2d6a c0bd
000001e0: 9fe7 a5bd 5b30 cb3d 2109 a93e 0a26 58bd
000001f0: 2974 803d 6124 643e c531 623d 9212 f2bc
00000200: becb dfbd 9916 54bd 032d 0cbe 6bac f5bd
00000210: 5c81 223c d161 d9bd 6fa8 95be 5777 563d
00000220: d0a2 9b3c 82b4 703d c147 6abc f5c5 403b
00000230: 30a9 0c3e cb1e 0cbe 0ba7 e6bd 4618 083c
00000240: 8817 e03b a3f3 7cbd abb0 c6bc 2dde ddbc
00000250: ed8e 2039 020c af3d 7140 3a3a 7624 57be
00000260: 9c57 2a3d 14a1 41bd bf70 3cbe 2aee 44bd
00000270: f8fa f2bd da7a a2bd 8bd7 8cbd 2118 b73c
00000280: 1b86 4e3e ae61 d63d 10a1 86bc 7313 19be
00000290: 7cb0 6ebd 61a0 2e3d 3b48 7abd a50b c6bd
000002a0: bf47 103e d748 0fbd 7810 563d 49d7 783c
000002b0: f834 bc3c db21 cbbd ce24 b2bd 4c20 4a3d
000002c0: 6299 12be cc37 f9bd c759 97bc 8c98 b5bd
000002d0: cd40 c8bd 4274 79bd 13e4 543d 6e6c ad3c
000002e0: b627 38be 1d32 ecbc 7694 02be c65d 4bbe
000002f0: b847 923d 89a8 90be d45d fcbd e64a ccbd
00000300: 15da 57bd 3f89 243e 793e 5f3d 4680 0f3e
00000310: b63b 2e3e 7c5d 343e 1ef6 85ba f727 e1bc
00000320: 6c55 073e a94a 39bd 2add 683c f856 133d
00000330: bfd8 eabd 9425 04bc 84fc 553c aa7b 0fbe
00000340: d742 aabe 220f d4be 4068 d23d e81d 953e
00000350: cb6b 213e d99b af3d 5141 95bc edfa 66bc
00000360: d5b8 393e c17f 83bd fe6d aebd edc4 8abd
00000370: 63aa 0ebd 36bb 143e e68a aabd 4f3b bcbd
00000380: ee35 07be da65 c0bd a311 2dbc 9ec9 a23d
00000390: 7d27 5b3b ad23 9fba 15fb 523e b37b 9ebd
000003a0: 73f7 49be 2349 49bd eaec 0c3c 3eaa 5a3d
000003b0: 7396 9bbd 74f2 bcbd 4359 c8bc 8e3e 223e
000003c0: 7079 0f3e 498a bb3b 04cf 083e d477 babd
000003d0: ad91 7dbd ad78 19be b7e3 593a a7c8 313e
000003e0: 5856 083e 4c11 c73b 840a 0d3e bfbf 803d
000003f0: d8c4 e5bc 6042 60bc a004 0d3d 6b42 acbd

layer1.1.bn.weight f4 [32]
1.6402106 1.2691376 1.1941268 1.1732694 1.3079981 1.4466091 1.2782983 1.3030292
1.3515908 1.2746973 1.107942 1.1573269 1.2361171 1.339751 1.1520799 1.348892
1.3462992 1.4141239 1.2096952 1.3383843 1.4356961 1.2663606 1.4155003 1.2387089
1.4482306 1.4302442 1.3863317 1.3158287 1.4587063 1.3055416 1.5508345 1.2637353
00000000: 6cf2 d13f 1a73 a23f 26d9 983f b12d 963f
00000010: 7b6c a73f 7d2a b93f 479f a33f a9c9 a63f
00000020: ed00 ad3f 4829 a33f 0bd1 8d3f 4a23 943f
00000030: 1639 9e3f f67c ab3f 5b77 933f 7ea8 ac3f
00000040: 8853 ac3f 0302 b53f 4bd7 9a3f 2d50 ab3f
00000050: e4c4 b73f 1b18 a23f 1d2f b53f 038e 9e3f
00000060: 9f5f b93f 3e12 b73f 5173 b13f 136d a83f
00000070: e3b6 ba3f fd1b a73f bf81 c63f 14c2 a13f

layer1.1.bn.bias f4 [32]
-0.07858389 -0.13784659 -0.08597782 -0.29577738 -0.15193214 -0.18828472 -0.105034314 -0.27486297
-0.17578912 -0.21985574 -0.29025355 -0.1228581 -0.2083183 -0.1970651 -0.2942035 -0.036297772
-0.19789517 -0.04145383 -0.09046741 -0.07126606 -0.31454688 -0.11945174 -0.12048483 -0.065554544
-0.09249681 -0.0038277325 -0.14948298 -0.104558274 -0.14559981 -0.04320354 -0.1541557 0.015605826
00000000: 97f0 a0bd a827 0dbe 2415 b0bd 2270 97be
00000010: 1994 1bbe b6cd 40be 3b1c d7bd d7ba 8cbe
00000020: 1002 34be dd21 61be 1d9c 94be 079d fbbd
00000030: 6451 55be 6fcb 49be d7a1 96be f9ac 14bd
00000040: 08a5 4abe 7ecb 29bd fa46 b9bd f1f3 91bd
00000050: 4a0c a1be 1da3 f4bd c0c0 f6bd 7641 86bd
00000060: f86e bdbd b2da 7abb 1112 19be a622 d6bd
00000070: 1e18 15be 32f6 30bd feda 1dbe 94af 7f3c

layer1.1.bn.running_mean f4 [32]
-2.4765933 -1.733403 -1.541409 1.532583 -1.887331 -2.497979 -3.1108038 -2.5134358
-4.0958667 0.4123709 0.062087145 -1.2054262 -3.2033076 -1.6992341 -0.48952088 -0.7046308
-1.489401 -0.135194 -0.15789597 -0.5026417 -0.8858032 0.10341948 -1.8913859 -0.18119608
0.17533913 -3.3322527 -2.386001 -1.4999832 -1.509787 -3.2625072 -0.80424243 -1.1013895
00000000: 8180 1ec0 26e0 ddbf e44c c5bf ae2b c43f
00000010: 1094 f1bf e3de 1fc0 6917 47c0 22dc 20c0
00000020: 5711 83c0 4722 d33e 174f 7e3d 684b 9abf
00000030: fe02 4dc0 8180 d9bf 7ba2 fabe af62 34bf
00000040: b1a4 bebf 4c70 0abe 7baf 21be 20ad 00bf
00000050: 00c4 62bf 98cd d33d ef18 f2bf 778b 39be
00000060: 1a8c 333e a143 55c0 3eb4 18c0 73ff bfbf
00000070: b340 c1bf ebcc 50c0 d5e2 4dbf 55fa 8cbf

layer1.1.bn.running_var f4 [32]
3.5509102 3.0932658 2.376519 2.7779796 1.973547 3.1784146 2.8999155 3.030318
3.8630688 2.2790632 2.2106948 2.1921587 2.652233 2.2228453 1.9938332 3.1509335
2.4903288 2.941693 1.7008822 3.0357833 1.8141372 2.2182517 3.5148215 2.3580916
3.0077944 3.7024143 4.033522 4.004336 3.2061214 2.6870177 2.5208576 2.472523
00000000: 1d42 6340 11f8 4540 e318 1840 6bca 3140
00000010: 309d fc3f 256b 4b40 3798 3940 bbf0 4140
00000020: 853c 7740 2cdc 1140 067c 0d40 544c 0c40
00000030: 2fbe 2940 1943 0e40 ed35 ff3f e5a8 4940
00000040: 8c61 1f40 b344 3c40 82b6 d93f 464a 4240
00000050: a635 e83f d6f7 0d40 d6f2 6040 f9ea 1640
00000060: b47f 4040 5bf4 6c40 9d12 8140 8523 8040
00000070: 1831 4d40 19f8 2b40 bb55 2140 d13d 1e40

layer2.0.conv.weight f4 [64, 32, 3, 3]
0.11774183 -0.031503964 0.053494826 -0.13142209 0.0342023 -0.15894388 -0.059817277 -0.13909788
-0.18161006 -0.22154814 -0.09799944 -0.32970405 0.1482299 -0.1009438 0.020364795 0.09859946
0.024121294 -0.1283471 0.20508942 0.1220315 0.24166097 -0.05284856 -0.060800944 0.049961742
-0.1599412 -0.06300215 0.00880838 0.038867142 0.17971246 -0.004881673 0.26429325 -0.07340867
0.023406535 0.09564229 -0.0050254175 0.12376639 -0.0005151823 -0.01813644 -0.10453022 0.02944663
0.055797037 -0.07743191 0.077091336 0.024788912 -0.107418165 -0.018664308 0.13122588 0.08253447
0.017229093 0.045398053 -0.03496463 -0.25485456 -0.3448492 -0.040643197 -0.03398991 -0.120894015
-0.063045695 0.103658125 0.26026627 -0.02571565 0.25388765 0.19227846 0.05348588 -0.001833181
-0.017214512 -0.1284302 0.112518035 -0.13213284 -0.10299447 0.112980664 -0.088669926 -0.02797747
-0.30921328 -0.061114438 0.09104864 -0.06499837 0.15177856 -0.03586731 -0.103754595 -5.0481493e-05
-0.019096848 -0.19565526 -0.07826396 -0.25974733 -0.13427633 -0.085275695 0.059720602 -0.061140746
0.15297177 0.1808701 -0.0059411013 -0.0022182 -0.011709941 0.07421292 0.1464752 0.15677793
0.09377948 0.0056647724 -0.013998808 -0.05353288 0.054231618 -0.06833293 -0.28284198 0.049423918
-0.09079169 -0.019564996 -0.056129355 -0.047506005 0.056584764 0.029659165 0.063701555 0.019798834
-0.06180217 -0.1505918 -0.0023235898 0.10997807 -0.1470346 -0.04451656 0.13110988 0.13796291
0.04992438 -0.042710885 -0.06691343 -0.05847062 -0.041054543 -0.21807115 0.026261367 0.0020500065
0.18297417 -0.11884845 -0.027941722 0.039891414 -0.06567075 0.024463272 0.034468237 0.047925387
-0.14866956 -0.10717152 -0.15302715 -0.009737146 -0.20591454 -0.13591072 0.0076652193 -0.0061035194
-0.14210477 0.035807934 0.08136566 -0.0035120167 -0.030919516 0.183796 0.009847868 -0.20271173
-0.13144778 0.14721036 0.025479099 0.051727887 -0.15138577 0.15315622 0.0205379 -0.2107284
0.029274562 -0.013739139 0.030546134 0.12865366 -0.006662337 0.07449617 0.004508929 -0.038575888
-0.12128474 0.010760863 -0.060474377 -0.12830499 0.006721839 -0.1483283 -0.007158158 -0.025308024
0.13787282 -0.034404557 0.022850923 0.062332872 0.090443 0.12804328 -0.013877177 -0.050022557
-0.10008959 -0.050532997 -0.05764013 -0.21369092 -0.036781576 -0.14102012 -0.1801879 -0.06982297
-0.17823915 -0.1605919 -0.08530235 -0.077090524 0.07045092 0.03231658 0.08210059 -0.032425847
0.2851615 -0.012608658 -0.033812612 0.04965574 -0.12562746 -0.07712341 -0.22956958 0.11819174
0.109910704 0.049630065 -0.055241633 0.022555012 0.043695446 -0.051957425 -0.10240147 -0.2556959
0.108448915 0.07109561 0.15228401 0.28802586 -0.07890103 -0.0522959 0.094051406 -0.06565119
-0.010390977 -0.26677087 -0.16154878 -0.026240574 -0.056182023 0.041580394 0.04378187 -0.02545242
0.16152534 -0.11755221 -0.14475271 -0.085043296 0.04936473 -0.1174939 0.063394725 0.041825224
0.08290773 -0.20379652 -0.289012 0.1542735 -0.013469379 0.035398386 -0.11357982 -0.060816433
-0.039600905 0.119164355 -0.11904198 -0.032759853 0.14534834 0.20057319 0.16732654 -0.0659414
00000000: a122 f13d 4d0a 01bd 641d 5b3d 8393 06be
00000010: b617 0c3d 2fc2 22be f602 75bd ad6f 0ebe
00000020: fdf7 39be 84dd 62be eeb3 c8bd f8ce a8be
00000030: 94c9 173e 9fbb cebd 12d4 a63c 84ee c93d
00000040: 059a c53c 6c6d 03be f602 523e a7eb f93d
00000050: f975 773e bb77 58bd 690a 79bd afa4 4c3d
00000060: a0c7 23be 4507 81bd 0651 103c 2733 1f3d
00000070: 8b06 383e 71f6 9fbb 7251 873e 4957 96bd
00000080: 10bf bf3c 1be0 c33d 42ac a4bb 3c79 fd3d
00000090: 4d0d 07ba df92 94bc f113 d6bd 0f3a f13c
000000a0: 6f8b 643d 9f94 9ebd 10e2 9d3d 1e12 cb3c
000000b0: 0efe dbbd e4e5 98bc 1460 063e d507 a93d
000000c0: 0724 8d3c 4ff3 393d 1237 0fbd 4c7c 82be
000000d0: 1390 b0be 7b79 26bd 0139 0bbd 4897 f7bd
000000e0: 1a1e 81bd b64a d43d 9f41 853e a0a9 d2bc
000000f0: 90fd 813e a5e4 443e 0314 5b3d 5947 f0ba
00000100: 7305 8dbc 3583 03be db6f e63d d54d 07be
00000110: c4ee d2bd 6862 e73d 9498 b5bd 0231 e5bc
00000120: 3451 9ebe 2253 7abd b677 ba3d de1d 85bd
00000130: d76b 1b3e 9ae9 12bd 4a7d d4bd 17bc 53b8
00000140: fe70 9cbc da59 48be db48 a0bd 9afd 84be
00000150: bc7f 09be 06a5 aebd 979d 743d b86e 7abd
00000160: a2a4 1c3e 0336 393e 92ad c2bb 385f 11bb
00000170: 0ddb 3fbc f2fc 973d 98fd 153e 658a 203e
00000180: 750f c03d 8e9f b93b 425b 65bc 4b45 5bbd
00000190: f921 5e3d 23f2 8bbd aad0 90be bc70 4a3d
000001a0: fef0 b9bd c546 a0bc e5e7 65bd a895 42bd
000001b0: 6dc5 673d c7f7 f23c f675 823d 2a31 a23c
000001c0: 4624 7dbd bd34 1abe 5e47 18bb 2f3c e13d
000001d0: 3d90 16be ff56 36bd ab41 063e 2646 0d3e
000001e0: 827d 4c3d 9cf1 2ebd e909 89bd e47e 6fbd
000001f0: cf28 28bd 0b4e 5fbe 1422 d73c 6759 063b
00000200: 955d 3b3e d166 f3bd 0ae6 e4bc 2e65 233d
00000210: 637e 86bd 3367 c83c 912e 0d3d 694d 443d
00000220: d53c 18be be7c dbbd 26b3 1cbe 8d88 1fbc
00000230: 43db 52be 2e2c 0bbe 852c fb3b 0800 c8bb
00000240: ea83 11be 57ab 123d 0aa3 a63d dd29 66bb
00000250: ed4a fdbc 0535 3c3e f458 213c aa93 4fbe
00000260: 3f9a 06be 50be 163e 8bb9 d03c 9fe0 533d
00000270: df04 1bbe fcd4 1c3e 193f a83c 30c9 57be
00000280: 35d1 ef3c 201a 61bc e33b fa3c c9bd 033e
00000290: bc4f dabb 7391 983d a3bf 933b c001 1ebd
000002a0: 2264 f8bd 554e 303c fbb3 77bd 6262 03be
000002b0: df42 dc3b 60e3 17be fb8e eabb c652 cfbc
000002c0: 882e 0d3e cbeb 0cbd dc31 bb3c c150 7f3d
000002d0: 2e3a b93d c71d 033e 195d 63bc 74e4 4cbd
000002e0: c5fb ccbd b0fb 4ebd 0f18 6cbd cbd1 5abe
000002f0: 47a8 16bd 9467 10be 2d83 38be 58ff 8ebd
00000300: 5384 36be 3472 24be 00b3 aebd a3e1 9dbd
00000310: 9248 903d 645e 043d 5b24 a83d f7d0 04bd
00000320: b000 923e 8b94 4ebc 187f 0abd d163 4b3d
00000330: 7ca4 00be e1f2 9dbd 4a14 6bbe 830e f23d
00000340: dd18 e13d e548 4b3d 0d45 62bd 4ac5 b83c
00000350: fff9 323d 4fd1 54bd ddb7 d1bd 93ea 82be
00000360: 771a de3d 939a 913d 57f0 1b3e 2078 933e
00000370: dd96 a1bd 3a34 56bd 069e c03d 2274 86bd
00000380: eb3e 2abc 3196 88be 0b6d 25be 79f6 d6bc
00000390: 1f1f 66bd 3450 2a3d 9e54 333d 9881 d0bc
000003a0: e666 253e 37bf f0bd 0e3a 14be 2e2b aebd
000003b0: ac32 4a3d a4a0 f0bd 18d5 813d ed50 2b3d
000003c0: 87cb a93d 09b0 50be 62f9 93be dff9 1d3e
000003d0: acae 5cbc e6fd 103d 899c e8bd a71a 79bd
000003e0: 8f34 22bd 710c f43d 48cc f3bd 322f 06bd
000003f0: 32d6 143e 0f63 4d3e a657 2b3e 490c 87bd

layer2.0.bn.weight f4 [64]
1.1194104 1.0745847 1.1234897 1.1762468 1.0267248 1.0962495 1.1648974 1.2843422
1.2204393 1.1102432 1.1858352 1.3067621 1.1562371 1.1769809 1.1874012 1.145436
1.1415099 1.0516684 1.1465081 1.0932983 1.1560624 1.1318414 1.0401777 1.0594436
1.1321441 1.1256508 1.1241047 1.0459849 1.201516 1.2193489 1.1421759 1.1627866
1.1939791 1.1496272 1.1375201 1.2149771 1.0178949 1.2440144 1.0379403 1.1078507
1.0973115 1.1770002 1.1638027 1.1395719 1.1409968 1.1693017 1.169265 1.0619969
1.0623926 1.1267544 1.1411428 1.1447766 1.120301 1.1473169 1.1208863 1.0843406
1.1510645 1.1524004 1.0430601 1.2256248 1.1181463 1.2082827 1.096262 1.1843374
00000000: d748 8f3f fe8b 893f 83ce 8f3f 418f 963f
00000010: b86b 833f e751 8c3f 5c1b 953f 5365 a43f
00000020: 5b37 9c3f 731c 8e3f 73c9 973f fb43 a73f
00000030: 94ff 933f 4fa7 963f c3fc 973f a69d 923f
00000040: ff1c 923f 129d 863f c7c0 923f 33f1 8b3f
00000050: daf9 933f 2ee0 903f 8b24 853f d99b 873f
00000060: 19ea 903f 5315 903f aae2 8f3f d5e2 853f
00000070: 47cb 993f a013 9c3f d232 923f 31d6 943f
00000080: 4fd4 983f fc26 933f 429a 913f 5f84 9b3f
00000090: 614a 823f dd3b 9f3f 3adb 843f 0dce 8d3f
000000a0: b474 8c3f f1a7 963f 7df7 943f 7edd 913f
000000b0: 2f0c 923f aeab 953f 7aaa 953f 84ef 873f
000000c0: 7bfc 873f 7d39 903f f810 923f 0a88 923f
000000d0: 0666 8f3f 48db 923f 3479 8f3f accb 8a3f
000000e0: 1556 933f db81 933f fe82 853f 46e1 9c3f
000000f0: 6b1f 8f3f 02a9 9a3f 5052 8c3f 5e98 973f

layer2.0.bn.bias f4 [64]
-0.09376722 -0.3434466 -0.15524608 -0.21370666 -0.18363537 -0.14000033 -0.17033379 -0.1862415
-0.2749067 -0.13931735 -0.25134122 -0.22456929 -0.1933097 -0.19411246 -0.1550558 -0.2616961
-0.25123328 -0.20837125 -0.23431125 -0.18357782 -0.29783875 -0.2646292 -0.15125251 -0.21431552
-0.2789845 -0.11353454 -0.180165 -0.18636692 -0.26928237 -0.21650802 -0.15703082 -0.1580465
-0.14586745 -0.20549686 -0.15412402 -0.18107063 -0.40058523 -0.18425114 -0.21523926 -0.27404928
-0.19544852 -0.23409216 -0.21353212 -0.081670366 -0.18357073 -0.1101612 -0.18652886 -0.28953737
-0.07614742 -0.15932457 -0.054885402 -0.20526917 -0.2900884 -0.2428077 -0.18779103 -0.19794863
-0.11070257 -0.23183626 -0.24320844 -0.19707842 -0.17971952 -0.069929525 -0.1442281 -0.10678674
00000000: 0709 c0bd 3cd8 afbe d4f8 1ebe ebd5 5abe
00000010: e90a 3cbe 3f5c 0fbe fb6b 2ebe 17b6 3ebe
00000020: 92c0 8cbe 35a9 0ebe ccaf 80be 7ef5 65be
00000030: faf2 45be 6bc5 46be f3c6 1ebe 08fd 85be
00000040: a6a1 80be 465f 55be 4aef 6fbe d3fb 3bbe
00000050: 527e 98be 7a7d 87be f0e1 1abe 8775 5bbe
00000060: 0ed7 8ebe cc84 e8bd 2c7d 38be f8d6 3ebe
00000070: 61df 89be 47b4 5dbe b0cc 20be f1d6 21be
00000080: 475e 15be c56d 52be b0d2 1dbe 946a 39be
00000090: 8219 cdbe 55ac 3cbe ae67 5cbe 3050 8cbe
000000a0: a823 48be dbb5 6fbe 2aa8 5abe cb42 a7bd
000000b0: f7f9 3bbe 329c e1bd 6c01 3fbe 3e3e 94be
000000c0: 2ef3 9bbd fb25 23be 84cf 60bd 1532 52be
000000d0: 7786 94be 95a2 78be 4b4c 40be 0cb3 4abe
000000e0: 07b8 e2bd 7c66 6dbe a20b 79be edce 49be
000000f0: 6508 38be 3637 8fbd 88b0 13be 02b3 dabd

layer2.0.bn.running_mean f4 [64]
-4.280579 -1.364222 -3.168184 -1.2472625 -2.9411838 -2.6247764 -4.8821573 -0.34846297
-1.8848946 -3.1056752 -0.55856913 -2.7846904 -2.8004236 -2.644984 -1.4595428 -2.406071
-0.25458243 -7.030531 -5.111631 -0.67198485 0.16432118 -5.19923 -4.013271 0.47025326
2.1381838 -1.4564745 -2.204958 -2.501805 -1.4149096 -0.9719994 1.4958322 0.40900528
-1.3965516 -2.473808 1.4545119 -2.7668834 -3.0363176 -0.9030727 -5.6090555 -0.95082664
-1.5676697 -3.858248 -1.3993951 -2.6818733 -3.164589 -2.9702456 -1.1462817 -1.6895299
-2.3902667 1.2810197 -3.9297616 -2.418123 -3.6883912 0.04528164 -4.370704 -4.350879
-6.0638256 -2.4352498 -0.18043365 0.0057660793 -3.2284188 -3.9807584 -2.7969565 -0.013956577
00000000: 81fa 88c0 d49e aebf 87c3 4ac0 4ca6 9fbf
00000010: 5b3c 3cc0 56fc 27c0 a23a 9cc0 bd69 b2be
00000020: 3a44 f1bf 62c3 46c0 63fe 0ebf 5e38 32c0
00000030: 243a 33c0 6b47 29c0 4cd2 babf 11fd 19c0
00000040: a158 82be 1cfa e0c0 7b92 a3c0 3307 2cbf
00000050: d043 283e 1860 a6c0 b76c 80c0 09c5 f03e
00000060: 01d8 0840 c26d babf 081e 0dc0 931d 20c0
00000070: c21b b5bf f4d4 78bf 6e77 bf3f 2469 d13e
00000080: 34c2 b2bf df52 1ec0 722d ba3f 9e14 31c0
00000090: 0753 42c0 c62f 67bf 627d b3c0 6069 73bf
000000a0: 67a9 c8bf 89ed 76c0 611f b3bf d0a3 2bc0
000000b0: a088 4ac0 8118 3ec0 5cb9 92bf 8442 d8bf
000000c0: 21fa 18c0 74f8 a33f 3781 7bc0 87c2 1ac0
000000d0: 9a0e 6cc0 3e79 393d cfdc 8bc0 673a 8bc0
000000e0: dc0a c2c0 22db 1bc0 99c3 38be 61f1 bc3b
000000f0: 6a9e 4ec0 bfc4 7ec0 5601 33c0 20aa 64bc

layer2.0.bn.running_var f4 [64]
3.7212515 4.3477526 4.241046 4.637509 4.173167 4.801354 5.077923 5.1794086
4.326406 3.5247526 4.031935 5.343347 4.24285 3.9789984 4.700539 5.511329
4.6338964 4.128823 4.167083 3.8672218 4.2234726 4.536232 6.584771 3.9023604
3.628894 4.01482 5.522828 5.1026883 5.8372183 4.523935 5.881998 4.934199
5.5218606 4.374128 5.1664796 5.762553 4.6769514 4.831122 4.4811974 5.6597238
4.5182996 5.438248 7.092101 4.842363 5.1950226 3.6493614 3.9406326 3.6720853
5.479959 4.1254997 4.8156314 4.6514893 4.692121 4.5428414 4.359639 4.772559
5.695375 5.561451 5.426661 4.4514365 4.2627892 5.823715 5.157042 4.7858796
00000000: fc28 6e40 ca20 8b40 a6b6 8740 7966 9440
00000010: 968a 8540 b1a4 9940 587e a240 b7bd a540
00000020: eb71 8a40 8c95 6140 9d05 8140 b3fc aa40
00000030: 6dc5 8740 e9a7 7e40 d16a 9640 cf5c b040
00000040: e148 9440 511f 8440 be58 8540 9080 7740
00000050: b026 8740 d028 9140 72b6 d240 46c0 7940
00000060: cd3f 6840 6879 8040 02bb b040 3949 a340
00000070: 7eca ba40 13c4 9040 5439 bc40 f5e4 9d40
00000080: 15b3 b040 dbf8 8b40 cd53 a540 d666 b840
00000090: 96a9 9540 8d98 9a40 f865 8f40 751c b540
000000a0: e995 9040 2106 ae40 7ef2 e240 a3f4 9a40
000000b0: a03d a640 238f 6940 5333 7c40 7203 6b40
000000c0: d35b af40 1804 8440 a719 9a40 00d9 9440
000000d0: db25 9640 f55e 9140 2a82 8b40 ceb8 9840
000000e0: 8340 b640 68f7 b140 35a7 ad40 2b72 8e40
000000f0: c568 8840 e05b ba40 7d06 a540 ed25 9940
