student_models/large_res_students/student_2.pth (torch, 385904 bytes, 39 tensors)

conv_initial.0.weight f4 [16, 3, 3, 3]
000000 d8 f6 0b be a7 24 a6 be 33 3f de bd 42 dd f3 bd
       -0.13668382 -0.3244984 -0.10851898 -0.11907436
000010 ec 87 6a 3d 9a e6 a8 bd a3 e6 2c 3e e2 5e a5 3e
       0.05725853 -0.08247109 0.16884856 0.32298952
000020 1c de 74 3e 61 72 9f bd 5e 63 8c be a4 a6 1b 3d
       0.23912853 -0.07785488 -0.2741956 0.038000718
000030 22 fd 11 3e e0 b5 e9 3b 31 c7 3a bd 34 1a 52 bd
       0.14256719 0.007132277 -0.04560012 -0.05129452
000040 99 8c 16 3e 2d b1 12 3e 11 76 e7 3d ae e8 05 be
       0.14702071 0.143254 0.11301816 -0.13077042
000050 4c 4a 43 3d 26 cb 80 bd 6a 19 0c 3e ff 8d 0b be
       0.047678277 -0.062887475 0.1368157 -0.13628386
000060 6d 47 27 3d b4 05 20 3e 28 44 e2 bd e7 f0 f3 3b
       0.0408396 0.15627176 -0.11048156 0.0074444893
000070 12 eb 4e bd 08 b7 58 3d 76 ab 29 be 29 50 26 3e
       -0.05051715 0.052908927 -0.16569313 0.16241516
000080 0e a4 ac bc c2 64 4f bd c5 97 23 3e 3a 4a d3 bd
       -0.021074321 -0.0506332 0.15975864 -0.10316892
000090 ee 62 af bd 64 9d 34 3e d2 2d 0a be d1 15 a3 3d
       -0.08563791 0.17638165 -0.13494042 0.079631455
0000a0 f5 68 2e 3e 46 a0 54 be 7a 7d 76 be c8 fe 74 3e
       0.17032225 -0.20764264 -0.24071303 0.23925316
0000b0 71 e7 c8 bc 98 ac 5d 3d 44 40 21 3d 07 6c 6f bd
       -0.024524422 0.054119676 0.03936793 -0.058452632
0000c0 26 d5 3a be 49 17 89 3e 20 9e 07 be 8e 73 78 bd
       -0.18245372 0.26775578 -0.13243914 -0.060657077
0000d0 d1 75 69 3e 5c c9 0f be 3c 8b 29 be b2 36 08 3e
       0.2279885 -0.14041656 -0.1655702 0.13302115
0000e0 fa c3 4e 3e 9f fe ca bd 16 a3 1f 3e af 91 e9 3b
       0.20191947 -0.09911846 0.15589556 0.0071279625
0000f0 4d d2 39 3e 6c a7 3c bc 2d 8e 26 bc 79 d9 14 bd
       0.1814663 -0.011514526 -0.010165733 -0.03634021
000100 b0 c6 bf bd 5c 8f fc 3d eb 76 17 3c b7 ae 87 3e
       -0.093640685 0.12332031 0.009244661 0.26500484
000110 ab 4e 18 bd 30 a3 3d 3e 05 42 37 be 5c 10 1e be
       -0.0371844 0.18519282 -0.17896278 -0.15435928
000120 9a 84 85 be 22 9f 46 3e f7 f9 2b 3e 5a 12 78 3e
       -0.2607773 0.19396642 0.16794573 0.2422575
000130 e6 14 79 3e 4c 3a 74 be ab 56 b4 bd ea 11 9c 3d
       0.24324378 -0.23850363 -0.08805593 0.07620604
000140 c2 d0 a7 bd 86 7b 88 bd 2e f7 ea 3c e4 87 78 3e
       -0.08194114 -0.06664185 0.028682318 0.24270588
000150 ee d2 d7 3d b7 1d f0 bb d3 a5 88 3d f7 29 bc 3d
       0.105382785 -0.007327761 0.066722535 0.09187692
000160 60 7a a8 bd 12 c0 87 be 5c ca 7a be 06 98 24 be
       -0.08226466 -0.26513726 -0.24491256 -0.16073617
000170 89 7b 00 3e 20 e9 d3 bd 23 27 97 3d 46 be 3b be
       0.12547125 -0.103471994 0.073805116 -0.18334302
000180 b2 aa 4f 3e 5b bb 6a 3d fa 02 69 bd 03 3d df bd
       0.20279959 0.057307582 -0.056887604 -0.10900309
000190 11 38 8b bd 33 c2 66 3e ac 96 12 be b5 9a 45 3e
       -0.06797803 0.22535019 -0.1431529 0.19297297
0001a0 dc 16 ab bd 81 3e 6e 3e 2a c2 b6 bd 30 1f 52 bd
       -0.083539695 0.23266031 -0.089237526 -0.051299274
0001b0 55 07 8b 3c 47 f2 b2 bd 36 c2 8a 3e 6e 82 42 be
       0.01697127 -0.08737617 0.27101296 -0.18995067
0001c0 ff 62 2a 3e d8 44 81 3e 11 6e 68 be 43 01 12 bc
       0.16639327 0.25247836 -0.22698237 -0.008911434
0001d0 98 66 02 3d 15 1d 6c bd 39 82 79 bc c0 b9 30 be
       0.031836122 -0.057644922 -0.015228801 -0.17258358
0001e0 4c cc a0 3d 9b 7c c3 bc 5b 27 5e be 57 f3 10 3e
       0.078514665 -0.023863127 -0.216947 0.14155327
0001f0 08 b3 3b 3e 8e 07 2c be 01 ab 02 3e fe 1e 70 bd
       0.18330014 -0.16799757 0.12760545 -0.058623306
000200 f8 af 3c be c3 87 97 3e 0d ed 20 be 5e d2 67 be
       -0.18426502 0.29595765 -0.15715428 -0.22638842
000210 49 8f 21 3e f7 89 d2 3c c4 60 82 3c 49 6e 5c bd
       0.15777315 0.025700552 0.015915282 -0.053816114
000220 96 fd 47 3e 6b 30 72 bd fb 5e c5 bd ac de ff bd
       0.19530329 -0.059128206 -0.09637257 -0.12493643
000230 5f 30 3f 3e 5a d7 28 bd 51 bb 61 3d 17 17 ca bc
       0.18670796 -0.041221 0.05511028 -0.024669213
000240 7a 14 10 3e 10 39 99 3d 80 c9 9b 3e c7 af 3c bd
       0.14070311 0.07481587 0.3042717 -0.04606607
000250 1f 7c 77 be 9c b8 a9 bd ee 5d 1e 3e a8 30 2a be
       -0.24168442 -0.082871646 0.15465519 -0.16620123
000260 50 7f 34 be f2 c5 e8 3d b2 a4 50 3e 2a 3f 4a 3e
       -0.17626691 0.1136588 0.20375326 0.19750658
000270 d1 06 21 be c7 9f e0 bd 21 33 0f 3e 30 5c 2a be
       -0.15725257 -0.10967975 0.13984348 -0.16636729
000280 8a ba 95 bd 22 ed 26 be 3d 41 3d be 6e 80 3b 3e
       -0.0731097 -0.16301396 -0.18481918 0.18310711
000290 90 49 67 3d 1a e5 ea 3d b7 05 a8 3e fb df b8 bd
       0.05646664 0.11469479 0.3281686 -0.09027096
0002a0 5a 6f 47 bd 48 b3 45 be c8 0d 3a be ed 9a b8 bd
       -0.048690178 -0.19306672 -0.1816932 -0.09013925
0002b0 37 d9 d0 bd d5 54 2f 3c bc 57 5c 3e 77 4d 2e 3e
       -0.101976804 0.010701378 0.21517843 0.17021738
0002c0 51 4e 36 3d e9 13 e4 3d df 7a fb bd e4 b0 3d be
       0.044508282 0.1113661 -0.12279295 -0.1852451
0002d0 15 c3 41 be cf ba 08 3e 12 a4 e9 bb d0 0c 07 bc
       -0.18922074 0.13352512 -0.0071301544 -0.008242801
0002e0 56 73 19 3e 79 cc b1 bd 87 47 c2 bd 8c e1 a9 3d
       0.14985403 -0.08681578 -0.09486299 0.08294973
0002f0 94 d2 de bc 58 78 1f be d5 70 ae 3c 05 a6 0a be
       -0.02720002 -0.15573251 0.021294037 -0.13539894
000300 4f 43 c8 3d 23 be 71 be 8a df 37 be a3 18 51 be
       0.09778463 -0.23607688 -0.17956367 -0.20419554
000310 46 53 c9 bd 8a 9c a3 39 5f a1 b3 3c 6e 4c 02 3e
       -0.09830336 0.00031206413 0.021927534 0.12724468
000320 26 6d 50 3e a9 3e 38 3e 11 52 f3 bc bf 3c 16 3e
       0.20354137 0.17992653 -0.029702218 0.1467161
000330 3e fa 29 3e d7 c2 09 bd 90 92 4a be f3 ac 82 3e
       0.16599366 -0.03363308 -0.19782472 0.25522575
000340 cc 06 d6 3d 5c b6 fc bd 97 59 30 3d a0 5b a7 3e
       0.10450515 -0.1233947 0.04305419 0.32687092
000350 2f 04 a7 bd a1 db ac 3e c2 69 f4 3c d2 06 ee bd
       -0.08155095 0.33761314 0.029835586 -0.116223946
000360 b2 30 44 3e f8 f2 70 3d ad 7f 59 3e ae a8 e1 bd
       0.19159201 0.058825463 0.2124011 -0.11018501
000370 5f 5c d8 bb 2d ba f9 3d 18 5b b5 be 57 6e 2e be
       -0.0066028084 0.12193713 -0.35421062 -0.17034279
000380 68 8c e7 be a2 6e 59 3c c0 78 aa b9 27 fa 47 bd
       -0.4522431 0.013271006 -0.00032514893 -0.04882255
000390 d4 52 23 bd 3a a4 00 3e 38 db 06 be 4d 6c 84 3d
       -0.039873913 0.12562647 -0.13169563 0.06465969
0003a0 72 f4 4c 3e 8e bd 42 be 3a ac d3 bc 4b 04 01 3e
       0.20015123 -0.19017622 -0.02583896 0.12599294
0003b0 4b 73 a5 bd 8c 45 05 bd 9a e8 68 be 6f 63 05 be
       -0.08078631 -0.03253703 -0.2274498 -0.13026212
0003c0 3d 7d f4 bd f0 28 d0 3d ad 08 c5 3d 4f 30 87 3e
       -0.1193795 0.10164058 0.096207954 0.26404044
0003d0 8f 99 2e 3e 09 78 fa 3d da c7 19 3e fa da 38 3d
       0.17050765 0.12229926 0.15017644 0.045130707
0003e0 1b a8 d0 3d 7f 23 6a be dc ca 39 bd 5c 0f 8f bd
       0.101883136 -0.22865103 -0.045359477 -0.069853514
0003f0 5d ed 0d bd 69 dd c2 3d 06 22 a8 bd 5a 8e 2d be
       -0.034650195 0.09514887 -0.082096145 -0.16948834

conv_initial.1.weight f4 [16]
000000 a1 2e 98 3f fa 18 a1 3f 81 e2 60 3f e6 1a 89 3f
       1.188923 1.2585747 0.8784562 1.0711334
000010 14 d4 8e 3f 4a b5 86 3f c6 7b 8d 3f 5d 09 4b 3f
       1.1158471 1.0524075 1.1053398 0.7931116
000020 59 aa 63 3f 74 da 2e 3f 3b 6a 97 3f 37 f2 69 3f
       0.88931805 0.68302083 1.1829294 0.91385216
000030 c4 10 85 3f f4 eb 4b 3f bf 63 54 3f 40 8b 3f 3f
       1.0395741 0.7965691 0.829647 0.74821854

conv_initial.1.bias f4 [16]
000000 ed fb 4f bc a9 c7 ea bd 59 d4 e1 bd 77 d2 a2 bc
       -0.012694341 -0.114638634 -0.1102683 -0.019875748
000010 84 b0 ea bd 45 ac 05 bc 17 0b 02 be 26 c8 35 3d
       -0.11459449 -0.008158748 -0.12699543 0.04438033
000020 64 24 72 be 54 b7 72 3c cd a8 e4 3d 1b 1e 46 bd
       -0.23646694 0.014814217 0.11165009 -0.048368555
000030 07 ec 07 bc ba 39 26 be 59 5e b3 bd de 95 bc 3e
       -0.008296019 -0.16232958 -0.0875823 0.3683309

conv_initial.1.running_mean f4 [16]
000000 5d b7 e9 bb 6c 0f 84 ba 85 18 d3 bc df e7 88 bb
       -0.0071324543 -0.0010075397 -0.025768528 -0.004178032
000010 f9 03 86 3b 0c 80 b5 3b 6f 2e bc 3b 4c 97 b2 bd
       0.004089829 0.005538946 0.00574284 -0.08720264
000020 57 74 e6 3c 09 6c 1a bd 73 74 62 39 ea ae 8f 3c
       0.028131647 -0.037700687 0.0002159642 0.01753946
000030 ab 19 8a 3b 87 82 25 bd ac c6 07 3e 45 39 c0 bd
       0.0042144856 -0.040407684 0.13259381 -0.09385923

conv_initial.1.running_var f4 [16]
000000 0d 66 be 3d 41 bb dc 3c ba 96 07 3e d1 d5 c6 3c
       0.092968084 0.026944758 0.13241091 0.024271877
000010 e9 15 ba 3c 2c 21 a6 3d b8 e7 ef 3c a2 ac 25 3e
       0.022715526 0.08111796 0.029285297 0.16179135
000020 9e fe 10 3e 99 99 04 3d b1 a3 a9 3d 18 ed 2d 3c
       0.14159629 0.032373045 0.08283175 0.01061561
000030 30 c2 34 3d 59 d0 73 3d 59 6a fb 3e ed 35 c7 3d
       0.044130504 0.059524868 0.49104574 0.097270824

layer1.0.conv.weight f4 [32, 16, 3, 3]
000000 08 9f 39 be 67 3b 2a 3d 5b 45 40 3d 46 e1 0e 3d
       -0.18127072 0.041560557 0.046941143 0.034882806
000010 d4 e5 46 3e ff cf 0d 3e 3a 10 11 3d ed 95 c1 3d
       0.1942361 0.13848875 0.035415865 0.09452424
000020 e4 42 4f 3e d1 22 1b be 21 5e 1b 3e f1 ba 30 3e
       0.2024036 -0.1515 0.15172626 0.17258812
000030 55 a7 6c be 5f 0a 02 3e 3c eb 05 3e 97 54 69 be
       -0.23110707 0.12699269 0.13078016 -0.22786175
000040 3e f2 6b be 3e 5e d9 3c 73 bc 8e 3c b4 14 51 3c
       -0.23041627 0.026534196 0.017423844 0.012761284
000050 38 7a 51 bd ba 1e 5c bc 41 4d 30 bd 63 16 11 be
       -0.051141948 -0.01343506 -0.043042425 -0.14168696
000060 a9 5f f2 3c bb 82 b4 bb b9 19 4a bd f4 7b 75 be
       0.02958663 -0.0055087483 -0.049340937 -0.23973066
000070 93 1f 89 3c ae 25 3f 3e a0 fe 85 be ef 84 e2 bd
       0.016738689 0.18666717 -0.26170826 -0.11060511
000080 58 01 9e 3e 1d 54 96 be 7c c9 df bd 59 b9 a1 3d
       0.308604 -0.29361048 -0.10927102 0.078966804
000090 b3 35 04 be 52 3f ce 3c 57 3f e6 3d 63 75 98 be
       -0.1291111 0.025176678 0.1124255 -0.2977706
0000a0 98 ea 28 3d 3e 96 25 3e 4b 5e d2 3c b1 b4 59 bd
       0.04123935 0.16170594 0.025679728 -0.053150836
0000b0 ad 25 0e 3e 14 9e 9d bd 2f 30 e4 bb c7 85 d0 bd
       0.1388156 -0.07696167 -0.0069637517 -0.10181766
0000c0 40 d0 59 be fe 30 a4 3d 82 35 9c bc cd 9e 39 be
       -0.21270847 0.08017157 -0.019068483 -0.18126984
0000d0 a0 ea 30 3c 10 06 8e 3d d6 9f 55 bd 85 66 af 3d
       0.010798126 0.0693475 -0.052154385 0.08564476
0000e0 b9 ff 5b bd ce 39 aa 3d 99 3f 85 3e ae 72 e9 bd
       -0.053710673 0.083118066 0.26025084 -0.113988265
0000f0 7c d7 ee ba 88 6e bd 3d 1a 73 17 bb 94 65 9f 3d
       -0.0018222178 0.09249598 -0.0023109377 0.07783046
000100 9e 38 13 be d5 18 f7 bc a6 50 87 bd ca 8d 41 be
       -0.14377066 -0.030163208 -0.06607179 -0.18901744
000110 43 ed e3 3c 9d 97 8b 3c 2e a6 fe bd 3f 4d 5d 3d
       0.027823096 0.017040068 -0.1243404 0.054028746
000120 63 ca b6 bc f4 fd 12 be 1f 2c 60 bc ab 68 48 3d
       -0.022313302 -0.14354688 -0.013682394 0.048927944
000130 ea f4 f7 bd 97 2b 4c be ce 0e 8f 3d 01 6e 99 bd
       -0.121072605 -0.19938503 0.06985246 -0.07491685
000140 02 ec ac bd 78 28 e7 3b 95 4d 6f 3c 6a 89 86 3e
       -0.084434524 0.007054385 0.014605899 0.26276714
000150 f3 87 c3 3c ea 48 15 bd 93 0f 65 3d 3c c4 68 3d
       0.023868537 -0.03644649 0.055923056 0.05682777
000160 c7 b7 52 3d da 38 31 3d 93 c1 1a bb 4e f3 60 3e
       0.051444795 0.04326711 -0.0023613914 0.21967813
000170 0e a7 2d 3d a7 b1 4b 3d fc d5 03 3d d0 b7 23 3e
       0.042395644 0.04972997 0.032186493 0.15988088
000180 ac d1 86 3d ba 3e 01 be 65 d2 f7 bd e9 86 8e bd
       0.065829605 -0.12621585 -0.121006764 -0.06959326
000190 54 42 f6 3d 18 3a a0 3b 23 02 df bd 84 72 3e 3d
       0.1202437 0.004889738 -0.108890794 0.04649593
0001a0 68 be 08 3e 04 83 8a bc 0b 85 18 3a 9b 27 1c 3d
       0.13353884 -0.016908176 0.0005818165 0.03812371
0001b0 e3 37 2f bd 62 5b c6 3b bf 14 b3 bc 1e f5 aa bd
       -0.042777907 0.006053374 -0.021860478 -0.08347534
0001c0 b7 06 7a bd 78 c5 99 3d c2 04 94 be 6a f5 67 be
       -0.06104156 0.07508367 -0.2890988 -0.22652212
0001d0 93 91 14 3d b0 51 5c bd a9 25 80 3d 85 eb 80 3d
       0.036271643 -0.05378884 0.06257183 0.06294922
0001e0 ff d4 38 bd 3a aa f1 3d de 31 1c 3e 40 aa aa bc
       -0.045125004 0.11800046 0.15253398 -0.020833135
0001f0 e2 43 4e 3d 3b 59 a6 bc 13 98 c3 bb 2d ac 83 bb
       0.050357707 -0.02030622 -0.0059690564 -0.0040183277
000200 a6 b3 20 bc 4e 75 ec 3b ac 29 27 be 24 61 ff bc
       -0.0098084565 0.0072161322 -0.1632449 -0.03117425
000210 a0 48 97 3d a9 63 78 bc d2 ef 97 bc bf 9f 6a 3d
       0.07386899 -0.01516048 -0.018546972 0.057281252
000220 0b e4 02 be f1 49 d9 3d 5a 5c 49 be a8 e1 7d bd
       -0.12782304 0.10609806 -0.19664136 -0.06198278
000230 87 05 fa 3d 85 87 2a be 9c 44 1d be c5 ee 09 3e
       0.122080855 -0.16653259 -0.15358204 0.1346999
000240 17 59 1b bc c5 4e 24 be c1 ce 72 bd cb e7 d9 bd
       -0.00948169 -0.16045673 -0.059279207 -0.10639914
000250 b9 1f ec bd db 85 4c 3d dc 45 0f be 39 71 7d 3b
       -0.11529488 0.049932342 -0.13991493 0.0038672222
000260 b4 42 94 3d 20 67 b0 bd 59 ed 1c be ce 7f 9f bd
       0.07239285 -0.086134195 -0.15324916 -0.07788049
000270 f1 6e 1e be 2d c8 0e be 1e 8a 84 3a f0 52 a3 bd
       -0.15472008 -0.13943549 0.0010111963 -0.079748034
000280 53 46 e5 3d 48 db ce 3d 17 9f a5 3e 51 01 64 3e
       0.11195054 0.10100418 0.32347938 0.22266127
000290 62 bb da 3d 3a ed c4 3d 01 12 2c 3e 4a 49 99 3d
       0.10680272 0.0961556 0.16803743 0.07484682
0002a0 87 e1 5f bd 9a 9d 11 be 3a 36 25 3c 0b f0 07 be
       -0.05465844 -0.14220276 0.010083729 -0.13275163
0002b0 a3 57 4e 3d f0 58 e0 3d 75 fe 52 bd 50 74 96 3d
       0.050376546 0.109544635 -0.0515122 0.073464036
0002c0 97 4c 44 3d cc 97 00 be cd 57 c8 3c a5 9d cb bd
       0.047924604 -0.12557906 0.02445593 -0.09942178
0002d0 a4 62 80 3e a1 70 fa 3d 36 66 fc bd 88 f9 78 3e
       0.25075257 0.122285135 -0.12324183 0.24313939
0002e0 96 9e 75 be 57 6a 1a be 82 ec e7 bd 0e 4b a6 be
       -0.23986277 -0.15079628 -0.11324407 -0.32479137
0002f0 2e 5a ec bd ec 17 b2 3b 18 5e 78 bd fa 00 32 bc
       -0.11540638 0.0054349806 -0.06063661 -0.010864491
000300 22 0e 12 be 61 1f 76 be d6 13 07 be 23 3a 89 bd
       -0.14263204 -0.24035408 -0.1319116 -0.06700542
000310 2c 82 b6 bd 8f 52 95 bb b5 15 16 3e e9 80 96 3e
       -0.08911547 -0.004556961 0.14656718 0.29395226
000320 9f 95 e6 3d 76 0c 1b 3e 64 28 81 3d 75 e8 ec 3d
       0.11259007 0.15141472 0.06306532 0.11567775
000330 c2 dc f9 3c 21 4f 85 3d 53 2c 34 be 20 74 87 3c
       0.030500773 0.06509233 -0.17595033 0.016534865
000340 5a 0a 02 be 7d c0 cc bc 36 b4 b8 bd e0 d8 56 be
       -0.12699261 -0.02499413 -0.090187475 -0.20981169
000350 6e 1d 84 3d 7c 10 82 bd 4d a8 2a 3d c9 70 b1 3d
       0.06450926 -0.063508004 0.04166441 0.0866409
000360 08 de b6 bd d9 33 9d 3d 10 de e3 3b 9c 46 05 3c
       -0.08929068 0.07675905 0.006953962 0.00813451
000370 a1 ac 08 be 96 8f d8 bd 3e 39 b1 3d c6 50 1b 3d
       -0.13347103 -0.10574262 0.08653496 0.03791883
000380 5b af 38 3b 4b ff c5 3d f6 b8 2d 3e ef dd 18 3e
       0.0028180692 0.09667834 0.16965088 0.14928411
000390 37 15 87 bd 7b db 1b 3d e9 40 a3 3c d5 d2 c8 bd
       -0.06595843 0.03805111 0.019928413 -0.09805838
0003a0 0d 49 df 3c 53 79 cb bd 9a 93 56 be 41 19 32 bd
       0.027256513 -0.0993525 -0.20954743 -0.043481115
0003b0 15 48 00 bd e3 ed bb 3d 7c f2 1c bd 44 aa 78 bc
       -0.031318743 0.09176233 -0.03831719 -0.015177313
0003c0 93 d3 8f 3d a1 22 ad 3d 8a 1c 88 bc a6 5c dc bd
       0.070227765 0.084538706 -0.016615171 -0.10759859
0003d0 30 20 95 3d e9 23 a1 3d 80 ef b7 bc 1b 10 f3 3d
       0.0728153 0.078681774 -0.02245307 0.11868306
0003e0 ce 4d c0 3d 1e 9f 8d bd eb 5f 1a be a3 6b 26 bd
       0.0938984 -0.06915115 -0.15075652 -0.040629994
0003f0 5a f6 5e 3e 2f 62 fb 3d f9 10 e4 bd b0 06 d5 3d
       0.21773663 0.122745864 -0.1113605 0.10401666

layer1.0.bn.weight f4 [32]
000000 f8 e2 a2 3f 0b 86 7c 3f 38 cd 7c 3f 21 fd a1 3f
       1.2725515 0.98642033 0.9875064 1.2655374
000010 a9 de a7 3f ca d2 82 3f 81 1c 72 3f 0f cd 9c 3f
       1.3114825 1.0220578 0.94574744 1.2250079
000020 5e 0d 87 3f a5 c3 97 3f 3d e8 68 3f dc df ab 3f
       1.0550954 1.1856581 0.9097937 1.3427691
000030 d0 2c 81 3f 84 00 65 3f 4b 89 6c 3f f7 b3 67 3f
       1.0091801 0.8945391 0.9239699 0.9050898
000040 d1 a6 7a 3f fd 61 8e 3f f4 6a 7a 3f 13 c9 82 3f
       0.9791079 1.1123654 0.9781945 1.0217613
000050 2f 27 77 3f d8 60 96 3f a8 f8 8a 3f 06 1d 73 3f
       0.96544164 1.1748304 1.0857134 0.9496616
000060 fb 2a 98 3f ea 46 95 3f 6d 7d 8e 3f 52 ec 96 3f
       1.1888117 1.1662266 1.1132027 1.1790869
000070 f6 91 83 3f 5f b1 8a 3f 48 44 4c 3f db 1a 7e 3f
       1.0278919 1.0835379 0.7979169 0.9925973

layer1.0.bn.bias f4 [32]
000000 b7 3f 11 be 6c c5 32 be 39 98 3f be a4 16 e0 3d
       -0.14184462 -0.17458123 -0.18710412 0.10941818
000010 df cc dd bd ba 5a 85 3d 7b 64 b7 3c 09 0f 9e 3d
       -0.10830092 0.06511445 0.02238678 0.077177115
000020 ba c1 fc bc e1 b1 3a 3e b7 21 0c be fe d2 2c bd
       -0.030854095 0.18231918 -0.13684736 -0.042193405
000030 e8 af 3c bc 97 fd e3 3d b1 ea 68 bd 70 fb 56 bd
       -0.011516549 0.11132353 -0.056864444 -0.052485883
000040 92 c8 71 3d 01 f7 33 bd bb 0b 06 bc b0 b1 a5 bc
       0.05902917 -0.043936733 -0.008181508 -0.02022633
000050 cc d9 35 3c cb 4d ee bd 2b fc c6 3d d1 15 f7 3c
       0.01109929 -0.116359316 0.09716066 0.03016177
000060 8f 76 8a bd ee 87 77 3c 84 07 a9 bd 49 6f 5f be
       -0.067608945 0.015108092 -0.082533866 -0.21819796
000070 7b 6c 9f bb 61 f7 af bd a6 71 86 3e 9a 0e 84 3d
       -0.004865227 -0.08592106 0.26258582 0.064480975

layer1.0.bn.running_mean f4 [32]
000000 ac 04 b7 be 69 d9 28 bf 8a 3a 32 c0 73 79 84 3e
       -0.35745752 -0.6595674 -2.784823 0.25873908
000010 5e 3d ca be 07 38 2e bf d6 d6 f5 bf 73 77 ed be
       -0.39499944 -0.6805424 -1.9206188 -0.46380195
000020 35 98 92 be 6e e2 c5 be e9 13 93 bb 49 16 78 bf
       -0.2863175 -0.38649315 -0.0044884575 -0.96909004
000030 af 6e 07 3e 66 5a 83 bf 17 b4 5c bf 2b da d7 bf
       0.13225816 -1.0261962 -0.86212295 -1.6863455
000040 6d 26 2c bf 1d aa da bf d4 00 44 be 7e 56 b3 be
       -0.67246133 -1.7083164 -0.19140941 -0.35026926
000050 a0 7b 60 bf 87 b5 89 bf 21 1e a3 3d af 18 47 c0
       -0.87688637 -1.0758523 0.07964731 -3.1108816
000060 13 b2 06 c0 5d 76 52 bf c4 14 ae bf a2 ea f2 bc
       -2.1046188 -0.8221186 -1.3600087 -0.029652897
000070 3b c3 90 be a2 a7 f5 bf c6 de 25 bf fa 59 85 bf
       -0.2827395 -1.9191782 -0.6479305 -1.0418084

layer1.0.bn.running_var f4 [32]
000000 54 9a 13 40 e8 5a 95 3f 05 e5 99 40 b2 39 cf 3f
       2.3062944 1.1668367 4.8092065 1.6189482
000010 e8 b8 1d 40 f5 e8 03 40 5a e0 12 40 ef 0f 52 40
       2.4644108 2.0610936 2.2949433 3.2822225
000020 53 ef d4 3f 11 94 2e 40 62 f6 c0 3f 19 cc 5b 40
       1.6635536 2.7277873 1.507519 3.4343321
000030 bd 32 a6 3f 55 8b ee 3f 7c bf 3e 40 80 dd 2e 40
       1.2984234 1.8636271 2.9804373 2.7322693
000040 6e 01 18 40 60 b1 30 40 88 7d fb 3f e2 85 1e 40
       2.3750873 2.760826 1.9647684 2.4769216
000050 40 28 2a 40 d5 50 7e 40 76 c8 0f 40 04 5e c6 40
       2.6587067 3.9736836 2.2466102 6.1989765
000060 a8 df 72 40 cb 67 c9 3f b9 30 09 40 c1 39 0d 40
       3.794901 1.57348 2.1435988 2.20665
000070 67 45 68 40 af 60 08 40 67 73 e9 3f f1 0c 0c 40
       3.629236 2.130901 1.8238343 2.1882899

layer1.0.downsample.0.weight f4 [32, 16, 1, 1]
000000 8c 27 0b bf ed fb 93 bd 42 c0 e2 bd 49 35 02 3d
       -0.5435722 -0.072257854 -0.110718265 0.031789098
000010 30 41 31 be cd 93 15 be f8 32 17 be 74 06 16 3c
       -0.17310023 -0.14607163 -0.14765537 0.009156812
000020 95 62 57 3d 37 42 61 be ee 5f e8 3b 5c 7f 0c be
       0.05258425 -0.21997915 0.007091514 -0.13720459
000030 59 70 28 3e 93 65 ab bd 9e bc f1 bc d7 6c a0 bd
       0.16449107 -0.08368983 -0.029508885 -0.078332596
000040 be 48 7e be 31 4f 2f 3d b1 60 0b be 64 92 49 bc
       -0.24832436 0.042800132 -0.13611104 -0.012302969
000050 66 72 56 3e 41 a2 87 bd 4a ed 5f 3e cd 0e 17 3e
       0.20942077 -0.06622744 0.21867862 0.1475174
000060 27 1e b1 3e 1b 9c eb 3d 2c 11 b0 3d af 21 ff 3d
       0.34593317 0.11504384 0.08597025 0.124575965
000070 a3 28 ae bc 03 37 55 be 1b c3 c9 3e 9a d4 3d bd
       -0.021259611 -0.20821767 0.39406666 -0.04634533
000080 f0 c7 44 be 3c df 0c 3e 86 a2 21 be 37 ac c6 bd
       -0.19216895 0.13757032 -0.15784654 -0.09700816
000090 01 c7 3e be 01 70 f3 be 17 0b bd be 3b 61 d4 3c
       -0.18630601 -0.4754639 -0.36922523 0.02592527
0000a0 3d 83 53 3c 16 f1 4e be 67 66 86 3c 9e 08 2b be
       0.012909708 -0.20209154 0.016406251 -0.16702506
0000b0 ed 31 99 3d 0f 5a e9 bd 65 44 6d be 7a d4 bc 3d
       0.07480226 -0.113941304 -0.23170622 0.09220214
0000c0 6b 1e 2f 3d 63 fd 6a 3d 12 b6 c8 3d 54 81 f3 bd
       0.04275362 0.057370555 0.09800352 -0.11889902
0000d0 c8 a7 35 be ec a8 aa bd 5b 56 e8 be d8 2a 9f 3e
       -0.17739785 -0.083330005 -0.45378384 0.31087375
0000e0 f8 a1 aa be a0 b7 89 3e 44 b6 82 bd 04 5d 6e 3d
       -0.33326697 0.26897907 -0.06382421 0.058194175
0000f0 f8 31 5c 3c f1 89 dc bc 3d 3e 1a be d5 e1 23 3e
       0.013439648 -0.026921244 -0.15062805 0.16004117
000100 14 01 1e 3e 4f d7 44 3e 69 3c 07 3e f9 6b 75 3d
       0.15430099 0.19222759 0.13206638 0.059917424
000110 62 1c 24 be 23 24 8c 3e c2 1f 03 be 63 26 d4 bd
       -0.16026452 0.2737132 -0.12805083 -0.10358884
000120 95 cf ed be 38 65 94 bd 6a 9c d5 bd cc cc b7 bd
       -0.46447435 -0.072458684 -0.10430224 -0.08974609
000130 43 41 cc 3d 95 d9 16 3d 28 7b b5 be 35 d7 cd 3d
       0.09973385 0.036828596 -0.35445523 0.10050813
000140 44 bd 70 be 71 e2 71 3e 29 f8 54 be 6d 81 93 be
       -0.23509699 0.23621537 -0.2079779 -0.28809682
000150 34 b2 38 be 6a ee 3f be c4 51 29 3e be 5f 80 3d
       -0.18036729 -0.18743291 0.16535097 0.062682614
000160 c4 2a a5 bc 07 5c 9e be bf bb b6 3b 85 a6 39 3d
       -0.020161994 -0.30929586 0.0055765803 0.04532482
000170 d6 75 4b 3e fd 93 44 3e a2 30 fd 3d 8c fe b9 3d
       0.1986917 0.19197078 0.123627916 0.09081754
000180 06 4b 1b 3e 1c 2f 79 3e e1 f4 03 be 33 e3 13 be
       0.15165338 0.24334377 -0.12886383 -0.14442138
000190 70 3d fa 3c ad 8d 39 be a6 b6 1d be d1 3b 6d be
       0.030546874 -0.18120451 -0.15401706 -0.2316735
0001a0 1b 6d 84 bd 70 7d 18 be 42 25 96 3e 36 1e 01 3e
       -0.06466123 -0.148916 0.293253 0.12609181
0001b0 27 1c 30 be e2 7f 47 be 0d 08 1c 3d 63 db 8b be
       -0.1719824 -0.19482377 0.038093615 -0.27315816
0001c0 4d ce 9d 3e d1 0f 35 bd 8c 4a bf 3c 60 1c a1 be
       0.30821458 -0.044204537 0.023350976 -0.3146696
0001d0 b5 71 34 be 07 f6 10 bc 4c 62 e8 3d 36 16 85 3e
       -0.17621501 -0.00884772 0.11346874 0.25993508
0001e0 4e 98 fd 3d c5 87 01 bd 07 44 35 3c 3c 2c 4f be
       0.123825654 -0.03162362 0.011063582 -0.20231718
0001f0 2c 90 f2 bd 29 db fe 3d 38 fa 18 3c c2 39 ac 3e
       -0.11843905 0.12444145 0.009337001 0.33637816
000200 0d bc da bd b5 04 0f 3e 32 e4 38 bd 2c 23 40 3d
       -0.10680399 0.1396664 -0.0451395 0.046908543
000210 f9 2d 97 3e 88 3f 40 be 8a 78 05 bb 51 b6 d9 3d
       0.29527262 -0.18774235 -0.0020366036 0.10630477
000220 d3 83 b0 be bb 13 6a 3e b3 c6 5b 3e 65 f9 be be
       -0.34475574 0.22859089 0.21462516 -0.37299648
000230 f7 49 65 be e4 0e 10 be 1a 4c 9e be e3 19 a9 3d
       -0.22391497 -0.1406818 -0.30917436 0.082568906
000240 a7 89 76 bd e5 5e d3 be 7c 56 51 bd ea fa 83 3d
       -0.06018987 -0.41283336 -0.05110787 0.064443424
000250 72 41 b9 3d 4e 54 cf 3d 7d 37 18 bd e3 c1 38 be
       0.09045686 0.10123502 -0.037162293 -0.18042712
000260 72 f4 18 3d 71 fb 52 bd a6 d6 8d be 91 94 35 bd
       0.037342496 -0.051509324 -0.27702826 -0.044331137
000270 87 79 2c 3e ec 9f 54 be dc 97 db 3c 1a f7 53 be
       0.16843234 -0.2076413 0.02680581 -0.2069973
000280 34 ba 27 3b 2c 58 2c 3e df 38 d8 be 4f a8 b1 3d
       0.0025593163 0.1683051 -0.4223089 0.086746804
000290 8d 2f 30 3e cb 5f a5 bd 14 13 bb 3d 21 35 92 be
       0.17205639 -0.08074912 0.09134498 -0.2855616
0002a0 d5 e9 a0 3e ef 41 a8 3c c0 8b ff bd da 81 a2 be
       0.314284 0.020539252 -0.12477827 -0.31739694
0002b0 46 d2 b0 bd 69 c1 c1 3c f0 06 61 3e b1 4e 0c 3d
       -0.086338565 0.023651795 0.21975303 0.034254733
0002c0 6e 50 7a 3e 8a 0d 01 3e 87 a0 66 be c5 b7 fa 3d
       0.24444744 0.12602821 -0.22522174 0.122420825
0002d0 9f dc e8 3c e3 a1 a5 be 1f 19 82 be d0 92 44 be
       0.028425513 -0.32350072 -0.2540979 -0.1919663
0002e0 67 ba 01 3d a6 7d fd 3c 30 d1 99 bc 3b e4 ba 3e
       0.031671908 0.030943703 -0.018776506 0.3650225
0002f0 8b 6f a6 bd 95 bb 70 3e 36 68 52 be 7a 01 6c 3d
       -0.08126744 0.23509057 -0.20547566 0.057618596
000300 02 30 f7 3d 62 21 e1 3c ed 99 bb bd c6 b2 c9 3e
       0.12069704 0.027481738 -0.091602184 0.39394206
000310 6f 4d 82 bd 36 1d a8 bc a5 20 39 3e 93 c3 c5 bd
       -0.063624255 -0.020521741 0.18078859 -0.096564434
000320 e4 2e 04 be a2 f9 86 be 98 4c 12 3d 45 e1 64 3e
       -0.12908512 -0.2636233 0.035717577 0.22351559
000330 ec a5 a9 3e 3e 64 49 be 34 52 89 3e 3a 53 04 be
       0.331344 -0.19667146 0.26820529 -0.12922373
000340 91 e4 1c 3e 6a a4 29 be c2 c5 cd 3d f2 ab 2d be
       0.15321566 -0.16566625 0.10047485 -0.16960123
000350 87 5e 66 39 68 19 5c be 96 ea 8e 3e f9 87 db bc
       0.00021969723 -0.21494067 0.2791335 -0.026798235
000360 3c f3 7d bd 26 db fd 3d 8a 7b bc be 2f f4 5d bc
       -0.061999545 0.12395315 -0.36813003 -0.013546987
000370 d1 b4 fe bd b6 fc 60 be 47 e2 e6 3d 02 6c 81 3e
       -0.12436832 -0.21971402 0.11273628 0.25277716
000380 c5 50 9d 3e a3 a7 98 be 35 c2 07 3e ce 43 83 bd
       0.30725685 -0.29815397 0.13257678 -0.06409417
000390 9b f7 6e be d3 4a 20 be 70 c6 ad be 96 20 56 be
       -0.23336641 -0.15653543 -0.33940458 -0.20910868
0003a0 e6 4f 09 be 8c 75 d3 3d 7c da cd be 9d ac 41 bd
       -0.13409385 0.10325155 -0.40205753 -0.047283757
0003b0 e7 d3 53 3e 37 08 21 3e 03 d1 25 3e f0 18 19 be
       0.20686303 0.1572579 0.16193013 -0.14950919
0003c0 ec 7d 71 3e fa 0b 83 3e 78 0a e5 3d f9 17 3e be
       0.23583192 0.25595075 0.111836374 -0.18563832
0003d0 2e 52 91 3d 21 7e d3 3d 78 eb 46 3d a3 8c f1 bd
       0.07095753 0.103267916 0.048564404 -0.117944025
0003e0 0c b6 99 be 53 7a fd bd ec c8 66 3d 44 0d 0d 3d
       -0.30021703 -0.12376847 0.056343958 0.03443648
0003f0 93 9e eb bd f5 e6 55 be 8b ad 9c be 0c 16 ce 3d
       -0.11504855 -0.20888884 -0.30601153 0.10062799

layer1.0.downsample.1.weight f4 [32]
000000 87 da 4c 3f ca d6 3e 3f 28 2d 65 3f 4d 4b 0d 3f
       0.80020946 0.7454649 0.8952203 0.55193025
000010 66 32 1b 3f 76 db 1f 3f 92 ac 18 3f 96 4c 2a 3f
       0.60623777 0.62444246 0.5963832 0.6652311
000020 2b 38 1d 3f b0 6e 21 3f 50 f4 32 3f ba f1 24 3f
       0.6141383 0.6305952 0.6990404 0.64431345
000030 11 dc 29 3f 6b c4 49 3f 37 32 53 3f 9a 29 1d 3f
       0.6635142 0.78815335 0.82498497 0.61391604
000040 58 c9 2a 3f 87 d7 2b 3f c6 31 13 3f dc a8 48 3f
       0.66713476 0.67125744 0.57497823 0.7838266
000050 ae 12 37 3f e9 e8 1a 3f 38 25 19 3f 64 a0 2f 3f
       0.7151288 0.6051164 0.59822416 0.6860411
000060 87 54 40 3f 90 13 48 3f 6f fd 2b 3f 4d f2 4e 3f
       0.7512898 0.7815485 0.67183584 0.8083847
000070 61 ea 21 3f 36 b8 28 3f 7a 3e 33 3f 2b eb 22 3f
       0.6324826 0.65906084 0.70017207 0.6364009

layer1.0.downsample.1.bias f4 [32]
000000 c6 2f 4a be 73 0f 48 be 77 0c 06 be 0c af 26 be
       -0.19744787 -0.19537143 -0.13090692 -0.16277713
000010 b9 1a 88 be 97 64 2c 3d 20 61 1c be 49 83 b4 bd
       -0.26582888 0.042088117 -0.15271425 -0.08814103
000020 15 1c aa bd 5b 65 c6 bd 20 3d 7e be 99 a6 1d be
       -0.083061375 -0.09687301 -0.24828005 -0.15395583
000030 47 48 b6 bd 7a b1 59 bc b0 2f 38 be 13 56 dd bd
       -0.089005046 -0.013286943 -0.17986941 -0.10807433
000040 a9 0a 08 be 30 9c 84 be 0b cf 1b be 00 c1 ff bd
       -0.13285317 -0.25900412 -0.152157 -0.12487984
000050 ef da 15 3d 47 28 a7 be cf 1a e3 bd 14 0a 55 bc
       0.036585744 -0.32647917 -0.11089098 -0.013002891
000060 04 c4 d1 bc cf 93 2e be 1b 40 65 be 0b 5f a1 bd
       -0.025606163 -0.17048572 -0.22387736 -0.07879456
000070 c5 04 83 bd bb 36 1f bd f9 d2 4f bd db ed 85 bd
       -0.06397394 -0.038870554 -0.05073831 -0.06539508

layer1.0.downsample.1.running_mean f4 [32]
000000 6f d9 64 bf b4 2d d8 3e 73 22 83 bf ad ce 90 be
       -0.8939428 0.4222237 -1.0244888 -0.2828268
000010 5e a2 0f bd 0d d8 42 be d5 ad a8 be c1 c9 25 3e
       -0.035066955 -0.1902773 -0.32945123 0.16190244
000020 06 b6 74 be f6 03 22 bf 3f 05 d7 bd bb e9 2e 3d
       -0.23897561 -0.63287294 -0.104990475 0.04270337
000030 2b 42 0c 3f 68 a0 8d be 44 f7 37 bf 67 52 08 3d
       0.54788464 -0.27661443 -0.7186167 0.03328171
000040 2a 80 d9 be c4 c7 44 3e 49 f8 9e be 34 8a 06 bf
       -0.42480594 0.1921683 -0.31048802 -0.5255463
000050 19 ff c9 be aa 79 63 be 71 42 47 bf ed 4c 25 bf
       -0.39452437 -0.2221438 -0.77835757 -0.64570504
000060 a9 3f 0a bf f7 91 46 bd fa 2e 0a bf 03 b0 c1 be
       -0.5400339 -0.048479047 -0.5397793 -0.378296
000070 3a d8 db 3d 84 e4 ea 3e 0a 2e f7 3e af e3 b2 be
       0.10734601 0.4587747 0.48277313 -0.34939334

layer1.0.downsample.1.running_var f4 [32]
000000 a7 91 f1 3e 7b 68 e4 3e e2 d2 23 3f d7 95 ea 3e
       0.47181436 0.44610962 0.63993657 0.45817444
000010 f8 1b b0 3e 65 d2 94 3e 9a 3a e3 3e 60 50 c5 3e
       0.34396338 0.29066768 0.44380647 0.38537884
000020 93 d7 05 3f f9 fb 0d 3f cd 9a 80 3e 0a 1a c0 3e
       0.52282065 0.55462605 0.25118104 0.37519866
000030 3e b4 15 3f b8 57 81 3e 3c 55 83 3f 49 b0 8d 3e
       0.5847815 0.25262237 1.0260386 0.27673557
000040 02 36 c7 3e 96 55 6e 3e 00 a8 6a 3e 41 b1 15 3f
       0.38908392 0.23274836 0.2291565 0.58473593
000050 6e 89 a0 3e 76 75 e9 3e e9 3a 59 3f 12 62 67 3f
       0.3135485 0.45597428 0.84855515 0.9038402
000060 68 92 00 3f 86 14 04 3f 68 43 91 3e 17 b9 90 3e
       0.502234 0.51593816 0.2837174 0.28266212
000070 28 0a 6e 3e 8e 10 95 3e f9 a3 c7 3e 27 e0 a1 3e
       0.23246062 0.29114193 0.3899229 0.31616327

layer1.1.conv.weight f4 [32, 32, 3, 3]
000000 3a 2f 1f 3d 7a 32 6c bd d8 8f 84 bd e6 b0 9b 3d
       0.038863398 -0.057665326 -0.064727485 0.076021
000010 af c3 47 be 5d fd 24 be 28 9c ab bd 7d 79 0d be
       -0.19508241 -0.16112275 -0.08379394 -0.13815875
000020 57 8d 18 be 98 78 72 3c 39 44 de bd dc f4 bf bd
       -0.14897667 0.01479926 -0.10852856 -0.09372875
000030 1e 89 94 bc 1b 7c ca 3c 1d 56 01 3e 5e bd ca 3c
       -0.018131789 0.024717381 0.12630506 0.0247485
000040 6f 60 1d 3d 89 8f 1d 3e 95 67 02 3e 26 be 79 3c
       0.038422044 0.15386786 0.12734826 0.015243089
000050 44 89 d4 bd 85 72 85 bd a4 df c7 bd 95 00 36 be
       -0.10377744 -0.065159835 -0.09759453 -0.1777366
000060 5d 9e b3 bd 04 ed 86 bd bb 81 83 3d be 4b a7 bd
       -0.0877044 -0.06588176 0.064212285 -0.081687436
000070 57 44 ae 3d e6 ee 7b 3e b0 db 19 3e 60 92 38 bd
       0.085091285 0.24602851 0.1502521 -0.04506147
000080 9e 86 5c 3c 81 42 4e bb 9f 49 bd bb 4e 05 e4 3d
       0.01345983 -0.0031472745 -0.0057765986 0.11133824
000090 2a c2 10 3c 24 90 ce 3d b1 cf 01 3e 61 d2 eb 3d
       0.008835355 0.100860864 0.12676884 0.11514736
0000a0 35 82 8a 3d 18 76 cb 3d b0 9a 08 be da 5f f8 bc
       0.06763116 0.09934634 -0.13340259 -0.030319143
0000b0 58 4c 12 3e fd 24 cb bd 97 1e 0a 3d 7a 71 3d bd
       0.14286935 -0.09919164 0.03372058 -0.046250798
0000c0 a0 94 29 3e 89 8b cb 3d e2 c7 1f 3e ac b8 8e bc
       0.16560602 0.099387236 0.15603593 -0.017422043
0000d0 04 a4 3a 3d 13 4a 8c 3c 10 70 bd 3c f5 45 10 3d
       0.045566574 0.017125165 0.023124725 0.035222966
0000e0 e5 32 96 bc ef f1 47 3c 3f 86 a3 bd 9c 62 0b be
       -0.018334815 0.012203678 -0.0798459 -0.13611835
0000f0 87 7d b3 3d 4c 29 ee 3d ec c5 79 3c 9a f5 58 3d
       0.08764177 0.116289705 0.015244942 0.0529686
000100 33 79 84 bc e0 3e e6 3c b1 41 0e 3e 3e 16 f2 3b
       -0.016171074 0.028106153 0.13892247 0.0073879054
000110 dd e4 ab 3d 05 65 82 3b e1 4c 55 3c 05 ec fd 3d
       0.083932616 0.0039793276 0.013018818 0.12398533
000120 af 91 5c bc 4c 0c 0d 3e 0a 74 d4 3d af 7f 76 3c
       -0.013462468 0.13774222 0.10373695 0.015045091
000130 89 50 6f 3d 70 a6 51 bd 70 34 12 3e 9b 6e 80 bd
       0.058426414 -0.051184118 0.14277816 -0.06271096
000140 0f bc a3 bd 85 32 89 be 7e 80 b9 be 12 15 94 bd
       -0.07994854 -0.26796356 -0.36230844 -0.07230581
000150 b6 db 75 3d 35 a0 f9 39 2b da 06 bc b5 c8 6b 3e
       0.060023986 0.00047612344 -0.008230726 0.23025782
000160 fb 39 bf 3c d6 92 fc 3d 66 b1 55 bd b7 d1 5b be
       0.023343077 0.12332694 -0.052171133 -0.21466719
000170 f4 a0 17 be 65 90 d4 bc 2b ca 25 be bc 9e 50 bd
       -0.14807492 -0.025947759 -0.16190402 -0.05093263
000180 cb d8 15 3e 09 11 8e 3e fc 4a d2 3c c8 2e a0 be
       0.14633481 0.27747372 0.025670521 -0.3128569
000190 f2 1d 47 be d3 27 d0 3d a6 18 9b bd 5a 75 ce bd
       -0.19445017 0.10163846 -0.07573061 -0.10080977
0001a0 99 5b bd 3d 37 7f 87 bd 79 4f 8d be e3 d9 3e 3c
       0.092459865 -0.06616061 -0.27599695 0.011648628
0001b0 84 41 8f bd 15 58 25 bd 16 0f 38 3d f0 81 a8 bc
       -0.06994918 -0.040367205 0.044936262 -0.020569772
0001c0 4c 66 0e 3e 7f 12 57 3d 33 d3 da 3c d2 0d d3 bd
       0.1390621 0.052507874 0.026712036 -0.103053704
0001d0 d8 2d 23 3e 74 36 b2 3d 22 8d 70 3d 94 37 c9 3c
       0.15935457 0.08701792 0.058728345 0.024562635
0001e0 35 fd be bd 0e a0 e8 bd 95 4a 6b 3c 8d 20 6e 3d
       -0.09325639 -0.11358653 0.014361043 0.05813651
0001f0 d0 3a d1 3a f2 8e 94 3d 83 b7 f2 3c 07 23 93 bd
       0.0015962962 0.07253827 0.02962852 -0.07184415
000200 83 1a 91 3d 65 16 d6 3d 68 f5 43 bd 14 5c 2a 3e
       0.07085135 0.1045349 -0.04784146 0.16636688
000210 3a 01 d1 3c 84 f9 c7 bc af 0d 28 3d 72 54 4f bd
       0.02551328 -0.02441097 0.041028675 -0.050617643
000220 b1 f8 fc 3c 65 fb 36 3e 87 6d e0 3d a0 40 67 3d
       0.030880304 0.17869337 0.10958391 0.056458116
000230 a2 d0 5b 3d f6 21 08 3d 97 7a 22 be 2e d9 a7 3d
       0.053665765 0.033235513 -0.15867077 0.081957206
000240 87 ae f2 3c 7e 84 58 bd 26 2a 36 3d 7c e5 9b bd
       0.029624237 -0.05286073 0.04447379 -0.0761213
000250 40 fc 08 be f5 e3 1b bd f5 8d 63 3d 0e 2c 00 3d
       -0.13377476 -0.038059194 0.055555303 0.031292014
000260 2b 2b b9 3d 85 69 c3 3c 97 ab 53 bd 64 1a 47 3e
       0.09041437 0.023854027 -0.051677313 0.19443661
000270 63 52 6f bd c9 4c 80 bd 4f 34 6d 3d ff 4d dd 3d
       -0.05842818 -0.062646456 0.057911213 0.10805892
000280 26 b9 01 be be c3 35 be 7f 7d 16 3e 52 13 3b 3d
       -0.12668285 -0.17750451 0.1469631 0.045672722
000290 3f 98 4e bb c4 16 ea 3d c2 d0 66 3d 9b 1b f2 bd
       -0.0031523851 0.114301234 0.05635143 -0.118216716
0002a0 0e 13 58 bc 9b 59 f3 bc 6a 86 84 3d 8c d9 f8 bd
       -0.013188137 -0.029705813 0.0647095 -0.12150869
0002b0 b1 b6 bf be e4 e8 00 be 13 e4 2a be 8f 01 9d bd
       -0.3744407 -0.1258884 -0.16688566 -0.07666313
0002c0 23 9c 27 be f2 7e 1d 3e 02 5e 4c 3e 7d 75 4f bd
       -0.16368155 0.15380457 0.19957736 -0.050649155
0002d0 74 2f 01 bd 44 5e 8c be 86 87 d4 be b9 aa e7 3d
       -0.031539395 -0.2741567 -0.41509646 0.1131186
0002e0 95 0d 03 3d e5 a4 bc 3d 68 c0 81 3d 1c 20 59 3e
       0.031995375 0.09211139 0.06335527 0.21203655
0002f0 fa 31 8a 3e 38 37 a7 bc c8 18 9a bd e1 a2 97 3d
       0.26991254 -0.020412073 -0.07524258 0.074041136
000300 ec eb 0e bd 5e 25 30 be 10 58 a8 bc cf 9c 14 3e
       -0.03489296 -0.17201754 -0.020549804 0.14512943
000310 44 34 09 3d 7b d9 80 bc 2e 24 7f bd 23 14 e6 bc
       0.03349711 -0.015728703 -0.062290363 -0.028085774
000320 ca 64 66 3e 6a 20 87 bd 7d b1 b9 3d b2 69 1e 3e
       0.22499385 -0.06597979 0.09067056 0.15470007
000330 60 8f 15 3d 08 8a 54 be e4 e1 a0 bc 28 3e 9c 3d
       0.036513686 -0.2075578 -0.019638963 0.07629043
000340 28 d0 81 3c b7 07 3c 3d 2e 33 23 3e b8 73 9f bd
       0.015846327 0.045905795 0.15937492 -0.077857435
000350 51 73 e0 bc f1 4e da 3c ea 34 e5 bd 85 db 65 3c
       -0.027398737 0.02664897 -0.11191733 0.014029388
000360 9e 95 07 3c b7 6c 6e bc 67 59 8f bd 30 bf 64 be
       0.008275418 -0.014552287 -0.06999474 -0.22338557
000370 9b 95 32 bd 63 77 21 3d 1f 99 86 3d 86 b4 6a bd
       -0.043599706 0.039420497 0.06572174 -0.057301067
000380 f2 36 09 3d 16 03 e7 3b 3d 6c 9e bd 14 5e 8a 3c
       0.033499666 0.0070499284 -0.077354886 0.016890563
000390 6e a5 87 3d 02 08 95 bd 26 43 95 bd 5f 96 7b 3d
       0.0662335 -0.07276918 -0.07288198 0.061422702
0003a0 54 48 08 3c 67 ff 9e bd 78 89 b6 bd e9 44 54 be
       0.008318026 -0.07763558 -0.08912939 -0.20729412
0003b0 45 4f b1 3d 53 a8 8c bc a8 78 be 3d 02 13 b8 3d
       0.086576976 -0.017170107 0.09300357 0.089880005
0003c0 75 3c c5 3e 9f 2d 49 3e 45 97 68 3e 53 e3 3f 3e
       0.38522688 0.1964631 0.22713955 0.18739061
0003d0 2d d5 6a 3d 24 b5 2f 3d 85 40 da 3a 5d 56 ea bd
       0.057332207 0.04289736 0.0016651308 -0.11442254
0003e0 43 00 f2 bc 81 01 4f bd 8c e3 16 3c 57 27 cc bd
       -0.02954114 -0.050538544 0.009209525 -0.09968441
0003f0 7e 1f 9d bd d2 b0 6a be 16 b1 8d be 60 a2 7e bc
       -0.07672022 -0.22919014 -0.27674168 -0.015541643

layer1.1.bn.weight f4 [32]
000000 ee 57 a2 3f cd 71 ac 3f 51 5c 9a 3f 45 72 9e 3f
       1.2683084 1.3472229 1.2059423 1.2378622
000010 24 16 aa 3f 98 bc 97 3f db 35 c1 3f 6d c8 9c 3f
       1.3288007 1.1854429 1.509456 1.2248665
000020 e7 9a a4 3f 47 b5 b9 3f c8 72 a8 3f 3e 34 a2 3f
       1.2859772 1.4508446 1.3160028 1.2672193
000030 94 b0 b3 3f 5d ae 88 3f d0 b8 8f 3f d6 b6 ae 3f
       1.4038262 1.0678211 1.1228275 1.3649547
000040 a3 37 ad 3f ba 97 bd 3f 27 fb b7 3f 52 8f a1 3f
       1.3532604 1.4811928 1.4373521 1.2621863
000050 11 31 b4 3f fb 44 ad 3f 98 cd c3 3f 2c 79 cd 3f
       1.4077474 1.3536676 1.5297117 1.6052604
000060 ff c7 b9 3f f5 8d b6 3f 40 0e b6 3f cb 42 ad 3f
       1.4514159 1.4262072 1.4223099 1.3536009
000070 4f 42 93 3f 62 0d 8f 3f f3 50 9c 3f 2e 79 aa 3f
       1.1504611 1.1175959 1.2212204 1.3318231

layer1.1.bn.bias f4 [32]
000000 72 84 53 bd 9c e9 9f bd 2e c4 b5 bd 43 fb ed bd
       -0.05163998 -0.07808229 -0.08875309 -0.1162019
000010 1f eb 84 be 23 61 37 be f2 69 e2 bd dd d0 7a bd
       -0.25960633 -0.17908148 -0.11055364 -0.061234344
000020 a0 45 68 be 90 61 8a be 04 e1 b0 be 18 46 11 be
       -0.2268281 -0.2702756 -0.34546673 -0.14186895
000030 a7 3b e1 bd c5 2a 6c be 02 f4 8b be 8e c6 9d be
       -0.10997706 -0.2306319 -0.273346 -0.30815548
000040 80 fa fb bc 9d f1 58 be 6a a2 6f be 3f b1 e0 bd
       -0.030759096 -0.21185918 -0.234018 -0.10971307
000050 13 c0 ae 3c fe bd ab be e8 e7 51 be 7d b5 30 be
       0.021331822 -0.3354339 -0.20498621 -0.17256732
000060 c4 c6 8c be 32 3d 6d 3c 94 92 f1 3d b9 88 f9 bd
       -0.27495396 0.014479922 0.11795536 -0.12184281
000070 68 25 1e be c1 4b ab bd dd ef 8b be a7 b3 50 be
       -0.15443957 -0.08364058 -0.2733144 -0.20381032

layer1.1.bn.running_mean f4 [32]
000000 e5 07 b3 be e7 c3 d4 bf 56 ce 9e bf fc 4b 2c c0
       -0.3496696 -1.6622285 -1.2406719 -2.6921377
000010 39 97 31 bf b3 80 a2 bf b4 65 4f be ac c1 4a bf
       -0.6937137 -1.2695526 -0.2025364 -0.7920177
000020 3c c5 d5 bf 9f e4 45 b8 a9 34 dc bf f7 8b 2d bf
       -1.6700816 -4.718138e-05 -1.7203571 -0.67791694
000030 e4 b3 b7 bf 4c f6 27 c0 28 a6 b2 bf 8f 2a 4c be
       -1.4351773 -2.6244078 -1.3956957 -0.1993811
000040 5f 2e a8 bf b0 61 c7 3e f9 c1 d3 bf e9 c9 b4 bf
       -1.3139151 0.38941717 -1.6543571 -1.4124118
000050 63 c0 a8 c0 f1 1d 8c bf d4 56 18 c0 56 79 9b bf
       -5.2734847 -1.0946637 -2.3802996 -1.2146404
000060 e4 a3 48 c0 3d 38 0e bf 70 5d c8 be 0e c3 ca bf
       -3.135003 -0.5555456 -0.39133787 -1.5840776
000070 49 0e 09 c0 c5 95 9b bf 16 3b 08 c0 15 e8 60 be
       -2.141497 -1.2155081 -2.1286063 -0.21963532

layer1.1.bn.running_var f4 [32]
000000 92 ae 0b 40 8e aa 26 40 c1 76 44 40 b9 c8 76 40
       2.18253 2.6041598 3.0697482 3.8560011
000010 63 e6 d2 3f 89 2c 1b 40 22 03 56 40 98 33 0c 40
       1.6476558 2.4245932 3.3439412 2.190649
000020 ec e1 f6 3f 10 03 2d 40 0e 04 21 40 ca 53 61 40
       1.9287696 2.703312 2.5158725 3.520739
000030 3b 07 45 40 26 0e 23 40 91 b8 1b 40 bc 32 f3 3f
       3.0785663 2.5477386 2.43314 1.8999858
000040 51 cf 06 40 6e c7 33 40 a5 94 1d 40 6a b6 25 40
       2.1064036 2.8090472 2.4621975 2.5892587
000050 0b b1 6d 40 92 82 04 40 b9 6c 36 40 0a 4e 3c 40
       3.7139308 2.0704694 2.850386 2.9422631
000060 ed ab 5c 40 da 5c 24 40 be 97 19 40 d1 5d 43 40
       3.4479935 2.5681672 2.3998866 3.052601
000070 4d e1 1b 40 54 5b 10 40 dc 24 2d 40 34 ec 33 40
       2.4356263 2.2555742 2.7053747 2.8112917

layer2.0.conv.weight f4 [64, 32, 3, 3]
000000 2a 93 14 be 24 1c dd 3d 0d 28 16 3d 2c 0b 1f bd
       -0.14509264 0.10796383 0.03665929 -0.038829014
000010 e1 f2 d2 3d 1a f0 8e bd 15 45 07 be 02 77 7e bd
       0.10300232 -0.069793895 -0.13209946 -0.062125213
000020 b8 05 aa bd 3e f4 b9 3d 34 f1 31 bd ec 7c bb bd
       -0.08301872 0.090797886 -0.04344292 -0.09154686
000030 57 29 29 3e d2 fa 02 3d 1e 0a 04 3e 7a fc 17 be
       0.16519676 0.031977482 0.12894484 -0.14842406
000040 b5 cd 50 3d f1 7f 83 be 7a 06 15 be d8 5e 1a 3e
       0.050977428 -0.2568355 -0.14553252 0.15075243
000050 37 d7 1f 3e b9 78 46 3d 6a f7 08 be 64 d1 26 3e
       0.15609442 0.048454974 -0.13375631 0.16290814
000060 41 ea 15 be 8a a9 89 bc bd ab 3b 3e 0c fb 56 bc
       -0.14640142 -0.016804475 0.18327232 -0.013121378
000070 fa b0 73 3e 3c f1 ce 3c e7 76 a1 3c f9 89 0d bd
       0.2379798 0.025261514 0.019710017 -0.03455541
000080 53 df 88 3d 35 60 53 3d 31 77 16 bc 65 10 13 bd
       0.06683221 0.051605422 -0.009183691 -0.035904307
000090 2c 36 52 3e 1c d0 d5 3d 12 4f 5e 3e fa 47 a9 3e
       0.20528477 0.10440084 0.2170985 0.33062726
0000a0 29 04 a4 bd 64 cd 6b bd f0 f7 36 3e bf ae c9 3c
       -0.08008606 -0.057568923 0.17868018 0.024619458
0000b0 cc c8 9c 3d 30 e4 39 be 77 0c 13 3e 3d 5f 93 bd
       0.076554865 -0.18153453 0.14360224 -0.071959
0000c0 42 aa 85 3b 86 65 92 3c 95 ba fb 3d 0b 05 65 3d
       0.004079134 0.017870676 0.12291447 0.055913012
0000d0 2a 04 22 3e 2f 06 a9 3d 68 85 af bb 7c 57 a0 3a
       0.15821901 0.082531326 -0.0053564794 0.0012233104
0000e0 69 5f 3b 3e 85 13 84 ba ef 7f a9 bd 4e c3 0b 3d
       0.18298115 -0.0010076618 -0.082763545 0.034121804
0000f0 4e 8b 84 be 0b 52 43 3c 77 9c 36 3e 90 a8 a3 3e
       -0.2588753 0.011921416 0.17833124 0.3196454
000100 d6 0b bb bd 77 64 5c be d2 86 15 3d fb 82 27 bd
       -0.09133117 -0.215227 0.036505528 -0.040896397
000110 1f a8 94 bc 77 14 ac bd 6c 4d bd 3b 55 6f 8f bd
       -0.018146573 -0.08402341 0.0057770517 -0.07003657
000120 88 13 15 3e 92 78 3c bd 50 41 4f be 9c e3 ec bd
       0.14558232 -0.046013422 -0.20239758 -0.115668505
000130 97 af 94 3d 23 35 30 be 87 8d dd 3d 13 a0 16 3e
       0.072600536 -0.1720777 0.1081801 0.14709501
000140 76 94 53 bd c8 d2 d6 3c 17 ea 34 3e 76 0a 9b 3d
       -0.051655255 0.026223555 0.17667423 0.07570355
000150 33 f9 58 bd 81 a1 28 bc af c2 00 3d 1e 9d ec bc
       -0.05297203 -0.010292412 0.031435665 -0.028883513
000160 91 83 85 bd 33 92 92 3d c3 0d c8 bd e9 72 1e bd
       -0.06519235 0.071567915 -0.0976825 -0.038683806
000170 b3 b9 da ba 69 e0 81 3d 0d 87 b3 3d b6 51 b4 bd
       -0.0016687423 0.06341631 0.08765993 -0.088046476
000180 22 6b d5 bc 3a 18 b5 bd c5 89 dd bb 6f c4 37 3d
       -0.026052061 -0.088425115 -0.006760808 0.044865068
000190 f1 c2 8f 3c 3c d9 2f be cb 56 7f bd 4d 50 79 3d
       0.01754901 -0.17172712 -0.06233863 0.060867596
0001a0 cd 9e 08 3b 5e e2 81 bd 8f 34 f1 3d 36 5e ef 3c
       0.0020846606 -0.06342004 0.11777603 0.029219728
0001b0 10 cf 5d 3d 2a 85 c3 3d a8 bb cc bc 72 30 d5 3d
       0.05415255 0.095468834 -0.024991825 0.10409631
0001c0 cd 0b 85 3d b0 94 31 3d 0b 46 b8 3d 97 49 a2 3d
       0.064963914 0.04335469 0.08997735 0.079241924
0001d0 58 5d 45 3e 5a 62 59 bc 84 31 ec 3d b2 81 08 be
       0.19273889 -0.013268078 0.11532882 -0.13330725
0001e0 e0 c3 8a 3d 68 0f 4f 3e 0c b1 83 bd b4 e0 8e bc
       0.067756414 0.20220721 -0.064302534 -0.017441131
0001f0 d8 ad f1 bc 7f b8 51 bc 28 5e 2a be 91 45 9d bc
       -0.02950184 -0.012800335 -0.1663748 -0.01919821
000200 97 e2 9b bd 09 76 17 bd d3 7c e1 bc ca dc 4c 3d
       -0.07611578 -0.0369778 -0.027525341 0.05001525
000210 95 05 a4 bd cc 34 28 3d 32 e1 91 3d 7b 7b b1 bd
       -0.08008877 0.041065976 0.07123031 -0.0866613
000220 ac ed 8c bd 6d fb 0e 3c 6c c8 8d 3b ef f7 46 bd
       -0.0688127 0.008726937 0.0043268707 -0.04857629
000230 f5 44 11 be 1e a1 12 be e0 fc 8b 3d 22 7d 42 3e
       -0.14186461 -0.14319274 0.068353415 0.18993047
000240 db a2 0d be ca 69 91 be 41 84 eb 3d ef f5 3b be
       -0.13831656 -0.28401023 0.11499835 -0.18355535
000250 1e 25 8f bd 9a 3e 8a bd 76 51 ad bc bf 3d 2a 3d
       -0.069895014 -0.067502216 -0.021157008 0.041562792
000260 b0 f3 2b be 98 52 5b 3d c0 00 2e 3e 5f 1c bc 3d
       -0.16792178 0.053545564 0.16992474 0.09185099
000270 ae 67 64 3e ee 58 0f bd 3b c8 2d bd 35 1a 9a 3e
       0.22305176 -0.03499692 -0.042427283 0.3009812
000280 2f 2b e1 3c 7a f0 52 be 7b 75 64 3e 85 e5 3c be
       0.027486412 -0.20599547 0.2231044 -0.1844693
000290 4a 68 4a be 05 4b c5 3d 27 a6 15 3e b4 1b 2e bd
       -0.19766346 0.096334495 0.14614163 -0.04250689
0002a0 05 47 3c be 20 d0 14 be 98 0c 27 be f2 51 0e be
       -0.18386467 -0.14532518 -0.16313398 -0.13898447
0002b0 5f 89 f3 3d 96 fd 90 3d 80 60 cc bd 9b 6c 93 3c
       0.11891436 0.07079618 -0.099793434 0.017996123
0002c0 e8 f3 43 3d 15 c5 aa bd f4 c0 8c 3d 8d 11 28 be
       0.04784003 -0.08338372 0.068727404 -0.16412945
0002d0 c8 29 7b be f2 29 b4 3d 3b 33 47 3e f6 f7 98 be
       -0.24527657 0.08797063 0.19453137 -0.2987668
0002e0 c8 9c 35 bd d0 09 19 3e 32 e3 c7 be 7e c6 f8 3c
       -0.04433897 0.1494515 -0.39040524 0.030368086
0002f0 53 ff 2c 3d 18 4a 1a 3e 00 9e c3 3c 17 d6 3f bd
       0.042235684 0.15067327 0.023879051 -0.04683503
000300 2c 72 57 3e 6e 3b fa bc 01 11 70 be e9 aa 2f 3e
       0.21039647 -0.030545916 -0.23443986 0.17155041
000310 b1 ad 30 bd 56 28 5b bd ff e8 81 bd 7e ad ca 3d
       -0.043134395 -0.053505264 -0.063432686 0.09896372
000320 9f e5 c5 be b9 5c c2 3d fa 69 e5 3d ba 83 7c 3d
       -0.3865175 0.09490342 0.11201854 0.06164906
000330 67 53 22 3e fd 3e fd 3d ec 63 57 3e 22 d7 77 3c
       0.15852128 0.1236553 0.21034211 0.015126975
000340 0f 29 18 3c aa 93 e2 3d fb 50 11 bd 17 a0 2b 3a
       0.009287133 0.11063321 -0.03547762 0.00065469876
000350 74 16 48 bc fb ad 4c bd 63 de 88 3d ff f9 8e 3e
       -0.0122123845 -0.04997061 0.06683042 0.27925107
000360 f8 a6 0d be 44 d4 94 bd 8b 16 15 be 02 68 94 be
       -0.13833225 -0.07267049 -0.1455938 -0.28985602
000370 96 d2 87 bc ff 2b 04 3e e3 77 95 bd a7 70 3e bd
       -0.016579907 0.12907408 -0.07298257 -0.046494152
000380 68 ee 12 3e a2 87 76 bd 1d 12 70 3e 5a 48 ea bd
       0.14348757 -0.060187943 0.2344441 -0.11439581
000390 75 b2 ea 3c a2 33 35 bd 2a a2 23 be 01 27 2b 3d
       0.028649548 -0.044238694 -0.1597983 0.041785244
0003a0 ef d9 ff 3c 70 48 02 be c1 46 06 3d 53 fe 07 bd
       0.031231849 -0.12722945 0.03278232 -0.033201527
0003b0 f4 4a aa bb 56 ac c0 3d 7a 1f 98 3d 7f f6 a5 bd
       -0.0051969234 0.094078705 0.07427879 -0.08103656
0003c0 5f d0 0e 3e 4b 6e c1 bd da 03 3a be de 7d ef bd
       0.13946675 -0.09444865 -0.18165532 -0.11693929
0003d0 bf cb 8d 3d 24 d1 68 be 96 62 26 3e a2 85 d0 bd
       0.06923627 -0.22736031 0.16248545 -0.101817384
0003e0 93 6f dd bd f4 1f 1e 3e 6e a8 bd 3d 61 ac 44 bd
       -0.10812297 0.15441877 0.09260641 -0.048015956
0003f0 c4 71 4c bd a6 42 c9 bd a1 1f 81 3e c5 20 ab 3d
       -0.049913183 -0.09827165 0.25219443 0.0835586

layer2.0.bn.weight f4 [64]
000000 cd f8 95 3f f3 71 99 3f d8 ce a8 3f 48 26 8f 3f
       1.1716553 1.19879 1.3188124 1.1183558
000010 26 53 9d 3f 07 4d 99 3f d6 3a 93 3f 7a b3 93 3f
       1.2291 1.1976632 1.150233 1.1539147
000020 34 da 88 3f 00 6d 97 3f 4e 51 9a 3f 48 db 87 3f
       1.069159 1.1830139 1.2056062 1.0613794
000030 d1 78 89 3f ce 72 91 3f 1c f9 91 3f 6a 26 9a 3f
       1.0739995 1.1363161 1.1404147 1.2042973
000040 7d 6e 96 3f 0a e8 9a 3f 81 07 91 3f c2 e0 98 3f
       1.1752468 1.2102063 1.1330415 1.1943591
000050 1d 22 8a 3f d0 36 88 3f 8b ce 9e 3f e2 1f 97 3f
       1.079166 1.0641727 1.2406782 1.1806605
000060 f2 56 84 3f c5 38 90 3f 93 bc 82 3f 4e 0a 86 3f
       1.0339034 1.1267325 1.0213798 1.0471895
000070 20 4c 7c 3f 9b 46 93 3f e1 9d 8c 3f 13 b1 8d 3f
       0.9855366 1.1505922 1.0985681 1.1069664
000080 8e bd 91 3f bf e1 91 3f bd 54 91 3f f7 8e 8f 3f
       1.1385972 1.1397017 1.1353985 1.1215504
000090 db 31 90 3f 37 a4 95 3f ab 09 96 3f 44 d0 8f 3f
       1.1265215 1.1690739 1.17217 1.1235433
0000a0 e1 5e 97 3f 24 4d 7c 3f d3 0a 95 3f 33 96 9d 3f
       1.182583 0.9855521 1.1643928 1.2311462
0000b0 76 62 91 3f 7f b3 90 3f fd de 8e 3f 63 64 9d 3f
       1.1358173 1.1304778 1.1161801 1.229626
0000c0 fe 9a 97 3f e6 d6 8a 3f 98 bc 91 3f 92 95 97 3f
       1.1844175 1.0846832 1.1385679 1.184252
0000d0 ec d4 89 3f 3b 3e 94 3f 15 07 90 3f 08 50 8e 3f
       1.0768104 1.1581491 1.1252161 1.1118174
0000e0 64 41 94 3f cc 57 89 3f cc fa 90 3f bc 9b 8c 3f
       1.1582456 1.0729918 1.1326537 1.0985026
0000f0 51 12 8e 3f a3 81 89 3f 3d a4 96 3f 79 de 90 3f
       1.109934 1.0742687 1.1768872 1.1317893
